{"class_name": "Model", "config": {"name": "model_1", "layers": [{"name": "input_1", "class_name": "InputLayer", "config": {"batch_input_shape": [null, 448, 448, 3], "dtype": "float32", "sparse": false, "name": "input_1"}, "inbound_nodes": []}, {"name": "bn_data", "class_name": "BatchNormalization", "config": {"name": "bn_data", "trainable": true, "dtype": "float32", "axis": 3, "momentum": 0.99, "epsilon": 2e-05, "center": true, "scale": false, "beta_initializer": {"class_name": "Zeros", "config": {}}, "gamma_initializer": {"class_name": "Ones", "config": {}}, "moving_mean_initializer": {"class_name": "Zeros", "config": {}}, "moving_variance_initializer": {"class_name": "Ones", "config": {}}, "beta_regularizer": null, "gamma_regularizer": null, "beta_constraint": null, "gamma_constraint": null}, "inbound_nodes": [[["input_1", 0, 0, {}]]]}, {"name": "zero_padding2d_1", "class_name": "ZeroPadding2D", "config": {"name": "zero_padding2d_1", "trainable": true, "dtype": "float32", "padding": [[3, 3], [3, 3]], "data_format": "channels_last"}, "inbound_nodes": [[["bn_data", 0, 0, {}]]]}, {"name": "conv0", "class_name": "Conv2D", "config": {"name": "conv0", "trainable": true, "dtype": "float32", "filters": 64, "kernel_size": [7, 7], "strides": [2, 2], "padding": "valid", "data_format": "channels_last", "dilation_rate": [1, 1], "activation": "linear", "use_bias": false, "kernel_initializer": {"class_name": "VarianceScaling", "config": {"scale": 2.0, "mode": "fan_in", "distribution": "uniform", "seed": null}}, "bias_initializer": {"class_name": "Zeros", "config": {}}, "kernel_regularizer": null, "bias_regularizer": null, "activity_regularizer": null, "kernel_constraint": null, "bias_constraint": null}, "inbound_nodes": [[["zero_padding2d_1", 0, 0, {}]]]}, {"name": "bn0", "class_name": "BatchNormalization", "config": {"name": "bn0", "trainable": true, "dtype": "float32", "axis": 3, "momentum": 0.99, "epsilon": 2e-05, "center": true, "scale": true, "beta_initializer": {"class_name": "Zeros", "config": {}}, "gamma_initializer": {"class_name": "Ones", "config": {}}, "moving_mean_initializer": {"class_name": "Zeros", "config": {}}, "moving_variance_initializer": {"class_name": "Ones", "config": {}}, "beta_regularizer": null, "gamma_regularizer": null, "beta_constraint": null, "gamma_constraint": null}, "inbound_nodes": [[["conv0", 0, 0, {}]]]}, {"name": "relu0", "class_name": "Activation", "config": {"name": "relu0", "trainable": true, "dtype": "float32", "activation": "relu"}, "inbound_nodes": [[["bn0", 0, 0, {}]]]}, {"name": "zero_padding2d_2", "class_name": "ZeroPadding2D", "config": {"name": "zero_padding2d_2", "trainable": true, "dtype": "float32", "padding": [[1, 1], [1, 1]], "data_format": "channels_last"}, "inbound_nodes": [[["relu0", 0, 0, {}]]]}, {"name": "pooling0", "class_name": "MaxPooling2D", "config": {"name": "pooling0", "trainable": true, "dtype": "float32", "pool_size": [3, 3], "padding": "valid", "strides": [2, 2], "data_format": "channels_last"}, "inbound_nodes": [[["zero_padding2d_2", 0, 0, {}]]]}, {"name": "stage1_unit1_bn1", "class_name": "BatchNormalization", "config": {"name": "stage1_unit1_bn1", "trainable": true, "dtype": "float32", "axis": 3, "momentum": 0.99, "epsilon": 2e-05, "center": true, "scale": true, "beta_initializer": {"class_name": "Zeros", "config": {}}, "gamma_initializer": {"class_name": "Ones", "config": {}}, "moving_mean_initializer": {"class_name": "Zeros", "config": {}}, "moving_variance_initializer": {"class_name": "Ones", "config": {}}, "beta_regularizer": null, "gamma_regularizer": null, "beta_constraint": null, "gamma_constraint": null}, "inbound_nodes": [[["pooling0", 0, 0, {}]]]}, {"name": "stage1_unit1_relu1", "class_name": "Activation", "config": {"name": "stage1_unit1_relu1", "trainable": true, "dtype": "float32", "activation": "relu"}, "inbound_nodes": [[["stage1_unit1_bn1", 0, 0, {}]]]}, {"name": "zero_padding2d_3", "class_name": "ZeroPadding2D", "config": {"name": "zero_padding2d_3", "trainable": true, "dtype": "float32", "padding": [[1, 1], [1, 1]], "data_format": "channels_last"}, "inbound_nodes": [[["stage1_unit1_relu1", 0, 0, {}]]]}, {"name": "stage1_unit1_conv1", "class_name": "Conv2D", "config": {"name": "stage1_unit1_conv1", "trainable": true, "dtype": "float32", "filters": 64, "kernel_size": [3, 3], "strides": [1, 1], "padding": "valid", "data_format": "channels_last", "dilation_rate": [1, 1], "activation": "linear", "use_bias": false, "kernel_initializer": {"class_name": "VarianceScaling", "config": {"scale": 2.0, "mode": "fan_in", "distribution": "uniform", "seed": null}}, "bias_initializer": {"class_name": "Zeros", "config": {}}, "kernel_regularizer": null, "bias_regularizer": null, "activity_regularizer": null, "kernel_constraint": null, "bias_constraint": null}, "inbound_nodes": [[["zero_padding2d_3", 0, 0, {}]]]}, {"name": "stage1_unit1_bn2", "class_name": "BatchNormalization", "config": {"name": "stage1_unit1_bn2", "trainable": true, "dtype": "float32", "axis": 3, "momentum": 0.99, "epsilon": 2e-05, "center": true, "scale": true, "beta_initializer": {"class_name": "Zeros", "config": {}}, "gamma_initializer": {"class_name": "Ones", "config": {}}, "moving_mean_initializer": {"class_name": "Zeros", "config": {}}, "moving_variance_initializer": {"class_name": "Ones", "config": {}}, "beta_regularizer": null, "gamma_regularizer": null, "beta_constraint": null, "gamma_constraint": null}, "inbound_nodes": [[["stage1_unit1_conv1", 0, 0, {}]]]}, {"name": "stage1_unit1_relu2", "class_name": "Activation", "config": {"name": "stage1_unit1_relu2", "trainable": true, "dtype": "float32", "activation": "relu"}, "inbound_nodes": [[["stage1_unit1_bn2", 0, 0, {}]]]}, {"name": "zero_padding2d_4", "class_name": "ZeroPadding2D", "config": {"name": "zero_padding2d_4", "trainable": true, "dtype": "float32", "padding": [[1, 1], [1, 1]], "data_format": "channels_last"}, "inbound_nodes": [[["stage1_unit1_relu2", 0, 0, {}]]]}, {"name": "stage1_unit1_conv2", "class_name": "Conv2D", "config": {"name": "stage1_unit1_conv2", "trainable": true, "dtype": "float32", "filters": 64, "kernel_size": [3, 3], "strides": [1, 1], "padding": "valid", "data_format": "channels_last", "dilation_rate": [1, 1], "activation": "linear", "use_bias": false, "kernel_initializer": {"class_name": "VarianceScaling", "config": {"scale": 2.0, "mode": "fan_in", "distribution": "uniform", "seed": null}}, "bias_initializer": {"class_name": "Zeros", "config": {}}, "kernel_regularizer": null, "bias_regularizer": null, "activity_regularizer": null, "kernel_constraint": null, "bias_constraint": null}, "inbound_nodes": [[["zero_padding2d_4", 0, 0, {}]]]}, {"name": "global_average_pooling2d_1", "class_name": "GlobalAveragePooling2D", "config": {"name": "global_average_pooling2d_1", "trainable": true, "dtype": "float32", "data_format": "channels_last"}, "inbound_nodes": [[["stage1_unit1_conv2", 0, 0, {}]]]}, {"name": "lambda_1", "class_name": "Lambda", "config": {"name": "lambda_1", "trainable": true, "dtype": "float32", "function": ["4wIAAAAAAAAAAgAAAAYAAABDAAAAc1IAAAB8AWQBawJyIHwAZABkAIUCZABkAGQAZACFAmYEGQBT\nAHwBZAJrAnJAfABkAGQAhQJkAGQAhQJkAGQAZgQZAFMAdABkA6ABfAGhAYMBggFkAFMAKQRO6QMA\nAADpAQAAAHonU2xpY2UgYXhpcyBzaG91bGQgYmUgaW4gKDEsIDMpLCBnb3Qge30uKQLaClZhbHVl\nRXJyb3LaBmZvcm1hdCkC2gF42g1jaGFubmVsc19heGlzqQByBwAAAPppL2hvbWUvcm9mYWlkYS9w\neXRob24tZW52cy9lbnYyL2xpYi9weXRob24zLjcvc2l0ZS1wYWNrYWdlcy9jbGFzc2lmaWNhdGlv\nbl9tb2RlbHMvbW9kZWxzL19jb21tb25fYmxvY2tzLnB52gtleHBhbmRfZGltc08AAABzCgAAAAAB\nCAEYAQgBGAI=\n", null, null], "function_type": "lambda", "output_shape": null, "output_shape_type": "raw", "arguments": {"channels_axis": 3}}, "inbound_nodes": [[["global_average_pooling2d_1", 0, 0, {}]]]}, {"name": "conv2d_1", "class_name": "Conv2D", "config": {"name": "conv2d_1", "trainable": true, "dtype": "float32", "filters": 4, "kernel_size": [1, 1], "strides": [1, 1], "padding": "valid", "data_format": "channels_last", "dilation_rate": [1, 1], "activation": "linear", "use_bias": true, "kernel_initializer": {"class_name": "VarianceScaling", "config": {"scale": 2.0, "mode": "fan_in", "distribution": "uniform", "seed": null}}, "bias_initializer": {"class_name": "Zeros", "config": {}}, "kernel_regularizer": null, "bias_regularizer": null, "activity_regularizer": null, "kernel_constraint": null, "bias_constraint": null}, "inbound_nodes": [[["lambda_1", 0, 0, {}]]]}, {"name": "activation_1", "class_name": "Activation", "config": {"name": "activation_1", "trainable": true, "dtype": "float32", "activation": "relu"}, "inbound_nodes": [[["conv2d_1", 0, 0, {}]]]}, {"name": "conv2d_2", "class_name": "Conv2D", "config": {"name": "conv2d_2", "trainable": true, "dtype": "float32", "filters": 64, "kernel_size": [1, 1], "strides": [1, 1], "padding": "valid", "data_format": "channels_last", "dilation_rate": [1, 1], "activation": "linear", "use_bias": true, "kernel_initializer": {"class_name": "VarianceScaling", "config": {"scale": 2.0, "mode": "fan_in", "distribution": "uniform", "seed": null}}, "bias_initializer": {"class_name": "Zeros", "config": {}}, "kernel_regularizer": null, "bias_regularizer": null, "activity_regularizer": null, "kernel_constraint": null, "bias_constraint": null}, "inbound_nodes": [[["activation_1", 0, 0, {}]]]}, {"name": "activation_2", "class_name": "Activation", "config": {"name": "activation_2", "trainable": true, "dtype": "float32", "activation": "sigmoid"}, "inbound_nodes": [[["conv2d_2", 0, 0, {}]]]}, {"name": "multiply_1", "class_name": "Multiply", "config": {"name": "multiply_1", "trainable": true, "dtype": "float32"}, "inbound_nodes": [[["stage1_unit1_conv2", 0, 0, {}], ["activation_2", 0, 0, {}]]]}, {"name": "stage1_unit1_sc", "class_name": "Conv2D", "config": {"name": "stage1_unit1_sc", "trainable": true, "dtype": "float32", "filters": 64, "kernel_size": [1, 1], "strides": [1, 1], "padding": "valid", "data_format": "channels_last", "dilation_rate": [1, 1], "activation": "linear", "use_bias": false, "kernel_initializer": {"class_name": "VarianceScaling", "config": {"scale": 2.0, "mode": "fan_in", "distribution": "uniform", "seed": null}}, "bias_initializer": {"class_name": "Zeros", "config": {}}, "kernel_regularizer": null, "bias_regularizer": null, "activity_regularizer": null, "kernel_constraint": null, "bias_constraint": null}, "inbound_nodes": [[["stage1_unit1_relu1", 0, 0, {}]]]}, {"name": "add_1", "class_name": "Add", "config": {"name": "add_1", "trainable": true, "dtype": "float32"}, "inbound_nodes": [[["multiply_1", 0, 0, {}], ["stage1_unit1_sc", 0, 0, {}]]]}, {"name": "stage1_unit2_bn1", "class_name": "BatchNormalization", "config": {"name": "stage1_unit2_bn1", "trainable": true, "dtype": "float32", "axis": 3, "momentum": 0.99, "epsilon": 2e-05, "center": true, "scale": true, "beta_initializer": {"class_name": "Zeros", "config": {}}, "gamma_initializer": {"class_name": "Ones", "config": {}}, "moving_mean_initializer": {"class_name": "Zeros", "config": {}}, "moving_variance_initializer": {"class_name": "Ones", "config": {}}, "beta_regularizer": null, "gamma_regularizer": null, "beta_constraint": null, "gamma_constraint": null}, "inbound_nodes": [[["add_1", 0, 0, {}]]]}, {"name": "stage1_unit2_relu1", "class_name": "Activation", "config": {"name": "stage1_unit2_relu1", "trainable": true, "dtype": "float32", "activation": "relu"}, "inbound_nodes": [[["stage1_unit2_bn1", 0, 0, {}]]]}, {"name": "zero_padding2d_5", "class_name": "ZeroPadding2D", "config": {"name": "zero_padding2d_5", "trainable": true, "dtype": "float32", "padding": [[1, 1], [1, 1]], "data_format": "channels_last"}, "inbound_nodes": [[["stage1_unit2_relu1", 0, 0, {}]]]}, {"name": "stage1_unit2_conv1", "class_name": "Conv2D", "config": {"name": "stage1_unit2_conv1", "trainable": true, "dtype": "float32", "filters": 64, "kernel_size": [3, 3], "strides": [1, 1], "padding": "valid", "data_format": "channels_last", "dilation_rate": [1, 1], "activation": "linear", "use_bias": false, "kernel_initializer": {"class_name": "VarianceScaling", "config": {"scale": 2.0, "mode": "fan_in", "distribution": "uniform", "seed": null}}, "bias_initializer": {"class_name": "Zeros", "config": {}}, "kernel_regularizer": null, "bias_regularizer": null, "activity_regularizer": null, "kernel_constraint": null, "bias_constraint": null}, "inbound_nodes": [[["zero_padding2d_5", 0, 0, {}]]]}, {"name": "stage1_unit2_bn2", "class_name": "BatchNormalization", "config": {"name": "stage1_unit2_bn2", "trainable": true, "dtype": "float32", "axis": 3, "momentum": 0.99, "epsilon": 2e-05, "center": true, "scale": true, "beta_initializer": {"class_name": "Zeros", "config": {}}, "gamma_initializer": {"class_name": "Ones", "config": {}}, "moving_mean_initializer": {"class_name": "Zeros", "config": {}}, "moving_variance_initializer": {"class_name": "Ones", "config": {}}, "beta_regularizer": null, "gamma_regularizer": null, "beta_constraint": null, "gamma_constraint": null}, "inbound_nodes": [[["stage1_unit2_conv1", 0, 0, {}]]]}, {"name": "stage1_unit2_relu2", "class_name": "Activation", "config": {"name": "stage1_unit2_relu2", "trainable": true, "dtype": "float32", "activation": "relu"}, "inbound_nodes": [[["stage1_unit2_bn2", 0, 0, {}]]]}, {"name": "zero_padding2d_6", "class_name": "ZeroPadding2D", "config": {"name": "zero_padding2d_6", "trainable": true, "dtype": "float32", "padding": [[1, 1], [1, 1]], "data_format": "channels_last"}, "inbound_nodes": [[["stage1_unit2_relu2", 0, 0, {}]]]}, {"name": "stage1_unit2_conv2", "class_name": "Conv2D", "config": {"name": "stage1_unit2_conv2", "trainable": true, "dtype": "float32", "filters": 64, "kernel_size": [3, 3], "strides": [1, 1], "padding": "valid", "data_format": "channels_last", "dilation_rate": [1, 1], "activation": "linear", "use_bias": false, "kernel_initializer": {"class_name": "VarianceScaling", "config": {"scale": 2.0, "mode": "fan_in", "distribution": "uniform", "seed": null}}, "bias_initializer": {"class_name": "Zeros", "config": {}}, "kernel_regularizer": null, "bias_regularizer": null, "activity_regularizer": null, "kernel_constraint": null, "bias_constraint": null}, "inbound_nodes": [[["zero_padding2d_6", 0, 0, {}]]]}, {"name": "global_average_pooling2d_2", "class_name": "GlobalAveragePooling2D", "config": {"name": "global_average_pooling2d_2", "trainable": true, "dtype": "float32", "data_format": "channels_last"}, "inbound_nodes": [[["stage1_unit2_conv2", 0, 0, {}]]]}, {"name": "lambda_2", "class_name": "Lambda", "config": {"name": "lambda_2", "trainable": true, "dtype": "float32", "function": ["4wIAAAAAAAAAAgAAAAYAAABDAAAAc1IAAAB8AWQBawJyIHwAZABkAIUCZABkAGQAZACFAmYEGQBT\nAHwBZAJrAnJAfABkAGQAhQJkAGQAhQJkAGQAZgQZAFMAdABkA6ABfAGhAYMBggFkAFMAKQRO6QMA\nAADpAQAAAHonU2xpY2UgYXhpcyBzaG91bGQgYmUgaW4gKDEsIDMpLCBnb3Qge30uKQLaClZhbHVl\nRXJyb3LaBmZvcm1hdCkC2gF42g1jaGFubmVsc19heGlzqQByBwAAAPppL2hvbWUvcm9mYWlkYS9w\neXRob24tZW52cy9lbnYyL2xpYi9weXRob24zLjcvc2l0ZS1wYWNrYWdlcy9jbGFzc2lmaWNhdGlv\nbl9tb2RlbHMvbW9kZWxzL19jb21tb25fYmxvY2tzLnB52gtleHBhbmRfZGltc08AAABzCgAAAAAB\nCAEYAQgBGAI=\n", null, null], "function_type": "lambda", "output_shape": null, "output_shape_type": "raw", "arguments": {"channels_axis": 3}}, "inbound_nodes": [[["global_average_pooling2d_2", 0, 0, {}]]]}, {"name": "conv2d_3", "class_name": "Conv2D", "config": {"name": "conv2d_3", "trainable": true, "dtype": "float32", "filters": 4, "kernel_size": [1, 1], "strides": [1, 1], "padding": "valid", "data_format": "channels_last", "dilation_rate": [1, 1], "activation": "linear", "use_bias": true, "kernel_initializer": {"class_name": "VarianceScaling", "config": {"scale": 2.0, "mode": "fan_in", "distribution": "uniform", "seed": null}}, "bias_initializer": {"class_name": "Zeros", "config": {}}, "kernel_regularizer": null, "bias_regularizer": null, "activity_regularizer": null, "kernel_constraint": null, "bias_constraint": null}, "inbound_nodes": [[["lambda_2", 0, 0, {}]]]}, {"name": "activation_3", "class_name": "Activation", "config": {"name": "activation_3", "trainable": true, "dtype": "float32", "activation": "relu"}, "inbound_nodes": [[["conv2d_3", 0, 0, {}]]]}, {"name": "conv2d_4", "class_name": "Conv2D", "config": {"name": "conv2d_4", "trainable": true, "dtype": "float32", "filters": 64, "kernel_size": [1, 1], "strides": [1, 1], "padding": "valid", "data_format": "channels_last", "dilation_rate": [1, 1], "activation": "linear", "use_bias": true, "kernel_initializer": {"class_name": "VarianceScaling", "config": {"scale": 2.0, "mode": "fan_in", "distribution": "uniform", "seed": null}}, "bias_initializer": {"class_name": "Zeros", "config": {}}, "kernel_regularizer": null, "bias_regularizer": null, "activity_regularizer": null, "kernel_constraint": null, "bias_constraint": null}, "inbound_nodes": [[["activation_3", 0, 0, {}]]]}, {"name": "activation_4", "class_name": "Activation", "config": {"name": "activation_4", "trainable": true, "dtype": "float32", "activation": "sigmoid"}, "inbound_nodes": [[["conv2d_4", 0, 0, {}]]]}, {"name": "multiply_2", "class_name": "Multiply", "config": {"name": "multiply_2", "trainable": true, "dtype": "float32"}, "inbound_nodes": [[["stage1_unit2_conv2", 0, 0, {}], ["activation_4", 0, 0, {}]]]}, {"name": "add_2", "class_name": "Add", "config": {"name": "add_2", "trainable": true, "dtype": "float32"}, "inbound_nodes": [[["multiply_2", 0, 0, {}], ["add_1", 0, 0, {}]]]}, {"name": "stage1_unit3_bn1", "class_name": "BatchNormalization", "config": {"name": "stage1_unit3_bn1", "trainable": true, "dtype": "float32", "axis": 3, "momentum": 0.99, "epsilon": 2e-05, "center": true, "scale": true, "beta_initializer": {"class_name": "Zeros", "config": {}}, "gamma_initializer": {"class_name": "Ones", "config": {}}, "moving_mean_initializer": {"class_name": "Zeros", "config": {}}, "moving_variance_initializer": {"class_name": "Ones", "config": {}}, "beta_regularizer": null, "gamma_regularizer": null, "beta_constraint": null, "gamma_constraint": null}, "inbound_nodes": [[["add_2", 0, 0, {}]]]}, {"name": "stage1_unit3_relu1", "class_name": "Activation", "config": {"name": "stage1_unit3_relu1", "trainable": true, "dtype": "float32", "activation": "relu"}, "inbound_nodes": [[["stage1_unit3_bn1", 0, 0, {}]]]}, {"name": "zero_padding2d_7", "class_name": "ZeroPadding2D", "config": {"name": "zero_padding2d_7", "trainable": true, "dtype": "float32", "padding": [[1, 1], [1, 1]], "data_format": "channels_last"}, "inbound_nodes": [[["stage1_unit3_relu1", 0, 0, {}]]]}, {"name": "stage1_unit3_conv1", "class_name": "Conv2D", "config": {"name": "stage1_unit3_conv1", "trainable": true, "dtype": "float32", "filters": 64, "kernel_size": [3, 3], "strides": [1, 1], "padding": "valid", "data_format": "channels_last", "dilation_rate": [1, 1], "activation": "linear", "use_bias": false, "kernel_initializer": {"class_name": "VarianceScaling", "config": {"scale": 2.0, "mode": "fan_in", "distribution": "uniform", "seed": null}}, "bias_initializer": {"class_name": "Zeros", "config": {}}, "kernel_regularizer": null, "bias_regularizer": null, "activity_regularizer": null, "kernel_constraint": null, "bias_constraint": null}, "inbound_nodes": [[["zero_padding2d_7", 0, 0, {}]]]}, {"name": "stage1_unit3_bn2", "class_name": "BatchNormalization", "config": {"name": "stage1_unit3_bn2", "trainable": true, "dtype": "float32", "axis": 3, "momentum": 0.99, "epsilon": 2e-05, "center": true, "scale": true, "beta_initializer": {"class_name": "Zeros", "config": {}}, "gamma_initializer": {"class_name": "Ones", "config": {}}, "moving_mean_initializer": {"class_name": "Zeros", "config": {}}, "moving_variance_initializer": {"class_name": "Ones", "config": {}}, "beta_regularizer": null, "gamma_regularizer": null, "beta_constraint": null, "gamma_constraint": null}, "inbound_nodes": [[["stage1_unit3_conv1", 0, 0, {}]]]}, {"name": "stage1_unit3_relu2", "class_name": "Activation", "config": {"name": "stage1_unit3_relu2", "trainable": true, "dtype": "float32", "activation": "relu"}, "inbound_nodes": [[["stage1_unit3_bn2", 0, 0, {}]]]}, {"name": "zero_padding2d_8", "class_name": "ZeroPadding2D", "config": {"name": "zero_padding2d_8", "trainable": true, "dtype": "float32", "padding": [[1, 1], [1, 1]], "data_format": "channels_last"}, "inbound_nodes": [[["stage1_unit3_relu2", 0, 0, {}]]]}, {"name": "stage1_unit3_conv2", "class_name": "Conv2D", "config": {"name": "stage1_unit3_conv2", "trainable": true, "dtype": "float32", "filters": 64, "kernel_size": [3, 3], "strides": [1, 1], "padding": "valid", "data_format": "channels_last", "dilation_rate": [1, 1], "activation": "linear", "use_bias": false, "kernel_initializer": {"class_name": "VarianceScaling", "config": {"scale": 2.0, "mode": "fan_in", "distribution": "uniform", "seed": null}}, "bias_initializer": {"class_name": "Zeros", "config": {}}, "kernel_regularizer": null, "bias_regularizer": null, "activity_regularizer": null, "kernel_constraint": null, "bias_constraint": null}, "inbound_nodes": [[["zero_padding2d_8", 0, 0, {}]]]}, {"name": "global_average_pooling2d_3", "class_name": "GlobalAveragePooling2D", "config": {"name": "global_average_pooling2d_3", "trainable": true, "dtype": "float32", "data_format": "channels_last"}, "inbound_nodes": [[["stage1_unit3_conv2", 0, 0, {}]]]}, {"name": "lambda_3", "class_name": "Lambda", "config": {"name": "lambda_3", "trainable": true, "dtype": "float32", "function": ["4wIAAAAAAAAAAgAAAAYAAABDAAAAc1IAAAB8AWQBawJyIHwAZABkAIUCZABkAGQAZACFAmYEGQBT\nAHwBZAJrAnJAfABkAGQAhQJkAGQAhQJkAGQAZgQZAFMAdABkA6ABfAGhAYMBggFkAFMAKQRO6QMA\nAADpAQAAAHonU2xpY2UgYXhpcyBzaG91bGQgYmUgaW4gKDEsIDMpLCBnb3Qge30uKQLaClZhbHVl\nRXJyb3LaBmZvcm1hdCkC2gF42g1jaGFubmVsc19heGlzqQByBwAAAPppL2hvbWUvcm9mYWlkYS9w\neXRob24tZW52cy9lbnYyL2xpYi9weXRob24zLjcvc2l0ZS1wYWNrYWdlcy9jbGFzc2lmaWNhdGlv\nbl9tb2RlbHMvbW9kZWxzL19jb21tb25fYmxvY2tzLnB52gtleHBhbmRfZGltc08AAABzCgAAAAAB\nCAEYAQgBGAI=\n", null, null], "function_type": "lambda", "output_shape": null, "output_shape_type": "raw", "arguments": {"channels_axis": 3}}, "inbound_nodes": [[["global_average_pooling2d_3", 0, 0, {}]]]}, {"name": "conv2d_5", "class_name": "Conv2D", "config": {"name": "conv2d_5", "trainable": true, "dtype": "float32", "filters": 4, "kernel_size": [1, 1], "strides": [1, 1], "padding": "valid", "data_format": "channels_last", "dilation_rate": [1, 1], "activation": "linear", "use_bias": true, "kernel_initializer": {"class_name": "VarianceScaling", "config": {"scale": 2.0, "mode": "fan_in", "distribution": "uniform", "seed": null}}, "bias_initializer": {"class_name": "Zeros", "config": {}}, "kernel_regularizer": null, "bias_regularizer": null, "activity_regularizer": null, "kernel_constraint": null, "bias_constraint": null}, "inbound_nodes": [[["lambda_3", 0, 0, {}]]]}, {"name": "activation_5", "class_name": "Activation", "config": {"name": "activation_5", "trainable": true, "dtype": "float32", "activation": "relu"}, "inbound_nodes": [[["conv2d_5", 0, 0, {}]]]}, {"name": "conv2d_6", "class_name": "Conv2D", "config": {"name": "conv2d_6", "trainable": true, "dtype": "float32", "filters": 64, "kernel_size": [1, 1], "strides": [1, 1], "padding": "valid", "data_format": "channels_last", "dilation_rate": [1, 1], "activation": "linear", "use_bias": true, "kernel_initializer": {"class_name": "VarianceScaling", "config": {"scale": 2.0, "mode": "fan_in", "distribution": "uniform", "seed": null}}, "bias_initializer": {"class_name": "Zeros", "config": {}}, "kernel_regularizer": null, "bias_regularizer": null, "activity_regularizer": null, "kernel_constraint": null, "bias_constraint": null}, "inbound_nodes": [[["activation_5", 0, 0, {}]]]}, {"name": "activation_6", "class_name": "Activation", "config": {"name": "activation_6", "trainable": true, "dtype": "float32", "activation": "sigmoid"}, "inbound_nodes": [[["conv2d_6", 0, 0, {}]]]}, {"name": "multiply_3", "class_name": "Multiply", "config": {"name": "multiply_3", "trainable": true, "dtype": "float32"}, "inbound_nodes": [[["stage1_unit3_conv2", 0, 0, {}], ["activation_6", 0, 0, {}]]]}, {"name": "add_3", "class_name": "Add", "config": {"name": "add_3", "trainable": true, "dtype": "float32"}, "inbound_nodes": [[["multiply_3", 0, 0, {}], ["add_2", 0, 0, {}]]]}, {"name": "stage2_unit1_bn1", "class_name": "BatchNormalization", "config": {"name": "stage2_unit1_bn1", "trainable": true, "dtype": "float32", "axis": 3, "momentum": 0.99, "epsilon": 2e-05, "center": true, "scale": true, "beta_initializer": {"class_name": "Zeros", "config": {}}, "gamma_initializer": {"class_name": "Ones", "config": {}}, "moving_mean_initializer": {"class_name": "Zeros", "config": {}}, "moving_variance_initializer": {"class_name": "Ones", "config": {}}, "beta_regularizer": null, "gamma_regularizer": null, "beta_constraint": null, "gamma_constraint": null}, "inbound_nodes": [[["add_3", 0, 0, {}]]]}, {"name": "stage2_unit1_relu1", "class_name": "Activation", "config": {"name": "stage2_unit1_relu1", "trainable": true, "dtype": "float32", "activation": "relu"}, "inbound_nodes": [[["stage2_unit1_bn1", 0, 0, {}]]]}, {"name": "zero_padding2d_9", "class_name": "ZeroPadding2D", "config": {"name": "zero_padding2d_9", "trainable": true, "dtype": "float32", "padding": [[1, 1], [1, 1]], "data_format": "channels_last"}, "inbound_nodes": [[["stage2_unit1_relu1", 0, 0, {}]]]}, {"name": "stage2_unit1_conv1", "class_name": "Conv2D", "config": {"name": "stage2_unit1_conv1", "trainable": true, "dtype": "float32", "filters": 128, "kernel_size": [3, 3], "strides": [2, 2], "padding": "valid", "data_format": "channels_last", "dilation_rate": [1, 1], "activation": "linear", "use_bias": false, "kernel_initializer": {"class_name": "VarianceScaling", "config": {"scale": 2.0, "mode": "fan_in", "distribution": "uniform", "seed": null}}, "bias_initializer": {"class_name": "Zeros", "config": {}}, "kernel_regularizer": null, "bias_regularizer": null, "activity_regularizer": null, "kernel_constraint": null, "bias_constraint": null}, "inbound_nodes": [[["zero_padding2d_9", 0, 0, {}]]]}, {"name": "stage2_unit1_bn2", "class_name": "BatchNormalization", "config": {"name": "stage2_unit1_bn2", "trainable": true, "dtype": "float32", "axis": 3, "momentum": 0.99, "epsilon": 2e-05, "center": true, "scale": true, "beta_initializer": {"class_name": "Zeros", "config": {}}, "gamma_initializer": {"class_name": "Ones", "config": {}}, "moving_mean_initializer": {"class_name": "Zeros", "config": {}}, "moving_variance_initializer": {"class_name": "Ones", "config": {}}, "beta_regularizer": null, "gamma_regularizer": null, "beta_constraint": null, "gamma_constraint": null}, "inbound_nodes": [[["stage2_unit1_conv1", 0, 0, {}]]]}, {"name": "stage2_unit1_relu2", "class_name": "Activation", "config": {"name": "stage2_unit1_relu2", "trainable": true, "dtype": "float32", "activation": "relu"}, "inbound_nodes": [[["stage2_unit1_bn2", 0, 0, {}]]]}, {"name": "zero_padding2d_10", "class_name": "ZeroPadding2D", "config": {"name": "zero_padding2d_10", "trainable": true, "dtype": "float32", "padding": [[1, 1], [1, 1]], "data_format": "channels_last"}, "inbound_nodes": [[["stage2_unit1_relu2", 0, 0, {}]]]}, {"name": "stage2_unit1_conv2", "class_name": "Conv2D", "config": {"name": "stage2_unit1_conv2", "trainable": true, "dtype": "float32", "filters": 128, "kernel_size": [3, 3], "strides": [1, 1], "padding": "valid", "data_format": "channels_last", "dilation_rate": [1, 1], "activation": "linear", "use_bias": false, "kernel_initializer": {"class_name": "VarianceScaling", "config": {"scale": 2.0, "mode": "fan_in", "distribution": "uniform", "seed": null}}, "bias_initializer": {"class_name": "Zeros", "config": {}}, "kernel_regularizer": null, "bias_regularizer": null, "activity_regularizer": null, "kernel_constraint": null, "bias_constraint": null}, "inbound_nodes": [[["zero_padding2d_10", 0, 0, {}]]]}, {"name": "global_average_pooling2d_4", "class_name": "GlobalAveragePooling2D", "config": {"name": "global_average_pooling2d_4", "trainable": true, "dtype": "float32", "data_format": "channels_last"}, "inbound_nodes": [[["stage2_unit1_conv2", 0, 0, {}]]]}, {"name": "lambda_4", "class_name": "Lambda", "config": {"name": "lambda_4", "trainable": true, "dtype": "float32", "function": ["4wIAAAAAAAAAAgAAAAYAAABDAAAAc1IAAAB8AWQBawJyIHwAZABkAIUCZABkAGQAZACFAmYEGQBT\nAHwBZAJrAnJAfABkAGQAhQJkAGQAhQJkAGQAZgQZAFMAdABkA6ABfAGhAYMBggFkAFMAKQRO6QMA\nAADpAQAAAHonU2xpY2UgYXhpcyBzaG91bGQgYmUgaW4gKDEsIDMpLCBnb3Qge30uKQLaClZhbHVl\nRXJyb3LaBmZvcm1hdCkC2gF42g1jaGFubmVsc19heGlzqQByBwAAAPppL2hvbWUvcm9mYWlkYS9w\neXRob24tZW52cy9lbnYyL2xpYi9weXRob24zLjcvc2l0ZS1wYWNrYWdlcy9jbGFzc2lmaWNhdGlv\nbl9tb2RlbHMvbW9kZWxzL19jb21tb25fYmxvY2tzLnB52gtleHBhbmRfZGltc08AAABzCgAAAAAB\nCAEYAQgBGAI=\n", null, null], "function_type": "lambda", "output_shape": null, "output_shape_type": "raw", "arguments": {"channels_axis": 3}}, "inbound_nodes": [[["global_average_pooling2d_4", 0, 0, {}]]]}, {"name": "conv2d_7", "class_name": "Conv2D", "config": {"name": "conv2d_7", "trainable": true, "dtype": "float32", "filters": 8, "kernel_size": [1, 1], "strides": [1, 1], "padding": "valid", "data_format": "channels_last", "dilation_rate": [1, 1], "activation": "linear", "use_bias": true, "kernel_initializer": {"class_name": "VarianceScaling", "config": {"scale": 2.0, "mode": "fan_in", "distribution": "uniform", "seed": null}}, "bias_initializer": {"class_name": "Zeros", "config": {}}, "kernel_regularizer": null, "bias_regularizer": null, "activity_regularizer": null, "kernel_constraint": null, "bias_constraint": null}, "inbound_nodes": [[["lambda_4", 0, 0, {}]]]}, {"name": "activation_7", "class_name": "Activation", "config": {"name": "activation_7", "trainable": true, "dtype": "float32", "activation": "relu"}, "inbound_nodes": [[["conv2d_7", 0, 0, {}]]]}, {"name": "conv2d_8", "class_name": "Conv2D", "config": {"name": "conv2d_8", "trainable": true, "dtype": "float32", "filters": 128, "kernel_size": [1, 1], "strides": [1, 1], "padding": "valid", "data_format": "channels_last", "dilation_rate": [1, 1], "activation": "linear", "use_bias": true, "kernel_initializer": {"class_name": "VarianceScaling", "config": {"scale": 2.0, "mode": "fan_in", "distribution": "uniform", "seed": null}}, "bias_initializer": {"class_name": "Zeros", "config": {}}, "kernel_regularizer": null, "bias_regularizer": null, "activity_regularizer": null, "kernel_constraint": null, "bias_constraint": null}, "inbound_nodes": [[["activation_7", 0, 0, {}]]]}, {"name": "activation_8", "class_name": "Activation", "config": {"name": "activation_8", "trainable": true, "dtype": "float32", "activation": "sigmoid"}, "inbound_nodes": [[["conv2d_8", 0, 0, {}]]]}, {"name": "multiply_4", "class_name": "Multiply", "config": {"name": "multiply_4", "trainable": true, "dtype": "float32"}, "inbound_nodes": [[["stage2_unit1_conv2", 0, 0, {}], ["activation_8", 0, 0, {}]]]}, {"name": "stage2_unit1_sc", "class_name": "Conv2D", "config": {"name": "stage2_unit1_sc", "trainable": true, "dtype": "float32", "filters": 128, "kernel_size": [1, 1], "strides": [2, 2], "padding": "valid", "data_format": "channels_last", "dilation_rate": [1, 1], "activation": "linear", "use_bias": false, "kernel_initializer": {"class_name": "VarianceScaling", "config": {"scale": 2.0, "mode": "fan_in", "distribution": "uniform", "seed": null}}, "bias_initializer": {"class_name": "Zeros", "config": {}}, "kernel_regularizer": null, "bias_regularizer": null, "activity_regularizer": null, "kernel_constraint": null, "bias_constraint": null}, "inbound_nodes": [[["stage2_unit1_relu1", 0, 0, {}]]]}, {"name": "add_4", "class_name": "Add", "config": {"name": "add_4", "trainable": true, "dtype": "float32"}, "inbound_nodes": [[["multiply_4", 0, 0, {}], ["stage2_unit1_sc", 0, 0, {}]]]}, {"name": "stage2_unit2_bn1", "class_name": "BatchNormalization", "config": {"name": "stage2_unit2_bn1", "trainable": true, "dtype": "float32", "axis": 3, "momentum": 0.99, "epsilon": 2e-05, "center": true, "scale": true, "beta_initializer": {"class_name": "Zeros", "config": {}}, "gamma_initializer": {"class_name": "Ones", "config": {}}, "moving_mean_initializer": {"class_name": "Zeros", "config": {}}, "moving_variance_initializer": {"class_name": "Ones", "config": {}}, "beta_regularizer": null, "gamma_regularizer": null, "beta_constraint": null, "gamma_constraint": null}, "inbound_nodes": [[["add_4", 0, 0, {}]]]}, {"name": "stage2_unit2_relu1", "class_name": "Activation", "config": {"name": "stage2_unit2_relu1", "trainable": true, "dtype": "float32", "activation": "relu"}, "inbound_nodes": [[["stage2_unit2_bn1", 0, 0, {}]]]}, {"name": "zero_padding2d_11", "class_name": "ZeroPadding2D", "config": {"name": "zero_padding2d_11", "trainable": true, "dtype": "float32", "padding": [[1, 1], [1, 1]], "data_format": "channels_last"}, "inbound_nodes": [[["stage2_unit2_relu1", 0, 0, {}]]]}, {"name": "stage2_unit2_conv1", "class_name": "Conv2D", "config": {"name": "stage2_unit2_conv1", "trainable": true, "dtype": "float32", "filters": 128, "kernel_size": [3, 3], "strides": [1, 1], "padding": "valid", "data_format": "channels_last", "dilation_rate": [1, 1], "activation": "linear", "use_bias": false, "kernel_initializer": {"class_name": "VarianceScaling", "config": {"scale": 2.0, "mode": "fan_in", "distribution": "uniform", "seed": null}}, "bias_initializer": {"class_name": "Zeros", "config": {}}, "kernel_regularizer": null, "bias_regularizer": null, "activity_regularizer": null, "kernel_constraint": null, "bias_constraint": null}, "inbound_nodes": [[["zero_padding2d_11", 0, 0, {}]]]}, {"name": "stage2_unit2_bn2", "class_name": "BatchNormalization", "config": {"name": "stage2_unit2_bn2", "trainable": true, "dtype": "float32", "axis": 3, "momentum": 0.99, "epsilon": 2e-05, "center": true, "scale": true, "beta_initializer": {"class_name": "Zeros", "config": {}}, "gamma_initializer": {"class_name": "Ones", "config": {}}, "moving_mean_initializer": {"class_name": "Zeros", "config": {}}, "moving_variance_initializer": {"class_name": "Ones", "config": {}}, "beta_regularizer": null, "gamma_regularizer": null, "beta_constraint": null, "gamma_constraint": null}, "inbound_nodes": [[["stage2_unit2_conv1", 0, 0, {}]]]}, {"name": "stage2_unit2_relu2", "class_name": "Activation", "config": {"name": "stage2_unit2_relu2", "trainable": true, "dtype": "float32", "activation": "relu"}, "inbound_nodes": [[["stage2_unit2_bn2", 0, 0, {}]]]}, {"name": "zero_padding2d_12", "class_name": "ZeroPadding2D", "config": {"name": "zero_padding2d_12", "trainable": true, "dtype": "float32", "padding": [[1, 1], [1, 1]], "data_format": "channels_last"}, "inbound_nodes": [[["stage2_unit2_relu2", 0, 0, {}]]]}, {"name": "stage2_unit2_conv2", "class_name": "Conv2D", "config": {"name": "stage2_unit2_conv2", "trainable": true, "dtype": "float32", "filters": 128, "kernel_size": [3, 3], "strides": [1, 1], "padding": "valid", "data_format": "channels_last", "dilation_rate": [1, 1], "activation": "linear", "use_bias": false, "kernel_initializer": {"class_name": "VarianceScaling", "config": {"scale": 2.0, "mode": "fan_in", "distribution": "uniform", "seed": null}}, "bias_initializer": {"class_name": "Zeros", "config": {}}, "kernel_regularizer": null, "bias_regularizer": null, "activity_regularizer": null, "kernel_constraint": null, "bias_constraint": null}, "inbound_nodes": [[["zero_padding2d_12", 0, 0, {}]]]}, {"name": "global_average_pooling2d_5", "class_name": "GlobalAveragePooling2D", "config": {"name": "global_average_pooling2d_5", "trainable": true, "dtype": "float32", "data_format": "channels_last"}, "inbound_nodes": [[["stage2_unit2_conv2", 0, 0, {}]]]}, {"name": "lambda_5", "class_name": "Lambda", "config": {"name": "lambda_5", "trainable": true, "dtype": "float32", "function": ["4wIAAAAAAAAAAgAAAAYAAABDAAAAc1IAAAB8AWQBawJyIHwAZABkAIUCZABkAGQAZACFAmYEGQBT\nAHwBZAJrAnJAfABkAGQAhQJkAGQAhQJkAGQAZgQZAFMAdABkA6ABfAGhAYMBggFkAFMAKQRO6QMA\nAADpAQAAAHonU2xpY2UgYXhpcyBzaG91bGQgYmUgaW4gKDEsIDMpLCBnb3Qge30uKQLaClZhbHVl\nRXJyb3LaBmZvcm1hdCkC2gF42g1jaGFubmVsc19heGlzqQByBwAAAPppL2hvbWUvcm9mYWlkYS9w\neXRob24tZW52cy9lbnYyL2xpYi9weXRob24zLjcvc2l0ZS1wYWNrYWdlcy9jbGFzc2lmaWNhdGlv\nbl9tb2RlbHMvbW9kZWxzL19jb21tb25fYmxvY2tzLnB52gtleHBhbmRfZGltc08AAABzCgAAAAAB\nCAEYAQgBGAI=\n", null, null], "function_type": "lambda", "output_shape": null, "output_shape_type": "raw", "arguments": {"channels_axis": 3}}, "inbound_nodes": [[["global_average_pooling2d_5", 0, 0, {}]]]}, {"name": "conv2d_9", "class_name": "Conv2D", "config": {"name": "conv2d_9", "trainable": true, "dtype": "float32", "filters": 8, "kernel_size": [1, 1], "strides": [1, 1], "padding": "valid", "data_format": "channels_last", "dilation_rate": [1, 1], "activation": "linear", "use_bias": true, "kernel_initializer": {"class_name": "VarianceScaling", "config": {"scale": 2.0, "mode": "fan_in", "distribution": "uniform", "seed": null}}, "bias_initializer": {"class_name": "Zeros", "config": {}}, "kernel_regularizer": null, "bias_regularizer": null, "activity_regularizer": null, "kernel_constraint": null, "bias_constraint": null}, "inbound_nodes": [[["lambda_5", 0, 0, {}]]]}, {"name": "activation_9", "class_name": "Activation", "config": {"name": "activation_9", "trainable": true, "dtype": "float32", "activation": "relu"}, "inbound_nodes": [[["conv2d_9", 0, 0, {}]]]}, {"name": "conv2d_10", "class_name": "Conv2D", "config": {"name": "conv2d_10", "trainable": true, "dtype": "float32", "filters": 128, "kernel_size": [1, 1], "strides": [1, 1], "padding": "valid", "data_format": "channels_last", "dilation_rate": [1, 1], "activation": "linear", "use_bias": true, "kernel_initializer": {"class_name": "VarianceScaling", "config": {"scale": 2.0, "mode": "fan_in", "distribution": "uniform", "seed": null}}, "bias_initializer": {"class_name": "Zeros", "config": {}}, "kernel_regularizer": null, "bias_regularizer": null, "activity_regularizer": null, "kernel_constraint": null, "bias_constraint": null}, "inbound_nodes": [[["activation_9", 0, 0, {}]]]}, {"name": "activation_10", "class_name": "Activation", "config": {"name": "activation_10", "trainable": true, "dtype": "float32", "activation": "sigmoid"}, "inbound_nodes": [[["conv2d_10", 0, 0, {}]]]}, {"name": "multiply_5", "class_name": "Multiply", "config": {"name": "multiply_5", "trainable": true, "dtype": "float32"}, "inbound_nodes": [[["stage2_unit2_conv2", 0, 0, {}], ["activation_10", 0, 0, {}]]]}, {"name": "add_5", "class_name": "Add", "config": {"name": "add_5", "trainable": true, "dtype": "float32"}, "inbound_nodes": [[["multiply_5", 0, 0, {}], ["add_4", 0, 0, {}]]]}, {"name": "stage2_unit3_bn1", "class_name": "BatchNormalization", "config": {"name": "stage2_unit3_bn1", "trainable": true, "dtype": "float32", "axis": 3, "momentum": 0.99, "epsilon": 2e-05, "center": true, "scale": true, "beta_initializer": {"class_name": "Zeros", "config": {}}, "gamma_initializer": {"class_name": "Ones", "config": {}}, "moving_mean_initializer": {"class_name": "Zeros", "config": {}}, "moving_variance_initializer": {"class_name": "Ones", "config": {}}, "beta_regularizer": null, "gamma_regularizer": null, "beta_constraint": null, "gamma_constraint": null}, "inbound_nodes": [[["add_5", 0, 0, {}]]]}, {"name": "stage2_unit3_relu1", "class_name": "Activation", "config": {"name": "stage2_unit3_relu1", "trainable": true, "dtype": "float32", "activation": "relu"}, "inbound_nodes": [[["stage2_unit3_bn1", 0, 0, {}]]]}, {"name": "zero_padding2d_13", "class_name": "ZeroPadding2D", "config": {"name": "zero_padding2d_13", "trainable": true, "dtype": "float32", "padding": [[1, 1], [1, 1]], "data_format": "channels_last"}, "inbound_nodes": [[["stage2_unit3_relu1", 0, 0, {}]]]}, {"name": "stage2_unit3_conv1", "class_name": "Conv2D", "config": {"name": "stage2_unit3_conv1", "trainable": true, "dtype": "float32", "filters": 128, "kernel_size": [3, 3], "strides": [1, 1], "padding": "valid", "data_format": "channels_last", "dilation_rate": [1, 1], "activation": "linear", "use_bias": false, "kernel_initializer": {"class_name": "VarianceScaling", "config": {"scale": 2.0, "mode": "fan_in", "distribution": "uniform", "seed": null}}, "bias_initializer": {"class_name": "Zeros", "config": {}}, "kernel_regularizer": null, "bias_regularizer": null, "activity_regularizer": null, "kernel_constraint": null, "bias_constraint": null}, "inbound_nodes": [[["zero_padding2d_13", 0, 0, {}]]]}, {"name": "stage2_unit3_bn2", "class_name": "BatchNormalization", "config": {"name": "stage2_unit3_bn2", "trainable": true, "dtype": "float32", "axis": 3, "momentum": 0.99, "epsilon": 2e-05, "center": true, "scale": true, "beta_initializer": {"class_name": "Zeros", "config": {}}, "gamma_initializer": {"class_name": "Ones", "config": {}}, "moving_mean_initializer": {"class_name": "Zeros", "config": {}}, "moving_variance_initializer": {"class_name": "Ones", "config": {}}, "beta_regularizer": null, "gamma_regularizer": null, "beta_constraint": null, "gamma_constraint": null}, "inbound_nodes": [[["stage2_unit3_conv1", 0, 0, {}]]]}, {"name": "stage2_unit3_relu2", "class_name": "Activation", "config": {"name": "stage2_unit3_relu2", "trainable": true, "dtype": "float32", "activation": "relu"}, "inbound_nodes": [[["stage2_unit3_bn2", 0, 0, {}]]]}, {"name": "zero_padding2d_14", "class_name": "ZeroPadding2D", "config": {"name": "zero_padding2d_14", "trainable": true, "dtype": "float32", "padding": [[1, 1], [1, 1]], "data_format": "channels_last"}, "inbound_nodes": [[["stage2_unit3_relu2", 0, 0, {}]]]}, {"name": "stage2_unit3_conv2", "class_name": "Conv2D", "config": {"name": "stage2_unit3_conv2", "trainable": true, "dtype": "float32", "filters": 128, "kernel_size": [3, 3], "strides": [1, 1], "padding": "valid", "data_format": "channels_last", "dilation_rate": [1, 1], "activation": "linear", "use_bias": false, "kernel_initializer": {"class_name": "VarianceScaling", "config": {"scale": 2.0, "mode": "fan_in", "distribution": "uniform", "seed": null}}, "bias_initializer": {"class_name": "Zeros", "config": {}}, "kernel_regularizer": null, "bias_regularizer": null, "activity_regularizer": null, "kernel_constraint": null, "bias_constraint": null}, "inbound_nodes": [[["zero_padding2d_14", 0, 0, {}]]]}, {"name": "global_average_pooling2d_6", "class_name": "GlobalAveragePooling2D", "config": {"name": "global_average_pooling2d_6", "trainable": true, "dtype": "float32", "data_format": "channels_last"}, "inbound_nodes": [[["stage2_unit3_conv2", 0, 0, {}]]]}, {"name": "lambda_6", "class_name": "Lambda", "config": {"name": "lambda_6", "trainable": true, "dtype": "float32", "function": ["4wIAAAAAAAAAAgAAAAYAAABDAAAAc1IAAAB8AWQBawJyIHwAZABkAIUCZABkAGQAZACFAmYEGQBT\nAHwBZAJrAnJAfABkAGQAhQJkAGQAhQJkAGQAZgQZAFMAdABkA6ABfAGhAYMBggFkAFMAKQRO6QMA\nAADpAQAAAHonU2xpY2UgYXhpcyBzaG91bGQgYmUgaW4gKDEsIDMpLCBnb3Qge30uKQLaClZhbHVl\nRXJyb3LaBmZvcm1hdCkC2gF42g1jaGFubmVsc19heGlzqQByBwAAAPppL2hvbWUvcm9mYWlkYS9w\neXRob24tZW52cy9lbnYyL2xpYi9weXRob24zLjcvc2l0ZS1wYWNrYWdlcy9jbGFzc2lmaWNhdGlv\nbl9tb2RlbHMvbW9kZWxzL19jb21tb25fYmxvY2tzLnB52gtleHBhbmRfZGltc08AAABzCgAAAAAB\nCAEYAQgBGAI=\n", null, null], "function_type": "lambda", "output_shape": null, "output_shape_type": "raw", "arguments": {"channels_axis": 3}}, "inbound_nodes": [[["global_average_pooling2d_6", 0, 0, {}]]]}, {"name": "conv2d_11", "class_name": "Conv2D", "config": {"name": "conv2d_11", "trainable": true, "dtype": "float32", "filters": 8, "kernel_size": [1, 1], "strides": [1, 1], "padding": "valid", "data_format": "channels_last", "dilation_rate": [1, 1], "activation": "linear", "use_bias": true, "kernel_initializer": {"class_name": "VarianceScaling", "config": {"scale": 2.0, "mode": "fan_in", "distribution": "uniform", "seed": null}}, "bias_initializer": {"class_name": "Zeros", "config": {}}, "kernel_regularizer": null, "bias_regularizer": null, "activity_regularizer": null, "kernel_constraint": null, "bias_constraint": null}, "inbound_nodes": [[["lambda_6", 0, 0, {}]]]}, {"name": "activation_11", "class_name": "Activation", "config": {"name": "activation_11", "trainable": true, "dtype": "float32", "activation": "relu"}, "inbound_nodes": [[["conv2d_11", 0, 0, {}]]]}, {"name": "conv2d_12", "class_name": "Conv2D", "config": {"name": "conv2d_12", "trainable": true, "dtype": "float32", "filters": 128, "kernel_size": [1, 1], "strides": [1, 1], "padding": "valid", "data_format": "channels_last", "dilation_rate": [1, 1], "activation": "linear", "use_bias": true, "kernel_initializer": {"class_name": "VarianceScaling", "config": {"scale": 2.0, "mode": "fan_in", "distribution": "uniform", "seed": null}}, "bias_initializer": {"class_name": "Zeros", "config": {}}, "kernel_regularizer": null, "bias_regularizer": null, "activity_regularizer": null, "kernel_constraint": null, "bias_constraint": null}, "inbound_nodes": [[["activation_11", 0, 0, {}]]]}, {"name": "activation_12", "class_name": "Activation", "config": {"name": "activation_12", "trainable": true, "dtype": "float32", "activation": "sigmoid"}, "inbound_nodes": [[["conv2d_12", 0, 0, {}]]]}, {"name": "multiply_6", "class_name": "Multiply", "config": {"name": "multiply_6", "trainable": true, "dtype": "float32"}, "inbound_nodes": [[["stage2_unit3_conv2", 0, 0, {}], ["activation_12", 0, 0, {}]]]}, {"name": "add_6", "class_name": "Add", "config": {"name": "add_6", "trainable": true, "dtype": "float32"}, "inbound_nodes": [[["multiply_6", 0, 0, {}], ["add_5", 0, 0, {}]]]}, {"name": "stage2_unit4_bn1", "class_name": "BatchNormalization", "config": {"name": "stage2_unit4_bn1", "trainable": true, "dtype": "float32", "axis": 3, "momentum": 0.99, "epsilon": 2e-05, "center": true, "scale": true, "beta_initializer": {"class_name": "Zeros", "config": {}}, "gamma_initializer": {"class_name": "Ones", "config": {}}, "moving_mean_initializer": {"class_name": "Zeros", "config": {}}, "moving_variance_initializer": {"class_name": "Ones", "config": {}}, "beta_regularizer": null, "gamma_regularizer": null, "beta_constraint": null, "gamma_constraint": null}, "inbound_nodes": [[["add_6", 0, 0, {}]]]}, {"name": "stage2_unit4_relu1", "class_name": "Activation", "config": {"name": "stage2_unit4_relu1", "trainable": true, "dtype": "float32", "activation": "relu"}, "inbound_nodes": [[["stage2_unit4_bn1", 0, 0, {}]]]}, {"name": "zero_padding2d_15", "class_name": "ZeroPadding2D", "config": {"name": "zero_padding2d_15", "trainable": true, "dtype": "float32", "padding": [[1, 1], [1, 1]], "data_format": "channels_last"}, "inbound_nodes": [[["stage2_unit4_relu1", 0, 0, {}]]]}, {"name": "stage2_unit4_conv1", "class_name": "Conv2D", "config": {"name": "stage2_unit4_conv1", "trainable": true, "dtype": "float32", "filters": 128, "kernel_size": [3, 3], "strides": [1, 1], "padding": "valid", "data_format": "channels_last", "dilation_rate": [1, 1], "activation": "linear", "use_bias": false, "kernel_initializer": {"class_name": "VarianceScaling", "config": {"scale": 2.0, "mode": "fan_in", "distribution": "uniform", "seed": null}}, "bias_initializer": {"class_name": "Zeros", "config": {}}, "kernel_regularizer": null, "bias_regularizer": null, "activity_regularizer": null, "kernel_constraint": null, "bias_constraint": null}, "inbound_nodes": [[["zero_padding2d_15", 0, 0, {}]]]}, {"name": "stage2_unit4_bn2", "class_name": "BatchNormalization", "config": {"name": "stage2_unit4_bn2", "trainable": true, "dtype": "float32", "axis": 3, "momentum": 0.99, "epsilon": 2e-05, "center": true, "scale": true, "beta_initializer": {"class_name": "Zeros", "config": {}}, "gamma_initializer": {"class_name": "Ones", "config": {}}, "moving_mean_initializer": {"class_name": "Zeros", "config": {}}, "moving_variance_initializer": {"class_name": "Ones", "config": {}}, "beta_regularizer": null, "gamma_regularizer": null, "beta_constraint": null, "gamma_constraint": null}, "inbound_nodes": [[["stage2_unit4_conv1", 0, 0, {}]]]}, {"name": "stage2_unit4_relu2", "class_name": "Activation", "config": {"name": "stage2_unit4_relu2", "trainable": true, "dtype": "float32", "activation": "relu"}, "inbound_nodes": [[["stage2_unit4_bn2", 0, 0, {}]]]}, {"name": "zero_padding2d_16", "class_name": "ZeroPadding2D", "config": {"name": "zero_padding2d_16", "trainable": true, "dtype": "float32", "padding": [[1, 1], [1, 1]], "data_format": "channels_last"}, "inbound_nodes": [[["stage2_unit4_relu2", 0, 0, {}]]]}, {"name": "stage2_unit4_conv2", "class_name": "Conv2D", "config": {"name": "stage2_unit4_conv2", "trainable": true, "dtype": "float32", "filters": 128, "kernel_size": [3, 3], "strides": [1, 1], "padding": "valid", "data_format": "channels_last", "dilation_rate": [1, 1], "activation": "linear", "use_bias": false, "kernel_initializer": {"class_name": "VarianceScaling", "config": {"scale": 2.0, "mode": "fan_in", "distribution": "uniform", "seed": null}}, "bias_initializer": {"class_name": "Zeros", "config": {}}, "kernel_regularizer": null, "bias_regularizer": null, "activity_regularizer": null, "kernel_constraint": null, "bias_constraint": null}, "inbound_nodes": [[["zero_padding2d_16", 0, 0, {}]]]}, {"name": "global_average_pooling2d_7", "class_name": "GlobalAveragePooling2D", "config": {"name": "global_average_pooling2d_7", "trainable": true, "dtype": "float32", "data_format": "channels_last"}, "inbound_nodes": [[["stage2_unit4_conv2", 0, 0, {}]]]}, {"name": "lambda_7", "class_name": "Lambda", "config": {"name": "lambda_7", "trainable": true, "dtype": "float32", "function": ["4wIAAAAAAAAAAgAAAAYAAABDAAAAc1IAAAB8AWQBawJyIHwAZABkAIUCZABkAGQAZACFAmYEGQBT\nAHwBZAJrAnJAfABkAGQAhQJkAGQAhQJkAGQAZgQZAFMAdABkA6ABfAGhAYMBggFkAFMAKQRO6QMA\nAADpAQAAAHonU2xpY2UgYXhpcyBzaG91bGQgYmUgaW4gKDEsIDMpLCBnb3Qge30uKQLaClZhbHVl\nRXJyb3LaBmZvcm1hdCkC2gF42g1jaGFubmVsc19heGlzqQByBwAAAPppL2hvbWUvcm9mYWlkYS9w\neXRob24tZW52cy9lbnYyL2xpYi9weXRob24zLjcvc2l0ZS1wYWNrYWdlcy9jbGFzc2lmaWNhdGlv\nbl9tb2RlbHMvbW9kZWxzL19jb21tb25fYmxvY2tzLnB52gtleHBhbmRfZGltc08AAABzCgAAAAAB\nCAEYAQgBGAI=\n", null, null], "function_type": "lambda", "output_shape": null, "output_shape_type": "raw", "arguments": {"channels_axis": 3}}, "inbound_nodes": [[["global_average_pooling2d_7", 0, 0, {}]]]}, {"name": "conv2d_13", "class_name": "Conv2D", "config": {"name": "conv2d_13", "trainable": true, "dtype": "float32", "filters": 8, "kernel_size": [1, 1], "strides": [1, 1], "padding": "valid", "data_format": "channels_last", "dilation_rate": [1, 1], "activation": "linear", "use_bias": true, "kernel_initializer": {"class_name": "VarianceScaling", "config": {"scale": 2.0, "mode": "fan_in", "distribution": "uniform", "seed": null}}, "bias_initializer": {"class_name": "Zeros", "config": {}}, "kernel_regularizer": null, "bias_regularizer": null, "activity_regularizer": null, "kernel_constraint": null, "bias_constraint": null}, "inbound_nodes": [[["lambda_7", 0, 0, {}]]]}, {"name": "activation_13", "class_name": "Activation", "config": {"name": "activation_13", "trainable": true, "dtype": "float32", "activation": "relu"}, "inbound_nodes": [[["conv2d_13", 0, 0, {}]]]}, {"name": "conv2d_14", "class_name": "Conv2D", "config": {"name": "conv2d_14", "trainable": true, "dtype": "float32", "filters": 128, "kernel_size": [1, 1], "strides": [1, 1], "padding": "valid", "data_format": "channels_last", "dilation_rate": [1, 1], "activation": "linear", "use_bias": true, "kernel_initializer": {"class_name": "VarianceScaling", "config": {"scale": 2.0, "mode": "fan_in", "distribution": "uniform", "seed": null}}, "bias_initializer": {"class_name": "Zeros", "config": {}}, "kernel_regularizer": null, "bias_regularizer": null, "activity_regularizer": null, "kernel_constraint": null, "bias_constraint": null}, "inbound_nodes": [[["activation_13", 0, 0, {}]]]}, {"name": "activation_14", "class_name": "Activation", "config": {"name": "activation_14", "trainable": true, "dtype": "float32", "activation": "sigmoid"}, "inbound_nodes": [[["conv2d_14", 0, 0, {}]]]}, {"name": "multiply_7", "class_name": "Multiply", "config": {"name": "multiply_7", "trainable": true, "dtype": "float32"}, "inbound_nodes": [[["stage2_unit4_conv2", 0, 0, {}], ["activation_14", 0, 0, {}]]]}, {"name": "add_7", "class_name": "Add", "config": {"name": "add_7", "trainable": true, "dtype": "float32"}, "inbound_nodes": [[["multiply_7", 0, 0, {}], ["add_6", 0, 0, {}]]]}, {"name": "stage3_unit1_bn1", "class_name": "BatchNormalization", "config": {"name": "stage3_unit1_bn1", "trainable": true, "dtype": "float32", "axis": 3, "momentum": 0.99, "epsilon": 2e-05, "center": true, "scale": true, "beta_initializer": {"class_name": "Zeros", "config": {}}, "gamma_initializer": {"class_name": "Ones", "config": {}}, "moving_mean_initializer": {"class_name": "Zeros", "config": {}}, "moving_variance_initializer": {"class_name": "Ones", "config": {}}, "beta_regularizer": null, "gamma_regularizer": null, "beta_constraint": null, "gamma_constraint": null}, "inbound_nodes": [[["add_7", 0, 0, {}]]]}, {"name": "stage3_unit1_relu1", "class_name": "Activation", "config": {"name": "stage3_unit1_relu1", "trainable": true, "dtype": "float32", "activation": "relu"}, "inbound_nodes": [[["stage3_unit1_bn1", 0, 0, {}]]]}, {"name": "zero_padding2d_17", "class_name": "ZeroPadding2D", "config": {"name": "zero_padding2d_17", "trainable": true, "dtype": "float32", "padding": [[1, 1], [1, 1]], "data_format": "channels_last"}, "inbound_nodes": [[["stage3_unit1_relu1", 0, 0, {}]]]}, {"name": "stage3_unit1_conv1", "class_name": "Conv2D", "config": {"name": "stage3_unit1_conv1", "trainable": true, "dtype": "float32", "filters": 256, "kernel_size": [3, 3], "strides": [2, 2], "padding": "valid", "data_format": "channels_last", "dilation_rate": [1, 1], "activation": "linear", "use_bias": false, "kernel_initializer": {"class_name": "VarianceScaling", "config": {"scale": 2.0, "mode": "fan_in", "distribution": "uniform", "seed": null}}, "bias_initializer": {"class_name": "Zeros", "config": {}}, "kernel_regularizer": null, "bias_regularizer": null, "activity_regularizer": null, "kernel_constraint": null, "bias_constraint": null}, "inbound_nodes": [[["zero_padding2d_17", 0, 0, {}]]]}, {"name": "stage3_unit1_bn2", "class_name": "BatchNormalization", "config": {"name": "stage3_unit1_bn2", "trainable": true, "dtype": "float32", "axis": 3, "momentum": 0.99, "epsilon": 2e-05, "center": true, "scale": true, "beta_initializer": {"class_name": "Zeros", "config": {}}, "gamma_initializer": {"class_name": "Ones", "config": {}}, "moving_mean_initializer": {"class_name": "Zeros", "config": {}}, "moving_variance_initializer": {"class_name": "Ones", "config": {}}, "beta_regularizer": null, "gamma_regularizer": null, "beta_constraint": null, "gamma_constraint": null}, "inbound_nodes": [[["stage3_unit1_conv1", 0, 0, {}]]]}, {"name": "stage3_unit1_relu2", "class_name": "Activation", "config": {"name": "stage3_unit1_relu2", "trainable": true, "dtype": "float32", "activation": "relu"}, "inbound_nodes": [[["stage3_unit1_bn2", 0, 0, {}]]]}, {"name": "zero_padding2d_18", "class_name": "ZeroPadding2D", "config": {"name": "zero_padding2d_18", "trainable": true, "dtype": "float32", "padding": [[1, 1], [1, 1]], "data_format": "channels_last"}, "inbound_nodes": [[["stage3_unit1_relu2", 0, 0, {}]]]}, {"name": "stage3_unit1_conv2", "class_name": "Conv2D", "config": {"name": "stage3_unit1_conv2", "trainable": true, "dtype": "float32", "filters": 256, "kernel_size": [3, 3], "strides": [1, 1], "padding": "valid", "data_format": "channels_last", "dilation_rate": [1, 1], "activation": "linear", "use_bias": false, "kernel_initializer": {"class_name": "VarianceScaling", "config": {"scale": 2.0, "mode": "fan_in", "distribution": "uniform", "seed": null}}, "bias_initializer": {"class_name": "Zeros", "config": {}}, "kernel_regularizer": null, "bias_regularizer": null, "activity_regularizer": null, "kernel_constraint": null, "bias_constraint": null}, "inbound_nodes": [[["zero_padding2d_18", 0, 0, {}]]]}, {"name": "global_average_pooling2d_8", "class_name": "GlobalAveragePooling2D", "config": {"name": "global_average_pooling2d_8", "trainable": true, "dtype": "float32", "data_format": "channels_last"}, "inbound_nodes": [[["stage3_unit1_conv2", 0, 0, {}]]]}, {"name": "lambda_8", "class_name": "Lambda", "config": {"name": "lambda_8", "trainable": true, "dtype": "float32", "function": ["4wIAAAAAAAAAAgAAAAYAAABDAAAAc1IAAAB8AWQBawJyIHwAZABkAIUCZABkAGQAZACFAmYEGQBT\nAHwBZAJrAnJAfABkAGQAhQJkAGQAhQJkAGQAZgQZAFMAdABkA6ABfAGhAYMBggFkAFMAKQRO6QMA\nAADpAQAAAHonU2xpY2UgYXhpcyBzaG91bGQgYmUgaW4gKDEsIDMpLCBnb3Qge30uKQLaClZhbHVl\nRXJyb3LaBmZvcm1hdCkC2gF42g1jaGFubmVsc19heGlzqQByBwAAAPppL2hvbWUvcm9mYWlkYS9w\neXRob24tZW52cy9lbnYyL2xpYi9weXRob24zLjcvc2l0ZS1wYWNrYWdlcy9jbGFzc2lmaWNhdGlv\nbl9tb2RlbHMvbW9kZWxzL19jb21tb25fYmxvY2tzLnB52gtleHBhbmRfZGltc08AAABzCgAAAAAB\nCAEYAQgBGAI=\n", null, null], "function_type": "lambda", "output_shape": null, "output_shape_type": "raw", "arguments": {"channels_axis": 3}}, "inbound_nodes": [[["global_average_pooling2d_8", 0, 0, {}]]]}, {"name": "conv2d_15", "class_name": "Conv2D", "config": {"name": "conv2d_15", "trainable": true, "dtype": "float32", "filters": 16, "kernel_size": [1, 1], "strides": [1, 1], "padding": "valid", "data_format": "channels_last", "dilation_rate": [1, 1], "activation": "linear", "use_bias": true, "kernel_initializer": {"class_name": "VarianceScaling", "config": {"scale": 2.0, "mode": "fan_in", "distribution": "uniform", "seed": null}}, "bias_initializer": {"class_name": "Zeros", "config": {}}, "kernel_regularizer": null, "bias_regularizer": null, "activity_regularizer": null, "kernel_constraint": null, "bias_constraint": null}, "inbound_nodes": [[["lambda_8", 0, 0, {}]]]}, {"name": "activation_15", "class_name": "Activation", "config": {"name": "activation_15", "trainable": true, "dtype": "float32", "activation": "relu"}, "inbound_nodes": [[["conv2d_15", 0, 0, {}]]]}, {"name": "conv2d_16", "class_name": "Conv2D", "config": {"name": "conv2d_16", "trainable": true, "dtype": "float32", "filters": 256, "kernel_size": [1, 1], "strides": [1, 1], "padding": "valid", "data_format": "channels_last", "dilation_rate": [1, 1], "activation": "linear", "use_bias": true, "kernel_initializer": {"class_name": "VarianceScaling", "config": {"scale": 2.0, "mode": "fan_in", "distribution": "uniform", "seed": null}}, "bias_initializer": {"class_name": "Zeros", "config": {}}, "kernel_regularizer": null, "bias_regularizer": null, "activity_regularizer": null, "kernel_constraint": null, "bias_constraint": null}, "inbound_nodes": [[["activation_15", 0, 0, {}]]]}, {"name": "activation_16", "class_name": "Activation", "config": {"name": "activation_16", "trainable": true, "dtype": "float32", "activation": "sigmoid"}, "inbound_nodes": [[["conv2d_16", 0, 0, {}]]]}, {"name": "multiply_8", "class_name": "Multiply", "config": {"name": "multiply_8", "trainable": true, "dtype": "float32"}, "inbound_nodes": [[["stage3_unit1_conv2", 0, 0, {}], ["activation_16", 0, 0, {}]]]}, {"name": "stage3_unit1_sc", "class_name": "Conv2D", "config": {"name": "stage3_unit1_sc", "trainable": true, "dtype": "float32", "filters": 256, "kernel_size": [1, 1], "strides": [2, 2], "padding": "valid", "data_format": "channels_last", "dilation_rate": [1, 1], "activation": "linear", "use_bias": false, "kernel_initializer": {"class_name": "VarianceScaling", "config": {"scale": 2.0, "mode": "fan_in", "distribution": "uniform", "seed": null}}, "bias_initializer": {"class_name": "Zeros", "config": {}}, "kernel_regularizer": null, "bias_regularizer": null, "activity_regularizer": null, "kernel_constraint": null, "bias_constraint": null}, "inbound_nodes": [[["stage3_unit1_relu1", 0, 0, {}]]]}, {"name": "add_8", "class_name": "Add", "config": {"name": "add_8", "trainable": true, "dtype": "float32"}, "inbound_nodes": [[["multiply_8", 0, 0, {}], ["stage3_unit1_sc", 0, 0, {}]]]}, {"name": "stage3_unit2_bn1", "class_name": "BatchNormalization", "config": {"name": "stage3_unit2_bn1", "trainable": true, "dtype": "float32", "axis": 3, "momentum": 0.99, "epsilon": 2e-05, "center": true, "scale": true, "beta_initializer": {"class_name": "Zeros", "config": {}}, "gamma_initializer": {"class_name": "Ones", "config": {}}, "moving_mean_initializer": {"class_name": "Zeros", "config": {}}, "moving_variance_initializer": {"class_name": "Ones", "config": {}}, "beta_regularizer": null, "gamma_regularizer": null, "beta_constraint": null, "gamma_constraint": null}, "inbound_nodes": [[["add_8", 0, 0, {}]]]}, {"name": "stage3_unit2_relu1", "class_name": "Activation", "config": {"name": "stage3_unit2_relu1", "trainable": true, "dtype": "float32", "activation": "relu"}, "inbound_nodes": [[["stage3_unit2_bn1", 0, 0, {}]]]}, {"name": "zero_padding2d_19", "class_name": "ZeroPadding2D", "config": {"name": "zero_padding2d_19", "trainable": true, "dtype": "float32", "padding": [[1, 1], [1, 1]], "data_format": "channels_last"}, "inbound_nodes": [[["stage3_unit2_relu1", 0, 0, {}]]]}, {"name": "stage3_unit2_conv1", "class_name": "Conv2D", "config": {"name": "stage3_unit2_conv1", "trainable": true, "dtype": "float32", "filters": 256, "kernel_size": [3, 3], "strides": [1, 1], "padding": "valid", "data_format": "channels_last", "dilation_rate": [1, 1], "activation": "linear", "use_bias": false, "kernel_initializer": {"class_name": "VarianceScaling", "config": {"scale": 2.0, "mode": "fan_in", "distribution": "uniform", "seed": null}}, "bias_initializer": {"class_name": "Zeros", "config": {}}, "kernel_regularizer": null, "bias_regularizer": null, "activity_regularizer": null, "kernel_constraint": null, "bias_constraint": null}, "inbound_nodes": [[["zero_padding2d_19", 0, 0, {}]]]}, {"name": "stage3_unit2_bn2", "class_name": "BatchNormalization", "config": {"name": "stage3_unit2_bn2", "trainable": true, "dtype": "float32", "axis": 3, "momentum": 0.99, "epsilon": 2e-05, "center": true, "scale": true, "beta_initializer": {"class_name": "Zeros", "config": {}}, "gamma_initializer": {"class_name": "Ones", "config": {}}, "moving_mean_initializer": {"class_name": "Zeros", "config": {}}, "moving_variance_initializer": {"class_name": "Ones", "config": {}}, "beta_regularizer": null, "gamma_regularizer": null, "beta_constraint": null, "gamma_constraint": null}, "inbound_nodes": [[["stage3_unit2_conv1", 0, 0, {}]]]}, {"name": "stage3_unit2_relu2", "class_name": "Activation", "config": {"name": "stage3_unit2_relu2", "trainable": true, "dtype": "float32", "activation": "relu"}, "inbound_nodes": [[["stage3_unit2_bn2", 0, 0, {}]]]}, {"name": "zero_padding2d_20", "class_name": "ZeroPadding2D", "config": {"name": "zero_padding2d_20", "trainable": true, "dtype": "float32", "padding": [[1, 1], [1, 1]], "data_format": "channels_last"}, "inbound_nodes": [[["stage3_unit2_relu2", 0, 0, {}]]]}, {"name": "stage3_unit2_conv2", "class_name": "Conv2D", "config": {"name": "stage3_unit2_conv2", "trainable": true, "dtype": "float32", "filters": 256, "kernel_size": [3, 3], "strides": [1, 1], "padding": "valid", "data_format": "channels_last", "dilation_rate": [1, 1], "activation": "linear", "use_bias": false, "kernel_initializer": {"class_name": "VarianceScaling", "config": {"scale": 2.0, "mode": "fan_in", "distribution": "uniform", "seed": null}}, "bias_initializer": {"class_name": "Zeros", "config": {}}, "kernel_regularizer": null, "bias_regularizer": null, "activity_regularizer": null, "kernel_constraint": null, "bias_constraint": null}, "inbound_nodes": [[["zero_padding2d_20", 0, 0, {}]]]}, {"name": "global_average_pooling2d_9", "class_name": "GlobalAveragePooling2D", "config": {"name": "global_average_pooling2d_9", "trainable": true, "dtype": "float32", "data_format": "channels_last"}, "inbound_nodes": [[["stage3_unit2_conv2", 0, 0, {}]]]}, {"name": "lambda_9", "class_name": "Lambda", "config": {"name": "lambda_9", "trainable": true, "dtype": "float32", "function": ["4wIAAAAAAAAAAgAAAAYAAABDAAAAc1IAAAB8AWQBawJyIHwAZABkAIUCZABkAGQAZACFAmYEGQBT\nAHwBZAJrAnJAfABkAGQAhQJkAGQAhQJkAGQAZgQZAFMAdABkA6ABfAGhAYMBggFkAFMAKQRO6QMA\nAADpAQAAAHonU2xpY2UgYXhpcyBzaG91bGQgYmUgaW4gKDEsIDMpLCBnb3Qge30uKQLaClZhbHVl\nRXJyb3LaBmZvcm1hdCkC2gF42g1jaGFubmVsc19heGlzqQByBwAAAPppL2hvbWUvcm9mYWlkYS9w\neXRob24tZW52cy9lbnYyL2xpYi9weXRob24zLjcvc2l0ZS1wYWNrYWdlcy9jbGFzc2lmaWNhdGlv\nbl9tb2RlbHMvbW9kZWxzL19jb21tb25fYmxvY2tzLnB52gtleHBhbmRfZGltc08AAABzCgAAAAAB\nCAEYAQgBGAI=\n", null, null], "function_type": "lambda", "output_shape": null, "output_shape_type": "raw", "arguments": {"channels_axis": 3}}, "inbound_nodes": [[["global_average_pooling2d_9", 0, 0, {}]]]}, {"name": "conv2d_17", "class_name": "Conv2D", "config": {"name": "conv2d_17", "trainable": true, "dtype": "float32", "filters": 16, "kernel_size": [1, 1], "strides": [1, 1], "padding": "valid", "data_format": "channels_last", "dilation_rate": [1, 1], "activation": "linear", "use_bias": true, "kernel_initializer": {"class_name": "VarianceScaling", "config": {"scale": 2.0, "mode": "fan_in", "distribution": "uniform", "seed": null}}, "bias_initializer": {"class_name": "Zeros", "config": {}}, "kernel_regularizer": null, "bias_regularizer": null, "activity_regularizer": null, "kernel_constraint": null, "bias_constraint": null}, "inbound_nodes": [[["lambda_9", 0, 0, {}]]]}, {"name": "activation_17", "class_name": "Activation", "config": {"name": "activation_17", "trainable": true, "dtype": "float32", "activation": "relu"}, "inbound_nodes": [[["conv2d_17", 0, 0, {}]]]}, {"name": "conv2d_18", "class_name": "Conv2D", "config": {"name": "conv2d_18", "trainable": true, "dtype": "float32", "filters": 256, "kernel_size": [1, 1], "strides": [1, 1], "padding": "valid", "data_format": "channels_last", "dilation_rate": [1, 1], "activation": "linear", "use_bias": true, "kernel_initializer": {"class_name": "VarianceScaling", "config": {"scale": 2.0, "mode": "fan_in", "distribution": "uniform", "seed": null}}, "bias_initializer": {"class_name": "Zeros", "config": {}}, "kernel_regularizer": null, "bias_regularizer": null, "activity_regularizer": null, "kernel_constraint": null, "bias_constraint": null}, "inbound_nodes": [[["activation_17", 0, 0, {}]]]}, {"name": "activation_18", "class_name": "Activation", "config": {"name": "activation_18", "trainable": true, "dtype": "float32", "activation": "sigmoid"}, "inbound_nodes": [[["conv2d_18", 0, 0, {}]]]}, {"name": "multiply_9", "class_name": "Multiply", "config": {"name": "multiply_9", "trainable": true, "dtype": "float32"}, "inbound_nodes": [[["stage3_unit2_conv2", 0, 0, {}], ["activation_18", 0, 0, {}]]]}, {"name": "add_9", "class_name": "Add", "config": {"name": "add_9", "trainable": true, "dtype": "float32"}, "inbound_nodes": [[["multiply_9", 0, 0, {}], ["add_8", 0, 0, {}]]]}, {"name": "stage3_unit3_bn1", "class_name": "BatchNormalization", "config": {"name": "stage3_unit3_bn1", "trainable": true, "dtype": "float32", "axis": 3, "momentum": 0.99, "epsilon": 2e-05, "center": true, "scale": true, "beta_initializer": {"class_name": "Zeros", "config": {}}, "gamma_initializer": {"class_name": "Ones", "config": {}}, "moving_mean_initializer": {"class_name": "Zeros", "config": {}}, "moving_variance_initializer": {"class_name": "Ones", "config": {}}, "beta_regularizer": null, "gamma_regularizer": null, "beta_constraint": null, "gamma_constraint": null}, "inbound_nodes": [[["add_9", 0, 0, {}]]]}, {"name": "stage3_unit3_relu1", "class_name": "Activation", "config": {"name": "stage3_unit3_relu1", "trainable": true, "dtype": "float32", "activation": "relu"}, "inbound_nodes": [[["stage3_unit3_bn1", 0, 0, {}]]]}, {"name": "zero_padding2d_21", "class_name": "ZeroPadding2D", "config": {"name": "zero_padding2d_21", "trainable": true, "dtype": "float32", "padding": [[1, 1], [1, 1]], "data_format": "channels_last"}, "inbound_nodes": [[["stage3_unit3_relu1", 0, 0, {}]]]}, {"name": "stage3_unit3_conv1", "class_name": "Conv2D", "config": {"name": "stage3_unit3_conv1", "trainable": true, "dtype": "float32", "filters": 256, "kernel_size": [3, 3], "strides": [1, 1], "padding": "valid", "data_format": "channels_last", "dilation_rate": [1, 1], "activation": "linear", "use_bias": false, "kernel_initializer": {"class_name": "VarianceScaling", "config": {"scale": 2.0, "mode": "fan_in", "distribution": "uniform", "seed": null}}, "bias_initializer": {"class_name": "Zeros", "config": {}}, "kernel_regularizer": null, "bias_regularizer": null, "activity_regularizer": null, "kernel_constraint": null, "bias_constraint": null}, "inbound_nodes": [[["zero_padding2d_21", 0, 0, {}]]]}, {"name": "stage3_unit3_bn2", "class_name": "BatchNormalization", "config": {"name": "stage3_unit3_bn2", "trainable": true, "dtype": "float32", "axis": 3, "momentum": 0.99, "epsilon": 2e-05, "center": true, "scale": true, "beta_initializer": {"class_name": "Zeros", "config": {}}, "gamma_initializer": {"class_name": "Ones", "config": {}}, "moving_mean_initializer": {"class_name": "Zeros", "config": {}}, "moving_variance_initializer": {"class_name": "Ones", "config": {}}, "beta_regularizer": null, "gamma_regularizer": null, "beta_constraint": null, "gamma_constraint": null}, "inbound_nodes": [[["stage3_unit3_conv1", 0, 0, {}]]]}, {"name": "stage3_unit3_relu2", "class_name": "Activation", "config": {"name": "stage3_unit3_relu2", "trainable": true, "dtype": "float32", "activation": "relu"}, "inbound_nodes": [[["stage3_unit3_bn2", 0, 0, {}]]]}, {"name": "zero_padding2d_22", "class_name": "ZeroPadding2D", "config": {"name": "zero_padding2d_22", "trainable": true, "dtype": "float32", "padding": [[1, 1], [1, 1]], "data_format": "channels_last"}, "inbound_nodes": [[["stage3_unit3_relu2", 0, 0, {}]]]}, {"name": "stage3_unit3_conv2", "class_name": "Conv2D", "config": {"name": "stage3_unit3_conv2", "trainable": true, "dtype": "float32", "filters": 256, "kernel_size": [3, 3], "strides": [1, 1], "padding": "valid", "data_format": "channels_last", "dilation_rate": [1, 1], "activation": "linear", "use_bias": false, "kernel_initializer": {"class_name": "VarianceScaling", "config": {"scale": 2.0, "mode": "fan_in", "distribution": "uniform", "seed": null}}, "bias_initializer": {"class_name": "Zeros", "config": {}}, "kernel_regularizer": null, "bias_regularizer": null, "activity_regularizer": null, "kernel_constraint": null, "bias_constraint": null}, "inbound_nodes": [[["zero_padding2d_22", 0, 0, {}]]]}, {"name": "global_average_pooling2d_10", "class_name": "GlobalAveragePooling2D", "config": {"name": "global_average_pooling2d_10", "trainable": true, "dtype": "float32", "data_format": "channels_last"}, "inbound_nodes": [[["stage3_unit3_conv2", 0, 0, {}]]]}, {"name": "lambda_10", "class_name": "Lambda", "config": {"name": "lambda_10", "trainable": true, "dtype": "float32", "function": ["4wIAAAAAAAAAAgAAAAYAAABDAAAAc1IAAAB8AWQBawJyIHwAZABkAIUCZABkAGQAZACFAmYEGQBT\nAHwBZAJrAnJAfABkAGQAhQJkAGQAhQJkAGQAZgQZAFMAdABkA6ABfAGhAYMBggFkAFMAKQRO6QMA\nAADpAQAAAHonU2xpY2UgYXhpcyBzaG91bGQgYmUgaW4gKDEsIDMpLCBnb3Qge30uKQLaClZhbHVl\nRXJyb3LaBmZvcm1hdCkC2gF42g1jaGFubmVsc19heGlzqQByBwAAAPppL2hvbWUvcm9mYWlkYS9w\neXRob24tZW52cy9lbnYyL2xpYi9weXRob24zLjcvc2l0ZS1wYWNrYWdlcy9jbGFzc2lmaWNhdGlv\nbl9tb2RlbHMvbW9kZWxzL19jb21tb25fYmxvY2tzLnB52gtleHBhbmRfZGltc08AAABzCgAAAAAB\nCAEYAQgBGAI=\n", null, null], "function_type": "lambda", "output_shape": null, "output_shape_type": "raw", "arguments": {"channels_axis": 3}}, "inbound_nodes": [[["global_average_pooling2d_10", 0, 0, {}]]]}, {"name": "conv2d_19", "class_name": "Conv2D", "config": {"name": "conv2d_19", "trainable": true, "dtype": "float32", "filters": 16, "kernel_size": [1, 1], "strides": [1, 1], "padding": "valid", "data_format": "channels_last", "dilation_rate": [1, 1], "activation": "linear", "use_bias": true, "kernel_initializer": {"class_name": "VarianceScaling", "config": {"scale": 2.0, "mode": "fan_in", "distribution": "uniform", "seed": null}}, "bias_initializer": {"class_name": "Zeros", "config": {}}, "kernel_regularizer": null, "bias_regularizer": null, "activity_regularizer": null, "kernel_constraint": null, "bias_constraint": null}, "inbound_nodes": [[["lambda_10", 0, 0, {}]]]}, {"name": "activation_19", "class_name": "Activation", "config": {"name": "activation_19", "trainable": true, "dtype": "float32", "activation": "relu"}, "inbound_nodes": [[["conv2d_19", 0, 0, {}]]]}, {"name": "conv2d_20", "class_name": "Conv2D", "config": {"name": "conv2d_20", "trainable": true, "dtype": "float32", "filters": 256, "kernel_size": [1, 1], "strides": [1, 1], "padding": "valid", "data_format": "channels_last", "dilation_rate": [1, 1], "activation": "linear", "use_bias": true, "kernel_initializer": {"class_name": "VarianceScaling", "config": {"scale": 2.0, "mode": "fan_in", "distribution": "uniform", "seed": null}}, "bias_initializer": {"class_name": "Zeros", "config": {}}, "kernel_regularizer": null, "bias_regularizer": null, "activity_regularizer": null, "kernel_constraint": null, "bias_constraint": null}, "inbound_nodes": [[["activation_19", 0, 0, {}]]]}, {"name": "activation_20", "class_name": "Activation", "config": {"name": "activation_20", "trainable": true, "dtype": "float32", "activation": "sigmoid"}, "inbound_nodes": [[["conv2d_20", 0, 0, {}]]]}, {"name": "multiply_10", "class_name": "Multiply", "config": {"name": "multiply_10", "trainable": true, "dtype": "float32"}, "inbound_nodes": [[["stage3_unit3_conv2", 0, 0, {}], ["activation_20", 0, 0, {}]]]}, {"name": "add_10", "class_name": "Add", "config": {"name": "add_10", "trainable": true, "dtype": "float32"}, "inbound_nodes": [[["multiply_10", 0, 0, {}], ["add_9", 0, 0, {}]]]}, {"name": "stage3_unit4_bn1", "class_name": "BatchNormalization", "config": {"name": "stage3_unit4_bn1", "trainable": true, "dtype": "float32", "axis": 3, "momentum": 0.99, "epsilon": 2e-05, "center": true, "scale": true, "beta_initializer": {"class_name": "Zeros", "config": {}}, "gamma_initializer": {"class_name": "Ones", "config": {}}, "moving_mean_initializer": {"class_name": "Zeros", "config": {}}, "moving_variance_initializer": {"class_name": "Ones", "config": {}}, "beta_regularizer": null, "gamma_regularizer": null, "beta_constraint": null, "gamma_constraint": null}, "inbound_nodes": [[["add_10", 0, 0, {}]]]}, {"name": "stage3_unit4_relu1", "class_name": "Activation", "config": {"name": "stage3_unit4_relu1", "trainable": true, "dtype": "float32", "activation": "relu"}, "inbound_nodes": [[["stage3_unit4_bn1", 0, 0, {}]]]}, {"name": "zero_padding2d_23", "class_name": "ZeroPadding2D", "config": {"name": "zero_padding2d_23", "trainable": true, "dtype": "float32", "padding": [[1, 1], [1, 1]], "data_format": "channels_last"}, "inbound_nodes": [[["stage3_unit4_relu1", 0, 0, {}]]]}, {"name": "stage3_unit4_conv1", "class_name": "Conv2D", "config": {"name": "stage3_unit4_conv1", "trainable": true, "dtype": "float32", "filters": 256, "kernel_size": [3, 3], "strides": [1, 1], "padding": "valid", "data_format": "channels_last", "dilation_rate": [1, 1], "activation": "linear", "use_bias": false, "kernel_initializer": {"class_name": "VarianceScaling", "config": {"scale": 2.0, "mode": "fan_in", "distribution": "uniform", "seed": null}}, "bias_initializer": {"class_name": "Zeros", "config": {}}, "kernel_regularizer": null, "bias_regularizer": null, "activity_regularizer": null, "kernel_constraint": null, "bias_constraint": null}, "inbound_nodes": [[["zero_padding2d_23", 0, 0, {}]]]}, {"name": "stage3_unit4_bn2", "class_name": "BatchNormalization", "config": {"name": "stage3_unit4_bn2", "trainable": true, "dtype": "float32", "axis": 3, "momentum": 0.99, "epsilon": 2e-05, "center": true, "scale": true, "beta_initializer": {"class_name": "Zeros", "config": {}}, "gamma_initializer": {"class_name": "Ones", "config": {}}, "moving_mean_initializer": {"class_name": "Zeros", "config": {}}, "moving_variance_initializer": {"class_name": "Ones", "config": {}}, "beta_regularizer": null, "gamma_regularizer": null, "beta_constraint": null, "gamma_constraint": null}, "inbound_nodes": [[["stage3_unit4_conv1", 0, 0, {}]]]}, {"name": "stage3_unit4_relu2", "class_name": "Activation", "config": {"name": "stage3_unit4_relu2", "trainable": true, "dtype": "float32", "activation": "relu"}, "inbound_nodes": [[["stage3_unit4_bn2", 0, 0, {}]]]}, {"name": "zero_padding2d_24", "class_name": "ZeroPadding2D", "config": {"name": "zero_padding2d_24", "trainable": true, "dtype": "float32", "padding": [[1, 1], [1, 1]], "data_format": "channels_last"}, "inbound_nodes": [[["stage3_unit4_relu2", 0, 0, {}]]]}, {"name": "stage3_unit4_conv2", "class_name": "Conv2D", "config": {"name": "stage3_unit4_conv2", "trainable": true, "dtype": "float32", "filters": 256, "kernel_size": [3, 3], "strides": [1, 1], "padding": "valid", "data_format": "channels_last", "dilation_rate": [1, 1], "activation": "linear", "use_bias": false, "kernel_initializer": {"class_name": "VarianceScaling", "config": {"scale": 2.0, "mode": "fan_in", "distribution": "uniform", "seed": null}}, "bias_initializer": {"class_name": "Zeros", "config": {}}, "kernel_regularizer": null, "bias_regularizer": null, "activity_regularizer": null, "kernel_constraint": null, "bias_constraint": null}, "inbound_nodes": [[["zero_padding2d_24", 0, 0, {}]]]}, {"name": "global_average_pooling2d_11", "class_name": "GlobalAveragePooling2D", "config": {"name": "global_average_pooling2d_11", "trainable": true, "dtype": "float32", "data_format": "channels_last"}, "inbound_nodes": [[["stage3_unit4_conv2", 0, 0, {}]]]}, {"name": "lambda_11", "class_name": "Lambda", "config": {"name": "lambda_11", "trainable": true, "dtype": "float32", "function": ["4wIAAAAAAAAAAgAAAAYAAABDAAAAc1IAAAB8AWQBawJyIHwAZABkAIUCZABkAGQAZACFAmYEGQBT\nAHwBZAJrAnJAfABkAGQAhQJkAGQAhQJkAGQAZgQZAFMAdABkA6ABfAGhAYMBggFkAFMAKQRO6QMA\nAADpAQAAAHonU2xpY2UgYXhpcyBzaG91bGQgYmUgaW4gKDEsIDMpLCBnb3Qge30uKQLaClZhbHVl\nRXJyb3LaBmZvcm1hdCkC2gF42g1jaGFubmVsc19heGlzqQByBwAAAPppL2hvbWUvcm9mYWlkYS9w\neXRob24tZW52cy9lbnYyL2xpYi9weXRob24zLjcvc2l0ZS1wYWNrYWdlcy9jbGFzc2lmaWNhdGlv\nbl9tb2RlbHMvbW9kZWxzL19jb21tb25fYmxvY2tzLnB52gtleHBhbmRfZGltc08AAABzCgAAAAAB\nCAEYAQgBGAI=\n", null, null], "function_type": "lambda", "output_shape": null, "output_shape_type": "raw", "arguments": {"channels_axis": 3}}, "inbound_nodes": [[["global_average_pooling2d_11", 0, 0, {}]]]}, {"name": "conv2d_21", "class_name": "Conv2D", "config": {"name": "conv2d_21", "trainable": true, "dtype": "float32", "filters": 16, "kernel_size": [1, 1], "strides": [1, 1], "padding": "valid", "data_format": "channels_last", "dilation_rate": [1, 1], "activation": "linear", "use_bias": true, "kernel_initializer": {"class_name": "VarianceScaling", "config": {"scale": 2.0, "mode": "fan_in", "distribution": "uniform", "seed": null}}, "bias_initializer": {"class_name": "Zeros", "config": {}}, "kernel_regularizer": null, "bias_regularizer": null, "activity_regularizer": null, "kernel_constraint": null, "bias_constraint": null}, "inbound_nodes": [[["lambda_11", 0, 0, {}]]]}, {"name": "activation_21", "class_name": "Activation", "config": {"name": "activation_21", "trainable": true, "dtype": "float32", "activation": "relu"}, "inbound_nodes": [[["conv2d_21", 0, 0, {}]]]}, {"name": "conv2d_22", "class_name": "Conv2D", "config": {"name": "conv2d_22", "trainable": true, "dtype": "float32", "filters": 256, "kernel_size": [1, 1], "strides": [1, 1], "padding": "valid", "data_format": "channels_last", "dilation_rate": [1, 1], "activation": "linear", "use_bias": true, "kernel_initializer": {"class_name": "VarianceScaling", "config": {"scale": 2.0, "mode": "fan_in", "distribution": "uniform", "seed": null}}, "bias_initializer": {"class_name": "Zeros", "config": {}}, "kernel_regularizer": null, "bias_regularizer": null, "activity_regularizer": null, "kernel_constraint": null, "bias_constraint": null}, "inbound_nodes": [[["activation_21", 0, 0, {}]]]}, {"name": "activation_22", "class_name": "Activation", "config": {"name": "activation_22", "trainable": true, "dtype": "float32", "activation": "sigmoid"}, "inbound_nodes": [[["conv2d_22", 0, 0, {}]]]}, {"name": "multiply_11", "class_name": "Multiply", "config": {"name": "multiply_11", "trainable": true, "dtype": "float32"}, "inbound_nodes": [[["stage3_unit4_conv2", 0, 0, {}], ["activation_22", 0, 0, {}]]]}, {"name": "add_11", "class_name": "Add", "config": {"name": "add_11", "trainable": true, "dtype": "float32"}, "inbound_nodes": [[["multiply_11", 0, 0, {}], ["add_10", 0, 0, {}]]]}, {"name": "stage3_unit5_bn1", "class_name": "BatchNormalization", "config": {"name": "stage3_unit5_bn1", "trainable": true, "dtype": "float32", "axis": 3, "momentum": 0.99, "epsilon": 2e-05, "center": true, "scale": true, "beta_initializer": {"class_name": "Zeros", "config": {}}, "gamma_initializer": {"class_name": "Ones", "config": {}}, "moving_mean_initializer": {"class_name": "Zeros", "config": {}}, "moving_variance_initializer": {"class_name": "Ones", "config": {}}, "beta_regularizer": null, "gamma_regularizer": null, "beta_constraint": null, "gamma_constraint": null}, "inbound_nodes": [[["add_11", 0, 0, {}]]]}, {"name": "stage3_unit5_relu1", "class_name": "Activation", "config": {"name": "stage3_unit5_relu1", "trainable": true, "dtype": "float32", "activation": "relu"}, "inbound_nodes": [[["stage3_unit5_bn1", 0, 0, {}]]]}, {"name": "zero_padding2d_25", "class_name": "ZeroPadding2D", "config": {"name": "zero_padding2d_25", "trainable": true, "dtype": "float32", "padding": [[1, 1], [1, 1]], "data_format": "channels_last"}, "inbound_nodes": [[["stage3_unit5_relu1", 0, 0, {}]]]}, {"name": "stage3_unit5_conv1", "class_name": "Conv2D", "config": {"name": "stage3_unit5_conv1", "trainable": true, "dtype": "float32", "filters": 256, "kernel_size": [3, 3], "strides": [1, 1], "padding": "valid", "data_format": "channels_last", "dilation_rate": [1, 1], "activation": "linear", "use_bias": false, "kernel_initializer": {"class_name": "VarianceScaling", "config": {"scale": 2.0, "mode": "fan_in", "distribution": "uniform", "seed": null}}, "bias_initializer": {"class_name": "Zeros", "config": {}}, "kernel_regularizer": null, "bias_regularizer": null, "activity_regularizer": null, "kernel_constraint": null, "bias_constraint": null}, "inbound_nodes": [[["zero_padding2d_25", 0, 0, {}]]]}, {"name": "stage3_unit5_bn2", "class_name": "BatchNormalization", "config": {"name": "stage3_unit5_bn2", "trainable": true, "dtype": "float32", "axis": 3, "momentum": 0.99, "epsilon": 2e-05, "center": true, "scale": true, "beta_initializer": {"class_name": "Zeros", "config": {}}, "gamma_initializer": {"class_name": "Ones", "config": {}}, "moving_mean_initializer": {"class_name": "Zeros", "config": {}}, "moving_variance_initializer": {"class_name": "Ones", "config": {}}, "beta_regularizer": null, "gamma_regularizer": null, "beta_constraint": null, "gamma_constraint": null}, "inbound_nodes": [[["stage3_unit5_conv1", 0, 0, {}]]]}, {"name": "stage3_unit5_relu2", "class_name": "Activation", "config": {"name": "stage3_unit5_relu2", "trainable": true, "dtype": "float32", "activation": "relu"}, "inbound_nodes": [[["stage3_unit5_bn2", 0, 0, {}]]]}, {"name": "zero_padding2d_26", "class_name": "ZeroPadding2D", "config": {"name": "zero_padding2d_26", "trainable": true, "dtype": "float32", "padding": [[1, 1], [1, 1]], "data_format": "channels_last"}, "inbound_nodes": [[["stage3_unit5_relu2", 0, 0, {}]]]}, {"name": "stage3_unit5_conv2", "class_name": "Conv2D", "config": {"name": "stage3_unit5_conv2", "trainable": true, "dtype": "float32", "filters": 256, "kernel_size": [3, 3], "strides": [1, 1], "padding": "valid", "data_format": "channels_last", "dilation_rate": [1, 1], "activation": "linear", "use_bias": false, "kernel_initializer": {"class_name": "VarianceScaling", "config": {"scale": 2.0, "mode": "fan_in", "distribution": "uniform", "seed": null}}, "bias_initializer": {"class_name": "Zeros", "config": {}}, "kernel_regularizer": null, "bias_regularizer": null, "activity_regularizer": null, "kernel_constraint": null, "bias_constraint": null}, "inbound_nodes": [[["zero_padding2d_26", 0, 0, {}]]]}, {"name": "global_average_pooling2d_12", "class_name": "GlobalAveragePooling2D", "config": {"name": "global_average_pooling2d_12", "trainable": true, "dtype": "float32", "data_format": "channels_last"}, "inbound_nodes": [[["stage3_unit5_conv2", 0, 0, {}]]]}, {"name": "lambda_12", "class_name": "Lambda", "config": {"name": "lambda_12", "trainable": true, "dtype": "float32", "function": ["4wIAAAAAAAAAAgAAAAYAAABDAAAAc1IAAAB8AWQBawJyIHwAZABkAIUCZABkAGQAZACFAmYEGQBT\nAHwBZAJrAnJAfABkAGQAhQJkAGQAhQJkAGQAZgQZAFMAdABkA6ABfAGhAYMBggFkAFMAKQRO6QMA\nAADpAQAAAHonU2xpY2UgYXhpcyBzaG91bGQgYmUgaW4gKDEsIDMpLCBnb3Qge30uKQLaClZhbHVl\nRXJyb3LaBmZvcm1hdCkC2gF42g1jaGFubmVsc19heGlzqQByBwAAAPppL2hvbWUvcm9mYWlkYS9w\neXRob24tZW52cy9lbnYyL2xpYi9weXRob24zLjcvc2l0ZS1wYWNrYWdlcy9jbGFzc2lmaWNhdGlv\nbl9tb2RlbHMvbW9kZWxzL19jb21tb25fYmxvY2tzLnB52gtleHBhbmRfZGltc08AAABzCgAAAAAB\nCAEYAQgBGAI=\n", null, null], "function_type": "lambda", "output_shape": null, "output_shape_type": "raw", "arguments": {"channels_axis": 3}}, "inbound_nodes": [[["global_average_pooling2d_12", 0, 0, {}]]]}, {"name": "conv2d_23", "class_name": "Conv2D", "config": {"name": "conv2d_23", "trainable": true, "dtype": "float32", "filters": 16, "kernel_size": [1, 1], "strides": [1, 1], "padding": "valid", "data_format": "channels_last", "dilation_rate": [1, 1], "activation": "linear", "use_bias": true, "kernel_initializer": {"class_name": "VarianceScaling", "config": {"scale": 2.0, "mode": "fan_in", "distribution": "uniform", "seed": null}}, "bias_initializer": {"class_name": "Zeros", "config": {}}, "kernel_regularizer": null, "bias_regularizer": null, "activity_regularizer": null, "kernel_constraint": null, "bias_constraint": null}, "inbound_nodes": [[["lambda_12", 0, 0, {}]]]}, {"name": "activation_23", "class_name": "Activation", "config": {"name": "activation_23", "trainable": true, "dtype": "float32", "activation": "relu"}, "inbound_nodes": [[["conv2d_23", 0, 0, {}]]]}, {"name": "conv2d_24", "class_name": "Conv2D", "config": {"name": "conv2d_24", "trainable": true, "dtype": "float32", "filters": 256, "kernel_size": [1, 1], "strides": [1, 1], "padding": "valid", "data_format": "channels_last", "dilation_rate": [1, 1], "activation": "linear", "use_bias": true, "kernel_initializer": {"class_name": "VarianceScaling", "config": {"scale": 2.0, "mode": "fan_in", "distribution": "uniform", "seed": null}}, "bias_initializer": {"class_name": "Zeros", "config": {}}, "kernel_regularizer": null, "bias_regularizer": null, "activity_regularizer": null, "kernel_constraint": null, "bias_constraint": null}, "inbound_nodes": [[["activation_23", 0, 0, {}]]]}, {"name": "activation_24", "class_name": "Activation", "config": {"name": "activation_24", "trainable": true, "dtype": "float32", "activation": "sigmoid"}, "inbound_nodes": [[["conv2d_24", 0, 0, {}]]]}, {"name": "multiply_12", "class_name": "Multiply", "config": {"name": "multiply_12", "trainable": true, "dtype": "float32"}, "inbound_nodes": [[["stage3_unit5_conv2", 0, 0, {}], ["activation_24", 0, 0, {}]]]}, {"name": "add_12", "class_name": "Add", "config": {"name": "add_12", "trainable": true, "dtype": "float32"}, "inbound_nodes": [[["multiply_12", 0, 0, {}], ["add_11", 0, 0, {}]]]}, {"name": "stage3_unit6_bn1", "class_name": "BatchNormalization", "config": {"name": "stage3_unit6_bn1", "trainable": true, "dtype": "float32", "axis": 3, "momentum": 0.99, "epsilon": 2e-05, "center": true, "scale": true, "beta_initializer": {"class_name": "Zeros", "config": {}}, "gamma_initializer": {"class_name": "Ones", "config": {}}, "moving_mean_initializer": {"class_name": "Zeros", "config": {}}, "moving_variance_initializer": {"class_name": "Ones", "config": {}}, "beta_regularizer": null, "gamma_regularizer": null, "beta_constraint": null, "gamma_constraint": null}, "inbound_nodes": [[["add_12", 0, 0, {}]]]}, {"name": "stage3_unit6_relu1", "class_name": "Activation", "config": {"name": "stage3_unit6_relu1", "trainable": true, "dtype": "float32", "activation": "relu"}, "inbound_nodes": [[["stage3_unit6_bn1", 0, 0, {}]]]}, {"name": "zero_padding2d_27", "class_name": "ZeroPadding2D", "config": {"name": "zero_padding2d_27", "trainable": true, "dtype": "float32", "padding": [[1, 1], [1, 1]], "data_format": "channels_last"}, "inbound_nodes": [[["stage3_unit6_relu1", 0, 0, {}]]]}, {"name": "stage3_unit6_conv1", "class_name": "Conv2D", "config": {"name": "stage3_unit6_conv1", "trainable": true, "dtype": "float32", "filters": 256, "kernel_size": [3, 3], "strides": [1, 1], "padding": "valid", "data_format": "channels_last", "dilation_rate": [1, 1], "activation": "linear", "use_bias": false, "kernel_initializer": {"class_name": "VarianceScaling", "config": {"scale": 2.0, "mode": "fan_in", "distribution": "uniform", "seed": null}}, "bias_initializer": {"class_name": "Zeros", "config": {}}, "kernel_regularizer": null, "bias_regularizer": null, "activity_regularizer": null, "kernel_constraint": null, "bias_constraint": null}, "inbound_nodes": [[["zero_padding2d_27", 0, 0, {}]]]}, {"name": "stage3_unit6_bn2", "class_name": "BatchNormalization", "config": {"name": "stage3_unit6_bn2", "trainable": true, "dtype": "float32", "axis": 3, "momentum": 0.99, "epsilon": 2e-05, "center": true, "scale": true, "beta_initializer": {"class_name": "Zeros", "config": {}}, "gamma_initializer": {"class_name": "Ones", "config": {}}, "moving_mean_initializer": {"class_name": "Zeros", "config": {}}, "moving_variance_initializer": {"class_name": "Ones", "config": {}}, "beta_regularizer": null, "gamma_regularizer": null, "beta_constraint": null, "gamma_constraint": null}, "inbound_nodes": [[["stage3_unit6_conv1", 0, 0, {}]]]}, {"name": "stage3_unit6_relu2", "class_name": "Activation", "config": {"name": "stage3_unit6_relu2", "trainable": true, "dtype": "float32", "activation": "relu"}, "inbound_nodes": [[["stage3_unit6_bn2", 0, 0, {}]]]}, {"name": "zero_padding2d_28", "class_name": "ZeroPadding2D", "config": {"name": "zero_padding2d_28", "trainable": true, "dtype": "float32", "padding": [[1, 1], [1, 1]], "data_format": "channels_last"}, "inbound_nodes": [[["stage3_unit6_relu2", 0, 0, {}]]]}, {"name": "stage3_unit6_conv2", "class_name": "Conv2D", "config": {"name": "stage3_unit6_conv2", "trainable": true, "dtype": "float32", "filters": 256, "kernel_size": [3, 3], "strides": [1, 1], "padding": "valid", "data_format": "channels_last", "dilation_rate": [1, 1], "activation": "linear", "use_bias": false, "kernel_initializer": {"class_name": "VarianceScaling", "config": {"scale": 2.0, "mode": "fan_in", "distribution": "uniform", "seed": null}}, "bias_initializer": {"class_name": "Zeros", "config": {}}, "kernel_regularizer": null, "bias_regularizer": null, "activity_regularizer": null, "kernel_constraint": null, "bias_constraint": null}, "inbound_nodes": [[["zero_padding2d_28", 0, 0, {}]]]}, {"name": "global_average_pooling2d_13", "class_name": "GlobalAveragePooling2D", "config": {"name": "global_average_pooling2d_13", "trainable": true, "dtype": "float32", "data_format": "channels_last"}, "inbound_nodes": [[["stage3_unit6_conv2", 0, 0, {}]]]}, {"name": "lambda_13", "class_name": "Lambda", "config": {"name": "lambda_13", "trainable": true, "dtype": "float32", "function": ["4wIAAAAAAAAAAgAAAAYAAABDAAAAc1IAAAB8AWQBawJyIHwAZABkAIUCZABkAGQAZACFAmYEGQBT\nAHwBZAJrAnJAfABkAGQAhQJkAGQAhQJkAGQAZgQZAFMAdABkA6ABfAGhAYMBggFkAFMAKQRO6QMA\nAADpAQAAAHonU2xpY2UgYXhpcyBzaG91bGQgYmUgaW4gKDEsIDMpLCBnb3Qge30uKQLaClZhbHVl\nRXJyb3LaBmZvcm1hdCkC2gF42g1jaGFubmVsc19heGlzqQByBwAAAPppL2hvbWUvcm9mYWlkYS9w\neXRob24tZW52cy9lbnYyL2xpYi9weXRob24zLjcvc2l0ZS1wYWNrYWdlcy9jbGFzc2lmaWNhdGlv\nbl9tb2RlbHMvbW9kZWxzL19jb21tb25fYmxvY2tzLnB52gtleHBhbmRfZGltc08AAABzCgAAAAAB\nCAEYAQgBGAI=\n", null, null], "function_type": "lambda", "output_shape": null, "output_shape_type": "raw", "arguments": {"channels_axis": 3}}, "inbound_nodes": [[["global_average_pooling2d_13", 0, 0, {}]]]}, {"name": "conv2d_25", "class_name": "Conv2D", "config": {"name": "conv2d_25", "trainable": true, "dtype": "float32", "filters": 16, "kernel_size": [1, 1], "strides": [1, 1], "padding": "valid", "data_format": "channels_last", "dilation_rate": [1, 1], "activation": "linear", "use_bias": true, "kernel_initializer": {"class_name": "VarianceScaling", "config": {"scale": 2.0, "mode": "fan_in", "distribution": "uniform", "seed": null}}, "bias_initializer": {"class_name": "Zeros", "config": {}}, "kernel_regularizer": null, "bias_regularizer": null, "activity_regularizer": null, "kernel_constraint": null, "bias_constraint": null}, "inbound_nodes": [[["lambda_13", 0, 0, {}]]]}, {"name": "activation_25", "class_name": "Activation", "config": {"name": "activation_25", "trainable": true, "dtype": "float32", "activation": "relu"}, "inbound_nodes": [[["conv2d_25", 0, 0, {}]]]}, {"name": "conv2d_26", "class_name": "Conv2D", "config": {"name": "conv2d_26", "trainable": true, "dtype": "float32", "filters": 256, "kernel_size": [1, 1], "strides": [1, 1], "padding": "valid", "data_format": "channels_last", "dilation_rate": [1, 1], "activation": "linear", "use_bias": true, "kernel_initializer": {"class_name": "VarianceScaling", "config": {"scale": 2.0, "mode": "fan_in", "distribution": "uniform", "seed": null}}, "bias_initializer": {"class_name": "Zeros", "config": {}}, "kernel_regularizer": null, "bias_regularizer": null, "activity_regularizer": null, "kernel_constraint": null, "bias_constraint": null}, "inbound_nodes": [[["activation_25", 0, 0, {}]]]}, {"name": "activation_26", "class_name": "Activation", "config": {"name": "activation_26", "trainable": true, "dtype": "float32", "activation": "sigmoid"}, "inbound_nodes": [[["conv2d_26", 0, 0, {}]]]}, {"name": "multiply_13", "class_name": "Multiply", "config": {"name": "multiply_13", "trainable": true, "dtype": "float32"}, "inbound_nodes": [[["stage3_unit6_conv2", 0, 0, {}], ["activation_26", 0, 0, {}]]]}, {"name": "add_13", "class_name": "Add", "config": {"name": "add_13", "trainable": true, "dtype": "float32"}, "inbound_nodes": [[["multiply_13", 0, 0, {}], ["add_12", 0, 0, {}]]]}, {"name": "stage4_unit1_bn1", "class_name": "BatchNormalization", "config": {"name": "stage4_unit1_bn1", "trainable": true, "dtype": "float32", "axis": 3, "momentum": 0.99, "epsilon": 2e-05, "center": true, "scale": true, "beta_initializer": {"class_name": "Zeros", "config": {}}, "gamma_initializer": {"class_name": "Ones", "config": {}}, "moving_mean_initializer": {"class_name": "Zeros", "config": {}}, "moving_variance_initializer": {"class_name": "Ones", "config": {}}, "beta_regularizer": null, "gamma_regularizer": null, "beta_constraint": null, "gamma_constraint": null}, "inbound_nodes": [[["add_13", 0, 0, {}]]]}, {"name": "stage4_unit1_relu1", "class_name": "Activation", "config": {"name": "stage4_unit1_relu1", "trainable": true, "dtype": "float32", "activation": "relu"}, "inbound_nodes": [[["stage4_unit1_bn1", 0, 0, {}]]]}, {"name": "zero_padding2d_29", "class_name": "ZeroPadding2D", "config": {"name": "zero_padding2d_29", "trainable": true, "dtype": "float32", "padding": [[1, 1], [1, 1]], "data_format": "channels_last"}, "inbound_nodes": [[["stage4_unit1_relu1", 0, 0, {}]]]}, {"name": "stage4_unit1_conv1", "class_name": "Conv2D", "config": {"name": "stage4_unit1_conv1", "trainable": true, "dtype": "float32", "filters": 512, "kernel_size": [3, 3], "strides": [2, 2], "padding": "valid", "data_format": "channels_last", "dilation_rate": [1, 1], "activation": "linear", "use_bias": false, "kernel_initializer": {"class_name": "VarianceScaling", "config": {"scale": 2.0, "mode": "fan_in", "distribution": "uniform", "seed": null}}, "bias_initializer": {"class_name": "Zeros", "config": {}}, "kernel_regularizer": null, "bias_regularizer": null, "activity_regularizer": null, "kernel_constraint": null, "bias_constraint": null}, "inbound_nodes": [[["zero_padding2d_29", 0, 0, {}]]]}, {"name": "stage4_unit1_bn2", "class_name": "BatchNormalization", "config": {"name": "stage4_unit1_bn2", "trainable": true, "dtype": "float32", "axis": 3, "momentum": 0.99, "epsilon": 2e-05, "center": true, "scale": true, "beta_initializer": {"class_name": "Zeros", "config": {}}, "gamma_initializer": {"class_name": "Ones", "config": {}}, "moving_mean_initializer": {"class_name": "Zeros", "config": {}}, "moving_variance_initializer": {"class_name": "Ones", "config": {}}, "beta_regularizer": null, "gamma_regularizer": null, "beta_constraint": null, "gamma_constraint": null}, "inbound_nodes": [[["stage4_unit1_conv1", 0, 0, {}]]]}, {"name": "stage4_unit1_relu2", "class_name": "Activation", "config": {"name": "stage4_unit1_relu2", "trainable": true, "dtype": "float32", "activation": "relu"}, "inbound_nodes": [[["stage4_unit1_bn2", 0, 0, {}]]]}, {"name": "zero_padding2d_30", "class_name": "ZeroPadding2D", "config": {"name": "zero_padding2d_30", "trainable": true, "dtype": "float32", "padding": [[1, 1], [1, 1]], "data_format": "channels_last"}, "inbound_nodes": [[["stage4_unit1_relu2", 0, 0, {}]]]}, {"name": "stage4_unit1_conv2", "class_name": "Conv2D", "config": {"name": "stage4_unit1_conv2", "trainable": true, "dtype": "float32", "filters": 512, "kernel_size": [3, 3], "strides": [1, 1], "padding": "valid", "data_format": "channels_last", "dilation_rate": [1, 1], "activation": "linear", "use_bias": false, "kernel_initializer": {"class_name": "VarianceScaling", "config": {"scale": 2.0, "mode": "fan_in", "distribution": "uniform", "seed": null}}, "bias_initializer": {"class_name": "Zeros", "config": {}}, "kernel_regularizer": null, "bias_regularizer": null, "activity_regularizer": null, "kernel_constraint": null, "bias_constraint": null}, "inbound_nodes": [[["zero_padding2d_30", 0, 0, {}]]]}, {"name": "global_average_pooling2d_14", "class_name": "GlobalAveragePooling2D", "config": {"name": "global_average_pooling2d_14", "trainable": true, "dtype": "float32", "data_format": "channels_last"}, "inbound_nodes": [[["stage4_unit1_conv2", 0, 0, {}]]]}, {"name": "lambda_14", "class_name": "Lambda", "config": {"name": "lambda_14", "trainable": true, "dtype": "float32", "function": ["4wIAAAAAAAAAAgAAAAYAAABDAAAAc1IAAAB8AWQBawJyIHwAZABkAIUCZABkAGQAZACFAmYEGQBT\nAHwBZAJrAnJAfABkAGQAhQJkAGQAhQJkAGQAZgQZAFMAdABkA6ABfAGhAYMBggFkAFMAKQRO6QMA\nAADpAQAAAHonU2xpY2UgYXhpcyBzaG91bGQgYmUgaW4gKDEsIDMpLCBnb3Qge30uKQLaClZhbHVl\nRXJyb3LaBmZvcm1hdCkC2gF42g1jaGFubmVsc19heGlzqQByBwAAAPppL2hvbWUvcm9mYWlkYS9w\neXRob24tZW52cy9lbnYyL2xpYi9weXRob24zLjcvc2l0ZS1wYWNrYWdlcy9jbGFzc2lmaWNhdGlv\nbl9tb2RlbHMvbW9kZWxzL19jb21tb25fYmxvY2tzLnB52gtleHBhbmRfZGltc08AAABzCgAAAAAB\nCAEYAQgBGAI=\n", null, null], "function_type": "lambda", "output_shape": null, "output_shape_type": "raw", "arguments": {"channels_axis": 3}}, "inbound_nodes": [[["global_average_pooling2d_14", 0, 0, {}]]]}, {"name": "conv2d_27", "class_name": "Conv2D", "config": {"name": "conv2d_27", "trainable": true, "dtype": "float32", "filters": 32, "kernel_size": [1, 1], "strides": [1, 1], "padding": "valid", "data_format": "channels_last", "dilation_rate": [1, 1], "activation": "linear", "use_bias": true, "kernel_initializer": {"class_name": "VarianceScaling", "config": {"scale": 2.0, "mode": "fan_in", "distribution": "uniform", "seed": null}}, "bias_initializer": {"class_name": "Zeros", "config": {}}, "kernel_regularizer": null, "bias_regularizer": null, "activity_regularizer": null, "kernel_constraint": null, "bias_constraint": null}, "inbound_nodes": [[["lambda_14", 0, 0, {}]]]}, {"name": "activation_27", "class_name": "Activation", "config": {"name": "activation_27", "trainable": true, "dtype": "float32", "activation": "relu"}, "inbound_nodes": [[["conv2d_27", 0, 0, {}]]]}, {"name": "conv2d_28", "class_name": "Conv2D", "config": {"name": "conv2d_28", "trainable": true, "dtype": "float32", "filters": 512, "kernel_size": [1, 1], "strides": [1, 1], "padding": "valid", "data_format": "channels_last", "dilation_rate": [1, 1], "activation": "linear", "use_bias": true, "kernel_initializer": {"class_name": "VarianceScaling", "config": {"scale": 2.0, "mode": "fan_in", "distribution": "uniform", "seed": null}}, "bias_initializer": {"class_name": "Zeros", "config": {}}, "kernel_regularizer": null, "bias_regularizer": null, "activity_regularizer": null, "kernel_constraint": null, "bias_constraint": null}, "inbound_nodes": [[["activation_27", 0, 0, {}]]]}, {"name": "activation_28", "class_name": "Activation", "config": {"name": "activation_28", "trainable": true, "dtype": "float32", "activation": "sigmoid"}, "inbound_nodes": [[["conv2d_28", 0, 0, {}]]]}, {"name": "multiply_14", "class_name": "Multiply", "config": {"name": "multiply_14", "trainable": true, "dtype": "float32"}, "inbound_nodes": [[["stage4_unit1_conv2", 0, 0, {}], ["activation_28", 0, 0, {}]]]}, {"name": "stage4_unit1_sc", "class_name": "Conv2D", "config": {"name": "stage4_unit1_sc", "trainable": true, "dtype": "float32", "filters": 512, "kernel_size": [1, 1], "strides": [2, 2], "padding": "valid", "data_format": "channels_last", "dilation_rate": [1, 1], "activation": "linear", "use_bias": false, "kernel_initializer": {"class_name": "VarianceScaling", "config": {"scale": 2.0, "mode": "fan_in", "distribution": "uniform", "seed": null}}, "bias_initializer": {"class_name": "Zeros", "config": {}}, "kernel_regularizer": null, "bias_regularizer": null, "activity_regularizer": null, "kernel_constraint": null, "bias_constraint": null}, "inbound_nodes": [[["stage4_unit1_relu1", 0, 0, {}]]]}, {"name": "add_14", "class_name": "Add", "config": {"name": "add_14", "trainable": true, "dtype": "float32"}, "inbound_nodes": [[["multiply_14", 0, 0, {}], ["stage4_unit1_sc", 0, 0, {}]]]}, {"name": "stage4_unit2_bn1", "class_name": "BatchNormalization", "config": {"name": "stage4_unit2_bn1", "trainable": true, "dtype": "float32", "axis": 3, "momentum": 0.99, "epsilon": 2e-05, "center": true, "scale": true, "beta_initializer": {"class_name": "Zeros", "config": {}}, "gamma_initializer": {"class_name": "Ones", "config": {}}, "moving_mean_initializer": {"class_name": "Zeros", "config": {}}, "moving_variance_initializer": {"class_name": "Ones", "config": {}}, "beta_regularizer": null, "gamma_regularizer": null, "beta_constraint": null, "gamma_constraint": null}, "inbound_nodes": [[["add_14", 0, 0, {}]]]}, {"name": "stage4_unit2_relu1", "class_name": "Activation", "config": {"name": "stage4_unit2_relu1", "trainable": true, "dtype": "float32", "activation": "relu"}, "inbound_nodes": [[["stage4_unit2_bn1", 0, 0, {}]]]}, {"name": "zero_padding2d_31", "class_name": "ZeroPadding2D", "config": {"name": "zero_padding2d_31", "trainable": true, "dtype": "float32", "padding": [[1, 1], [1, 1]], "data_format": "channels_last"}, "inbound_nodes": [[["stage4_unit2_relu1", 0, 0, {}]]]}, {"name": "stage4_unit2_conv1", "class_name": "Conv2D", "config": {"name": "stage4_unit2_conv1", "trainable": true, "dtype": "float32", "filters": 512, "kernel_size": [3, 3], "strides": [1, 1], "padding": "valid", "data_format": "channels_last", "dilation_rate": [1, 1], "activation": "linear", "use_bias": false, "kernel_initializer": {"class_name": "VarianceScaling", "config": {"scale": 2.0, "mode": "fan_in", "distribution": "uniform", "seed": null}}, "bias_initializer": {"class_name": "Zeros", "config": {}}, "kernel_regularizer": null, "bias_regularizer": null, "activity_regularizer": null, "kernel_constraint": null, "bias_constraint": null}, "inbound_nodes": [[["zero_padding2d_31", 0, 0, {}]]]}, {"name": "stage4_unit2_bn2", "class_name": "BatchNormalization", "config": {"name": "stage4_unit2_bn2", "trainable": true, "dtype": "float32", "axis": 3, "momentum": 0.99, "epsilon": 2e-05, "center": true, "scale": true, "beta_initializer": {"class_name": "Zeros", "config": {}}, "gamma_initializer": {"class_name": "Ones", "config": {}}, "moving_mean_initializer": {"class_name": "Zeros", "config": {}}, "moving_variance_initializer": {"class_name": "Ones", "config": {}}, "beta_regularizer": null, "gamma_regularizer": null, "beta_constraint": null, "gamma_constraint": null}, "inbound_nodes": [[["stage4_unit2_conv1", 0, 0, {}]]]}, {"name": "stage4_unit2_relu2", "class_name": "Activation", "config": {"name": "stage4_unit2_relu2", "trainable": true, "dtype": "float32", "activation": "relu"}, "inbound_nodes": [[["stage4_unit2_bn2", 0, 0, {}]]]}, {"name": "zero_padding2d_32", "class_name": "ZeroPadding2D", "config": {"name": "zero_padding2d_32", "trainable": true, "dtype": "float32", "padding": [[1, 1], [1, 1]], "data_format": "channels_last"}, "inbound_nodes": [[["stage4_unit2_relu2", 0, 0, {}]]]}, {"name": "stage4_unit2_conv2", "class_name": "Conv2D", "config": {"name": "stage4_unit2_conv2", "trainable": true, "dtype": "float32", "filters": 512, "kernel_size": [3, 3], "strides": [1, 1], "padding": "valid", "data_format": "channels_last", "dilation_rate": [1, 1], "activation": "linear", "use_bias": false, "kernel_initializer": {"class_name": "VarianceScaling", "config": {"scale": 2.0, "mode": "fan_in", "distribution": "uniform", "seed": null}}, "bias_initializer": {"class_name": "Zeros", "config": {}}, "kernel_regularizer": null, "bias_regularizer": null, "activity_regularizer": null, "kernel_constraint": null, "bias_constraint": null}, "inbound_nodes": [[["zero_padding2d_32", 0, 0, {}]]]}, {"name": "global_average_pooling2d_15", "class_name": "GlobalAveragePooling2D", "config": {"name": "global_average_pooling2d_15", "trainable": true, "dtype": "float32", "data_format": "channels_last"}, "inbound_nodes": [[["stage4_unit2_conv2", 0, 0, {}]]]}, {"name": "lambda_15", "class_name": "Lambda", "config": {"name": "lambda_15", "trainable": true, "dtype": "float32", "function": ["4wIAAAAAAAAAAgAAAAYAAABDAAAAc1IAAAB8AWQBawJyIHwAZABkAIUCZABkAGQAZACFAmYEGQBT\nAHwBZAJrAnJAfABkAGQAhQJkAGQAhQJkAGQAZgQZAFMAdABkA6ABfAGhAYMBggFkAFMAKQRO6QMA\nAADpAQAAAHonU2xpY2UgYXhpcyBzaG91bGQgYmUgaW4gKDEsIDMpLCBnb3Qge30uKQLaClZhbHVl\nRXJyb3LaBmZvcm1hdCkC2gF42g1jaGFubmVsc19heGlzqQByBwAAAPppL2hvbWUvcm9mYWlkYS9w\neXRob24tZW52cy9lbnYyL2xpYi9weXRob24zLjcvc2l0ZS1wYWNrYWdlcy9jbGFzc2lmaWNhdGlv\nbl9tb2RlbHMvbW9kZWxzL19jb21tb25fYmxvY2tzLnB52gtleHBhbmRfZGltc08AAABzCgAAAAAB\nCAEYAQgBGAI=\n", null, null], "function_type": "lambda", "output_shape": null, "output_shape_type": "raw", "arguments": {"channels_axis": 3}}, "inbound_nodes": [[["global_average_pooling2d_15", 0, 0, {}]]]}, {"name": "conv2d_29", "class_name": "Conv2D", "config": {"name": "conv2d_29", "trainable": true, "dtype": "float32", "filters": 32, "kernel_size": [1, 1], "strides": [1, 1], "padding": "valid", "data_format": "channels_last", "dilation_rate": [1, 1], "activation": "linear", "use_bias": true, "kernel_initializer": {"class_name": "VarianceScaling", "config": {"scale": 2.0, "mode": "fan_in", "distribution": "uniform", "seed": null}}, "bias_initializer": {"class_name": "Zeros", "config": {}}, "kernel_regularizer": null, "bias_regularizer": null, "activity_regularizer": null, "kernel_constraint": null, "bias_constraint": null}, "inbound_nodes": [[["lambda_15", 0, 0, {}]]]}, {"name": "activation_29", "class_name": "Activation", "config": {"name": "activation_29", "trainable": true, "dtype": "float32", "activation": "relu"}, "inbound_nodes": [[["conv2d_29", 0, 0, {}]]]}, {"name": "conv2d_30", "class_name": "Conv2D", "config": {"name": "conv2d_30", "trainable": true, "dtype": "float32", "filters": 512, "kernel_size": [1, 1], "strides": [1, 1], "padding": "valid", "data_format": "channels_last", "dilation_rate": [1, 1], "activation": "linear", "use_bias": true, "kernel_initializer": {"class_name": "VarianceScaling", "config": {"scale": 2.0, "mode": "fan_in", "distribution": "uniform", "seed": null}}, "bias_initializer": {"class_name": "Zeros", "config": {}}, "kernel_regularizer": null, "bias_regularizer": null, "activity_regularizer": null, "kernel_constraint": null, "bias_constraint": null}, "inbound_nodes": [[["activation_29", 0, 0, {}]]]}, {"name": "activation_30", "class_name": "Activation", "config": {"name": "activation_30", "trainable": true, "dtype": "float32", "activation": "sigmoid"}, "inbound_nodes": [[["conv2d_30", 0, 0, {}]]]}, {"name": "multiply_15", "class_name": "Multiply", "config": {"name": "multiply_15", "trainable": true, "dtype": "float32"}, "inbound_nodes": [[["stage4_unit2_conv2", 0, 0, {}], ["activation_30", 0, 0, {}]]]}, {"name": "add_15", "class_name": "Add", "config": {"name": "add_15", "trainable": true, "dtype": "float32"}, "inbound_nodes": [[["multiply_15", 0, 0, {}], ["add_14", 0, 0, {}]]]}, {"name": "stage4_unit3_bn1", "class_name": "BatchNormalization", "config": {"name": "stage4_unit3_bn1", "trainable": true, "dtype": "float32", "axis": 3, "momentum": 0.99, "epsilon": 2e-05, "center": true, "scale": true, "beta_initializer": {"class_name": "Zeros", "config": {}}, "gamma_initializer": {"class_name": "Ones", "config": {}}, "moving_mean_initializer": {"class_name": "Zeros", "config": {}}, "moving_variance_initializer": {"class_name": "Ones", "config": {}}, "beta_regularizer": null, "gamma_regularizer": null, "beta_constraint": null, "gamma_constraint": null}, "inbound_nodes": [[["add_15", 0, 0, {}]]]}, {"name": "stage4_unit3_relu1", "class_name": "Activation", "config": {"name": "stage4_unit3_relu1", "trainable": true, "dtype": "float32", "activation": "relu"}, "inbound_nodes": [[["stage4_unit3_bn1", 0, 0, {}]]]}, {"name": "zero_padding2d_33", "class_name": "ZeroPadding2D", "config": {"name": "zero_padding2d_33", "trainable": true, "dtype": "float32", "padding": [[1, 1], [1, 1]], "data_format": "channels_last"}, "inbound_nodes": [[["stage4_unit3_relu1", 0, 0, {}]]]}, {"name": "stage4_unit3_conv1", "class_name": "Conv2D", "config": {"name": "stage4_unit3_conv1", "trainable": true, "dtype": "float32", "filters": 512, "kernel_size": [3, 3], "strides": [1, 1], "padding": "valid", "data_format": "channels_last", "dilation_rate": [1, 1], "activation": "linear", "use_bias": false, "kernel_initializer": {"class_name": "VarianceScaling", "config": {"scale": 2.0, "mode": "fan_in", "distribution": "uniform", "seed": null}}, "bias_initializer": {"class_name": "Zeros", "config": {}}, "kernel_regularizer": null, "bias_regularizer": null, "activity_regularizer": null, "kernel_constraint": null, "bias_constraint": null}, "inbound_nodes": [[["zero_padding2d_33", 0, 0, {}]]]}, {"name": "stage4_unit3_bn2", "class_name": "BatchNormalization", "config": {"name": "stage4_unit3_bn2", "trainable": true, "dtype": "float32", "axis": 3, "momentum": 0.99, "epsilon": 2e-05, "center": true, "scale": true, "beta_initializer": {"class_name": "Zeros", "config": {}}, "gamma_initializer": {"class_name": "Ones", "config": {}}, "moving_mean_initializer": {"class_name": "Zeros", "config": {}}, "moving_variance_initializer": {"class_name": "Ones", "config": {}}, "beta_regularizer": null, "gamma_regularizer": null, "beta_constraint": null, "gamma_constraint": null}, "inbound_nodes": [[["stage4_unit3_conv1", 0, 0, {}]]]}, {"name": "stage4_unit3_relu2", "class_name": "Activation", "config": {"name": "stage4_unit3_relu2", "trainable": true, "dtype": "float32", "activation": "relu"}, "inbound_nodes": [[["stage4_unit3_bn2", 0, 0, {}]]]}, {"name": "zero_padding2d_34", "class_name": "ZeroPadding2D", "config": {"name": "zero_padding2d_34", "trainable": true, "dtype": "float32", "padding": [[1, 1], [1, 1]], "data_format": "channels_last"}, "inbound_nodes": [[["stage4_unit3_relu2", 0, 0, {}]]]}, {"name": "stage4_unit3_conv2", "class_name": "Conv2D", "config": {"name": "stage4_unit3_conv2", "trainable": true, "dtype": "float32", "filters": 512, "kernel_size": [3, 3], "strides": [1, 1], "padding": "valid", "data_format": "channels_last", "dilation_rate": [1, 1], "activation": "linear", "use_bias": false, "kernel_initializer": {"class_name": "VarianceScaling", "config": {"scale": 2.0, "mode": "fan_in", "distribution": "uniform", "seed": null}}, "bias_initializer": {"class_name": "Zeros", "config": {}}, "kernel_regularizer": null, "bias_regularizer": null, "activity_regularizer": null, "kernel_constraint": null, "bias_constraint": null}, "inbound_nodes": [[["zero_padding2d_34", 0, 0, {}]]]}, {"name": "global_average_pooling2d_16", "class_name": "GlobalAveragePooling2D", "config": {"name": "global_average_pooling2d_16", "trainable": true, "dtype": "float32", "data_format": "channels_last"}, "inbound_nodes": [[["stage4_unit3_conv2", 0, 0, {}]]]}, {"name": "lambda_16", "class_name": "Lambda", "config": {"name": "lambda_16", "trainable": true, "dtype": "float32", "function": ["4wIAAAAAAAAAAgAAAAYAAABDAAAAc1IAAAB8AWQBawJyIHwAZABkAIUCZABkAGQAZACFAmYEGQBT\nAHwBZAJrAnJAfABkAGQAhQJkAGQAhQJkAGQAZgQZAFMAdABkA6ABfAGhAYMBggFkAFMAKQRO6QMA\nAADpAQAAAHonU2xpY2UgYXhpcyBzaG91bGQgYmUgaW4gKDEsIDMpLCBnb3Qge30uKQLaClZhbHVl\nRXJyb3LaBmZvcm1hdCkC2gF42g1jaGFubmVsc19heGlzqQByBwAAAPppL2hvbWUvcm9mYWlkYS9w\neXRob24tZW52cy9lbnYyL2xpYi9weXRob24zLjcvc2l0ZS1wYWNrYWdlcy9jbGFzc2lmaWNhdGlv\nbl9tb2RlbHMvbW9kZWxzL19jb21tb25fYmxvY2tzLnB52gtleHBhbmRfZGltc08AAABzCgAAAAAB\nCAEYAQgBGAI=\n", null, null], "function_type": "lambda", "output_shape": null, "output_shape_type": "raw", "arguments": {"channels_axis": 3}}, "inbound_nodes": [[["global_average_pooling2d_16", 0, 0, {}]]]}, {"name": "conv2d_31", "class_name": "Conv2D", "config": {"name": "conv2d_31", "trainable": true, "dtype": "float32", "filters": 32, "kernel_size": [1, 1], "strides": [1, 1], "padding": "valid", "data_format": "channels_last", "dilation_rate": [1, 1], "activation": "linear", "use_bias": true, "kernel_initializer": {"class_name": "VarianceScaling", "config": {"scale": 2.0, "mode": "fan_in", "distribution": "uniform", "seed": null}}, "bias_initializer": {"class_name": "Zeros", "config": {}}, "kernel_regularizer": null, "bias_regularizer": null, "activity_regularizer": null, "kernel_constraint": null, "bias_constraint": null}, "inbound_nodes": [[["lambda_16", 0, 0, {}]]]}, {"name": "activation_31", "class_name": "Activation", "config": {"name": "activation_31", "trainable": true, "dtype": "float32", "activation": "relu"}, "inbound_nodes": [[["conv2d_31", 0, 0, {}]]]}, {"name": "conv2d_32", "class_name": "Conv2D", "config": {"name": "conv2d_32", "trainable": true, "dtype": "float32", "filters": 512, "kernel_size": [1, 1], "strides": [1, 1], "padding": "valid", "data_format": "channels_last", "dilation_rate": [1, 1], "activation": "linear", "use_bias": true, "kernel_initializer": {"class_name": "VarianceScaling", "config": {"scale": 2.0, "mode": "fan_in", "distribution": "uniform", "seed": null}}, "bias_initializer": {"class_name": "Zeros", "config": {}}, "kernel_regularizer": null, "bias_regularizer": null, "activity_regularizer": null, "kernel_constraint": null, "bias_constraint": null}, "inbound_nodes": [[["activation_31", 0, 0, {}]]]}, {"name": "activation_32", "class_name": "Activation", "config": {"name": "activation_32", "trainable": true, "dtype": "float32", "activation": "sigmoid"}, "inbound_nodes": [[["conv2d_32", 0, 0, {}]]]}, {"name": "multiply_16", "class_name": "Multiply", "config": {"name": "multiply_16", "trainable": true, "dtype": "float32"}, "inbound_nodes": [[["stage4_unit3_conv2", 0, 0, {}], ["activation_32", 0, 0, {}]]]}, {"name": "add_16", "class_name": "Add", "config": {"name": "add_16", "trainable": true, "dtype": "float32"}, "inbound_nodes": [[["multiply_16", 0, 0, {}], ["add_15", 0, 0, {}]]]}, {"name": "bn1", "class_name": "BatchNormalization", "config": {"name": "bn1", "trainable": true, "dtype": "float32", "axis": 3, "momentum": 0.99, "epsilon": 2e-05, "center": true, "scale": true, "beta_initializer": {"class_name": "Zeros", "config": {}}, "gamma_initializer": {"class_name": "Ones", "config": {}}, "moving_mean_initializer": {"class_name": "Zeros", "config": {}}, "moving_variance_initializer": {"class_name": "Ones", "config": {}}, "beta_regularizer": null, "gamma_regularizer": null, "beta_constraint": null, "gamma_constraint": null}, "inbound_nodes": [[["add_16", 0, 0, {}]]]}, {"name": "relu1", "class_name": "Activation", "config": {"name": "relu1", "trainable": true, "dtype": "float32", "activation": "relu"}, "inbound_nodes": [[["bn1", 0, 0, {}]]]}, {"name": "pool1", "class_name": "GlobalAveragePooling2D", "config": {"name": "pool1", "trainable": true, "dtype": "float32", "data_format": "channels_last"}, "inbound_nodes": [[["relu1", 0, 0, {}]]]}, {"name": "fc1", "class_name": "Dense", "config": {"name": "fc1", "trainable": true, "dtype": "float32", "units": 1000, "activation": "linear", "use_bias": true, "kernel_initializer": {"class_name": "VarianceScaling", "config": {"scale": 1.0, "mode": "fan_avg", "distribution": "uniform", "seed": null}}, "bias_initializer": {"class_name": "Zeros", "config": {}}, "kernel_regularizer": null, "bias_regularizer": null, "activity_regularizer": null, "kernel_constraint": null, "bias_constraint": null}, "inbound_nodes": [[["pool1", 0, 0, {}]]]}, {"name": "softmax", "class_name": "Activation", "config": {"name": "softmax", "trainable": true, "dtype": "float32", "activation": "softmax"}, "inbound_nodes": [[["fc1", 0, 0, {}]]]}], "input_layers": [["input_1", 0, 0]], "output_layers": [["softmax", 0, 0]]}, "keras_version": "2.3.1", "backend": "tensorflow"}