{"class_name": "Model", "config": {"name": "model_1", "layers": [{"name": "input_1", "class_name": "InputLayer", "config": {"batch_input_shape": [null, 28, 28, 3], "dtype": "float32", "sparse": false, "name": "input_1"}, "inbound_nodes": []}, {"name": "zero_padding2d_1", "class_name": "ZeroPadding2D", "config": {"name": "zero_padding2d_1", "trainable": true, "dtype": "float32", "padding": [[3, 3], [3, 3]], "data_format": "channels_last"}, "inbound_nodes": [[["input_1", 0, 0, {}]]]}, {"name": "conv2d_1", "class_name": "Conv2D", "config": {"name": "conv2d_1", "trainable": true, "dtype": "float32", "filters": 64, "kernel_size": [7, 7], "strides": [2, 2], "padding": "valid", "data_format": "channels_last", "dilation_rate": [1, 1], "activation": "linear", "use_bias": false, "kernel_initializer": {"class_name": "VarianceScaling", "config": {"scale": 2.0, "mode": "fan_in", "distribution": "uniform", "seed": null}}, "bias_initializer": {"class_name": "Zeros", "config": {}}, "kernel_regularizer": null, "bias_regularizer": null, "activity_regularizer": null, "kernel_constraint": null, "bias_constraint": null}, "inbound_nodes": [[["zero_padding2d_1", 0, 0, {}]]]}, {"name": "batch_normalization_1", "class_name": "BatchNormalization", "config": {"name": "batch_normalization_1", "trainable": true, "dtype": "float32", "axis": 3, "momentum": 0.99, "epsilon": 9.999999747378752e-06, "center": true, "scale": true, "beta_initializer": {"class_name": "Zeros", "config": {}}, "gamma_initializer": {"class_name": "Ones", "config": {}}, "moving_mean_initializer": {"class_name": "Zeros", "config": {}}, "moving_variance_initializer": {"class_name": "Ones", "config": {}}, "beta_regularizer": null, "gamma_regularizer": null, "beta_constraint": null, "gamma_constraint": null}, "inbound_nodes": [[["conv2d_1", 0, 0, {}]]]}, {"name": "activation_1", "class_name": "Activation", "config": {"name": "activation_1", "trainable": true, "dtype": "float32", "activation": "relu"}, "inbound_nodes": [[["batch_normalization_1", 0, 0, {}]]]}, {"name": "zero_padding2d_2", "class_name": "ZeroPadding2D", "config": {"name": "zero_padding2d_2", "trainable": true, "dtype": "float32", "padding": [[1, 1], [1, 1]], "data_format": "channels_last"}, "inbound_nodes": [[["activation_1", 0, 0, {}]]]}, {"name": "max_pooling2d_1", "class_name": "MaxPooling2D", "config": {"name": "max_pooling2d_1", "trainable": true, "dtype": "float32", "pool_size": [3, 3], "padding": "valid", "strides": [2, 2], "data_format": "channels_last"}, "inbound_nodes": [[["zero_padding2d_2", 0, 0, {}]]]}, {"name": "conv2d_2", "class_name": "Conv2D", "config": {"name": "conv2d_2", "trainable": true, "dtype": "float32", "filters": 64, "kernel_size": [1, 1], "strides": [1, 1], "padding": "valid", "data_format": "channels_last", "dilation_rate": [1, 1], "activation": "linear", "use_bias": false, "kernel_initializer": {"class_name": "VarianceScaling", "config": {"scale": 2.0, "mode": "fan_in", "distribution": "uniform", "seed": null}}, "bias_initializer": {"class_name": "Zeros", "config": {}}, "kernel_regularizer": null, "bias_regularizer": null, "activity_regularizer": null, "kernel_constraint": null, "bias_constraint": null}, "inbound_nodes": [[["max_pooling2d_1", 0, 0, {}]]]}, {"name": "batch_normalization_2", "class_name": "BatchNormalization", "config": {"name": "batch_normalization_2", "trainable": true, "dtype": "float32", "axis": 3, "momentum": 0.99, "epsilon": 9.999999747378752e-06, "center": true, "scale": true, "beta_initializer": {"class_name": "Zeros", "config": {}}, "gamma_initializer": {"class_name": "Ones", "config": {}}, "moving_mean_initializer": {"class_name": "Zeros", "config": {}}, "moving_variance_initializer": {"class_name": "Ones", "config": {}}, "beta_regularizer": null, "gamma_regularizer": null, "beta_constraint": null, "gamma_constraint": null}, "inbound_nodes": [[["conv2d_2", 0, 0, {}]]]}, {"name": "activation_2", "class_name": "Activation", "config": {"name": "activation_2", "trainable": true, "dtype": "float32", "activation": "relu"}, "inbound_nodes": [[["batch_normalization_2", 0, 0, {}]]]}, {"name": "zero_padding2d_3", "class_name": "ZeroPadding2D", "config": {"name": "zero_padding2d_3", "trainable": true, "dtype": "float32", "padding": [[1, 1], [1, 1]], "data_format": "channels_last"}, "inbound_nodes": [[["activation_2", 0, 0, {}]]]}, {"name": "conv2d_3", "class_name": "Conv2D", "config": {"name": "conv2d_3", "trainable": true, "dtype": "float32", "filters": 64, "kernel_size": [3, 3], "strides": [1, 1], "padding": "valid", "data_format": "channels_last", "dilation_rate": [1, 1], "activation": "linear", "use_bias": false, "kernel_initializer": {"class_name": "VarianceScaling", "config": {"scale": 2.0, "mode": "fan_in", "distribution": "uniform", "seed": null}}, "bias_initializer": {"class_name": "Zeros", "config": {}}, "kernel_regularizer": null, "bias_regularizer": null, "activity_regularizer": null, "kernel_constraint": null, "bias_constraint": null}, "inbound_nodes": [[["zero_padding2d_3", 0, 0, {}]]]}, {"name": "batch_normalization_3", "class_name": "BatchNormalization", "config": {"name": "batch_normalization_3", "trainable": true, "dtype": "float32", "axis": 3, "momentum": 0.99, "epsilon": 9.999999747378752e-06, "center": true, "scale": true, "beta_initializer": {"class_name": "Zeros", "config": {}}, "gamma_initializer": {"class_name": "Ones", "config": {}}, "moving_mean_initializer": {"class_name": "Zeros", "config": {}}, "moving_variance_initializer": {"class_name": "Ones", "config": {}}, "beta_regularizer": null, "gamma_regularizer": null, "beta_constraint": null, "gamma_constraint": null}, "inbound_nodes": [[["conv2d_3", 0, 0, {}]]]}, {"name": "activation_3", "class_name": "Activation", "config": {"name": "activation_3", "trainable": true, "dtype": "float32", "activation": "relu"}, "inbound_nodes": [[["batch_normalization_3", 0, 0, {}]]]}, {"name": "conv2d_4", "class_name": "Conv2D", "config": {"name": "conv2d_4", "trainable": true, "dtype": "float32", "filters": 256, "kernel_size": [1, 1], "strides": [1, 1], "padding": "valid", "data_format": "channels_last", "dilation_rate": [1, 1], "activation": "linear", "use_bias": false, "kernel_initializer": {"class_name": "VarianceScaling", "config": {"scale": 2.0, "mode": "fan_in", "distribution": "uniform", "seed": null}}, "bias_initializer": {"class_name": "Zeros", "config": {}}, "kernel_regularizer": null, "bias_regularizer": null, "activity_regularizer": null, "kernel_constraint": null, "bias_constraint": null}, "inbound_nodes": [[["activation_3", 0, 0, {}]]]}, {"name": "batch_normalization_4", "class_name": "BatchNormalization", "config": {"name": "batch_normalization_4", "trainable": true, "dtype": "float32", "axis": 3, "momentum": 0.99, "epsilon": 9.999999747378752e-06, "center": true, "scale": true, "beta_initializer": {"class_name": "Zeros", "config": {}}, "gamma_initializer": {"class_name": "Ones", "config": {}}, "moving_mean_initializer": {"class_name": "Zeros", "config": {}}, "moving_variance_initializer": {"class_name": "Ones", "config": {}}, "beta_regularizer": null, "gamma_regularizer": null, "beta_constraint": null, "gamma_constraint": null}, "inbound_nodes": [[["conv2d_4", 0, 0, {}]]]}, {"name": "global_average_pooling2d_1", "class_name": "GlobalAveragePooling2D", "config": {"name": "global_average_pooling2d_1", "trainable": true, "dtype": "float32", "data_format": "channels_last"}, "inbound_nodes": [[["batch_normalization_4", 0, 0, {}]]]}, {"name": "lambda_1", "class_name": "Lambda", "config": {"name": "lambda_1", "trainable": true, "dtype": "float32", "function": ["4wIAAAAAAAAAAgAAAAYAAABDAAAAc1IAAAB8AWQBawJyIHwAZABkAIUCZABkAGQAZACFAmYEGQBT\nAHwBZAJrAnJAfABkAGQAhQJkAGQAhQJkAGQAZgQZAFMAdABkA6ABfAGhAYMBggFkAFMAKQRO6QMA\nAADpAQAAAHonU2xpY2UgYXhpcyBzaG91bGQgYmUgaW4gKDEsIDMpLCBnb3Qge30uKQLaClZhbHVl\nRXJyb3LaBmZvcm1hdCkC2gF42g1jaGFubmVsc19heGlzqQByBwAAAPppL2hvbWUvcm9mYWlkYS9w\neXRob24tZW52cy9lbnYyL2xpYi9weXRob24zLjcvc2l0ZS1wYWNrYWdlcy9jbGFzc2lmaWNhdGlv\nbl9tb2RlbHMvbW9kZWxzL19jb21tb25fYmxvY2tzLnB52gtleHBhbmRfZGltc08AAABzCgAAAAAB\nCAEYAQgBGAI=\n", null, null], "function_type": "lambda", "output_shape": null, "output_shape_type": "raw", "arguments": {"channels_axis": 3}}, "inbound_nodes": [[["global_average_pooling2d_1", 0, 0, {}]]]}, {"name": "conv2d_6", "class_name": "Conv2D", "config": {"name": "conv2d_6", "trainable": true, "dtype": "float32", "filters": 16, "kernel_size": [1, 1], "strides": [1, 1], "padding": "valid", "data_format": "channels_last", "dilation_rate": [1, 1], "activation": "linear", "use_bias": true, "kernel_initializer": {"class_name": "VarianceScaling", "config": {"scale": 2.0, "mode": "fan_in", "distribution": "uniform", "seed": null}}, "bias_initializer": {"class_name": "Zeros", "config": {}}, "kernel_regularizer": null, "bias_regularizer": null, "activity_regularizer": null, "kernel_constraint": null, "bias_constraint": null}, "inbound_nodes": [[["lambda_1", 0, 0, {}]]]}, {"name": "activation_4", "class_name": "Activation", "config": {"name": "activation_4", "trainable": true, "dtype": "float32", "activation": "relu"}, "inbound_nodes": [[["conv2d_6", 0, 0, {}]]]}, {"name": "conv2d_7", "class_name": "Conv2D", "config": {"name": "conv2d_7", "trainable": true, "dtype": "float32", "filters": 256, "kernel_size": [1, 1], "strides": [1, 1], "padding": "valid", "data_format": "channels_last", "dilation_rate": [1, 1], "activation": "linear", "use_bias": true, "kernel_initializer": {"class_name": "VarianceScaling", "config": {"scale": 2.0, "mode": "fan_in", "distribution": "uniform", "seed": null}}, "bias_initializer": {"class_name": "Zeros", "config": {}}, "kernel_regularizer": null, "bias_regularizer": null, "activity_regularizer": null, "kernel_constraint": null, "bias_constraint": null}, "inbound_nodes": [[["activation_4", 0, 0, {}]]]}, {"name": "activation_5", "class_name": "Activation", "config": {"name": "activation_5", "trainable": true, "dtype": "float32", "activation": "sigmoid"}, "inbound_nodes": [[["conv2d_7", 0, 0, {}]]]}, {"name": "conv2d_5", "class_name": "Conv2D", "config": {"name": "conv2d_5", "trainable": true, "dtype": "float32", "filters": 256, "kernel_size": [1, 1], "strides": [1, 1], "padding": "valid", "data_format": "channels_last", "dilation_rate": [1, 1], "activation": "linear", "use_bias": false, "kernel_initializer": {"class_name": "VarianceScaling", "config": {"scale": 2.0, "mode": "fan_in", "distribution": "uniform", "seed": null}}, "bias_initializer": {"class_name": "Zeros", "config": {}}, "kernel_regularizer": null, "bias_regularizer": null, "activity_regularizer": null, "kernel_constraint": null, "bias_constraint": null}, "inbound_nodes": [[["max_pooling2d_1", 0, 0, {}]]]}, {"name": "multiply_1", "class_name": "Multiply", "config": {"name": "multiply_1", "trainable": true, "dtype": "float32"}, "inbound_nodes": [[["batch_normalization_4", 0, 0, {}], ["activation_5", 0, 0, {}]]]}, {"name": "batch_normalization_5", "class_name": "BatchNormalization", "config": {"name": "batch_normalization_5", "trainable": true, "dtype": "float32", "axis": 3, "momentum": 0.99, "epsilon": 9.999999747378752e-06, "center": true, "scale": true, "beta_initializer": {"class_name": "Zeros", "config": {}}, "gamma_initializer": {"class_name": "Ones", "config": {}}, "moving_mean_initializer": {"class_name": "Zeros", "config": {}}, "moving_variance_initializer": {"class_name": "Ones", "config": {}}, "beta_regularizer": null, "gamma_regularizer": null, "beta_constraint": null, "gamma_constraint": null}, "inbound_nodes": [[["conv2d_5", 0, 0, {}]]]}, {"name": "add_1", "class_name": "Add", "config": {"name": "add_1", "trainable": true, "dtype": "float32"}, "inbound_nodes": [[["multiply_1", 0, 0, {}], ["batch_normalization_5", 0, 0, {}]]]}, {"name": "activation_6", "class_name": "Activation", "config": {"name": "activation_6", "trainable": true, "dtype": "float32", "activation": "relu"}, "inbound_nodes": [[["add_1", 0, 0, {}]]]}, {"name": "conv2d_8", "class_name": "Conv2D", "config": {"name": "conv2d_8", "trainable": true, "dtype": "float32", "filters": 64, "kernel_size": [1, 1], "strides": [1, 1], "padding": "valid", "data_format": "channels_last", "dilation_rate": [1, 1], "activation": "linear", "use_bias": false, "kernel_initializer": {"class_name": "VarianceScaling", "config": {"scale": 2.0, "mode": "fan_in", "distribution": "uniform", "seed": null}}, "bias_initializer": {"class_name": "Zeros", "config": {}}, "kernel_regularizer": null, "bias_regularizer": null, "activity_regularizer": null, "kernel_constraint": null, "bias_constraint": null}, "inbound_nodes": [[["activation_6", 0, 0, {}]]]}, {"name": "batch_normalization_6", "class_name": "BatchNormalization", "config": {"name": "batch_normalization_6", "trainable": true, "dtype": "float32", "axis": 3, "momentum": 0.99, "epsilon": 9.999999747378752e-06, "center": true, "scale": true, "beta_initializer": {"class_name": "Zeros", "config": {}}, "gamma_initializer": {"class_name": "Ones", "config": {}}, "moving_mean_initializer": {"class_name": "Zeros", "config": {}}, "moving_variance_initializer": {"class_name": "Ones", "config": {}}, "beta_regularizer": null, "gamma_regularizer": null, "beta_constraint": null, "gamma_constraint": null}, "inbound_nodes": [[["conv2d_8", 0, 0, {}]]]}, {"name": "activation_7", "class_name": "Activation", "config": {"name": "activation_7", "trainable": true, "dtype": "float32", "activation": "relu"}, "inbound_nodes": [[["batch_normalization_6", 0, 0, {}]]]}, {"name": "zero_padding2d_4", "class_name": "ZeroPadding2D", "config": {"name": "zero_padding2d_4", "trainable": true, "dtype": "float32", "padding": [[1, 1], [1, 1]], "data_format": "channels_last"}, "inbound_nodes": [[["activation_7", 0, 0, {}]]]}, {"name": "conv2d_9", "class_name": "Conv2D", "config": {"name": "conv2d_9", "trainable": true, "dtype": "float32", "filters": 64, "kernel_size": [3, 3], "strides": [1, 1], "padding": "valid", "data_format": "channels_last", "dilation_rate": [1, 1], "activation": "linear", "use_bias": false, "kernel_initializer": {"class_name": "VarianceScaling", "config": {"scale": 2.0, "mode": "fan_in", "distribution": "uniform", "seed": null}}, "bias_initializer": {"class_name": "Zeros", "config": {}}, "kernel_regularizer": null, "bias_regularizer": null, "activity_regularizer": null, "kernel_constraint": null, "bias_constraint": null}, "inbound_nodes": [[["zero_padding2d_4", 0, 0, {}]]]}, {"name": "batch_normalization_7", "class_name": "BatchNormalization", "config": {"name": "batch_normalization_7", "trainable": true, "dtype": "float32", "axis": 3, "momentum": 0.99, "epsilon": 9.999999747378752e-06, "center": true, "scale": true, "beta_initializer": {"class_name": "Zeros", "config": {}}, "gamma_initializer": {"class_name": "Ones", "config": {}}, "moving_mean_initializer": {"class_name": "Zeros", "config": {}}, "moving_variance_initializer": {"class_name": "Ones", "config": {}}, "beta_regularizer": null, "gamma_regularizer": null, "beta_constraint": null, "gamma_constraint": null}, "inbound_nodes": [[["conv2d_9", 0, 0, {}]]]}, {"name": "activation_8", "class_name": "Activation", "config": {"name": "activation_8", "trainable": true, "dtype": "float32", "activation": "relu"}, "inbound_nodes": [[["batch_normalization_7", 0, 0, {}]]]}, {"name": "conv2d_10", "class_name": "Conv2D", "config": {"name": "conv2d_10", "trainable": true, "dtype": "float32", "filters": 256, "kernel_size": [1, 1], "strides": [1, 1], "padding": "valid", "data_format": "channels_last", "dilation_rate": [1, 1], "activation": "linear", "use_bias": false, "kernel_initializer": {"class_name": "VarianceScaling", "config": {"scale": 2.0, "mode": "fan_in", "distribution": "uniform", "seed": null}}, "bias_initializer": {"class_name": "Zeros", "config": {}}, "kernel_regularizer": null, "bias_regularizer": null, "activity_regularizer": null, "kernel_constraint": null, "bias_constraint": null}, "inbound_nodes": [[["activation_8", 0, 0, {}]]]}, {"name": "batch_normalization_8", "class_name": "BatchNormalization", "config": {"name": "batch_normalization_8", "trainable": true, "dtype": "float32", "axis": 3, "momentum": 0.99, "epsilon": 9.999999747378752e-06, "center": true, "scale": true, "beta_initializer": {"class_name": "Zeros", "config": {}}, "gamma_initializer": {"class_name": "Ones", "config": {}}, "moving_mean_initializer": {"class_name": "Zeros", "config": {}}, "moving_variance_initializer": {"class_name": "Ones", "config": {}}, "beta_regularizer": null, "gamma_regularizer": null, "beta_constraint": null, "gamma_constraint": null}, "inbound_nodes": [[["conv2d_10", 0, 0, {}]]]}, {"name": "global_average_pooling2d_2", "class_name": "GlobalAveragePooling2D", "config": {"name": "global_average_pooling2d_2", "trainable": true, "dtype": "float32", "data_format": "channels_last"}, "inbound_nodes": [[["batch_normalization_8", 0, 0, {}]]]}, {"name": "lambda_2", "class_name": "Lambda", "config": {"name": "lambda_2", "trainable": true, "dtype": "float32", "function": ["4wIAAAAAAAAAAgAAAAYAAABDAAAAc1IAAAB8AWQBawJyIHwAZABkAIUCZABkAGQAZACFAmYEGQBT\nAHwBZAJrAnJAfABkAGQAhQJkAGQAhQJkAGQAZgQZAFMAdABkA6ABfAGhAYMBggFkAFMAKQRO6QMA\nAADpAQAAAHonU2xpY2UgYXhpcyBzaG91bGQgYmUgaW4gKDEsIDMpLCBnb3Qge30uKQLaClZhbHVl\nRXJyb3LaBmZvcm1hdCkC2gF42g1jaGFubmVsc19heGlzqQByBwAAAPppL2hvbWUvcm9mYWlkYS9w\neXRob24tZW52cy9lbnYyL2xpYi9weXRob24zLjcvc2l0ZS1wYWNrYWdlcy9jbGFzc2lmaWNhdGlv\nbl9tb2RlbHMvbW9kZWxzL19jb21tb25fYmxvY2tzLnB52gtleHBhbmRfZGltc08AAABzCgAAAAAB\nCAEYAQgBGAI=\n", null, null], "function_type": "lambda", "output_shape": null, "output_shape_type": "raw", "arguments": {"channels_axis": 3}}, "inbound_nodes": [[["global_average_pooling2d_2", 0, 0, {}]]]}, {"name": "conv2d_11", "class_name": "Conv2D", "config": {"name": "conv2d_11", "trainable": true, "dtype": "float32", "filters": 16, "kernel_size": [1, 1], "strides": [1, 1], "padding": "valid", "data_format": "channels_last", "dilation_rate": [1, 1], "activation": "linear", "use_bias": true, "kernel_initializer": {"class_name": "VarianceScaling", "config": {"scale": 2.0, "mode": "fan_in", "distribution": "uniform", "seed": null}}, "bias_initializer": {"class_name": "Zeros", "config": {}}, "kernel_regularizer": null, "bias_regularizer": null, "activity_regularizer": null, "kernel_constraint": null, "bias_constraint": null}, "inbound_nodes": [[["lambda_2", 0, 0, {}]]]}, {"name": "activation_9", "class_name": "Activation", "config": {"name": "activation_9", "trainable": true, "dtype": "float32", "activation": "relu"}, "inbound_nodes": [[["conv2d_11", 0, 0, {}]]]}, {"name": "conv2d_12", "class_name": "Conv2D", "config": {"name": "conv2d_12", "trainable": true, "dtype": "float32", "filters": 256, "kernel_size": [1, 1], "strides": [1, 1], "padding": "valid", "data_format": "channels_last", "dilation_rate": [1, 1], "activation": "linear", "use_bias": true, "kernel_initializer": {"class_name": "VarianceScaling", "config": {"scale": 2.0, "mode": "fan_in", "distribution": "uniform", "seed": null}}, "bias_initializer": {"class_name": "Zeros", "config": {}}, "kernel_regularizer": null, "bias_regularizer": null, "activity_regularizer": null, "kernel_constraint": null, "bias_constraint": null}, "inbound_nodes": [[["activation_9", 0, 0, {}]]]}, {"name": "activation_10", "class_name": "Activation", "config": {"name": "activation_10", "trainable": true, "dtype": "float32", "activation": "sigmoid"}, "inbound_nodes": [[["conv2d_12", 0, 0, {}]]]}, {"name": "multiply_2", "class_name": "Multiply", "config": {"name": "multiply_2", "trainable": true, "dtype": "float32"}, "inbound_nodes": [[["batch_normalization_8", 0, 0, {}], ["activation_10", 0, 0, {}]]]}, {"name": "add_2", "class_name": "Add", "config": {"name": "add_2", "trainable": true, "dtype": "float32"}, "inbound_nodes": [[["multiply_2", 0, 0, {}], ["activation_6", 0, 0, {}]]]}, {"name": "activation_11", "class_name": "Activation", "config": {"name": "activation_11", "trainable": true, "dtype": "float32", "activation": "relu"}, "inbound_nodes": [[["add_2", 0, 0, {}]]]}, {"name": "conv2d_13", "class_name": "Conv2D", "config": {"name": "conv2d_13", "trainable": true, "dtype": "float32", "filters": 64, "kernel_size": [1, 1], "strides": [1, 1], "padding": "valid", "data_format": "channels_last", "dilation_rate": [1, 1], "activation": "linear", "use_bias": false, "kernel_initializer": {"class_name": "VarianceScaling", "config": {"scale": 2.0, "mode": "fan_in", "distribution": "uniform", "seed": null}}, "bias_initializer": {"class_name": "Zeros", "config": {}}, "kernel_regularizer": null, "bias_regularizer": null, "activity_regularizer": null, "kernel_constraint": null, "bias_constraint": null}, "inbound_nodes": [[["activation_11", 0, 0, {}]]]}, {"name": "batch_normalization_9", "class_name": "BatchNormalization", "config": {"name": "batch_normalization_9", "trainable": true, "dtype": "float32", "axis": 3, "momentum": 0.99, "epsilon": 9.999999747378752e-06, "center": true, "scale": true, "beta_initializer": {"class_name": "Zeros", "config": {}}, "gamma_initializer": {"class_name": "Ones", "config": {}}, "moving_mean_initializer": {"class_name": "Zeros", "config": {}}, "moving_variance_initializer": {"class_name": "Ones", "config": {}}, "beta_regularizer": null, "gamma_regularizer": null, "beta_constraint": null, "gamma_constraint": null}, "inbound_nodes": [[["conv2d_13", 0, 0, {}]]]}, {"name": "activation_12", "class_name": "Activation", "config": {"name": "activation_12", "trainable": true, "dtype": "float32", "activation": "relu"}, "inbound_nodes": [[["batch_normalization_9", 0, 0, {}]]]}, {"name": "zero_padding2d_5", "class_name": "ZeroPadding2D", "config": {"name": "zero_padding2d_5", "trainable": true, "dtype": "float32", "padding": [[1, 1], [1, 1]], "data_format": "channels_last"}, "inbound_nodes": [[["activation_12", 0, 0, {}]]]}, {"name": "conv2d_14", "class_name": "Conv2D", "config": {"name": "conv2d_14", "trainable": true, "dtype": "float32", "filters": 64, "kernel_size": [3, 3], "strides": [1, 1], "padding": "valid", "data_format": "channels_last", "dilation_rate": [1, 1], "activation": "linear", "use_bias": false, "kernel_initializer": {"class_name": "VarianceScaling", "config": {"scale": 2.0, "mode": "fan_in", "distribution": "uniform", "seed": null}}, "bias_initializer": {"class_name": "Zeros", "config": {}}, "kernel_regularizer": null, "bias_regularizer": null, "activity_regularizer": null, "kernel_constraint": null, "bias_constraint": null}, "inbound_nodes": [[["zero_padding2d_5", 0, 0, {}]]]}, {"name": "batch_normalization_10", "class_name": "BatchNormalization", "config": {"name": "batch_normalization_10", "trainable": true, "dtype": "float32", "axis": 3, "momentum": 0.99, "epsilon": 9.999999747378752e-06, "center": true, "scale": true, "beta_initializer": {"class_name": "Zeros", "config": {}}, "gamma_initializer": {"class_name": "Ones", "config": {}}, "moving_mean_initializer": {"class_name": "Zeros", "config": {}}, "moving_variance_initializer": {"class_name": "Ones", "config": {}}, "beta_regularizer": null, "gamma_regularizer": null, "beta_constraint": null, "gamma_constraint": null}, "inbound_nodes": [[["conv2d_14", 0, 0, {}]]]}, {"name": "activation_13", "class_name": "Activation", "config": {"name": "activation_13", "trainable": true, "dtype": "float32", "activation": "relu"}, "inbound_nodes": [[["batch_normalization_10", 0, 0, {}]]]}, {"name": "conv2d_15", "class_name": "Conv2D", "config": {"name": "conv2d_15", "trainable": true, "dtype": "float32", "filters": 256, "kernel_size": [1, 1], "strides": [1, 1], "padding": "valid", "data_format": "channels_last", "dilation_rate": [1, 1], "activation": "linear", "use_bias": false, "kernel_initializer": {"class_name": "VarianceScaling", "config": {"scale": 2.0, "mode": "fan_in", "distribution": "uniform", "seed": null}}, "bias_initializer": {"class_name": "Zeros", "config": {}}, "kernel_regularizer": null, "bias_regularizer": null, "activity_regularizer": null, "kernel_constraint": null, "bias_constraint": null}, "inbound_nodes": [[["activation_13", 0, 0, {}]]]}, {"name": "batch_normalization_11", "class_name": "BatchNormalization", "config": {"name": "batch_normalization_11", "trainable": true, "dtype": "float32", "axis": 3, "momentum": 0.99, "epsilon": 9.999999747378752e-06, "center": true, "scale": true, "beta_initializer": {"class_name": "Zeros", "config": {}}, "gamma_initializer": {"class_name": "Ones", "config": {}}, "moving_mean_initializer": {"class_name": "Zeros", "config": {}}, "moving_variance_initializer": {"class_name": "Ones", "config": {}}, "beta_regularizer": null, "gamma_regularizer": null, "beta_constraint": null, "gamma_constraint": null}, "inbound_nodes": [[["conv2d_15", 0, 0, {}]]]}, {"name": "global_average_pooling2d_3", "class_name": "GlobalAveragePooling2D", "config": {"name": "global_average_pooling2d_3", "trainable": true, "dtype": "float32", "data_format": "channels_last"}, "inbound_nodes": [[["batch_normalization_11", 0, 0, {}]]]}, {"name": "lambda_3", "class_name": "Lambda", "config": {"name": "lambda_3", "trainable": true, "dtype": "float32", "function": ["4wIAAAAAAAAAAgAAAAYAAABDAAAAc1IAAAB8AWQBawJyIHwAZABkAIUCZABkAGQAZACFAmYEGQBT\nAHwBZAJrAnJAfABkAGQAhQJkAGQAhQJkAGQAZgQZAFMAdABkA6ABfAGhAYMBggFkAFMAKQRO6QMA\nAADpAQAAAHonU2xpY2UgYXhpcyBzaG91bGQgYmUgaW4gKDEsIDMpLCBnb3Qge30uKQLaClZhbHVl\nRXJyb3LaBmZvcm1hdCkC2gF42g1jaGFubmVsc19heGlzqQByBwAAAPppL2hvbWUvcm9mYWlkYS9w\neXRob24tZW52cy9lbnYyL2xpYi9weXRob24zLjcvc2l0ZS1wYWNrYWdlcy9jbGFzc2lmaWNhdGlv\nbl9tb2RlbHMvbW9kZWxzL19jb21tb25fYmxvY2tzLnB52gtleHBhbmRfZGltc08AAABzCgAAAAAB\nCAEYAQgBGAI=\n", null, null], "function_type": "lambda", "output_shape": null, "output_shape_type": "raw", "arguments": {"channels_axis": 3}}, "inbound_nodes": [[["global_average_pooling2d_3", 0, 0, {}]]]}, {"name": "conv2d_16", "class_name": "Conv2D", "config": {"name": "conv2d_16", "trainable": true, "dtype": "float32", "filters": 16, "kernel_size": [1, 1], "strides": [1, 1], "padding": "valid", "data_format": "channels_last", "dilation_rate": [1, 1], "activation": "linear", "use_bias": true, "kernel_initializer": {"class_name": "VarianceScaling", "config": {"scale": 2.0, "mode": "fan_in", "distribution": "uniform", "seed": null}}, "bias_initializer": {"class_name": "Zeros", "config": {}}, "kernel_regularizer": null, "bias_regularizer": null, "activity_regularizer": null, "kernel_constraint": null, "bias_constraint": null}, "inbound_nodes": [[["lambda_3", 0, 0, {}]]]}, {"name": "activation_14", "class_name": "Activation", "config": {"name": "activation_14", "trainable": true, "dtype": "float32", "activation": "relu"}, "inbound_nodes": [[["conv2d_16", 0, 0, {}]]]}, {"name": "conv2d_17", "class_name": "Conv2D", "config": {"name": "conv2d_17", "trainable": true, "dtype": "float32", "filters": 256, "kernel_size": [1, 1], "strides": [1, 1], "padding": "valid", "data_format": "channels_last", "dilation_rate": [1, 1], "activation": "linear", "use_bias": true, "kernel_initializer": {"class_name": "VarianceScaling", "config": {"scale": 2.0, "mode": "fan_in", "distribution": "uniform", "seed": null}}, "bias_initializer": {"class_name": "Zeros", "config": {}}, "kernel_regularizer": null, "bias_regularizer": null, "activity_regularizer": null, "kernel_constraint": null, "bias_constraint": null}, "inbound_nodes": [[["activation_14", 0, 0, {}]]]}, {"name": "activation_15", "class_name": "Activation", "config": {"name": "activation_15", "trainable": true, "dtype": "float32", "activation": "sigmoid"}, "inbound_nodes": [[["conv2d_17", 0, 0, {}]]]}, {"name": "multiply_3", "class_name": "Multiply", "config": {"name": "multiply_3", "trainable": true, "dtype": "float32"}, "inbound_nodes": [[["batch_normalization_11", 0, 0, {}], ["activation_15", 0, 0, {}]]]}, {"name": "add_3", "class_name": "Add", "config": {"name": "add_3", "trainable": true, "dtype": "float32"}, "inbound_nodes": [[["multiply_3", 0, 0, {}], ["activation_11", 0, 0, {}]]]}, {"name": "activation_16", "class_name": "Activation", "config": {"name": "activation_16", "trainable": true, "dtype": "float32", "activation": "relu"}, "inbound_nodes": [[["add_3", 0, 0, {}]]]}, {"name": "conv2d_18", "class_name": "Conv2D", "config": {"name": "conv2d_18", "trainable": true, "dtype": "float32", "filters": 128, "kernel_size": [1, 1], "strides": [2, 2], "padding": "valid", "data_format": "channels_last", "dilation_rate": [1, 1], "activation": "linear", "use_bias": false, "kernel_initializer": {"class_name": "VarianceScaling", "config": {"scale": 2.0, "mode": "fan_in", "distribution": "uniform", "seed": null}}, "bias_initializer": {"class_name": "Zeros", "config": {}}, "kernel_regularizer": null, "bias_regularizer": null, "activity_regularizer": null, "kernel_constraint": null, "bias_constraint": null}, "inbound_nodes": [[["activation_16", 0, 0, {}]]]}, {"name": "batch_normalization_12", "class_name": "BatchNormalization", "config": {"name": "batch_normalization_12", "trainable": true, "dtype": "float32", "axis": 3, "momentum": 0.99, "epsilon": 9.999999747378752e-06, "center": true, "scale": true, "beta_initializer": {"class_name": "Zeros", "config": {}}, "gamma_initializer": {"class_name": "Ones", "config": {}}, "moving_mean_initializer": {"class_name": "Zeros", "config": {}}, "moving_variance_initializer": {"class_name": "Ones", "config": {}}, "beta_regularizer": null, "gamma_regularizer": null, "beta_constraint": null, "gamma_constraint": null}, "inbound_nodes": [[["conv2d_18", 0, 0, {}]]]}, {"name": "activation_17", "class_name": "Activation", "config": {"name": "activation_17", "trainable": true, "dtype": "float32", "activation": "relu"}, "inbound_nodes": [[["batch_normalization_12", 0, 0, {}]]]}, {"name": "zero_padding2d_6", "class_name": "ZeroPadding2D", "config": {"name": "zero_padding2d_6", "trainable": true, "dtype": "float32", "padding": [[1, 1], [1, 1]], "data_format": "channels_last"}, "inbound_nodes": [[["activation_17", 0, 0, {}]]]}, {"name": "conv2d_19", "class_name": "Conv2D", "config": {"name": "conv2d_19", "trainable": true, "dtype": "float32", "filters": 128, "kernel_size": [3, 3], "strides": [1, 1], "padding": "valid", "data_format": "channels_last", "dilation_rate": [1, 1], "activation": "linear", "use_bias": false, "kernel_initializer": {"class_name": "VarianceScaling", "config": {"scale": 2.0, "mode": "fan_in", "distribution": "uniform", "seed": null}}, "bias_initializer": {"class_name": "Zeros", "config": {}}, "kernel_regularizer": null, "bias_regularizer": null, "activity_regularizer": null, "kernel_constraint": null, "bias_constraint": null}, "inbound_nodes": [[["zero_padding2d_6", 0, 0, {}]]]}, {"name": "batch_normalization_13", "class_name": "BatchNormalization", "config": {"name": "batch_normalization_13", "trainable": true, "dtype": "float32", "axis": 3, "momentum": 0.99, "epsilon": 9.999999747378752e-06, "center": true, "scale": true, "beta_initializer": {"class_name": "Zeros", "config": {}}, "gamma_initializer": {"class_name": "Ones", "config": {}}, "moving_mean_initializer": {"class_name": "Zeros", "config": {}}, "moving_variance_initializer": {"class_name": "Ones", "config": {}}, "beta_regularizer": null, "gamma_regularizer": null, "beta_constraint": null, "gamma_constraint": null}, "inbound_nodes": [[["conv2d_19", 0, 0, {}]]]}, {"name": "activation_18", "class_name": "Activation", "config": {"name": "activation_18", "trainable": true, "dtype": "float32", "activation": "relu"}, "inbound_nodes": [[["batch_normalization_13", 0, 0, {}]]]}, {"name": "conv2d_20", "class_name": "Conv2D", "config": {"name": "conv2d_20", "trainable": true, "dtype": "float32", "filters": 512, "kernel_size": [1, 1], "strides": [1, 1], "padding": "valid", "data_format": "channels_last", "dilation_rate": [1, 1], "activation": "linear", "use_bias": false, "kernel_initializer": {"class_name": "VarianceScaling", "config": {"scale": 2.0, "mode": "fan_in", "distribution": "uniform", "seed": null}}, "bias_initializer": {"class_name": "Zeros", "config": {}}, "kernel_regularizer": null, "bias_regularizer": null, "activity_regularizer": null, "kernel_constraint": null, "bias_constraint": null}, "inbound_nodes": [[["activation_18", 0, 0, {}]]]}, {"name": "batch_normalization_14", "class_name": "BatchNormalization", "config": {"name": "batch_normalization_14", "trainable": true, "dtype": "float32", "axis": 3, "momentum": 0.99, "epsilon": 9.999999747378752e-06, "center": true, "scale": true, "beta_initializer": {"class_name": "Zeros", "config": {}}, "gamma_initializer": {"class_name": "Ones", "config": {}}, "moving_mean_initializer": {"class_name": "Zeros", "config": {}}, "moving_variance_initializer": {"class_name": "Ones", "config": {}}, "beta_regularizer": null, "gamma_regularizer": null, "beta_constraint": null, "gamma_constraint": null}, "inbound_nodes": [[["conv2d_20", 0, 0, {}]]]}, {"name": "global_average_pooling2d_4", "class_name": "GlobalAveragePooling2D", "config": {"name": "global_average_pooling2d_4", "trainable": true, "dtype": "float32", "data_format": "channels_last"}, "inbound_nodes": [[["batch_normalization_14", 0, 0, {}]]]}, {"name": "lambda_4", "class_name": "Lambda", "config": {"name": "lambda_4", "trainable": true, "dtype": "float32", "function": ["4wIAAAAAAAAAAgAAAAYAAABDAAAAc1IAAAB8AWQBawJyIHwAZABkAIUCZABkAGQAZACFAmYEGQBT\nAHwBZAJrAnJAfABkAGQAhQJkAGQAhQJkAGQAZgQZAFMAdABkA6ABfAGhAYMBggFkAFMAKQRO6QMA\nAADpAQAAAHonU2xpY2UgYXhpcyBzaG91bGQgYmUgaW4gKDEsIDMpLCBnb3Qge30uKQLaClZhbHVl\nRXJyb3LaBmZvcm1hdCkC2gF42g1jaGFubmVsc19heGlzqQByBwAAAPppL2hvbWUvcm9mYWlkYS9w\neXRob24tZW52cy9lbnYyL2xpYi9weXRob24zLjcvc2l0ZS1wYWNrYWdlcy9jbGFzc2lmaWNhdGlv\nbl9tb2RlbHMvbW9kZWxzL19jb21tb25fYmxvY2tzLnB52gtleHBhbmRfZGltc08AAABzCgAAAAAB\nCAEYAQgBGAI=\n", null, null], "function_type": "lambda", "output_shape": null, "output_shape_type": "raw", "arguments": {"channels_axis": 3}}, "inbound_nodes": [[["global_average_pooling2d_4", 0, 0, {}]]]}, {"name": "conv2d_22", "class_name": "Conv2D", "config": {"name": "conv2d_22", "trainable": true, "dtype": "float32", "filters": 32, "kernel_size": [1, 1], "strides": [1, 1], "padding": "valid", "data_format": "channels_last", "dilation_rate": [1, 1], "activation": "linear", "use_bias": true, "kernel_initializer": {"class_name": "VarianceScaling", "config": {"scale": 2.0, "mode": "fan_in", "distribution": "uniform", "seed": null}}, "bias_initializer": {"class_name": "Zeros", "config": {}}, "kernel_regularizer": null, "bias_regularizer": null, "activity_regularizer": null, "kernel_constraint": null, "bias_constraint": null}, "inbound_nodes": [[["lambda_4", 0, 0, {}]]]}, {"name": "activation_19", "class_name": "Activation", "config": {"name": "activation_19", "trainable": true, "dtype": "float32", "activation": "relu"}, "inbound_nodes": [[["conv2d_22", 0, 0, {}]]]}, {"name": "conv2d_23", "class_name": "Conv2D", "config": {"name": "conv2d_23", "trainable": true, "dtype": "float32", "filters": 512, "kernel_size": [1, 1], "strides": [1, 1], "padding": "valid", "data_format": "channels_last", "dilation_rate": [1, 1], "activation": "linear", "use_bias": true, "kernel_initializer": {"class_name": "VarianceScaling", "config": {"scale": 2.0, "mode": "fan_in", "distribution": "uniform", "seed": null}}, "bias_initializer": {"class_name": "Zeros", "config": {}}, "kernel_regularizer": null, "bias_regularizer": null, "activity_regularizer": null, "kernel_constraint": null, "bias_constraint": null}, "inbound_nodes": [[["activation_19", 0, 0, {}]]]}, {"name": "activation_20", "class_name": "Activation", "config": {"name": "activation_20", "trainable": true, "dtype": "float32", "activation": "sigmoid"}, "inbound_nodes": [[["conv2d_23", 0, 0, {}]]]}, {"name": "conv2d_21", "class_name": "Conv2D", "config": {"name": "conv2d_21", "trainable": true, "dtype": "float32", "filters": 512, "kernel_size": [1, 1], "strides": [2, 2], "padding": "valid", "data_format": "channels_last", "dilation_rate": [1, 1], "activation": "linear", "use_bias": false, "kernel_initializer": {"class_name": "VarianceScaling", "config": {"scale": 2.0, "mode": "fan_in", "distribution": "uniform", "seed": null}}, "bias_initializer": {"class_name": "Zeros", "config": {}}, "kernel_regularizer": null, "bias_regularizer": null, "activity_regularizer": null, "kernel_constraint": null, "bias_constraint": null}, "inbound_nodes": [[["activation_16", 0, 0, {}]]]}, {"name": "multiply_4", "class_name": "Multiply", "config": {"name": "multiply_4", "trainable": true, "dtype": "float32"}, "inbound_nodes": [[["batch_normalization_14", 0, 0, {}], ["activation_20", 0, 0, {}]]]}, {"name": "batch_normalization_15", "class_name": "BatchNormalization", "config": {"name": "batch_normalization_15", "trainable": true, "dtype": "float32", "axis": 3, "momentum": 0.99, "epsilon": 9.999999747378752e-06, "center": true, "scale": true, "beta_initializer": {"class_name": "Zeros", "config": {}}, "gamma_initializer": {"class_name": "Ones", "config": {}}, "moving_mean_initializer": {"class_name": "Zeros", "config": {}}, "moving_variance_initializer": {"class_name": "Ones", "config": {}}, "beta_regularizer": null, "gamma_regularizer": null, "beta_constraint": null, "gamma_constraint": null}, "inbound_nodes": [[["conv2d_21", 0, 0, {}]]]}, {"name": "add_4", "class_name": "Add", "config": {"name": "add_4", "trainable": true, "dtype": "float32"}, "inbound_nodes": [[["multiply_4", 0, 0, {}], ["batch_normalization_15", 0, 0, {}]]]}, {"name": "activation_21", "class_name": "Activation", "config": {"name": "activation_21", "trainable": true, "dtype": "float32", "activation": "relu"}, "inbound_nodes": [[["add_4", 0, 0, {}]]]}, {"name": "conv2d_24", "class_name": "Conv2D", "config": {"name": "conv2d_24", "trainable": true, "dtype": "float32", "filters": 128, "kernel_size": [1, 1], "strides": [1, 1], "padding": "valid", "data_format": "channels_last", "dilation_rate": [1, 1], "activation": "linear", "use_bias": false, "kernel_initializer": {"class_name": "VarianceScaling", "config": {"scale": 2.0, "mode": "fan_in", "distribution": "uniform", "seed": null}}, "bias_initializer": {"class_name": "Zeros", "config": {}}, "kernel_regularizer": null, "bias_regularizer": null, "activity_regularizer": null, "kernel_constraint": null, "bias_constraint": null}, "inbound_nodes": [[["activation_21", 0, 0, {}]]]}, {"name": "batch_normalization_16", "class_name": "BatchNormalization", "config": {"name": "batch_normalization_16", "trainable": true, "dtype": "float32", "axis": 3, "momentum": 0.99, "epsilon": 9.999999747378752e-06, "center": true, "scale": true, "beta_initializer": {"class_name": "Zeros", "config": {}}, "gamma_initializer": {"class_name": "Ones", "config": {}}, "moving_mean_initializer": {"class_name": "Zeros", "config": {}}, "moving_variance_initializer": {"class_name": "Ones", "config": {}}, "beta_regularizer": null, "gamma_regularizer": null, "beta_constraint": null, "gamma_constraint": null}, "inbound_nodes": [[["conv2d_24", 0, 0, {}]]]}, {"name": "activation_22", "class_name": "Activation", "config": {"name": "activation_22", "trainable": true, "dtype": "float32", "activation": "relu"}, "inbound_nodes": [[["batch_normalization_16", 0, 0, {}]]]}, {"name": "zero_padding2d_7", "class_name": "ZeroPadding2D", "config": {"name": "zero_padding2d_7", "trainable": true, "dtype": "float32", "padding": [[1, 1], [1, 1]], "data_format": "channels_last"}, "inbound_nodes": [[["activation_22", 0, 0, {}]]]}, {"name": "conv2d_25", "class_name": "Conv2D", "config": {"name": "conv2d_25", "trainable": true, "dtype": "float32", "filters": 128, "kernel_size": [3, 3], "strides": [1, 1], "padding": "valid", "data_format": "channels_last", "dilation_rate": [1, 1], "activation": "linear", "use_bias": false, "kernel_initializer": {"class_name": "VarianceScaling", "config": {"scale": 2.0, "mode": "fan_in", "distribution": "uniform", "seed": null}}, "bias_initializer": {"class_name": "Zeros", "config": {}}, "kernel_regularizer": null, "bias_regularizer": null, "activity_regularizer": null, "kernel_constraint": null, "bias_constraint": null}, "inbound_nodes": [[["zero_padding2d_7", 0, 0, {}]]]}, {"name": "batch_normalization_17", "class_name": "BatchNormalization", "config": {"name": "batch_normalization_17", "trainable": true, "dtype": "float32", "axis": 3, "momentum": 0.99, "epsilon": 9.999999747378752e-06, "center": true, "scale": true, "beta_initializer": {"class_name": "Zeros", "config": {}}, "gamma_initializer": {"class_name": "Ones", "config": {}}, "moving_mean_initializer": {"class_name": "Zeros", "config": {}}, "moving_variance_initializer": {"class_name": "Ones", "config": {}}, "beta_regularizer": null, "gamma_regularizer": null, "beta_constraint": null, "gamma_constraint": null}, "inbound_nodes": [[["conv2d_25", 0, 0, {}]]]}, {"name": "activation_23", "class_name": "Activation", "config": {"name": "activation_23", "trainable": true, "dtype": "float32", "activation": "relu"}, "inbound_nodes": [[["batch_normalization_17", 0, 0, {}]]]}, {"name": "conv2d_26", "class_name": "Conv2D", "config": {"name": "conv2d_26", "trainable": true, "dtype": "float32", "filters": 512, "kernel_size": [1, 1], "strides": [1, 1], "padding": "valid", "data_format": "channels_last", "dilation_rate": [1, 1], "activation": "linear", "use_bias": false, "kernel_initializer": {"class_name": "VarianceScaling", "config": {"scale": 2.0, "mode": "fan_in", "distribution": "uniform", "seed": null}}, "bias_initializer": {"class_name": "Zeros", "config": {}}, "kernel_regularizer": null, "bias_regularizer": null, "activity_regularizer": null, "kernel_constraint": null, "bias_constraint": null}, "inbound_nodes": [[["activation_23", 0, 0, {}]]]}, {"name": "batch_normalization_18", "class_name": "BatchNormalization", "config": {"name": "batch_normalization_18", "trainable": true, "dtype": "float32", "axis": 3, "momentum": 0.99, "epsilon": 9.999999747378752e-06, "center": true, "scale": true, "beta_initializer": {"class_name": "Zeros", "config": {}}, "gamma_initializer": {"class_name": "Ones", "config": {}}, "moving_mean_initializer": {"class_name": "Zeros", "config": {}}, "moving_variance_initializer": {"class_name": "Ones", "config": {}}, "beta_regularizer": null, "gamma_regularizer": null, "beta_constraint": null, "gamma_constraint": null}, "inbound_nodes": [[["conv2d_26", 0, 0, {}]]]}, {"name": "global_average_pooling2d_5", "class_name": "GlobalAveragePooling2D", "config": {"name": "global_average_pooling2d_5", "trainable": true, "dtype": "float32", "data_format": "channels_last"}, "inbound_nodes": [[["batch_normalization_18", 0, 0, {}]]]}, {"name": "lambda_5", "class_name": "Lambda", "config": {"name": "lambda_5", "trainable": true, "dtype": "float32", "function": ["4wIAAAAAAAAAAgAAAAYAAABDAAAAc1IAAAB8AWQBawJyIHwAZABkAIUCZABkAGQAZACFAmYEGQBT\nAHwBZAJrAnJAfABkAGQAhQJkAGQAhQJkAGQAZgQZAFMAdABkA6ABfAGhAYMBggFkAFMAKQRO6QMA\nAADpAQAAAHonU2xpY2UgYXhpcyBzaG91bGQgYmUgaW4gKDEsIDMpLCBnb3Qge30uKQLaClZhbHVl\nRXJyb3LaBmZvcm1hdCkC2gF42g1jaGFubmVsc19heGlzqQByBwAAAPppL2hvbWUvcm9mYWlkYS9w\neXRob24tZW52cy9lbnYyL2xpYi9weXRob24zLjcvc2l0ZS1wYWNrYWdlcy9jbGFzc2lmaWNhdGlv\nbl9tb2RlbHMvbW9kZWxzL19jb21tb25fYmxvY2tzLnB52gtleHBhbmRfZGltc08AAABzCgAAAAAB\nCAEYAQgBGAI=\n", null, null], "function_type": "lambda", "output_shape": null, "output_shape_type": "raw", "arguments": {"channels_axis": 3}}, "inbound_nodes": [[["global_average_pooling2d_5", 0, 0, {}]]]}, {"name": "conv2d_27", "class_name": "Conv2D", "config": {"name": "conv2d_27", "trainable": true, "dtype": "float32", "filters": 32, "kernel_size": [1, 1], "strides": [1, 1], "padding": "valid", "data_format": "channels_last", "dilation_rate": [1, 1], "activation": "linear", "use_bias": true, "kernel_initializer": {"class_name": "VarianceScaling", "config": {"scale": 2.0, "mode": "fan_in", "distribution": "uniform", "seed": null}}, "bias_initializer": {"class_name": "Zeros", "config": {}}, "kernel_regularizer": null, "bias_regularizer": null, "activity_regularizer": null, "kernel_constraint": null, "bias_constraint": null}, "inbound_nodes": [[["lambda_5", 0, 0, {}]]]}, {"name": "activation_24", "class_name": "Activation", "config": {"name": "activation_24", "trainable": true, "dtype": "float32", "activation": "relu"}, "inbound_nodes": [[["conv2d_27", 0, 0, {}]]]}, {"name": "conv2d_28", "class_name": "Conv2D", "config": {"name": "conv2d_28", "trainable": true, "dtype": "float32", "filters": 512, "kernel_size": [1, 1], "strides": [1, 1], "padding": "valid", "data_format": "channels_last", "dilation_rate": [1, 1], "activation": "linear", "use_bias": true, "kernel_initializer": {"class_name": "VarianceScaling", "config": {"scale": 2.0, "mode": "fan_in", "distribution": "uniform", "seed": null}}, "bias_initializer": {"class_name": "Zeros", "config": {}}, "kernel_regularizer": null, "bias_regularizer": null, "activity_regularizer": null, "kernel_constraint": null, "bias_constraint": null}, "inbound_nodes": [[["activation_24", 0, 0, {}]]]}, {"name": "activation_25", "class_name": "Activation", "config": {"name": "activation_25", "trainable": true, "dtype": "float32", "activation": "sigmoid"}, "inbound_nodes": [[["conv2d_28", 0, 0, {}]]]}, {"name": "multiply_5", "class_name": "Multiply", "config": {"name": "multiply_5", "trainable": true, "dtype": "float32"}, "inbound_nodes": [[["batch_normalization_18", 0, 0, {}], ["activation_25", 0, 0, {}]]]}, {"name": "add_5", "class_name": "Add", "config": {"name": "add_5", "trainable": true, "dtype": "float32"}, "inbound_nodes": [[["multiply_5", 0, 0, {}], ["activation_21", 0, 0, {}]]]}, {"name": "activation_26", "class_name": "Activation", "config": {"name": "activation_26", "trainable": true, "dtype": "float32", "activation": "relu"}, "inbound_nodes": [[["add_5", 0, 0, {}]]]}, {"name": "conv2d_29", "class_name": "Conv2D", "config": {"name": "conv2d_29", "trainable": true, "dtype": "float32", "filters": 128, "kernel_size": [1, 1], "strides": [1, 1], "padding": "valid", "data_format": "channels_last", "dilation_rate": [1, 1], "activation": "linear", "use_bias": false, "kernel_initializer": {"class_name": "VarianceScaling", "config": {"scale": 2.0, "mode": "fan_in", "distribution": "uniform", "seed": null}}, "bias_initializer": {"class_name": "Zeros", "config": {}}, "kernel_regularizer": null, "bias_regularizer": null, "activity_regularizer": null, "kernel_constraint": null, "bias_constraint": null}, "inbound_nodes": [[["activation_26", 0, 0, {}]]]}, {"name": "batch_normalization_19", "class_name": "BatchNormalization", "config": {"name": "batch_normalization_19", "trainable": true, "dtype": "float32", "axis": 3, "momentum": 0.99, "epsilon": 9.999999747378752e-06, "center": true, "scale": true, "beta_initializer": {"class_name": "Zeros", "config": {}}, "gamma_initializer": {"class_name": "Ones", "config": {}}, "moving_mean_initializer": {"class_name": "Zeros", "config": {}}, "moving_variance_initializer": {"class_name": "Ones", "config": {}}, "beta_regularizer": null, "gamma_regularizer": null, "beta_constraint": null, "gamma_constraint": null}, "inbound_nodes": [[["conv2d_29", 0, 0, {}]]]}, {"name": "activation_27", "class_name": "Activation", "config": {"name": "activation_27", "trainable": true, "dtype": "float32", "activation": "relu"}, "inbound_nodes": [[["batch_normalization_19", 0, 0, {}]]]}, {"name": "zero_padding2d_8", "class_name": "ZeroPadding2D", "config": {"name": "zero_padding2d_8", "trainable": true, "dtype": "float32", "padding": [[1, 1], [1, 1]], "data_format": "channels_last"}, "inbound_nodes": [[["activation_27", 0, 0, {}]]]}, {"name": "conv2d_30", "class_name": "Conv2D", "config": {"name": "conv2d_30", "trainable": true, "dtype": "float32", "filters": 128, "kernel_size": [3, 3], "strides": [1, 1], "padding": "valid", "data_format": "channels_last", "dilation_rate": [1, 1], "activation": "linear", "use_bias": false, "kernel_initializer": {"class_name": "VarianceScaling", "config": {"scale": 2.0, "mode": "fan_in", "distribution": "uniform", "seed": null}}, "bias_initializer": {"class_name": "Zeros", "config": {}}, "kernel_regularizer": null, "bias_regularizer": null, "activity_regularizer": null, "kernel_constraint": null, "bias_constraint": null}, "inbound_nodes": [[["zero_padding2d_8", 0, 0, {}]]]}, {"name": "batch_normalization_20", "class_name": "BatchNormalization", "config": {"name": "batch_normalization_20", "trainable": true, "dtype": "float32", "axis": 3, "momentum": 0.99, "epsilon": 9.999999747378752e-06, "center": true, "scale": true, "beta_initializer": {"class_name": "Zeros", "config": {}}, "gamma_initializer": {"class_name": "Ones", "config": {}}, "moving_mean_initializer": {"class_name": "Zeros", "config": {}}, "moving_variance_initializer": {"class_name": "Ones", "config": {}}, "beta_regularizer": null, "gamma_regularizer": null, "beta_constraint": null, "gamma_constraint": null}, "inbound_nodes": [[["conv2d_30", 0, 0, {}]]]}, {"name": "activation_28", "class_name": "Activation", "config": {"name": "activation_28", "trainable": true, "dtype": "float32", "activation": "relu"}, "inbound_nodes": [[["batch_normalization_20", 0, 0, {}]]]}, {"name": "conv2d_31", "class_name": "Conv2D", "config": {"name": "conv2d_31", "trainable": true, "dtype": "float32", "filters": 512, "kernel_size": [1, 1], "strides": [1, 1], "padding": "valid", "data_format": "channels_last", "dilation_rate": [1, 1], "activation": "linear", "use_bias": false, "kernel_initializer": {"class_name": "VarianceScaling", "config": {"scale": 2.0, "mode": "fan_in", "distribution": "uniform", "seed": null}}, "bias_initializer": {"class_name": "Zeros", "config": {}}, "kernel_regularizer": null, "bias_regularizer": null, "activity_regularizer": null, "kernel_constraint": null, "bias_constraint": null}, "inbound_nodes": [[["activation_28", 0, 0, {}]]]}, {"name": "batch_normalization_21", "class_name": "BatchNormalization", "config": {"name": "batch_normalization_21", "trainable": true, "dtype": "float32", "axis": 3, "momentum": 0.99, "epsilon": 9.999999747378752e-06, "center": true, "scale": true, "beta_initializer": {"class_name": "Zeros", "config": {}}, "gamma_initializer": {"class_name": "Ones", "config": {}}, "moving_mean_initializer": {"class_name": "Zeros", "config": {}}, "moving_variance_initializer": {"class_name": "Ones", "config": {}}, "beta_regularizer": null, "gamma_regularizer": null, "beta_constraint": null, "gamma_constraint": null}, "inbound_nodes": [[["conv2d_31", 0, 0, {}]]]}, {"name": "global_average_pooling2d_6", "class_name": "GlobalAveragePooling2D", "config": {"name": "global_average_pooling2d_6", "trainable": true, "dtype": "float32", "data_format": "channels_last"}, "inbound_nodes": [[["batch_normalization_21", 0, 0, {}]]]}, {"name": "lambda_6", "class_name": "Lambda", "config": {"name": "lambda_6", "trainable": true, "dtype": "float32", "function": ["4wIAAAAAAAAAAgAAAAYAAABDAAAAc1IAAAB8AWQBawJyIHwAZABkAIUCZABkAGQAZACFAmYEGQBT\nAHwBZAJrAnJAfABkAGQAhQJkAGQAhQJkAGQAZgQZAFMAdABkA6ABfAGhAYMBggFkAFMAKQRO6QMA\nAADpAQAAAHonU2xpY2UgYXhpcyBzaG91bGQgYmUgaW4gKDEsIDMpLCBnb3Qge30uKQLaClZhbHVl\nRXJyb3LaBmZvcm1hdCkC2gF42g1jaGFubmVsc19heGlzqQByBwAAAPppL2hvbWUvcm9mYWlkYS9w\neXRob24tZW52cy9lbnYyL2xpYi9weXRob24zLjcvc2l0ZS1wYWNrYWdlcy9jbGFzc2lmaWNhdGlv\nbl9tb2RlbHMvbW9kZWxzL19jb21tb25fYmxvY2tzLnB52gtleHBhbmRfZGltc08AAABzCgAAAAAB\nCAEYAQgBGAI=\n", null, null], "function_type": "lambda", "output_shape": null, "output_shape_type": "raw", "arguments": {"channels_axis": 3}}, "inbound_nodes": [[["global_average_pooling2d_6", 0, 0, {}]]]}, {"name": "conv2d_32", "class_name": "Conv2D", "config": {"name": "conv2d_32", "trainable": true, "dtype": "float32", "filters": 32, "kernel_size": [1, 1], "strides": [1, 1], "padding": "valid", "data_format": "channels_last", "dilation_rate": [1, 1], "activation": "linear", "use_bias": true, "kernel_initializer": {"class_name": "VarianceScaling", "config": {"scale": 2.0, "mode": "fan_in", "distribution": "uniform", "seed": null}}, "bias_initializer": {"class_name": "Zeros", "config": {}}, "kernel_regularizer": null, "bias_regularizer": null, "activity_regularizer": null, "kernel_constraint": null, "bias_constraint": null}, "inbound_nodes": [[["lambda_6", 0, 0, {}]]]}, {"name": "activation_29", "class_name": "Activation", "config": {"name": "activation_29", "trainable": true, "dtype": "float32", "activation": "relu"}, "inbound_nodes": [[["conv2d_32", 0, 0, {}]]]}, {"name": "conv2d_33", "class_name": "Conv2D", "config": {"name": "conv2d_33", "trainable": true, "dtype": "float32", "filters": 512, "kernel_size": [1, 1], "strides": [1, 1], "padding": "valid", "data_format": "channels_last", "dilation_rate": [1, 1], "activation": "linear", "use_bias": true, "kernel_initializer": {"class_name": "VarianceScaling", "config": {"scale": 2.0, "mode": "fan_in", "distribution": "uniform", "seed": null}}, "bias_initializer": {"class_name": "Zeros", "config": {}}, "kernel_regularizer": null, "bias_regularizer": null, "activity_regularizer": null, "kernel_constraint": null, "bias_constraint": null}, "inbound_nodes": [[["activation_29", 0, 0, {}]]]}, {"name": "activation_30", "class_name": "Activation", "config": {"name": "activation_30", "trainable": true, "dtype": "float32", "activation": "sigmoid"}, "inbound_nodes": [[["conv2d_33", 0, 0, {}]]]}, {"name": "multiply_6", "class_name": "Multiply", "config": {"name": "multiply_6", "trainable": true, "dtype": "float32"}, "inbound_nodes": [[["batch_normalization_21", 0, 0, {}], ["activation_30", 0, 0, {}]]]}, {"name": "add_6", "class_name": "Add", "config": {"name": "add_6", "trainable": true, "dtype": "float32"}, "inbound_nodes": [[["multiply_6", 0, 0, {}], ["activation_26", 0, 0, {}]]]}, {"name": "activation_31", "class_name": "Activation", "config": {"name": "activation_31", "trainable": true, "dtype": "float32", "activation": "relu"}, "inbound_nodes": [[["add_6", 0, 0, {}]]]}, {"name": "conv2d_34", "class_name": "Conv2D", "config": {"name": "conv2d_34", "trainable": true, "dtype": "float32", "filters": 128, "kernel_size": [1, 1], "strides": [1, 1], "padding": "valid", "data_format": "channels_last", "dilation_rate": [1, 1], "activation": "linear", "use_bias": false, "kernel_initializer": {"class_name": "VarianceScaling", "config": {"scale": 2.0, "mode": "fan_in", "distribution": "uniform", "seed": null}}, "bias_initializer": {"class_name": "Zeros", "config": {}}, "kernel_regularizer": null, "bias_regularizer": null, "activity_regularizer": null, "kernel_constraint": null, "bias_constraint": null}, "inbound_nodes": [[["activation_31", 0, 0, {}]]]}, {"name": "batch_normalization_22", "class_name": "BatchNormalization", "config": {"name": "batch_normalization_22", "trainable": true, "dtype": "float32", "axis": 3, "momentum": 0.99, "epsilon": 9.999999747378752e-06, "center": true, "scale": true, "beta_initializer": {"class_name": "Zeros", "config": {}}, "gamma_initializer": {"class_name": "Ones", "config": {}}, "moving_mean_initializer": {"class_name": "Zeros", "config": {}}, "moving_variance_initializer": {"class_name": "Ones", "config": {}}, "beta_regularizer": null, "gamma_regularizer": null, "beta_constraint": null, "gamma_constraint": null}, "inbound_nodes": [[["conv2d_34", 0, 0, {}]]]}, {"name": "activation_32", "class_name": "Activation", "config": {"name": "activation_32", "trainable": true, "dtype": "float32", "activation": "relu"}, "inbound_nodes": [[["batch_normalization_22", 0, 0, {}]]]}, {"name": "zero_padding2d_9", "class_name": "ZeroPadding2D", "config": {"name": "zero_padding2d_9", "trainable": true, "dtype": "float32", "padding": [[1, 1], [1, 1]], "data_format": "channels_last"}, "inbound_nodes": [[["activation_32", 0, 0, {}]]]}, {"name": "conv2d_35", "class_name": "Conv2D", "config": {"name": "conv2d_35", "trainable": true, "dtype": "float32", "filters": 128, "kernel_size": [3, 3], "strides": [1, 1], "padding": "valid", "data_format": "channels_last", "dilation_rate": [1, 1], "activation": "linear", "use_bias": false, "kernel_initializer": {"class_name": "VarianceScaling", "config": {"scale": 2.0, "mode": "fan_in", "distribution": "uniform", "seed": null}}, "bias_initializer": {"class_name": "Zeros", "config": {}}, "kernel_regularizer": null, "bias_regularizer": null, "activity_regularizer": null, "kernel_constraint": null, "bias_constraint": null}, "inbound_nodes": [[["zero_padding2d_9", 0, 0, {}]]]}, {"name": "batch_normalization_23", "class_name": "BatchNormalization", "config": {"name": "batch_normalization_23", "trainable": true, "dtype": "float32", "axis": 3, "momentum": 0.99, "epsilon": 9.999999747378752e-06, "center": true, "scale": true, "beta_initializer": {"class_name": "Zeros", "config": {}}, "gamma_initializer": {"class_name": "Ones", "config": {}}, "moving_mean_initializer": {"class_name": "Zeros", "config": {}}, "moving_variance_initializer": {"class_name": "Ones", "config": {}}, "beta_regularizer": null, "gamma_regularizer": null, "beta_constraint": null, "gamma_constraint": null}, "inbound_nodes": [[["conv2d_35", 0, 0, {}]]]}, {"name": "activation_33", "class_name": "Activation", "config": {"name": "activation_33", "trainable": true, "dtype": "float32", "activation": "relu"}, "inbound_nodes": [[["batch_normalization_23", 0, 0, {}]]]}, {"name": "conv2d_36", "class_name": "Conv2D", "config": {"name": "conv2d_36", "trainable": true, "dtype": "float32", "filters": 512, "kernel_size": [1, 1], "strides": [1, 1], "padding": "valid", "data_format": "channels_last", "dilation_rate": [1, 1], "activation": "linear", "use_bias": false, "kernel_initializer": {"class_name": "VarianceScaling", "config": {"scale": 2.0, "mode": "fan_in", "distribution": "uniform", "seed": null}}, "bias_initializer": {"class_name": "Zeros", "config": {}}, "kernel_regularizer": null, "bias_regularizer": null, "activity_regularizer": null, "kernel_constraint": null, "bias_constraint": null}, "inbound_nodes": [[["activation_33", 0, 0, {}]]]}, {"name": "batch_normalization_24", "class_name": "BatchNormalization", "config": {"name": "batch_normalization_24", "trainable": true, "dtype": "float32", "axis": 3, "momentum": 0.99, "epsilon": 9.999999747378752e-06, "center": true, "scale": true, "beta_initializer": {"class_name": "Zeros", "config": {}}, "gamma_initializer": {"class_name": "Ones", "config": {}}, "moving_mean_initializer": {"class_name": "Zeros", "config": {}}, "moving_variance_initializer": {"class_name": "Ones", "config": {}}, "beta_regularizer": null, "gamma_regularizer": null, "beta_constraint": null, "gamma_constraint": null}, "inbound_nodes": [[["conv2d_36", 0, 0, {}]]]}, {"name": "global_average_pooling2d_7", "class_name": "GlobalAveragePooling2D", "config": {"name": "global_average_pooling2d_7", "trainable": true, "dtype": "float32", "data_format": "channels_last"}, "inbound_nodes": [[["batch_normalization_24", 0, 0, {}]]]}, {"name": "lambda_7", "class_name": "Lambda", "config": {"name": "lambda_7", "trainable": true, "dtype": "float32", "function": ["4wIAAAAAAAAAAgAAAAYAAABDAAAAc1IAAAB8AWQBawJyIHwAZABkAIUCZABkAGQAZACFAmYEGQBT\nAHwBZAJrAnJAfABkAGQAhQJkAGQAhQJkAGQAZgQZAFMAdABkA6ABfAGhAYMBggFkAFMAKQRO6QMA\nAADpAQAAAHonU2xpY2UgYXhpcyBzaG91bGQgYmUgaW4gKDEsIDMpLCBnb3Qge30uKQLaClZhbHVl\nRXJyb3LaBmZvcm1hdCkC2gF42g1jaGFubmVsc19heGlzqQByBwAAAPppL2hvbWUvcm9mYWlkYS9w\neXRob24tZW52cy9lbnYyL2xpYi9weXRob24zLjcvc2l0ZS1wYWNrYWdlcy9jbGFzc2lmaWNhdGlv\nbl9tb2RlbHMvbW9kZWxzL19jb21tb25fYmxvY2tzLnB52gtleHBhbmRfZGltc08AAABzCgAAAAAB\nCAEYAQgBGAI=\n", null, null], "function_type": "lambda", "output_shape": null, "output_shape_type": "raw", "arguments": {"channels_axis": 3}}, "inbound_nodes": [[["global_average_pooling2d_7", 0, 0, {}]]]}, {"name": "conv2d_37", "class_name": "Conv2D", "config": {"name": "conv2d_37", "trainable": true, "dtype": "float32", "filters": 32, "kernel_size": [1, 1], "strides": [1, 1], "padding": "valid", "data_format": "channels_last", "dilation_rate": [1, 1], "activation": "linear", "use_bias": true, "kernel_initializer": {"class_name": "VarianceScaling", "config": {"scale": 2.0, "mode": "fan_in", "distribution": "uniform", "seed": null}}, "bias_initializer": {"class_name": "Zeros", "config": {}}, "kernel_regularizer": null, "bias_regularizer": null, "activity_regularizer": null, "kernel_constraint": null, "bias_constraint": null}, "inbound_nodes": [[["lambda_7", 0, 0, {}]]]}, {"name": "activation_34", "class_name": "Activation", "config": {"name": "activation_34", "trainable": true, "dtype": "float32", "activation": "relu"}, "inbound_nodes": [[["conv2d_37", 0, 0, {}]]]}, {"name": "conv2d_38", "class_name": "Conv2D", "config": {"name": "conv2d_38", "trainable": true, "dtype": "float32", "filters": 512, "kernel_size": [1, 1], "strides": [1, 1], "padding": "valid", "data_format": "channels_last", "dilation_rate": [1, 1], "activation": "linear", "use_bias": true, "kernel_initializer": {"class_name": "VarianceScaling", "config": {"scale": 2.0, "mode": "fan_in", "distribution": "uniform", "seed": null}}, "bias_initializer": {"class_name": "Zeros", "config": {}}, "kernel_regularizer": null, "bias_regularizer": null, "activity_regularizer": null, "kernel_constraint": null, "bias_constraint": null}, "inbound_nodes": [[["activation_34", 0, 0, {}]]]}, {"name": "activation_35", "class_name": "Activation", "config": {"name": "activation_35", "trainable": true, "dtype": "float32", "activation": "sigmoid"}, "inbound_nodes": [[["conv2d_38", 0, 0, {}]]]}, {"name": "multiply_7", "class_name": "Multiply", "config": {"name": "multiply_7", "trainable": true, "dtype": "float32"}, "inbound_nodes": [[["batch_normalization_24", 0, 0, {}], ["activation_35", 0, 0, {}]]]}, {"name": "add_7", "class_name": "Add", "config": {"name": "add_7", "trainable": true, "dtype": "float32"}, "inbound_nodes": [[["multiply_7", 0, 0, {}], ["activation_31", 0, 0, {}]]]}, {"name": "activation_36", "class_name": "Activation", "config": {"name": "activation_36", "trainable": true, "dtype": "float32", "activation": "relu"}, "inbound_nodes": [[["add_7", 0, 0, {}]]]}, {"name": "conv2d_39", "class_name": "Conv2D", "config": {"name": "conv2d_39", "trainable": true, "dtype": "float32", "filters": 256, "kernel_size": [1, 1], "strides": [2, 2], "padding": "valid", "data_format": "channels_last", "dilation_rate": [1, 1], "activation": "linear", "use_bias": false, "kernel_initializer": {"class_name": "VarianceScaling", "config": {"scale": 2.0, "mode": "fan_in", "distribution": "uniform", "seed": null}}, "bias_initializer": {"class_name": "Zeros", "config": {}}, "kernel_regularizer": null, "bias_regularizer": null, "activity_regularizer": null, "kernel_constraint": null, "bias_constraint": null}, "inbound_nodes": [[["activation_36", 0, 0, {}]]]}, {"name": "batch_normalization_25", "class_name": "BatchNormalization", "config": {"name": "batch_normalization_25", "trainable": true, "dtype": "float32", "axis": 3, "momentum": 0.99, "epsilon": 9.999999747378752e-06, "center": true, "scale": true, "beta_initializer": {"class_name": "Zeros", "config": {}}, "gamma_initializer": {"class_name": "Ones", "config": {}}, "moving_mean_initializer": {"class_name": "Zeros", "config": {}}, "moving_variance_initializer": {"class_name": "Ones", "config": {}}, "beta_regularizer": null, "gamma_regularizer": null, "beta_constraint": null, "gamma_constraint": null}, "inbound_nodes": [[["conv2d_39", 0, 0, {}]]]}, {"name": "activation_37", "class_name": "Activation", "config": {"name": "activation_37", "trainable": true, "dtype": "float32", "activation": "relu"}, "inbound_nodes": [[["batch_normalization_25", 0, 0, {}]]]}, {"name": "zero_padding2d_10", "class_name": "ZeroPadding2D", "config": {"name": "zero_padding2d_10", "trainable": true, "dtype": "float32", "padding": [[1, 1], [1, 1]], "data_format": "channels_last"}, "inbound_nodes": [[["activation_37", 0, 0, {}]]]}, {"name": "conv2d_40", "class_name": "Conv2D", "config": {"name": "conv2d_40", "trainable": true, "dtype": "float32", "filters": 256, "kernel_size": [3, 3], "strides": [1, 1], "padding": "valid", "data_format": "channels_last", "dilation_rate": [1, 1], "activation": "linear", "use_bias": false, "kernel_initializer": {"class_name": "VarianceScaling", "config": {"scale": 2.0, "mode": "fan_in", "distribution": "uniform", "seed": null}}, "bias_initializer": {"class_name": "Zeros", "config": {}}, "kernel_regularizer": null, "bias_regularizer": null, "activity_regularizer": null, "kernel_constraint": null, "bias_constraint": null}, "inbound_nodes": [[["zero_padding2d_10", 0, 0, {}]]]}, {"name": "batch_normalization_26", "class_name": "BatchNormalization", "config": {"name": "batch_normalization_26", "trainable": true, "dtype": "float32", "axis": 3, "momentum": 0.99, "epsilon": 9.999999747378752e-06, "center": true, "scale": true, "beta_initializer": {"class_name": "Zeros", "config": {}}, "gamma_initializer": {"class_name": "Ones", "config": {}}, "moving_mean_initializer": {"class_name": "Zeros", "config": {}}, "moving_variance_initializer": {"class_name": "Ones", "config": {}}, "beta_regularizer": null, "gamma_regularizer": null, "beta_constraint": null, "gamma_constraint": null}, "inbound_nodes": [[["conv2d_40", 0, 0, {}]]]}, {"name": "activation_38", "class_name": "Activation", "config": {"name": "activation_38", "trainable": true, "dtype": "float32", "activation": "relu"}, "inbound_nodes": [[["batch_normalization_26", 0, 0, {}]]]}, {"name": "conv2d_41", "class_name": "Conv2D", "config": {"name": "conv2d_41", "trainable": true, "dtype": "float32", "filters": 1024, "kernel_size": [1, 1], "strides": [1, 1], "padding": "valid", "data_format": "channels_last", "dilation_rate": [1, 1], "activation": "linear", "use_bias": false, "kernel_initializer": {"class_name": "VarianceScaling", "config": {"scale": 2.0, "mode": "fan_in", "distribution": "uniform", "seed": null}}, "bias_initializer": {"class_name": "Zeros", "config": {}}, "kernel_regularizer": null, "bias_regularizer": null, "activity_regularizer": null, "kernel_constraint": null, "bias_constraint": null}, "inbound_nodes": [[["activation_38", 0, 0, {}]]]}, {"name": "batch_normalization_27", "class_name": "BatchNormalization", "config": {"name": "batch_normalization_27", "trainable": true, "dtype": "float32", "axis": 3, "momentum": 0.99, "epsilon": 9.999999747378752e-06, "center": true, "scale": true, "beta_initializer": {"class_name": "Zeros", "config": {}}, "gamma_initializer": {"class_name": "Ones", "config": {}}, "moving_mean_initializer": {"class_name": "Zeros", "config": {}}, "moving_variance_initializer": {"class_name": "Ones", "config": {}}, "beta_regularizer": null, "gamma_regularizer": null, "beta_constraint": null, "gamma_constraint": null}, "inbound_nodes": [[["conv2d_41", 0, 0, {}]]]}, {"name": "global_average_pooling2d_8", "class_name": "GlobalAveragePooling2D", "config": {"name": "global_average_pooling2d_8", "trainable": true, "dtype": "float32", "data_format": "channels_last"}, "inbound_nodes": [[["batch_normalization_27", 0, 0, {}]]]}, {"name": "lambda_8", "class_name": "Lambda", "config": {"name": "lambda_8", "trainable": true, "dtype": "float32", "function": ["4wIAAAAAAAAAAgAAAAYAAABDAAAAc1IAAAB8AWQBawJyIHwAZABkAIUCZABkAGQAZACFAmYEGQBT\nAHwBZAJrAnJAfABkAGQAhQJkAGQAhQJkAGQAZgQZAFMAdABkA6ABfAGhAYMBggFkAFMAKQRO6QMA\nAADpAQAAAHonU2xpY2UgYXhpcyBzaG91bGQgYmUgaW4gKDEsIDMpLCBnb3Qge30uKQLaClZhbHVl\nRXJyb3LaBmZvcm1hdCkC2gF42g1jaGFubmVsc19heGlzqQByBwAAAPppL2hvbWUvcm9mYWlkYS9w\neXRob24tZW52cy9lbnYyL2xpYi9weXRob24zLjcvc2l0ZS1wYWNrYWdlcy9jbGFzc2lmaWNhdGlv\nbl9tb2RlbHMvbW9kZWxzL19jb21tb25fYmxvY2tzLnB52gtleHBhbmRfZGltc08AAABzCgAAAAAB\nCAEYAQgBGAI=\n", null, null], "function_type": "lambda", "output_shape": null, "output_shape_type": "raw", "arguments": {"channels_axis": 3}}, "inbound_nodes": [[["global_average_pooling2d_8", 0, 0, {}]]]}, {"name": "conv2d_43", "class_name": "Conv2D", "config": {"name": "conv2d_43", "trainable": true, "dtype": "float32", "filters": 64, "kernel_size": [1, 1], "strides": [1, 1], "padding": "valid", "data_format": "channels_last", "dilation_rate": [1, 1], "activation": "linear", "use_bias": true, "kernel_initializer": {"class_name": "VarianceScaling", "config": {"scale": 2.0, "mode": "fan_in", "distribution": "uniform", "seed": null}}, "bias_initializer": {"class_name": "Zeros", "config": {}}, "kernel_regularizer": null, "bias_regularizer": null, "activity_regularizer": null, "kernel_constraint": null, "bias_constraint": null}, "inbound_nodes": [[["lambda_8", 0, 0, {}]]]}, {"name": "activation_39", "class_name": "Activation", "config": {"name": "activation_39", "trainable": true, "dtype": "float32", "activation": "relu"}, "inbound_nodes": [[["conv2d_43", 0, 0, {}]]]}, {"name": "conv2d_44", "class_name": "Conv2D", "config": {"name": "conv2d_44", "trainable": true, "dtype": "float32", "filters": 1024, "kernel_size": [1, 1], "strides": [1, 1], "padding": "valid", "data_format": "channels_last", "dilation_rate": [1, 1], "activation": "linear", "use_bias": true, "kernel_initializer": {"class_name": "VarianceScaling", "config": {"scale": 2.0, "mode": "fan_in", "distribution": "uniform", "seed": null}}, "bias_initializer": {"class_name": "Zeros", "config": {}}, "kernel_regularizer": null, "bias_regularizer": null, "activity_regularizer": null, "kernel_constraint": null, "bias_constraint": null}, "inbound_nodes": [[["activation_39", 0, 0, {}]]]}, {"name": "activation_40", "class_name": "Activation", "config": {"name": "activation_40", "trainable": true, "dtype": "float32", "activation": "sigmoid"}, "inbound_nodes": [[["conv2d_44", 0, 0, {}]]]}, {"name": "conv2d_42", "class_name": "Conv2D", "config": {"name": "conv2d_42", "trainable": true, "dtype": "float32", "filters": 1024, "kernel_size": [1, 1], "strides": [2, 2], "padding": "valid", "data_format": "channels_last", "dilation_rate": [1, 1], "activation": "linear", "use_bias": false, "kernel_initializer": {"class_name": "VarianceScaling", "config": {"scale": 2.0, "mode": "fan_in", "distribution": "uniform", "seed": null}}, "bias_initializer": {"class_name": "Zeros", "config": {}}, "kernel_regularizer": null, "bias_regularizer": null, "activity_regularizer": null, "kernel_constraint": null, "bias_constraint": null}, "inbound_nodes": [[["activation_36", 0, 0, {}]]]}, {"name": "multiply_8", "class_name": "Multiply", "config": {"name": "multiply_8", "trainable": true, "dtype": "float32"}, "inbound_nodes": [[["batch_normalization_27", 0, 0, {}], ["activation_40", 0, 0, {}]]]}, {"name": "batch_normalization_28", "class_name": "BatchNormalization", "config": {"name": "batch_normalization_28", "trainable": true, "dtype": "float32", "axis": 3, "momentum": 0.99, "epsilon": 9.999999747378752e-06, "center": true, "scale": true, "beta_initializer": {"class_name": "Zeros", "config": {}}, "gamma_initializer": {"class_name": "Ones", "config": {}}, "moving_mean_initializer": {"class_name": "Zeros", "config": {}}, "moving_variance_initializer": {"class_name": "Ones", "config": {}}, "beta_regularizer": null, "gamma_regularizer": null, "beta_constraint": null, "gamma_constraint": null}, "inbound_nodes": [[["conv2d_42", 0, 0, {}]]]}, {"name": "add_8", "class_name": "Add", "config": {"name": "add_8", "trainable": true, "dtype": "float32"}, "inbound_nodes": [[["multiply_8", 0, 0, {}], ["batch_normalization_28", 0, 0, {}]]]}, {"name": "activation_41", "class_name": "Activation", "config": {"name": "activation_41", "trainable": true, "dtype": "float32", "activation": "relu"}, "inbound_nodes": [[["add_8", 0, 0, {}]]]}, {"name": "conv2d_45", "class_name": "Conv2D", "config": {"name": "conv2d_45", "trainable": true, "dtype": "float32", "filters": 256, "kernel_size": [1, 1], "strides": [1, 1], "padding": "valid", "data_format": "channels_last", "dilation_rate": [1, 1], "activation": "linear", "use_bias": false, "kernel_initializer": {"class_name": "VarianceScaling", "config": {"scale": 2.0, "mode": "fan_in", "distribution": "uniform", "seed": null}}, "bias_initializer": {"class_name": "Zeros", "config": {}}, "kernel_regularizer": null, "bias_regularizer": null, "activity_regularizer": null, "kernel_constraint": null, "bias_constraint": null}, "inbound_nodes": [[["activation_41", 0, 0, {}]]]}, {"name": "batch_normalization_29", "class_name": "BatchNormalization", "config": {"name": "batch_normalization_29", "trainable": true, "dtype": "float32", "axis": 3, "momentum": 0.99, "epsilon": 9.999999747378752e-06, "center": true, "scale": true, "beta_initializer": {"class_name": "Zeros", "config": {}}, "gamma_initializer": {"class_name": "Ones", "config": {}}, "moving_mean_initializer": {"class_name": "Zeros", "config": {}}, "moving_variance_initializer": {"class_name": "Ones", "config": {}}, "beta_regularizer": null, "gamma_regularizer": null, "beta_constraint": null, "gamma_constraint": null}, "inbound_nodes": [[["conv2d_45", 0, 0, {}]]]}, {"name": "activation_42", "class_name": "Activation", "config": {"name": "activation_42", "trainable": true, "dtype": "float32", "activation": "relu"}, "inbound_nodes": [[["batch_normalization_29", 0, 0, {}]]]}, {"name": "zero_padding2d_11", "class_name": "ZeroPadding2D", "config": {"name": "zero_padding2d_11", "trainable": true, "dtype": "float32", "padding": [[1, 1], [1, 1]], "data_format": "channels_last"}, "inbound_nodes": [[["activation_42", 0, 0, {}]]]}, {"name": "conv2d_46", "class_name": "Conv2D", "config": {"name": "conv2d_46", "trainable": true, "dtype": "float32", "filters": 256, "kernel_size": [3, 3], "strides": [1, 1], "padding": "valid", "data_format": "channels_last", "dilation_rate": [1, 1], "activation": "linear", "use_bias": false, "kernel_initializer": {"class_name": "VarianceScaling", "config": {"scale": 2.0, "mode": "fan_in", "distribution": "uniform", "seed": null}}, "bias_initializer": {"class_name": "Zeros", "config": {}}, "kernel_regularizer": null, "bias_regularizer": null, "activity_regularizer": null, "kernel_constraint": null, "bias_constraint": null}, "inbound_nodes": [[["zero_padding2d_11", 0, 0, {}]]]}, {"name": "batch_normalization_30", "class_name": "BatchNormalization", "config": {"name": "batch_normalization_30", "trainable": true, "dtype": "float32", "axis": 3, "momentum": 0.99, "epsilon": 9.999999747378752e-06, "center": true, "scale": true, "beta_initializer": {"class_name": "Zeros", "config": {}}, "gamma_initializer": {"class_name": "Ones", "config": {}}, "moving_mean_initializer": {"class_name": "Zeros", "config": {}}, "moving_variance_initializer": {"class_name": "Ones", "config": {}}, "beta_regularizer": null, "gamma_regularizer": null, "beta_constraint": null, "gamma_constraint": null}, "inbound_nodes": [[["conv2d_46", 0, 0, {}]]]}, {"name": "activation_43", "class_name": "Activation", "config": {"name": "activation_43", "trainable": true, "dtype": "float32", "activation": "relu"}, "inbound_nodes": [[["batch_normalization_30", 0, 0, {}]]]}, {"name": "conv2d_47", "class_name": "Conv2D", "config": {"name": "conv2d_47", "trainable": true, "dtype": "float32", "filters": 1024, "kernel_size": [1, 1], "strides": [1, 1], "padding": "valid", "data_format": "channels_last", "dilation_rate": [1, 1], "activation": "linear", "use_bias": false, "kernel_initializer": {"class_name": "VarianceScaling", "config": {"scale": 2.0, "mode": "fan_in", "distribution": "uniform", "seed": null}}, "bias_initializer": {"class_name": "Zeros", "config": {}}, "kernel_regularizer": null, "bias_regularizer": null, "activity_regularizer": null, "kernel_constraint": null, "bias_constraint": null}, "inbound_nodes": [[["activation_43", 0, 0, {}]]]}, {"name": "batch_normalization_31", "class_name": "BatchNormalization", "config": {"name": "batch_normalization_31", "trainable": true, "dtype": "float32", "axis": 3, "momentum": 0.99, "epsilon": 9.999999747378752e-06, "center": true, "scale": true, "beta_initializer": {"class_name": "Zeros", "config": {}}, "gamma_initializer": {"class_name": "Ones", "config": {}}, "moving_mean_initializer": {"class_name": "Zeros", "config": {}}, "moving_variance_initializer": {"class_name": "Ones", "config": {}}, "beta_regularizer": null, "gamma_regularizer": null, "beta_constraint": null, "gamma_constraint": null}, "inbound_nodes": [[["conv2d_47", 0, 0, {}]]]}, {"name": "global_average_pooling2d_9", "class_name": "GlobalAveragePooling2D", "config": {"name": "global_average_pooling2d_9", "trainable": true, "dtype": "float32", "data_format": "channels_last"}, "inbound_nodes": [[["batch_normalization_31", 0, 0, {}]]]}, {"name": "lambda_9", "class_name": "Lambda", "config": {"name": "lambda_9", "trainable": true, "dtype": "float32", "function": ["4wIAAAAAAAAAAgAAAAYAAABDAAAAc1IAAAB8AWQBawJyIHwAZABkAIUCZABkAGQAZACFAmYEGQBT\nAHwBZAJrAnJAfABkAGQAhQJkAGQAhQJkAGQAZgQZAFMAdABkA6ABfAGhAYMBggFkAFMAKQRO6QMA\nAADpAQAAAHonU2xpY2UgYXhpcyBzaG91bGQgYmUgaW4gKDEsIDMpLCBnb3Qge30uKQLaClZhbHVl\nRXJyb3LaBmZvcm1hdCkC2gF42g1jaGFubmVsc19heGlzqQByBwAAAPppL2hvbWUvcm9mYWlkYS9w\neXRob24tZW52cy9lbnYyL2xpYi9weXRob24zLjcvc2l0ZS1wYWNrYWdlcy9jbGFzc2lmaWNhdGlv\nbl9tb2RlbHMvbW9kZWxzL19jb21tb25fYmxvY2tzLnB52gtleHBhbmRfZGltc08AAABzCgAAAAAB\nCAEYAQgBGAI=\n", null, null], "function_type": "lambda", "output_shape": null, "output_shape_type": "raw", "arguments": {"channels_axis": 3}}, "inbound_nodes": [[["global_average_pooling2d_9", 0, 0, {}]]]}, {"name": "conv2d_48", "class_name": "Conv2D", "config": {"name": "conv2d_48", "trainable": true, "dtype": "float32", "filters": 64, "kernel_size": [1, 1], "strides": [1, 1], "padding": "valid", "data_format": "channels_last", "dilation_rate": [1, 1], "activation": "linear", "use_bias": true, "kernel_initializer": {"class_name": "VarianceScaling", "config": {"scale": 2.0, "mode": "fan_in", "distribution": "uniform", "seed": null}}, "bias_initializer": {"class_name": "Zeros", "config": {}}, "kernel_regularizer": null, "bias_regularizer": null, "activity_regularizer": null, "kernel_constraint": null, "bias_constraint": null}, "inbound_nodes": [[["lambda_9", 0, 0, {}]]]}, {"name": "activation_44", "class_name": "Activation", "config": {"name": "activation_44", "trainable": true, "dtype": "float32", "activation": "relu"}, "inbound_nodes": [[["conv2d_48", 0, 0, {}]]]}, {"name": "conv2d_49", "class_name": "Conv2D", "config": {"name": "conv2d_49", "trainable": true, "dtype": "float32", "filters": 1024, "kernel_size": [1, 1], "strides": [1, 1], "padding": "valid", "data_format": "channels_last", "dilation_rate": [1, 1], "activation": "linear", "use_bias": true, "kernel_initializer": {"class_name": "VarianceScaling", "config": {"scale": 2.0, "mode": "fan_in", "distribution": "uniform", "seed": null}}, "bias_initializer": {"class_name": "Zeros", "config": {}}, "kernel_regularizer": null, "bias_regularizer": null, "activity_regularizer": null, "kernel_constraint": null, "bias_constraint": null}, "inbound_nodes": [[["activation_44", 0, 0, {}]]]}, {"name": "activation_45", "class_name": "Activation", "config": {"name": "activation_45", "trainable": true, "dtype": "float32", "activation": "sigmoid"}, "inbound_nodes": [[["conv2d_49", 0, 0, {}]]]}, {"name": "multiply_9", "class_name": "Multiply", "config": {"name": "multiply_9", "trainable": true, "dtype": "float32"}, "inbound_nodes": [[["batch_normalization_31", 0, 0, {}], ["activation_45", 0, 0, {}]]]}, {"name": "add_9", "class_name": "Add", "config": {"name": "add_9", "trainable": true, "dtype": "float32"}, "inbound_nodes": [[["multiply_9", 0, 0, {}], ["activation_41", 0, 0, {}]]]}, {"name": "activation_46", "class_name": "Activation", "config": {"name": "activation_46", "trainable": true, "dtype": "float32", "activation": "relu"}, "inbound_nodes": [[["add_9", 0, 0, {}]]]}, {"name": "conv2d_50", "class_name": "Conv2D", "config": {"name": "conv2d_50", "trainable": true, "dtype": "float32", "filters": 256, "kernel_size": [1, 1], "strides": [1, 1], "padding": "valid", "data_format": "channels_last", "dilation_rate": [1, 1], "activation": "linear", "use_bias": false, "kernel_initializer": {"class_name": "VarianceScaling", "config": {"scale": 2.0, "mode": "fan_in", "distribution": "uniform", "seed": null}}, "bias_initializer": {"class_name": "Zeros", "config": {}}, "kernel_regularizer": null, "bias_regularizer": null, "activity_regularizer": null, "kernel_constraint": null, "bias_constraint": null}, "inbound_nodes": [[["activation_46", 0, 0, {}]]]}, {"name": "batch_normalization_32", "class_name": "BatchNormalization", "config": {"name": "batch_normalization_32", "trainable": true, "dtype": "float32", "axis": 3, "momentum": 0.99, "epsilon": 9.999999747378752e-06, "center": true, "scale": true, "beta_initializer": {"class_name": "Zeros", "config": {}}, "gamma_initializer": {"class_name": "Ones", "config": {}}, "moving_mean_initializer": {"class_name": "Zeros", "config": {}}, "moving_variance_initializer": {"class_name": "Ones", "config": {}}, "beta_regularizer": null, "gamma_regularizer": null, "beta_constraint": null, "gamma_constraint": null}, "inbound_nodes": [[["conv2d_50", 0, 0, {}]]]}, {"name": "activation_47", "class_name": "Activation", "config": {"name": "activation_47", "trainable": true, "dtype": "float32", "activation": "relu"}, "inbound_nodes": [[["batch_normalization_32", 0, 0, {}]]]}, {"name": "zero_padding2d_12", "class_name": "ZeroPadding2D", "config": {"name": "zero_padding2d_12", "trainable": true, "dtype": "float32", "padding": [[1, 1], [1, 1]], "data_format": "channels_last"}, "inbound_nodes": [[["activation_47", 0, 0, {}]]]}, {"name": "conv2d_51", "class_name": "Conv2D", "config": {"name": "conv2d_51", "trainable": true, "dtype": "float32", "filters": 256, "kernel_size": [3, 3], "strides": [1, 1], "padding": "valid", "data_format": "channels_last", "dilation_rate": [1, 1], "activation": "linear", "use_bias": false, "kernel_initializer": {"class_name": "VarianceScaling", "config": {"scale": 2.0, "mode": "fan_in", "distribution": "uniform", "seed": null}}, "bias_initializer": {"class_name": "Zeros", "config": {}}, "kernel_regularizer": null, "bias_regularizer": null, "activity_regularizer": null, "kernel_constraint": null, "bias_constraint": null}, "inbound_nodes": [[["zero_padding2d_12", 0, 0, {}]]]}, {"name": "batch_normalization_33", "class_name": "BatchNormalization", "config": {"name": "batch_normalization_33", "trainable": true, "dtype": "float32", "axis": 3, "momentum": 0.99, "epsilon": 9.999999747378752e-06, "center": true, "scale": true, "beta_initializer": {"class_name": "Zeros", "config": {}}, "gamma_initializer": {"class_name": "Ones", "config": {}}, "moving_mean_initializer": {"class_name": "Zeros", "config": {}}, "moving_variance_initializer": {"class_name": "Ones", "config": {}}, "beta_regularizer": null, "gamma_regularizer": null, "beta_constraint": null, "gamma_constraint": null}, "inbound_nodes": [[["conv2d_51", 0, 0, {}]]]}, {"name": "activation_48", "class_name": "Activation", "config": {"name": "activation_48", "trainable": true, "dtype": "float32", "activation": "relu"}, "inbound_nodes": [[["batch_normalization_33", 0, 0, {}]]]}, {"name": "conv2d_52", "class_name": "Conv2D", "config": {"name": "conv2d_52", "trainable": true, "dtype": "float32", "filters": 1024, "kernel_size": [1, 1], "strides": [1, 1], "padding": "valid", "data_format": "channels_last", "dilation_rate": [1, 1], "activation": "linear", "use_bias": false, "kernel_initializer": {"class_name": "VarianceScaling", "config": {"scale": 2.0, "mode": "fan_in", "distribution": "uniform", "seed": null}}, "bias_initializer": {"class_name": "Zeros", "config": {}}, "kernel_regularizer": null, "bias_regularizer": null, "activity_regularizer": null, "kernel_constraint": null, "bias_constraint": null}, "inbound_nodes": [[["activation_48", 0, 0, {}]]]}, {"name": "batch_normalization_34", "class_name": "BatchNormalization", "config": {"name": "batch_normalization_34", "trainable": true, "dtype": "float32", "axis": 3, "momentum": 0.99, "epsilon": 9.999999747378752e-06, "center": true, "scale": true, "beta_initializer": {"class_name": "Zeros", "config": {}}, "gamma_initializer": {"class_name": "Ones", "config": {}}, "moving_mean_initializer": {"class_name": "Zeros", "config": {}}, "moving_variance_initializer": {"class_name": "Ones", "config": {}}, "beta_regularizer": null, "gamma_regularizer": null, "beta_constraint": null, "gamma_constraint": null}, "inbound_nodes": [[["conv2d_52", 0, 0, {}]]]}, {"name": "global_average_pooling2d_10", "class_name": "GlobalAveragePooling2D", "config": {"name": "global_average_pooling2d_10", "trainable": true, "dtype": "float32", "data_format": "channels_last"}, "inbound_nodes": [[["batch_normalization_34", 0, 0, {}]]]}, {"name": "lambda_10", "class_name": "Lambda", "config": {"name": "lambda_10", "trainable": true, "dtype": "float32", "function": ["4wIAAAAAAAAAAgAAAAYAAABDAAAAc1IAAAB8AWQBawJyIHwAZABkAIUCZABkAGQAZACFAmYEGQBT\nAHwBZAJrAnJAfABkAGQAhQJkAGQAhQJkAGQAZgQZAFMAdABkA6ABfAGhAYMBggFkAFMAKQRO6QMA\nAADpAQAAAHonU2xpY2UgYXhpcyBzaG91bGQgYmUgaW4gKDEsIDMpLCBnb3Qge30uKQLaClZhbHVl\nRXJyb3LaBmZvcm1hdCkC2gF42g1jaGFubmVsc19heGlzqQByBwAAAPppL2hvbWUvcm9mYWlkYS9w\neXRob24tZW52cy9lbnYyL2xpYi9weXRob24zLjcvc2l0ZS1wYWNrYWdlcy9jbGFzc2lmaWNhdGlv\nbl9tb2RlbHMvbW9kZWxzL19jb21tb25fYmxvY2tzLnB52gtleHBhbmRfZGltc08AAABzCgAAAAAB\nCAEYAQgBGAI=\n", null, null], "function_type": "lambda", "output_shape": null, "output_shape_type": "raw", "arguments": {"channels_axis": 3}}, "inbound_nodes": [[["global_average_pooling2d_10", 0, 0, {}]]]}, {"name": "conv2d_53", "class_name": "Conv2D", "config": {"name": "conv2d_53", "trainable": true, "dtype": "float32", "filters": 64, "kernel_size": [1, 1], "strides": [1, 1], "padding": "valid", "data_format": "channels_last", "dilation_rate": [1, 1], "activation": "linear", "use_bias": true, "kernel_initializer": {"class_name": "VarianceScaling", "config": {"scale": 2.0, "mode": "fan_in", "distribution": "uniform", "seed": null}}, "bias_initializer": {"class_name": "Zeros", "config": {}}, "kernel_regularizer": null, "bias_regularizer": null, "activity_regularizer": null, "kernel_constraint": null, "bias_constraint": null}, "inbound_nodes": [[["lambda_10", 0, 0, {}]]]}, {"name": "activation_49", "class_name": "Activation", "config": {"name": "activation_49", "trainable": true, "dtype": "float32", "activation": "relu"}, "inbound_nodes": [[["conv2d_53", 0, 0, {}]]]}, {"name": "conv2d_54", "class_name": "Conv2D", "config": {"name": "conv2d_54", "trainable": true, "dtype": "float32", "filters": 1024, "kernel_size": [1, 1], "strides": [1, 1], "padding": "valid", "data_format": "channels_last", "dilation_rate": [1, 1], "activation": "linear", "use_bias": true, "kernel_initializer": {"class_name": "VarianceScaling", "config": {"scale": 2.0, "mode": "fan_in", "distribution": "uniform", "seed": null}}, "bias_initializer": {"class_name": "Zeros", "config": {}}, "kernel_regularizer": null, "bias_regularizer": null, "activity_regularizer": null, "kernel_constraint": null, "bias_constraint": null}, "inbound_nodes": [[["activation_49", 0, 0, {}]]]}, {"name": "activation_50", "class_name": "Activation", "config": {"name": "activation_50", "trainable": true, "dtype": "float32", "activation": "sigmoid"}, "inbound_nodes": [[["conv2d_54", 0, 0, {}]]]}, {"name": "multiply_10", "class_name": "Multiply", "config": {"name": "multiply_10", "trainable": true, "dtype": "float32"}, "inbound_nodes": [[["batch_normalization_34", 0, 0, {}], ["activation_50", 0, 0, {}]]]}, {"name": "add_10", "class_name": "Add", "config": {"name": "add_10", "trainable": true, "dtype": "float32"}, "inbound_nodes": [[["multiply_10", 0, 0, {}], ["activation_46", 0, 0, {}]]]}, {"name": "activation_51", "class_name": "Activation", "config": {"name": "activation_51", "trainable": true, "dtype": "float32", "activation": "relu"}, "inbound_nodes": [[["add_10", 0, 0, {}]]]}, {"name": "conv2d_55", "class_name": "Conv2D", "config": {"name": "conv2d_55", "trainable": true, "dtype": "float32", "filters": 256, "kernel_size": [1, 1], "strides": [1, 1], "padding": "valid", "data_format": "channels_last", "dilation_rate": [1, 1], "activation": "linear", "use_bias": false, "kernel_initializer": {"class_name": "VarianceScaling", "config": {"scale": 2.0, "mode": "fan_in", "distribution": "uniform", "seed": null}}, "bias_initializer": {"class_name": "Zeros", "config": {}}, "kernel_regularizer": null, "bias_regularizer": null, "activity_regularizer": null, "kernel_constraint": null, "bias_constraint": null}, "inbound_nodes": [[["activation_51", 0, 0, {}]]]}, {"name": "batch_normalization_35", "class_name": "BatchNormalization", "config": {"name": "batch_normalization_35", "trainable": true, "dtype": "float32", "axis": 3, "momentum": 0.99, "epsilon": 9.999999747378752e-06, "center": true, "scale": true, "beta_initializer": {"class_name": "Zeros", "config": {}}, "gamma_initializer": {"class_name": "Ones", "config": {}}, "moving_mean_initializer": {"class_name": "Zeros", "config": {}}, "moving_variance_initializer": {"class_name": "Ones", "config": {}}, "beta_regularizer": null, "gamma_regularizer": null, "beta_constraint": null, "gamma_constraint": null}, "inbound_nodes": [[["conv2d_55", 0, 0, {}]]]}, {"name": "activation_52", "class_name": "Activation", "config": {"name": "activation_52", "trainable": true, "dtype": "float32", "activation": "relu"}, "inbound_nodes": [[["batch_normalization_35", 0, 0, {}]]]}, {"name": "zero_padding2d_13", "class_name": "ZeroPadding2D", "config": {"name": "zero_padding2d_13", "trainable": true, "dtype": "float32", "padding": [[1, 1], [1, 1]], "data_format": "channels_last"}, "inbound_nodes": [[["activation_52", 0, 0, {}]]]}, {"name": "conv2d_56", "class_name": "Conv2D", "config": {"name": "conv2d_56", "trainable": true, "dtype": "float32", "filters": 256, "kernel_size": [3, 3], "strides": [1, 1], "padding": "valid", "data_format": "channels_last", "dilation_rate": [1, 1], "activation": "linear", "use_bias": false, "kernel_initializer": {"class_name": "VarianceScaling", "config": {"scale": 2.0, "mode": "fan_in", "distribution": "uniform", "seed": null}}, "bias_initializer": {"class_name": "Zeros", "config": {}}, "kernel_regularizer": null, "bias_regularizer": null, "activity_regularizer": null, "kernel_constraint": null, "bias_constraint": null}, "inbound_nodes": [[["zero_padding2d_13", 0, 0, {}]]]}, {"name": "batch_normalization_36", "class_name": "BatchNormalization", "config": {"name": "batch_normalization_36", "trainable": true, "dtype": "float32", "axis": 3, "momentum": 0.99, "epsilon": 9.999999747378752e-06, "center": true, "scale": true, "beta_initializer": {"class_name": "Zeros", "config": {}}, "gamma_initializer": {"class_name": "Ones", "config": {}}, "moving_mean_initializer": {"class_name": "Zeros", "config": {}}, "moving_variance_initializer": {"class_name": "Ones", "config": {}}, "beta_regularizer": null, "gamma_regularizer": null, "beta_constraint": null, "gamma_constraint": null}, "inbound_nodes": [[["conv2d_56", 0, 0, {}]]]}, {"name": "activation_53", "class_name": "Activation", "config": {"name": "activation_53", "trainable": true, "dtype": "float32", "activation": "relu"}, "inbound_nodes": [[["batch_normalization_36", 0, 0, {}]]]}, {"name": "conv2d_57", "class_name": "Conv2D", "config": {"name": "conv2d_57", "trainable": true, "dtype": "float32", "filters": 1024, "kernel_size": [1, 1], "strides": [1, 1], "padding": "valid", "data_format": "channels_last", "dilation_rate": [1, 1], "activation": "linear", "use_bias": false, "kernel_initializer": {"class_name": "VarianceScaling", "config": {"scale": 2.0, "mode": "fan_in", "distribution": "uniform", "seed": null}}, "bias_initializer": {"class_name": "Zeros", "config": {}}, "kernel_regularizer": null, "bias_regularizer": null, "activity_regularizer": null, "kernel_constraint": null, "bias_constraint": null}, "inbound_nodes": [[["activation_53", 0, 0, {}]]]}, {"name": "batch_normalization_37", "class_name": "BatchNormalization", "config": {"name": "batch_normalization_37", "trainable": true, "dtype": "float32", "axis": 3, "momentum": 0.99, "epsilon": 9.999999747378752e-06, "center": true, "scale": true, "beta_initializer": {"class_name": "Zeros", "config": {}}, "gamma_initializer": {"class_name": "Ones", "config": {}}, "moving_mean_initializer": {"class_name": "Zeros", "config": {}}, "moving_variance_initializer": {"class_name": "Ones", "config": {}}, "beta_regularizer": null, "gamma_regularizer": null, "beta_constraint": null, "gamma_constraint": null}, "inbound_nodes": [[["conv2d_57", 0, 0, {}]]]}, {"name": "global_average_pooling2d_11", "class_name": "GlobalAveragePooling2D", "config": {"name": "global_average_pooling2d_11", "trainable": true, "dtype": "float32", "data_format": "channels_last"}, "inbound_nodes": [[["batch_normalization_37", 0, 0, {}]]]}, {"name": "lambda_11", "class_name": "Lambda", "config": {"name": "lambda_11", "trainable": true, "dtype": "float32", "function": ["4wIAAAAAAAAAAgAAAAYAAABDAAAAc1IAAAB8AWQBawJyIHwAZABkAIUCZABkAGQAZACFAmYEGQBT\nAHwBZAJrAnJAfABkAGQAhQJkAGQAhQJkAGQAZgQZAFMAdABkA6ABfAGhAYMBggFkAFMAKQRO6QMA\nAADpAQAAAHonU2xpY2UgYXhpcyBzaG91bGQgYmUgaW4gKDEsIDMpLCBnb3Qge30uKQLaClZhbHVl\nRXJyb3LaBmZvcm1hdCkC2gF42g1jaGFubmVsc19heGlzqQByBwAAAPppL2hvbWUvcm9mYWlkYS9w\neXRob24tZW52cy9lbnYyL2xpYi9weXRob24zLjcvc2l0ZS1wYWNrYWdlcy9jbGFzc2lmaWNhdGlv\nbl9tb2RlbHMvbW9kZWxzL19jb21tb25fYmxvY2tzLnB52gtleHBhbmRfZGltc08AAABzCgAAAAAB\nCAEYAQgBGAI=\n", null, null], "function_type": "lambda", "output_shape": null, "output_shape_type": "raw", "arguments": {"channels_axis": 3}}, "inbound_nodes": [[["global_average_pooling2d_11", 0, 0, {}]]]}, {"name": "conv2d_58", "class_name": "Conv2D", "config": {"name": "conv2d_58", "trainable": true, "dtype": "float32", "filters": 64, "kernel_size": [1, 1], "strides": [1, 1], "padding": "valid", "data_format": "channels_last", "dilation_rate": [1, 1], "activation": "linear", "use_bias": true, "kernel_initializer": {"class_name": "VarianceScaling", "config": {"scale": 2.0, "mode": "fan_in", "distribution": "uniform", "seed": null}}, "bias_initializer": {"class_name": "Zeros", "config": {}}, "kernel_regularizer": null, "bias_regularizer": null, "activity_regularizer": null, "kernel_constraint": null, "bias_constraint": null}, "inbound_nodes": [[["lambda_11", 0, 0, {}]]]}, {"name": "activation_54", "class_name": "Activation", "config": {"name": "activation_54", "trainable": true, "dtype": "float32", "activation": "relu"}, "inbound_nodes": [[["conv2d_58", 0, 0, {}]]]}, {"name": "conv2d_59", "class_name": "Conv2D", "config": {"name": "conv2d_59", "trainable": true, "dtype": "float32", "filters": 1024, "kernel_size": [1, 1], "strides": [1, 1], "padding": "valid", "data_format": "channels_last", "dilation_rate": [1, 1], "activation": "linear", "use_bias": true, "kernel_initializer": {"class_name": "VarianceScaling", "config": {"scale": 2.0, "mode": "fan_in", "distribution": "uniform", "seed": null}}, "bias_initializer": {"class_name": "Zeros", "config": {}}, "kernel_regularizer": null, "bias_regularizer": null, "activity_regularizer": null, "kernel_constraint": null, "bias_constraint": null}, "inbound_nodes": [[["activation_54", 0, 0, {}]]]}, {"name": "activation_55", "class_name": "Activation", "config": {"name": "activation_55", "trainable": true, "dtype": "float32", "activation": "sigmoid"}, "inbound_nodes": [[["conv2d_59", 0, 0, {}]]]}, {"name": "multiply_11", "class_name": "Multiply", "config": {"name": "multiply_11", "trainable": true, "dtype": "float32"}, "inbound_nodes": [[["batch_normalization_37", 0, 0, {}], ["activation_55", 0, 0, {}]]]}, {"name": "add_11", "class_name": "Add", "config": {"name": "add_11", "trainable": true, "dtype": "float32"}, "inbound_nodes": [[["multiply_11", 0, 0, {}], ["activation_51", 0, 0, {}]]]}, {"name": "activation_56", "class_name": "Activation", "config": {"name": "activation_56", "trainable": true, "dtype": "float32", "activation": "relu"}, "inbound_nodes": [[["add_11", 0, 0, {}]]]}, {"name": "conv2d_60", "class_name": "Conv2D", "config": {"name": "conv2d_60", "trainable": true, "dtype": "float32", "filters": 256, "kernel_size": [1, 1], "strides": [1, 1], "padding": "valid", "data_format": "channels_last", "dilation_rate": [1, 1], "activation": "linear", "use_bias": false, "kernel_initializer": {"class_name": "VarianceScaling", "config": {"scale": 2.0, "mode": "fan_in", "distribution": "uniform", "seed": null}}, "bias_initializer": {"class_name": "Zeros", "config": {}}, "kernel_regularizer": null, "bias_regularizer": null, "activity_regularizer": null, "kernel_constraint": null, "bias_constraint": null}, "inbound_nodes": [[["activation_56", 0, 0, {}]]]}, {"name": "batch_normalization_38", "class_name": "BatchNormalization", "config": {"name": "batch_normalization_38", "trainable": true, "dtype": "float32", "axis": 3, "momentum": 0.99, "epsilon": 9.999999747378752e-06, "center": true, "scale": true, "beta_initializer": {"class_name": "Zeros", "config": {}}, "gamma_initializer": {"class_name": "Ones", "config": {}}, "moving_mean_initializer": {"class_name": "Zeros", "config": {}}, "moving_variance_initializer": {"class_name": "Ones", "config": {}}, "beta_regularizer": null, "gamma_regularizer": null, "beta_constraint": null, "gamma_constraint": null}, "inbound_nodes": [[["conv2d_60", 0, 0, {}]]]}, {"name": "activation_57", "class_name": "Activation", "config": {"name": "activation_57", "trainable": true, "dtype": "float32", "activation": "relu"}, "inbound_nodes": [[["batch_normalization_38", 0, 0, {}]]]}, {"name": "zero_padding2d_14", "class_name": "ZeroPadding2D", "config": {"name": "zero_padding2d_14", "trainable": true, "dtype": "float32", "padding": [[1, 1], [1, 1]], "data_format": "channels_last"}, "inbound_nodes": [[["activation_57", 0, 0, {}]]]}, {"name": "conv2d_61", "class_name": "Conv2D", "config": {"name": "conv2d_61", "trainable": true, "dtype": "float32", "filters": 256, "kernel_size": [3, 3], "strides": [1, 1], "padding": "valid", "data_format": "channels_last", "dilation_rate": [1, 1], "activation": "linear", "use_bias": false, "kernel_initializer": {"class_name": "VarianceScaling", "config": {"scale": 2.0, "mode": "fan_in", "distribution": "uniform", "seed": null}}, "bias_initializer": {"class_name": "Zeros", "config": {}}, "kernel_regularizer": null, "bias_regularizer": null, "activity_regularizer": null, "kernel_constraint": null, "bias_constraint": null}, "inbound_nodes": [[["zero_padding2d_14", 0, 0, {}]]]}, {"name": "batch_normalization_39", "class_name": "BatchNormalization", "config": {"name": "batch_normalization_39", "trainable": true, "dtype": "float32", "axis": 3, "momentum": 0.99, "epsilon": 9.999999747378752e-06, "center": true, "scale": true, "beta_initializer": {"class_name": "Zeros", "config": {}}, "gamma_initializer": {"class_name": "Ones", "config": {}}, "moving_mean_initializer": {"class_name": "Zeros", "config": {}}, "moving_variance_initializer": {"class_name": "Ones", "config": {}}, "beta_regularizer": null, "gamma_regularizer": null, "beta_constraint": null, "gamma_constraint": null}, "inbound_nodes": [[["conv2d_61", 0, 0, {}]]]}, {"name": "activation_58", "class_name": "Activation", "config": {"name": "activation_58", "trainable": true, "dtype": "float32", "activation": "relu"}, "inbound_nodes": [[["batch_normalization_39", 0, 0, {}]]]}, {"name": "conv2d_62", "class_name": "Conv2D", "config": {"name": "conv2d_62", "trainable": true, "dtype": "float32", "filters": 1024, "kernel_size": [1, 1], "strides": [1, 1], "padding": "valid", "data_format": "channels_last", "dilation_rate": [1, 1], "activation": "linear", "use_bias": false, "kernel_initializer": {"class_name": "VarianceScaling", "config": {"scale": 2.0, "mode": "fan_in", "distribution": "uniform", "seed": null}}, "bias_initializer": {"class_name": "Zeros", "config": {}}, "kernel_regularizer": null, "bias_regularizer": null, "activity_regularizer": null, "kernel_constraint": null, "bias_constraint": null}, "inbound_nodes": [[["activation_58", 0, 0, {}]]]}, {"name": "batch_normalization_40", "class_name": "BatchNormalization", "config": {"name": "batch_normalization_40", "trainable": true, "dtype": "float32", "axis": 3, "momentum": 0.99, "epsilon": 9.999999747378752e-06, "center": true, "scale": true, "beta_initializer": {"class_name": "Zeros", "config": {}}, "gamma_initializer": {"class_name": "Ones", "config": {}}, "moving_mean_initializer": {"class_name": "Zeros", "config": {}}, "moving_variance_initializer": {"class_name": "Ones", "config": {}}, "beta_regularizer": null, "gamma_regularizer": null, "beta_constraint": null, "gamma_constraint": null}, "inbound_nodes": [[["conv2d_62", 0, 0, {}]]]}, {"name": "global_average_pooling2d_12", "class_name": "GlobalAveragePooling2D", "config": {"name": "global_average_pooling2d_12", "trainable": true, "dtype": "float32", "data_format": "channels_last"}, "inbound_nodes": [[["batch_normalization_40", 0, 0, {}]]]}, {"name": "lambda_12", "class_name": "Lambda", "config": {"name": "lambda_12", "trainable": true, "dtype": "float32", "function": ["4wIAAAAAAAAAAgAAAAYAAABDAAAAc1IAAAB8AWQBawJyIHwAZABkAIUCZABkAGQAZACFAmYEGQBT\nAHwBZAJrAnJAfABkAGQAhQJkAGQAhQJkAGQAZgQZAFMAdABkA6ABfAGhAYMBggFkAFMAKQRO6QMA\nAADpAQAAAHonU2xpY2UgYXhpcyBzaG91bGQgYmUgaW4gKDEsIDMpLCBnb3Qge30uKQLaClZhbHVl\nRXJyb3LaBmZvcm1hdCkC2gF42g1jaGFubmVsc19heGlzqQByBwAAAPppL2hvbWUvcm9mYWlkYS9w\neXRob24tZW52cy9lbnYyL2xpYi9weXRob24zLjcvc2l0ZS1wYWNrYWdlcy9jbGFzc2lmaWNhdGlv\nbl9tb2RlbHMvbW9kZWxzL19jb21tb25fYmxvY2tzLnB52gtleHBhbmRfZGltc08AAABzCgAAAAAB\nCAEYAQgBGAI=\n", null, null], "function_type": "lambda", "output_shape": null, "output_shape_type": "raw", "arguments": {"channels_axis": 3}}, "inbound_nodes": [[["global_average_pooling2d_12", 0, 0, {}]]]}, {"name": "conv2d_63", "class_name": "Conv2D", "config": {"name": "conv2d_63", "trainable": true, "dtype": "float32", "filters": 64, "kernel_size": [1, 1], "strides": [1, 1], "padding": "valid", "data_format": "channels_last", "dilation_rate": [1, 1], "activation": "linear", "use_bias": true, "kernel_initializer": {"class_name": "VarianceScaling", "config": {"scale": 2.0, "mode": "fan_in", "distribution": "uniform", "seed": null}}, "bias_initializer": {"class_name": "Zeros", "config": {}}, "kernel_regularizer": null, "bias_regularizer": null, "activity_regularizer": null, "kernel_constraint": null, "bias_constraint": null}, "inbound_nodes": [[["lambda_12", 0, 0, {}]]]}, {"name": "activation_59", "class_name": "Activation", "config": {"name": "activation_59", "trainable": true, "dtype": "float32", "activation": "relu"}, "inbound_nodes": [[["conv2d_63", 0, 0, {}]]]}, {"name": "conv2d_64", "class_name": "Conv2D", "config": {"name": "conv2d_64", "trainable": true, "dtype": "float32", "filters": 1024, "kernel_size": [1, 1], "strides": [1, 1], "padding": "valid", "data_format": "channels_last", "dilation_rate": [1, 1], "activation": "linear", "use_bias": true, "kernel_initializer": {"class_name": "VarianceScaling", "config": {"scale": 2.0, "mode": "fan_in", "distribution": "uniform", "seed": null}}, "bias_initializer": {"class_name": "Zeros", "config": {}}, "kernel_regularizer": null, "bias_regularizer": null, "activity_regularizer": null, "kernel_constraint": null, "bias_constraint": null}, "inbound_nodes": [[["activation_59", 0, 0, {}]]]}, {"name": "activation_60", "class_name": "Activation", "config": {"name": "activation_60", "trainable": true, "dtype": "float32", "activation": "sigmoid"}, "inbound_nodes": [[["conv2d_64", 0, 0, {}]]]}, {"name": "multiply_12", "class_name": "Multiply", "config": {"name": "multiply_12", "trainable": true, "dtype": "float32"}, "inbound_nodes": [[["batch_normalization_40", 0, 0, {}], ["activation_60", 0, 0, {}]]]}, {"name": "add_12", "class_name": "Add", "config": {"name": "add_12", "trainable": true, "dtype": "float32"}, "inbound_nodes": [[["multiply_12", 0, 0, {}], ["activation_56", 0, 0, {}]]]}, {"name": "activation_61", "class_name": "Activation", "config": {"name": "activation_61", "trainable": true, "dtype": "float32", "activation": "relu"}, "inbound_nodes": [[["add_12", 0, 0, {}]]]}, {"name": "conv2d_65", "class_name": "Conv2D", "config": {"name": "conv2d_65", "trainable": true, "dtype": "float32", "filters": 256, "kernel_size": [1, 1], "strides": [1, 1], "padding": "valid", "data_format": "channels_last", "dilation_rate": [1, 1], "activation": "linear", "use_bias": false, "kernel_initializer": {"class_name": "VarianceScaling", "config": {"scale": 2.0, "mode": "fan_in", "distribution": "uniform", "seed": null}}, "bias_initializer": {"class_name": "Zeros", "config": {}}, "kernel_regularizer": null, "bias_regularizer": null, "activity_regularizer": null, "kernel_constraint": null, "bias_constraint": null}, "inbound_nodes": [[["activation_61", 0, 0, {}]]]}, {"name": "batch_normalization_41", "class_name": "BatchNormalization", "config": {"name": "batch_normalization_41", "trainable": true, "dtype": "float32", "axis": 3, "momentum": 0.99, "epsilon": 9.999999747378752e-06, "center": true, "scale": true, "beta_initializer": {"class_name": "Zeros", "config": {}}, "gamma_initializer": {"class_name": "Ones", "config": {}}, "moving_mean_initializer": {"class_name": "Zeros", "config": {}}, "moving_variance_initializer": {"class_name": "Ones", "config": {}}, "beta_regularizer": null, "gamma_regularizer": null, "beta_constraint": null, "gamma_constraint": null}, "inbound_nodes": [[["conv2d_65", 0, 0, {}]]]}, {"name": "activation_62", "class_name": "Activation", "config": {"name": "activation_62", "trainable": true, "dtype": "float32", "activation": "relu"}, "inbound_nodes": [[["batch_normalization_41", 0, 0, {}]]]}, {"name": "zero_padding2d_15", "class_name": "ZeroPadding2D", "config": {"name": "zero_padding2d_15", "trainable": true, "dtype": "float32", "padding": [[1, 1], [1, 1]], "data_format": "channels_last"}, "inbound_nodes": [[["activation_62", 0, 0, {}]]]}, {"name": "conv2d_66", "class_name": "Conv2D", "config": {"name": "conv2d_66", "trainable": true, "dtype": "float32", "filters": 256, "kernel_size": [3, 3], "strides": [1, 1], "padding": "valid", "data_format": "channels_last", "dilation_rate": [1, 1], "activation": "linear", "use_bias": false, "kernel_initializer": {"class_name": "VarianceScaling", "config": {"scale": 2.0, "mode": "fan_in", "distribution": "uniform", "seed": null}}, "bias_initializer": {"class_name": "Zeros", "config": {}}, "kernel_regularizer": null, "bias_regularizer": null, "activity_regularizer": null, "kernel_constraint": null, "bias_constraint": null}, "inbound_nodes": [[["zero_padding2d_15", 0, 0, {}]]]}, {"name": "batch_normalization_42", "class_name": "BatchNormalization", "config": {"name": "batch_normalization_42", "trainable": true, "dtype": "float32", "axis": 3, "momentum": 0.99, "epsilon": 9.999999747378752e-06, "center": true, "scale": true, "beta_initializer": {"class_name": "Zeros", "config": {}}, "gamma_initializer": {"class_name": "Ones", "config": {}}, "moving_mean_initializer": {"class_name": "Zeros", "config": {}}, "moving_variance_initializer": {"class_name": "Ones", "config": {}}, "beta_regularizer": null, "gamma_regularizer": null, "beta_constraint": null, "gamma_constraint": null}, "inbound_nodes": [[["conv2d_66", 0, 0, {}]]]}, {"name": "activation_63", "class_name": "Activation", "config": {"name": "activation_63", "trainable": true, "dtype": "float32", "activation": "relu"}, "inbound_nodes": [[["batch_normalization_42", 0, 0, {}]]]}, {"name": "conv2d_67", "class_name": "Conv2D", "config": {"name": "conv2d_67", "trainable": true, "dtype": "float32", "filters": 1024, "kernel_size": [1, 1], "strides": [1, 1], "padding": "valid", "data_format": "channels_last", "dilation_rate": [1, 1], "activation": "linear", "use_bias": false, "kernel_initializer": {"class_name": "VarianceScaling", "config": {"scale": 2.0, "mode": "fan_in", "distribution": "uniform", "seed": null}}, "bias_initializer": {"class_name": "Zeros", "config": {}}, "kernel_regularizer": null, "bias_regularizer": null, "activity_regularizer": null, "kernel_constraint": null, "bias_constraint": null}, "inbound_nodes": [[["activation_63", 0, 0, {}]]]}, {"name": "batch_normalization_43", "class_name": "BatchNormalization", "config": {"name": "batch_normalization_43", "trainable": true, "dtype": "float32", "axis": 3, "momentum": 0.99, "epsilon": 9.999999747378752e-06, "center": true, "scale": true, "beta_initializer": {"class_name": "Zeros", "config": {}}, "gamma_initializer": {"class_name": "Ones", "config": {}}, "moving_mean_initializer": {"class_name": "Zeros", "config": {}}, "moving_variance_initializer": {"class_name": "Ones", "config": {}}, "beta_regularizer": null, "gamma_regularizer": null, "beta_constraint": null, "gamma_constraint": null}, "inbound_nodes": [[["conv2d_67", 0, 0, {}]]]}, {"name": "global_average_pooling2d_13", "class_name": "GlobalAveragePooling2D", "config": {"name": "global_average_pooling2d_13", "trainable": true, "dtype": "float32", "data_format": "channels_last"}, "inbound_nodes": [[["batch_normalization_43", 0, 0, {}]]]}, {"name": "lambda_13", "class_name": "Lambda", "config": {"name": "lambda_13", "trainable": true, "dtype": "float32", "function": ["4wIAAAAAAAAAAgAAAAYAAABDAAAAc1IAAAB8AWQBawJyIHwAZABkAIUCZABkAGQAZACFAmYEGQBT\nAHwBZAJrAnJAfABkAGQAhQJkAGQAhQJkAGQAZgQZAFMAdABkA6ABfAGhAYMBggFkAFMAKQRO6QMA\nAADpAQAAAHonU2xpY2UgYXhpcyBzaG91bGQgYmUgaW4gKDEsIDMpLCBnb3Qge30uKQLaClZhbHVl\nRXJyb3LaBmZvcm1hdCkC2gF42g1jaGFubmVsc19heGlzqQByBwAAAPppL2hvbWUvcm9mYWlkYS9w\neXRob24tZW52cy9lbnYyL2xpYi9weXRob24zLjcvc2l0ZS1wYWNrYWdlcy9jbGFzc2lmaWNhdGlv\nbl9tb2RlbHMvbW9kZWxzL19jb21tb25fYmxvY2tzLnB52gtleHBhbmRfZGltc08AAABzCgAAAAAB\nCAEYAQgBGAI=\n", null, null], "function_type": "lambda", "output_shape": null, "output_shape_type": "raw", "arguments": {"channels_axis": 3}}, "inbound_nodes": [[["global_average_pooling2d_13", 0, 0, {}]]]}, {"name": "conv2d_68", "class_name": "Conv2D", "config": {"name": "conv2d_68", "trainable": true, "dtype": "float32", "filters": 64, "kernel_size": [1, 1], "strides": [1, 1], "padding": "valid", "data_format": "channels_last", "dilation_rate": [1, 1], "activation": "linear", "use_bias": true, "kernel_initializer": {"class_name": "VarianceScaling", "config": {"scale": 2.0, "mode": "fan_in", "distribution": "uniform", "seed": null}}, "bias_initializer": {"class_name": "Zeros", "config": {}}, "kernel_regularizer": null, "bias_regularizer": null, "activity_regularizer": null, "kernel_constraint": null, "bias_constraint": null}, "inbound_nodes": [[["lambda_13", 0, 0, {}]]]}, {"name": "activation_64", "class_name": "Activation", "config": {"name": "activation_64", "trainable": true, "dtype": "float32", "activation": "relu"}, "inbound_nodes": [[["conv2d_68", 0, 0, {}]]]}, {"name": "conv2d_69", "class_name": "Conv2D", "config": {"name": "conv2d_69", "trainable": true, "dtype": "float32", "filters": 1024, "kernel_size": [1, 1], "strides": [1, 1], "padding": "valid", "data_format": "channels_last", "dilation_rate": [1, 1], "activation": "linear", "use_bias": true, "kernel_initializer": {"class_name": "VarianceScaling", "config": {"scale": 2.0, "mode": "fan_in", "distribution": "uniform", "seed": null}}, "bias_initializer": {"class_name": "Zeros", "config": {}}, "kernel_regularizer": null, "bias_regularizer": null, "activity_regularizer": null, "kernel_constraint": null, "bias_constraint": null}, "inbound_nodes": [[["activation_64", 0, 0, {}]]]}, {"name": "activation_65", "class_name": "Activation", "config": {"name": "activation_65", "trainable": true, "dtype": "float32", "activation": "sigmoid"}, "inbound_nodes": [[["conv2d_69", 0, 0, {}]]]}, {"name": "multiply_13", "class_name": "Multiply", "config": {"name": "multiply_13", "trainable": true, "dtype": "float32"}, "inbound_nodes": [[["batch_normalization_43", 0, 0, {}], ["activation_65", 0, 0, {}]]]}, {"name": "add_13", "class_name": "Add", "config": {"name": "add_13", "trainable": true, "dtype": "float32"}, "inbound_nodes": [[["multiply_13", 0, 0, {}], ["activation_61", 0, 0, {}]]]}, {"name": "activation_66", "class_name": "Activation", "config": {"name": "activation_66", "trainable": true, "dtype": "float32", "activation": "relu"}, "inbound_nodes": [[["add_13", 0, 0, {}]]]}, {"name": "conv2d_70", "class_name": "Conv2D", "config": {"name": "conv2d_70", "trainable": true, "dtype": "float32", "filters": 256, "kernel_size": [1, 1], "strides": [1, 1], "padding": "valid", "data_format": "channels_last", "dilation_rate": [1, 1], "activation": "linear", "use_bias": false, "kernel_initializer": {"class_name": "VarianceScaling", "config": {"scale": 2.0, "mode": "fan_in", "distribution": "uniform", "seed": null}}, "bias_initializer": {"class_name": "Zeros", "config": {}}, "kernel_regularizer": null, "bias_regularizer": null, "activity_regularizer": null, "kernel_constraint": null, "bias_constraint": null}, "inbound_nodes": [[["activation_66", 0, 0, {}]]]}, {"name": "batch_normalization_44", "class_name": "BatchNormalization", "config": {"name": "batch_normalization_44", "trainable": true, "dtype": "float32", "axis": 3, "momentum": 0.99, "epsilon": 9.999999747378752e-06, "center": true, "scale": true, "beta_initializer": {"class_name": "Zeros", "config": {}}, "gamma_initializer": {"class_name": "Ones", "config": {}}, "moving_mean_initializer": {"class_name": "Zeros", "config": {}}, "moving_variance_initializer": {"class_name": "Ones", "config": {}}, "beta_regularizer": null, "gamma_regularizer": null, "beta_constraint": null, "gamma_constraint": null}, "inbound_nodes": [[["conv2d_70", 0, 0, {}]]]}, {"name": "activation_67", "class_name": "Activation", "config": {"name": "activation_67", "trainable": true, "dtype": "float32", "activation": "relu"}, "inbound_nodes": [[["batch_normalization_44", 0, 0, {}]]]}, {"name": "zero_padding2d_16", "class_name": "ZeroPadding2D", "config": {"name": "zero_padding2d_16", "trainable": true, "dtype": "float32", "padding": [[1, 1], [1, 1]], "data_format": "channels_last"}, "inbound_nodes": [[["activation_67", 0, 0, {}]]]}, {"name": "conv2d_71", "class_name": "Conv2D", "config": {"name": "conv2d_71", "trainable": true, "dtype": "float32", "filters": 256, "kernel_size": [3, 3], "strides": [1, 1], "padding": "valid", "data_format": "channels_last", "dilation_rate": [1, 1], "activation": "linear", "use_bias": false, "kernel_initializer": {"class_name": "VarianceScaling", "config": {"scale": 2.0, "mode": "fan_in", "distribution": "uniform", "seed": null}}, "bias_initializer": {"class_name": "Zeros", "config": {}}, "kernel_regularizer": null, "bias_regularizer": null, "activity_regularizer": null, "kernel_constraint": null, "bias_constraint": null}, "inbound_nodes": [[["zero_padding2d_16", 0, 0, {}]]]}, {"name": "batch_normalization_45", "class_name": "BatchNormalization", "config": {"name": "batch_normalization_45", "trainable": true, "dtype": "float32", "axis": 3, "momentum": 0.99, "epsilon": 9.999999747378752e-06, "center": true, "scale": true, "beta_initializer": {"class_name": "Zeros", "config": {}}, "gamma_initializer": {"class_name": "Ones", "config": {}}, "moving_mean_initializer": {"class_name": "Zeros", "config": {}}, "moving_variance_initializer": {"class_name": "Ones", "config": {}}, "beta_regularizer": null, "gamma_regularizer": null, "beta_constraint": null, "gamma_constraint": null}, "inbound_nodes": [[["conv2d_71", 0, 0, {}]]]}, {"name": "activation_68", "class_name": "Activation", "config": {"name": "activation_68", "trainable": true, "dtype": "float32", "activation": "relu"}, "inbound_nodes": [[["batch_normalization_45", 0, 0, {}]]]}, {"name": "conv2d_72", "class_name": "Conv2D", "config": {"name": "conv2d_72", "trainable": true, "dtype": "float32", "filters": 1024, "kernel_size": [1, 1], "strides": [1, 1], "padding": "valid", "data_format": "channels_last", "dilation_rate": [1, 1], "activation": "linear", "use_bias": false, "kernel_initializer": {"class_name": "VarianceScaling", "config": {"scale": 2.0, "mode": "fan_in", "distribution": "uniform", "seed": null}}, "bias_initializer": {"class_name": "Zeros", "config": {}}, "kernel_regularizer": null, "bias_regularizer": null, "activity_regularizer": null, "kernel_constraint": null, "bias_constraint": null}, "inbound_nodes": [[["activation_68", 0, 0, {}]]]}, {"name": "batch_normalization_46", "class_name": "BatchNormalization", "config": {"name": "batch_normalization_46", "trainable": true, "dtype": "float32", "axis": 3, "momentum": 0.99, "epsilon": 9.999999747378752e-06, "center": true, "scale": true, "beta_initializer": {"class_name": "Zeros", "config": {}}, "gamma_initializer": {"class_name": "Ones", "config": {}}, "moving_mean_initializer": {"class_name": "Zeros", "config": {}}, "moving_variance_initializer": {"class_name": "Ones", "config": {}}, "beta_regularizer": null, "gamma_regularizer": null, "beta_constraint": null, "gamma_constraint": null}, "inbound_nodes": [[["conv2d_72", 0, 0, {}]]]}, {"name": "global_average_pooling2d_14", "class_name": "GlobalAveragePooling2D", "config": {"name": "global_average_pooling2d_14", "trainable": true, "dtype": "float32", "data_format": "channels_last"}, "inbound_nodes": [[["batch_normalization_46", 0, 0, {}]]]}, {"name": "lambda_14", "class_name": "Lambda", "config": {"name": "lambda_14", "trainable": true, "dtype": "float32", "function": ["4wIAAAAAAAAAAgAAAAYAAABDAAAAc1IAAAB8AWQBawJyIHwAZABkAIUCZABkAGQAZACFAmYEGQBT\nAHwBZAJrAnJAfABkAGQAhQJkAGQAhQJkAGQAZgQZAFMAdABkA6ABfAGhAYMBggFkAFMAKQRO6QMA\nAADpAQAAAHonU2xpY2UgYXhpcyBzaG91bGQgYmUgaW4gKDEsIDMpLCBnb3Qge30uKQLaClZhbHVl\nRXJyb3LaBmZvcm1hdCkC2gF42g1jaGFubmVsc19heGlzqQByBwAAAPppL2hvbWUvcm9mYWlkYS9w\neXRob24tZW52cy9lbnYyL2xpYi9weXRob24zLjcvc2l0ZS1wYWNrYWdlcy9jbGFzc2lmaWNhdGlv\nbl9tb2RlbHMvbW9kZWxzL19jb21tb25fYmxvY2tzLnB52gtleHBhbmRfZGltc08AAABzCgAAAAAB\nCAEYAQgBGAI=\n", null, null], "function_type": "lambda", "output_shape": null, "output_shape_type": "raw", "arguments": {"channels_axis": 3}}, "inbound_nodes": [[["global_average_pooling2d_14", 0, 0, {}]]]}, {"name": "conv2d_73", "class_name": "Conv2D", "config": {"name": "conv2d_73", "trainable": true, "dtype": "float32", "filters": 64, "kernel_size": [1, 1], "strides": [1, 1], "padding": "valid", "data_format": "channels_last", "dilation_rate": [1, 1], "activation": "linear", "use_bias": true, "kernel_initializer": {"class_name": "VarianceScaling", "config": {"scale": 2.0, "mode": "fan_in", "distribution": "uniform", "seed": null}}, "bias_initializer": {"class_name": "Zeros", "config": {}}, "kernel_regularizer": null, "bias_regularizer": null, "activity_regularizer": null, "kernel_constraint": null, "bias_constraint": null}, "inbound_nodes": [[["lambda_14", 0, 0, {}]]]}, {"name": "activation_69", "class_name": "Activation", "config": {"name": "activation_69", "trainable": true, "dtype": "float32", "activation": "relu"}, "inbound_nodes": [[["conv2d_73", 0, 0, {}]]]}, {"name": "conv2d_74", "class_name": "Conv2D", "config": {"name": "conv2d_74", "trainable": true, "dtype": "float32", "filters": 1024, "kernel_size": [1, 1], "strides": [1, 1], "padding": "valid", "data_format": "channels_last", "dilation_rate": [1, 1], "activation": "linear", "use_bias": true, "kernel_initializer": {"class_name": "VarianceScaling", "config": {"scale": 2.0, "mode": "fan_in", "distribution": "uniform", "seed": null}}, "bias_initializer": {"class_name": "Zeros", "config": {}}, "kernel_regularizer": null, "bias_regularizer": null, "activity_regularizer": null, "kernel_constraint": null, "bias_constraint": null}, "inbound_nodes": [[["activation_69", 0, 0, {}]]]}, {"name": "activation_70", "class_name": "Activation", "config": {"name": "activation_70", "trainable": true, "dtype": "float32", "activation": "sigmoid"}, "inbound_nodes": [[["conv2d_74", 0, 0, {}]]]}, {"name": "multiply_14", "class_name": "Multiply", "config": {"name": "multiply_14", "trainable": true, "dtype": "float32"}, "inbound_nodes": [[["batch_normalization_46", 0, 0, {}], ["activation_70", 0, 0, {}]]]}, {"name": "add_14", "class_name": "Add", "config": {"name": "add_14", "trainable": true, "dtype": "float32"}, "inbound_nodes": [[["multiply_14", 0, 0, {}], ["activation_66", 0, 0, {}]]]}, {"name": "activation_71", "class_name": "Activation", "config": {"name": "activation_71", "trainable": true, "dtype": "float32", "activation": "relu"}, "inbound_nodes": [[["add_14", 0, 0, {}]]]}, {"name": "conv2d_75", "class_name": "Conv2D", "config": {"name": "conv2d_75", "trainable": true, "dtype": "float32", "filters": 256, "kernel_size": [1, 1], "strides": [1, 1], "padding": "valid", "data_format": "channels_last", "dilation_rate": [1, 1], "activation": "linear", "use_bias": false, "kernel_initializer": {"class_name": "VarianceScaling", "config": {"scale": 2.0, "mode": "fan_in", "distribution": "uniform", "seed": null}}, "bias_initializer": {"class_name": "Zeros", "config": {}}, "kernel_regularizer": null, "bias_regularizer": null, "activity_regularizer": null, "kernel_constraint": null, "bias_constraint": null}, "inbound_nodes": [[["activation_71", 0, 0, {}]]]}, {"name": "batch_normalization_47", "class_name": "BatchNormalization", "config": {"name": "batch_normalization_47", "trainable": true, "dtype": "float32", "axis": 3, "momentum": 0.99, "epsilon": 9.999999747378752e-06, "center": true, "scale": true, "beta_initializer": {"class_name": "Zeros", "config": {}}, "gamma_initializer": {"class_name": "Ones", "config": {}}, "moving_mean_initializer": {"class_name": "Zeros", "config": {}}, "moving_variance_initializer": {"class_name": "Ones", "config": {}}, "beta_regularizer": null, "gamma_regularizer": null, "beta_constraint": null, "gamma_constraint": null}, "inbound_nodes": [[["conv2d_75", 0, 0, {}]]]}, {"name": "activation_72", "class_name": "Activation", "config": {"name": "activation_72", "trainable": true, "dtype": "float32", "activation": "relu"}, "inbound_nodes": [[["batch_normalization_47", 0, 0, {}]]]}, {"name": "zero_padding2d_17", "class_name": "ZeroPadding2D", "config": {"name": "zero_padding2d_17", "trainable": true, "dtype": "float32", "padding": [[1, 1], [1, 1]], "data_format": "channels_last"}, "inbound_nodes": [[["activation_72", 0, 0, {}]]]}, {"name": "conv2d_76", "class_name": "Conv2D", "config": {"name": "conv2d_76", "trainable": true, "dtype": "float32", "filters": 256, "kernel_size": [3, 3], "strides": [1, 1], "padding": "valid", "data_format": "channels_last", "dilation_rate": [1, 1], "activation": "linear", "use_bias": false, "kernel_initializer": {"class_name": "VarianceScaling", "config": {"scale": 2.0, "mode": "fan_in", "distribution": "uniform", "seed": null}}, "bias_initializer": {"class_name": "Zeros", "config": {}}, "kernel_regularizer": null, "bias_regularizer": null, "activity_regularizer": null, "kernel_constraint": null, "bias_constraint": null}, "inbound_nodes": [[["zero_padding2d_17", 0, 0, {}]]]}, {"name": "batch_normalization_48", "class_name": "BatchNormalization", "config": {"name": "batch_normalization_48", "trainable": true, "dtype": "float32", "axis": 3, "momentum": 0.99, "epsilon": 9.999999747378752e-06, "center": true, "scale": true, "beta_initializer": {"class_name": "Zeros", "config": {}}, "gamma_initializer": {"class_name": "Ones", "config": {}}, "moving_mean_initializer": {"class_name": "Zeros", "config": {}}, "moving_variance_initializer": {"class_name": "Ones", "config": {}}, "beta_regularizer": null, "gamma_regularizer": null, "beta_constraint": null, "gamma_constraint": null}, "inbound_nodes": [[["conv2d_76", 0, 0, {}]]]}, {"name": "activation_73", "class_name": "Activation", "config": {"name": "activation_73", "trainable": true, "dtype": "float32", "activation": "relu"}, "inbound_nodes": [[["batch_normalization_48", 0, 0, {}]]]}, {"name": "conv2d_77", "class_name": "Conv2D", "config": {"name": "conv2d_77", "trainable": true, "dtype": "float32", "filters": 1024, "kernel_size": [1, 1], "strides": [1, 1], "padding": "valid", "data_format": "channels_last", "dilation_rate": [1, 1], "activation": "linear", "use_bias": false, "kernel_initializer": {"class_name": "VarianceScaling", "config": {"scale": 2.0, "mode": "fan_in", "distribution": "uniform", "seed": null}}, "bias_initializer": {"class_name": "Zeros", "config": {}}, "kernel_regularizer": null, "bias_regularizer": null, "activity_regularizer": null, "kernel_constraint": null, "bias_constraint": null}, "inbound_nodes": [[["activation_73", 0, 0, {}]]]}, {"name": "batch_normalization_49", "class_name": "BatchNormalization", "config": {"name": "batch_normalization_49", "trainable": true, "dtype": "float32", "axis": 3, "momentum": 0.99, "epsilon": 9.999999747378752e-06, "center": true, "scale": true, "beta_initializer": {"class_name": "Zeros", "config": {}}, "gamma_initializer": {"class_name": "Ones", "config": {}}, "moving_mean_initializer": {"class_name": "Zeros", "config": {}}, "moving_variance_initializer": {"class_name": "Ones", "config": {}}, "beta_regularizer": null, "gamma_regularizer": null, "beta_constraint": null, "gamma_constraint": null}, "inbound_nodes": [[["conv2d_77", 0, 0, {}]]]}, {"name": "global_average_pooling2d_15", "class_name": "GlobalAveragePooling2D", "config": {"name": "global_average_pooling2d_15", "trainable": true, "dtype": "float32", "data_format": "channels_last"}, "inbound_nodes": [[["batch_normalization_49", 0, 0, {}]]]}, {"name": "lambda_15", "class_name": "Lambda", "config": {"name": "lambda_15", "trainable": true, "dtype": "float32", "function": ["4wIAAAAAAAAAAgAAAAYAAABDAAAAc1IAAAB8AWQBawJyIHwAZABkAIUCZABkAGQAZACFAmYEGQBT\nAHwBZAJrAnJAfABkAGQAhQJkAGQAhQJkAGQAZgQZAFMAdABkA6ABfAGhAYMBggFkAFMAKQRO6QMA\nAADpAQAAAHonU2xpY2UgYXhpcyBzaG91bGQgYmUgaW4gKDEsIDMpLCBnb3Qge30uKQLaClZhbHVl\nRXJyb3LaBmZvcm1hdCkC2gF42g1jaGFubmVsc19heGlzqQByBwAAAPppL2hvbWUvcm9mYWlkYS9w\neXRob24tZW52cy9lbnYyL2xpYi9weXRob24zLjcvc2l0ZS1wYWNrYWdlcy9jbGFzc2lmaWNhdGlv\nbl9tb2RlbHMvbW9kZWxzL19jb21tb25fYmxvY2tzLnB52gtleHBhbmRfZGltc08AAABzCgAAAAAB\nCAEYAQgBGAI=\n", null, null], "function_type": "lambda", "output_shape": null, "output_shape_type": "raw", "arguments": {"channels_axis": 3}}, "inbound_nodes": [[["global_average_pooling2d_15", 0, 0, {}]]]}, {"name": "conv2d_78", "class_name": "Conv2D", "config": {"name": "conv2d_78", "trainable": true, "dtype": "float32", "filters": 64, "kernel_size": [1, 1], "strides": [1, 1], "padding": "valid", "data_format": "channels_last", "dilation_rate": [1, 1], "activation": "linear", "use_bias": true, "kernel_initializer": {"class_name": "VarianceScaling", "config": {"scale": 2.0, "mode": "fan_in", "distribution": "uniform", "seed": null}}, "bias_initializer": {"class_name": "Zeros", "config": {}}, "kernel_regularizer": null, "bias_regularizer": null, "activity_regularizer": null, "kernel_constraint": null, "bias_constraint": null}, "inbound_nodes": [[["lambda_15", 0, 0, {}]]]}, {"name": "activation_74", "class_name": "Activation", "config": {"name": "activation_74", "trainable": true, "dtype": "float32", "activation": "relu"}, "inbound_nodes": [[["conv2d_78", 0, 0, {}]]]}, {"name": "conv2d_79", "class_name": "Conv2D", "config": {"name": "conv2d_79", "trainable": true, "dtype": "float32", "filters": 1024, "kernel_size": [1, 1], "strides": [1, 1], "padding": "valid", "data_format": "channels_last", "dilation_rate": [1, 1], "activation": "linear", "use_bias": true, "kernel_initializer": {"class_name": "VarianceScaling", "config": {"scale": 2.0, "mode": "fan_in", "distribution": "uniform", "seed": null}}, "bias_initializer": {"class_name": "Zeros", "config": {}}, "kernel_regularizer": null, "bias_regularizer": null, "activity_regularizer": null, "kernel_constraint": null, "bias_constraint": null}, "inbound_nodes": [[["activation_74", 0, 0, {}]]]}, {"name": "activation_75", "class_name": "Activation", "config": {"name": "activation_75", "trainable": true, "dtype": "float32", "activation": "sigmoid"}, "inbound_nodes": [[["conv2d_79", 0, 0, {}]]]}, {"name": "multiply_15", "class_name": "Multiply", "config": {"name": "multiply_15", "trainable": true, "dtype": "float32"}, "inbound_nodes": [[["batch_normalization_49", 0, 0, {}], ["activation_75", 0, 0, {}]]]}, {"name": "add_15", "class_name": "Add", "config": {"name": "add_15", "trainable": true, "dtype": "float32"}, "inbound_nodes": [[["multiply_15", 0, 0, {}], ["activation_71", 0, 0, {}]]]}, {"name": "activation_76", "class_name": "Activation", "config": {"name": "activation_76", "trainable": true, "dtype": "float32", "activation": "relu"}, "inbound_nodes": [[["add_15", 0, 0, {}]]]}, {"name": "conv2d_80", "class_name": "Conv2D", "config": {"name": "conv2d_80", "trainable": true, "dtype": "float32", "filters": 256, "kernel_size": [1, 1], "strides": [1, 1], "padding": "valid", "data_format": "channels_last", "dilation_rate": [1, 1], "activation": "linear", "use_bias": false, "kernel_initializer": {"class_name": "VarianceScaling", "config": {"scale": 2.0, "mode": "fan_in", "distribution": "uniform", "seed": null}}, "bias_initializer": {"class_name": "Zeros", "config": {}}, "kernel_regularizer": null, "bias_regularizer": null, "activity_regularizer": null, "kernel_constraint": null, "bias_constraint": null}, "inbound_nodes": [[["activation_76", 0, 0, {}]]]}, {"name": "batch_normalization_50", "class_name": "BatchNormalization", "config": {"name": "batch_normalization_50", "trainable": true, "dtype": "float32", "axis": 3, "momentum": 0.99, "epsilon": 9.999999747378752e-06, "center": true, "scale": true, "beta_initializer": {"class_name": "Zeros", "config": {}}, "gamma_initializer": {"class_name": "Ones", "config": {}}, "moving_mean_initializer": {"class_name": "Zeros", "config": {}}, "moving_variance_initializer": {"class_name": "Ones", "config": {}}, "beta_regularizer": null, "gamma_regularizer": null, "beta_constraint": null, "gamma_constraint": null}, "inbound_nodes": [[["conv2d_80", 0, 0, {}]]]}, {"name": "activation_77", "class_name": "Activation", "config": {"name": "activation_77", "trainable": true, "dtype": "float32", "activation": "relu"}, "inbound_nodes": [[["batch_normalization_50", 0, 0, {}]]]}, {"name": "zero_padding2d_18", "class_name": "ZeroPadding2D", "config": {"name": "zero_padding2d_18", "trainable": true, "dtype": "float32", "padding": [[1, 1], [1, 1]], "data_format": "channels_last"}, "inbound_nodes": [[["activation_77", 0, 0, {}]]]}, {"name": "conv2d_81", "class_name": "Conv2D", "config": {"name": "conv2d_81", "trainable": true, "dtype": "float32", "filters": 256, "kernel_size": [3, 3], "strides": [1, 1], "padding": "valid", "data_format": "channels_last", "dilation_rate": [1, 1], "activation": "linear", "use_bias": false, "kernel_initializer": {"class_name": "VarianceScaling", "config": {"scale": 2.0, "mode": "fan_in", "distribution": "uniform", "seed": null}}, "bias_initializer": {"class_name": "Zeros", "config": {}}, "kernel_regularizer": null, "bias_regularizer": null, "activity_regularizer": null, "kernel_constraint": null, "bias_constraint": null}, "inbound_nodes": [[["zero_padding2d_18", 0, 0, {}]]]}, {"name": "batch_normalization_51", "class_name": "BatchNormalization", "config": {"name": "batch_normalization_51", "trainable": true, "dtype": "float32", "axis": 3, "momentum": 0.99, "epsilon": 9.999999747378752e-06, "center": true, "scale": true, "beta_initializer": {"class_name": "Zeros", "config": {}}, "gamma_initializer": {"class_name": "Ones", "config": {}}, "moving_mean_initializer": {"class_name": "Zeros", "config": {}}, "moving_variance_initializer": {"class_name": "Ones", "config": {}}, "beta_regularizer": null, "gamma_regularizer": null, "beta_constraint": null, "gamma_constraint": null}, "inbound_nodes": [[["conv2d_81", 0, 0, {}]]]}, {"name": "activation_78", "class_name": "Activation", "config": {"name": "activation_78", "trainable": true, "dtype": "float32", "activation": "relu"}, "inbound_nodes": [[["batch_normalization_51", 0, 0, {}]]]}, {"name": "conv2d_82", "class_name": "Conv2D", "config": {"name": "conv2d_82", "trainable": true, "dtype": "float32", "filters": 1024, "kernel_size": [1, 1], "strides": [1, 1], "padding": "valid", "data_format": "channels_last", "dilation_rate": [1, 1], "activation": "linear", "use_bias": false, "kernel_initializer": {"class_name": "VarianceScaling", "config": {"scale": 2.0, "mode": "fan_in", "distribution": "uniform", "seed": null}}, "bias_initializer": {"class_name": "Zeros", "config": {}}, "kernel_regularizer": null, "bias_regularizer": null, "activity_regularizer": null, "kernel_constraint": null, "bias_constraint": null}, "inbound_nodes": [[["activation_78", 0, 0, {}]]]}, {"name": "batch_normalization_52", "class_name": "BatchNormalization", "config": {"name": "batch_normalization_52", "trainable": true, "dtype": "float32", "axis": 3, "momentum": 0.99, "epsilon": 9.999999747378752e-06, "center": true, "scale": true, "beta_initializer": {"class_name": "Zeros", "config": {}}, "gamma_initializer": {"class_name": "Ones", "config": {}}, "moving_mean_initializer": {"class_name": "Zeros", "config": {}}, "moving_variance_initializer": {"class_name": "Ones", "config": {}}, "beta_regularizer": null, "gamma_regularizer": null, "beta_constraint": null, "gamma_constraint": null}, "inbound_nodes": [[["conv2d_82", 0, 0, {}]]]}, {"name": "global_average_pooling2d_16", "class_name": "GlobalAveragePooling2D", "config": {"name": "global_average_pooling2d_16", "trainable": true, "dtype": "float32", "data_format": "channels_last"}, "inbound_nodes": [[["batch_normalization_52", 0, 0, {}]]]}, {"name": "lambda_16", "class_name": "Lambda", "config": {"name": "lambda_16", "trainable": true, "dtype": "float32", "function": ["4wIAAAAAAAAAAgAAAAYAAABDAAAAc1IAAAB8AWQBawJyIHwAZABkAIUCZABkAGQAZACFAmYEGQBT\nAHwBZAJrAnJAfABkAGQAhQJkAGQAhQJkAGQAZgQZAFMAdABkA6ABfAGhAYMBggFkAFMAKQRO6QMA\nAADpAQAAAHonU2xpY2UgYXhpcyBzaG91bGQgYmUgaW4gKDEsIDMpLCBnb3Qge30uKQLaClZhbHVl\nRXJyb3LaBmZvcm1hdCkC2gF42g1jaGFubmVsc19heGlzqQByBwAAAPppL2hvbWUvcm9mYWlkYS9w\neXRob24tZW52cy9lbnYyL2xpYi9weXRob24zLjcvc2l0ZS1wYWNrYWdlcy9jbGFzc2lmaWNhdGlv\nbl9tb2RlbHMvbW9kZWxzL19jb21tb25fYmxvY2tzLnB52gtleHBhbmRfZGltc08AAABzCgAAAAAB\nCAEYAQgBGAI=\n", null, null], "function_type": "lambda", "output_shape": null, "output_shape_type": "raw", "arguments": {"channels_axis": 3}}, "inbound_nodes": [[["global_average_pooling2d_16", 0, 0, {}]]]}, {"name": "conv2d_83", "class_name": "Conv2D", "config": {"name": "conv2d_83", "trainable": true, "dtype": "float32", "filters": 64, "kernel_size": [1, 1], "strides": [1, 1], "padding": "valid", "data_format": "channels_last", "dilation_rate": [1, 1], "activation": "linear", "use_bias": true, "kernel_initializer": {"class_name": "VarianceScaling", "config": {"scale": 2.0, "mode": "fan_in", "distribution": "uniform", "seed": null}}, "bias_initializer": {"class_name": "Zeros", "config": {}}, "kernel_regularizer": null, "bias_regularizer": null, "activity_regularizer": null, "kernel_constraint": null, "bias_constraint": null}, "inbound_nodes": [[["lambda_16", 0, 0, {}]]]}, {"name": "activation_79", "class_name": "Activation", "config": {"name": "activation_79", "trainable": true, "dtype": "float32", "activation": "relu"}, "inbound_nodes": [[["conv2d_83", 0, 0, {}]]]}, {"name": "conv2d_84", "class_name": "Conv2D", "config": {"name": "conv2d_84", "trainable": true, "dtype": "float32", "filters": 1024, "kernel_size": [1, 1], "strides": [1, 1], "padding": "valid", "data_format": "channels_last", "dilation_rate": [1, 1], "activation": "linear", "use_bias": true, "kernel_initializer": {"class_name": "VarianceScaling", "config": {"scale": 2.0, "mode": "fan_in", "distribution": "uniform", "seed": null}}, "bias_initializer": {"class_name": "Zeros", "config": {}}, "kernel_regularizer": null, "bias_regularizer": null, "activity_regularizer": null, "kernel_constraint": null, "bias_constraint": null}, "inbound_nodes": [[["activation_79", 0, 0, {}]]]}, {"name": "activation_80", "class_name": "Activation", "config": {"name": "activation_80", "trainable": true, "dtype": "float32", "activation": "sigmoid"}, "inbound_nodes": [[["conv2d_84", 0, 0, {}]]]}, {"name": "multiply_16", "class_name": "Multiply", "config": {"name": "multiply_16", "trainable": true, "dtype": "float32"}, "inbound_nodes": [[["batch_normalization_52", 0, 0, {}], ["activation_80", 0, 0, {}]]]}, {"name": "add_16", "class_name": "Add", "config": {"name": "add_16", "trainable": true, "dtype": "float32"}, "inbound_nodes": [[["multiply_16", 0, 0, {}], ["activation_76", 0, 0, {}]]]}, {"name": "activation_81", "class_name": "Activation", "config": {"name": "activation_81", "trainable": true, "dtype": "float32", "activation": "relu"}, "inbound_nodes": [[["add_16", 0, 0, {}]]]}, {"name": "conv2d_85", "class_name": "Conv2D", "config": {"name": "conv2d_85", "trainable": true, "dtype": "float32", "filters": 256, "kernel_size": [1, 1], "strides": [1, 1], "padding": "valid", "data_format": "channels_last", "dilation_rate": [1, 1], "activation": "linear", "use_bias": false, "kernel_initializer": {"class_name": "VarianceScaling", "config": {"scale": 2.0, "mode": "fan_in", "distribution": "uniform", "seed": null}}, "bias_initializer": {"class_name": "Zeros", "config": {}}, "kernel_regularizer": null, "bias_regularizer": null, "activity_regularizer": null, "kernel_constraint": null, "bias_constraint": null}, "inbound_nodes": [[["activation_81", 0, 0, {}]]]}, {"name": "batch_normalization_53", "class_name": "BatchNormalization", "config": {"name": "batch_normalization_53", "trainable": true, "dtype": "float32", "axis": 3, "momentum": 0.99, "epsilon": 9.999999747378752e-06, "center": true, "scale": true, "beta_initializer": {"class_name": "Zeros", "config": {}}, "gamma_initializer": {"class_name": "Ones", "config": {}}, "moving_mean_initializer": {"class_name": "Zeros", "config": {}}, "moving_variance_initializer": {"class_name": "Ones", "config": {}}, "beta_regularizer": null, "gamma_regularizer": null, "beta_constraint": null, "gamma_constraint": null}, "inbound_nodes": [[["conv2d_85", 0, 0, {}]]]}, {"name": "activation_82", "class_name": "Activation", "config": {"name": "activation_82", "trainable": true, "dtype": "float32", "activation": "relu"}, "inbound_nodes": [[["batch_normalization_53", 0, 0, {}]]]}, {"name": "zero_padding2d_19", "class_name": "ZeroPadding2D", "config": {"name": "zero_padding2d_19", "trainable": true, "dtype": "float32", "padding": [[1, 1], [1, 1]], "data_format": "channels_last"}, "inbound_nodes": [[["activation_82", 0, 0, {}]]]}, {"name": "conv2d_86", "class_name": "Conv2D", "config": {"name": "conv2d_86", "trainable": true, "dtype": "float32", "filters": 256, "kernel_size": [3, 3], "strides": [1, 1], "padding": "valid", "data_format": "channels_last", "dilation_rate": [1, 1], "activation": "linear", "use_bias": false, "kernel_initializer": {"class_name": "VarianceScaling", "config": {"scale": 2.0, "mode": "fan_in", "distribution": "uniform", "seed": null}}, "bias_initializer": {"class_name": "Zeros", "config": {}}, "kernel_regularizer": null, "bias_regularizer": null, "activity_regularizer": null, "kernel_constraint": null, "bias_constraint": null}, "inbound_nodes": [[["zero_padding2d_19", 0, 0, {}]]]}, {"name": "batch_normalization_54", "class_name": "BatchNormalization", "config": {"name": "batch_normalization_54", "trainable": true, "dtype": "float32", "axis": 3, "momentum": 0.99, "epsilon": 9.999999747378752e-06, "center": true, "scale": true, "beta_initializer": {"class_name": "Zeros", "config": {}}, "gamma_initializer": {"class_name": "Ones", "config": {}}, "moving_mean_initializer": {"class_name": "Zeros", "config": {}}, "moving_variance_initializer": {"class_name": "Ones", "config": {}}, "beta_regularizer": null, "gamma_regularizer": null, "beta_constraint": null, "gamma_constraint": null}, "inbound_nodes": [[["conv2d_86", 0, 0, {}]]]}, {"name": "activation_83", "class_name": "Activation", "config": {"name": "activation_83", "trainable": true, "dtype": "float32", "activation": "relu"}, "inbound_nodes": [[["batch_normalization_54", 0, 0, {}]]]}, {"name": "conv2d_87", "class_name": "Conv2D", "config": {"name": "conv2d_87", "trainable": true, "dtype": "float32", "filters": 1024, "kernel_size": [1, 1], "strides": [1, 1], "padding": "valid", "data_format": "channels_last", "dilation_rate": [1, 1], "activation": "linear", "use_bias": false, "kernel_initializer": {"class_name": "VarianceScaling", "config": {"scale": 2.0, "mode": "fan_in", "distribution": "uniform", "seed": null}}, "bias_initializer": {"class_name": "Zeros", "config": {}}, "kernel_regularizer": null, "bias_regularizer": null, "activity_regularizer": null, "kernel_constraint": null, "bias_constraint": null}, "inbound_nodes": [[["activation_83", 0, 0, {}]]]}, {"name": "batch_normalization_55", "class_name": "BatchNormalization", "config": {"name": "batch_normalization_55", "trainable": true, "dtype": "float32", "axis": 3, "momentum": 0.99, "epsilon": 9.999999747378752e-06, "center": true, "scale": true, "beta_initializer": {"class_name": "Zeros", "config": {}}, "gamma_initializer": {"class_name": "Ones", "config": {}}, "moving_mean_initializer": {"class_name": "Zeros", "config": {}}, "moving_variance_initializer": {"class_name": "Ones", "config": {}}, "beta_regularizer": null, "gamma_regularizer": null, "beta_constraint": null, "gamma_constraint": null}, "inbound_nodes": [[["conv2d_87", 0, 0, {}]]]}, {"name": "global_average_pooling2d_17", "class_name": "GlobalAveragePooling2D", "config": {"name": "global_average_pooling2d_17", "trainable": true, "dtype": "float32", "data_format": "channels_last"}, "inbound_nodes": [[["batch_normalization_55", 0, 0, {}]]]}, {"name": "lambda_17", "class_name": "Lambda", "config": {"name": "lambda_17", "trainable": true, "dtype": "float32", "function": ["4wIAAAAAAAAAAgAAAAYAAABDAAAAc1IAAAB8AWQBawJyIHwAZABkAIUCZABkAGQAZACFAmYEGQBT\nAHwBZAJrAnJAfABkAGQAhQJkAGQAhQJkAGQAZgQZAFMAdABkA6ABfAGhAYMBggFkAFMAKQRO6QMA\nAADpAQAAAHonU2xpY2UgYXhpcyBzaG91bGQgYmUgaW4gKDEsIDMpLCBnb3Qge30uKQLaClZhbHVl\nRXJyb3LaBmZvcm1hdCkC2gF42g1jaGFubmVsc19heGlzqQByBwAAAPppL2hvbWUvcm9mYWlkYS9w\neXRob24tZW52cy9lbnYyL2xpYi9weXRob24zLjcvc2l0ZS1wYWNrYWdlcy9jbGFzc2lmaWNhdGlv\nbl9tb2RlbHMvbW9kZWxzL19jb21tb25fYmxvY2tzLnB52gtleHBhbmRfZGltc08AAABzCgAAAAAB\nCAEYAQgBGAI=\n", null, null], "function_type": "lambda", "output_shape": null, "output_shape_type": "raw", "arguments": {"channels_axis": 3}}, "inbound_nodes": [[["global_average_pooling2d_17", 0, 0, {}]]]}, {"name": "conv2d_88", "class_name": "Conv2D", "config": {"name": "conv2d_88", "trainable": true, "dtype": "float32", "filters": 64, "kernel_size": [1, 1], "strides": [1, 1], "padding": "valid", "data_format": "channels_last", "dilation_rate": [1, 1], "activation": "linear", "use_bias": true, "kernel_initializer": {"class_name": "VarianceScaling", "config": {"scale": 2.0, "mode": "fan_in", "distribution": "uniform", "seed": null}}, "bias_initializer": {"class_name": "Zeros", "config": {}}, "kernel_regularizer": null, "bias_regularizer": null, "activity_regularizer": null, "kernel_constraint": null, "bias_constraint": null}, "inbound_nodes": [[["lambda_17", 0, 0, {}]]]}, {"name": "activation_84", "class_name": "Activation", "config": {"name": "activation_84", "trainable": true, "dtype": "float32", "activation": "relu"}, "inbound_nodes": [[["conv2d_88", 0, 0, {}]]]}, {"name": "conv2d_89", "class_name": "Conv2D", "config": {"name": "conv2d_89", "trainable": true, "dtype": "float32", "filters": 1024, "kernel_size": [1, 1], "strides": [1, 1], "padding": "valid", "data_format": "channels_last", "dilation_rate": [1, 1], "activation": "linear", "use_bias": true, "kernel_initializer": {"class_name": "VarianceScaling", "config": {"scale": 2.0, "mode": "fan_in", "distribution": "uniform", "seed": null}}, "bias_initializer": {"class_name": "Zeros", "config": {}}, "kernel_regularizer": null, "bias_regularizer": null, "activity_regularizer": null, "kernel_constraint": null, "bias_constraint": null}, "inbound_nodes": [[["activation_84", 0, 0, {}]]]}, {"name": "activation_85", "class_name": "Activation", "config": {"name": "activation_85", "trainable": true, "dtype": "float32", "activation": "sigmoid"}, "inbound_nodes": [[["conv2d_89", 0, 0, {}]]]}, {"name": "multiply_17", "class_name": "Multiply", "config": {"name": "multiply_17", "trainable": true, "dtype": "float32"}, "inbound_nodes": [[["batch_normalization_55", 0, 0, {}], ["activation_85", 0, 0, {}]]]}, {"name": "add_17", "class_name": "Add", "config": {"name": "add_17", "trainable": true, "dtype": "float32"}, "inbound_nodes": [[["multiply_17", 0, 0, {}], ["activation_81", 0, 0, {}]]]}, {"name": "activation_86", "class_name": "Activation", "config": {"name": "activation_86", "trainable": true, "dtype": "float32", "activation": "relu"}, "inbound_nodes": [[["add_17", 0, 0, {}]]]}, {"name": "conv2d_90", "class_name": "Conv2D", "config": {"name": "conv2d_90", "trainable": true, "dtype": "float32", "filters": 256, "kernel_size": [1, 1], "strides": [1, 1], "padding": "valid", "data_format": "channels_last", "dilation_rate": [1, 1], "activation": "linear", "use_bias": false, "kernel_initializer": {"class_name": "VarianceScaling", "config": {"scale": 2.0, "mode": "fan_in", "distribution": "uniform", "seed": null}}, "bias_initializer": {"class_name": "Zeros", "config": {}}, "kernel_regularizer": null, "bias_regularizer": null, "activity_regularizer": null, "kernel_constraint": null, "bias_constraint": null}, "inbound_nodes": [[["activation_86", 0, 0, {}]]]}, {"name": "batch_normalization_56", "class_name": "BatchNormalization", "config": {"name": "batch_normalization_56", "trainable": true, "dtype": "float32", "axis": 3, "momentum": 0.99, "epsilon": 9.999999747378752e-06, "center": true, "scale": true, "beta_initializer": {"class_name": "Zeros", "config": {}}, "gamma_initializer": {"class_name": "Ones", "config": {}}, "moving_mean_initializer": {"class_name": "Zeros", "config": {}}, "moving_variance_initializer": {"class_name": "Ones", "config": {}}, "beta_regularizer": null, "gamma_regularizer": null, "beta_constraint": null, "gamma_constraint": null}, "inbound_nodes": [[["conv2d_90", 0, 0, {}]]]}, {"name": "activation_87", "class_name": "Activation", "config": {"name": "activation_87", "trainable": true, "dtype": "float32", "activation": "relu"}, "inbound_nodes": [[["batch_normalization_56", 0, 0, {}]]]}, {"name": "zero_padding2d_20", "class_name": "ZeroPadding2D", "config": {"name": "zero_padding2d_20", "trainable": true, "dtype": "float32", "padding": [[1, 1], [1, 1]], "data_format": "channels_last"}, "inbound_nodes": [[["activation_87", 0, 0, {}]]]}, {"name": "conv2d_91", "class_name": "Conv2D", "config": {"name": "conv2d_91", "trainable": true, "dtype": "float32", "filters": 256, "kernel_size": [3, 3], "strides": [1, 1], "padding": "valid", "data_format": "channels_last", "dilation_rate": [1, 1], "activation": "linear", "use_bias": false, "kernel_initializer": {"class_name": "VarianceScaling", "config": {"scale": 2.0, "mode": "fan_in", "distribution": "uniform", "seed": null}}, "bias_initializer": {"class_name": "Zeros", "config": {}}, "kernel_regularizer": null, "bias_regularizer": null, "activity_regularizer": null, "kernel_constraint": null, "bias_constraint": null}, "inbound_nodes": [[["zero_padding2d_20", 0, 0, {}]]]}, {"name": "batch_normalization_57", "class_name": "BatchNormalization", "config": {"name": "batch_normalization_57", "trainable": true, "dtype": "float32", "axis": 3, "momentum": 0.99, "epsilon": 9.999999747378752e-06, "center": true, "scale": true, "beta_initializer": {"class_name": "Zeros", "config": {}}, "gamma_initializer": {"class_name": "Ones", "config": {}}, "moving_mean_initializer": {"class_name": "Zeros", "config": {}}, "moving_variance_initializer": {"class_name": "Ones", "config": {}}, "beta_regularizer": null, "gamma_regularizer": null, "beta_constraint": null, "gamma_constraint": null}, "inbound_nodes": [[["conv2d_91", 0, 0, {}]]]}, {"name": "activation_88", "class_name": "Activation", "config": {"name": "activation_88", "trainable": true, "dtype": "float32", "activation": "relu"}, "inbound_nodes": [[["batch_normalization_57", 0, 0, {}]]]}, {"name": "conv2d_92", "class_name": "Conv2D", "config": {"name": "conv2d_92", "trainable": true, "dtype": "float32", "filters": 1024, "kernel_size": [1, 1], "strides": [1, 1], "padding": "valid", "data_format": "channels_last", "dilation_rate": [1, 1], "activation": "linear", "use_bias": false, "kernel_initializer": {"class_name": "VarianceScaling", "config": {"scale": 2.0, "mode": "fan_in", "distribution": "uniform", "seed": null}}, "bias_initializer": {"class_name": "Zeros", "config": {}}, "kernel_regularizer": null, "bias_regularizer": null, "activity_regularizer": null, "kernel_constraint": null, "bias_constraint": null}, "inbound_nodes": [[["activation_88", 0, 0, {}]]]}, {"name": "batch_normalization_58", "class_name": "BatchNormalization", "config": {"name": "batch_normalization_58", "trainable": true, "dtype": "float32", "axis": 3, "momentum": 0.99, "epsilon": 9.999999747378752e-06, "center": true, "scale": true, "beta_initializer": {"class_name": "Zeros", "config": {}}, "gamma_initializer": {"class_name": "Ones", "config": {}}, "moving_mean_initializer": {"class_name": "Zeros", "config": {}}, "moving_variance_initializer": {"class_name": "Ones", "config": {}}, "beta_regularizer": null, "gamma_regularizer": null, "beta_constraint": null, "gamma_constraint": null}, "inbound_nodes": [[["conv2d_92", 0, 0, {}]]]}, {"name": "global_average_pooling2d_18", "class_name": "GlobalAveragePooling2D", "config": {"name": "global_average_pooling2d_18", "trainable": true, "dtype": "float32", "data_format": "channels_last"}, "inbound_nodes": [[["batch_normalization_58", 0, 0, {}]]]}, {"name": "lambda_18", "class_name": "Lambda", "config": {"name": "lambda_18", "trainable": true, "dtype": "float32", "function": ["4wIAAAAAAAAAAgAAAAYAAABDAAAAc1IAAAB8AWQBawJyIHwAZABkAIUCZABkAGQAZACFAmYEGQBT\nAHwBZAJrAnJAfABkAGQAhQJkAGQAhQJkAGQAZgQZAFMAdABkA6ABfAGhAYMBggFkAFMAKQRO6QMA\nAADpAQAAAHonU2xpY2UgYXhpcyBzaG91bGQgYmUgaW4gKDEsIDMpLCBnb3Qge30uKQLaClZhbHVl\nRXJyb3LaBmZvcm1hdCkC2gF42g1jaGFubmVsc19heGlzqQByBwAAAPppL2hvbWUvcm9mYWlkYS9w\neXRob24tZW52cy9lbnYyL2xpYi9weXRob24zLjcvc2l0ZS1wYWNrYWdlcy9jbGFzc2lmaWNhdGlv\nbl9tb2RlbHMvbW9kZWxzL19jb21…
able": true, "dtype": "float32", "activation": "relu"}, "inbound_nodes": [[["batch_normalization_86", 0, 0, {}]]]}, {"name": "zero_padding2d_30", "class_name": "ZeroPadding2D", "config": {"name": "zero_padding2d_30", "trainable": true, "dtype": "float32", "padding": [[1, 1], [1, 1]], "data_format": "channels_last"}, "inbound_nodes": [[["activation_137", 0, 0, {}]]]}, {"name": "conv2d_141", "class_name": "Conv2D", "config": {"name": "conv2d_141", "trainable": true, "dtype": "float32", "filters": 256, "kernel_size": [3, 3], "strides": [1, 1], "padding": "valid", "data_format": "channels_last", "dilation_rate": [1, 1], "activation": "linear", "use_bias": false, "kernel_initializer": {"class_name": "VarianceScaling", "config": {"scale": 2.0, "mode": "fan_in", "distribution": "uniform", "seed": null}}, "bias_initializer": {"class_name": "Zeros", "config": {}}, "kernel_regularizer": null, "bias_regularizer": null, "activity_regularizer": null, "kernel_constraint": null, "bias_constraint": null}, "inbound_nodes": [[["zero_padding2d_30", 0, 0, {}]]]}, {"name": "batch_normalization_87", "class_name": "BatchNormalization", "config": {"name": "batch_normalization_87", "trainable": true, "dtype": "float32", "axis": 3, "momentum": 0.99, "epsilon": 9.999999747378752e-06, "center": true, "scale": true, "beta_initializer": {"class_name": "Zeros", "config": {}}, "gamma_initializer": {"class_name": "Ones", "config": {}}, "moving_mean_initializer": {"class_name": "Zeros", "config": {}}, "moving_variance_initializer": {"class_name": "Ones", "config": {}}, "beta_regularizer": null, "gamma_regularizer": null, "beta_constraint": null, "gamma_constraint": null}, "inbound_nodes": [[["conv2d_141", 0, 0, {}]]]}, {"name": "activation_138", "class_name": "Activation", "config": {"name": "activation_138", "trainable": true, "dtype": "float32", "activation": "relu"}, "inbound_nodes": [[["batch_normalization_87", 0, 0, {}]]]}, {"name": "conv2d_142", "class_name": "Conv2D", "config": {"name": "conv2d_142", "trainable": true, "dtype": "float32", "filters": 1024, "kernel_size": [1, 1], "strides": [1, 1], "padding": "valid", "data_format": "channels_last", "dilation_rate": [1, 1], "activation": "linear", "use_bias": false, "kernel_initializer": {"class_name": "VarianceScaling", "config": {"scale": 2.0, "mode": "fan_in", "distribution": "uniform", "seed": null}}, "bias_initializer": {"class_name": "Zeros", "config": {}}, "kernel_regularizer": null, "bias_regularizer": null, "activity_regularizer": null, "kernel_constraint": null, "bias_constraint": null}, "inbound_nodes": [[["activation_138", 0, 0, {}]]]}, {"name": "batch_normalization_88", "class_name": "BatchNormalization", "config": {"name": "batch_normalization_88", "trainable": true, "dtype": "float32", "axis": 3, "momentum": 0.99, "epsilon": 9.999999747378752e-06, "center": true, "scale": true, "beta_initializer": {"class_name": "Zeros", "config": {}}, "gamma_initializer": {"class_name": "Ones", "config": {}}, "moving_mean_initializer": {"class_name": "Zeros", "config": {}}, "moving_variance_initializer": {"class_name": "Ones", "config": {}}, "beta_regularizer": null, "gamma_regularizer": null, "beta_constraint": null, "gamma_constraint": null}, "inbound_nodes": [[["conv2d_142", 0, 0, {}]]]}, {"name": "global_average_pooling2d_28", "class_name": "GlobalAveragePooling2D", "config": {"name": "global_average_pooling2d_28", "trainable": true, "dtype": "float32", "data_format": "channels_last"}, "inbound_nodes": [[["batch_normalization_88", 0, 0, {}]]]}, {"name": "lambda_28", "class_name": "Lambda", "config": {"name": "lambda_28", "trainable": true, "dtype": "float32", "function": ["4wIAAAAAAAAAAgAAAAYAAABDAAAAc1IAAAB8AWQBawJyIHwAZABkAIUCZABkAGQAZACFAmYEGQBT\nAHwBZAJrAnJAfABkAGQAhQJkAGQAhQJkAGQAZgQZAFMAdABkA6ABfAGhAYMBggFkAFMAKQRO6QMA\nAADpAQAAAHonU2xpY2UgYXhpcyBzaG91bGQgYmUgaW4gKDEsIDMpLCBnb3Qge30uKQLaClZhbHVl\nRXJyb3LaBmZvcm1hdCkC2gF42g1jaGFubmVsc19heGlzqQByBwAAAPppL2hvbWUvcm9mYWlkYS9w\neXRob24tZW52cy9lbnYyL2xpYi9weXRob24zLjcvc2l0ZS1wYWNrYWdlcy9jbGFzc2lmaWNhdGlv\nbl9tb2RlbHMvbW9kZWxzL19jb21tb25fYmxvY2tzLnB52gtleHBhbmRfZGltc08AAABzCgAAAAAB\nCAEYAQgBGAI=\n", null, null], "function_type": "lambda", "output_shape": null, "output_shape_type": "raw", "arguments": {"channels_axis": 3}}, "inbound_nodes": [[["global_average_pooling2d_28", 0, 0, {}]]]}, {"name": "conv2d_143", "class_name": "Conv2D", "config": {"name": "conv2d_143", "trainable": true, "dtype": "float32", "filters": 64, "kernel_size": [1, 1], "strides": [1, 1], "padding": "valid", "data_format": "channels_last", "dilation_rate": [1, 1], "activation": "linear", "use_bias": true, "kernel_initializer": {"class_name": "VarianceScaling", "config": {"scale": 2.0, "mode": "fan_in", "distribution": "uniform", "seed": null}}, "bias_initializer": {"class_name": "Zeros", "config": {}}, "kernel_regularizer": null, "bias_regularizer": null, "activity_regularizer": null, "kernel_constraint": null, "bias_constraint": null}, "inbound_nodes": [[["lambda_28", 0, 0, {}]]]}, {"name": "activation_139", "class_name": "Activation", "config": {"name": "activation_139", "trainable": true, "dtype": "float32", "activation": "relu"}, "inbound_nodes": [[["conv2d_143", 0, 0, {}]]]}, {"name": "conv2d_144", "class_name": "Conv2D", "config": {"name": "conv2d_144", "trainable": true, "dtype": "float32", "filters": 1024, "kernel_size": [1, 1], "strides": [1, 1], "padding": "valid", "data_format": "channels_last", "dilation_rate": [1, 1], "activation": "linear", "use_bias": true, "kernel_initializer": {"class_name": "VarianceScaling", "config": {"scale": 2.0, "mode": "fan_in", "distribution": "uniform", "seed": null}}, "bias_initializer": {"class_name": "Zeros", "config": {}}, "kernel_regularizer": null, "bias_regularizer": null, "activity_regularizer": null, "kernel_constraint": null, "bias_constraint": null}, "inbound_nodes": [[["activation_139", 0, 0, {}]]]}, {"name": "activation_140", "class_name": "Activation", "config": {"name": "activation_140", "trainable": true, "dtype": "float32", "activation": "sigmoid"}, "inbound_nodes": [[["conv2d_144", 0, 0, {}]]]}, {"name": "multiply_28", "class_name": "Multiply", "config": {"name": "multiply_28", "trainable": true, "dtype": "float32"}, "inbound_nodes": [[["batch_normalization_88", 0, 0, {}], ["activation_140", 0, 0, {}]]]}, {"name": "add_28", "class_name": "Add", "config": {"name": "add_28", "trainable": true, "dtype": "float32"}, "inbound_nodes": [[["multiply_28", 0, 0, {}], ["activation_136", 0, 0, {}]]]}, {"name": "activation_141", "class_name": "Activation", "config": {"name": "activation_141", "trainable": true, "dtype": "float32", "activation": "relu"}, "inbound_nodes": [[["add_28", 0, 0, {}]]]}, {"name": "conv2d_145", "class_name": "Conv2D", "config": {"name": "conv2d_145", "trainable": true, "dtype": "float32", "filters": 256, "kernel_size": [1, 1], "strides": [1, 1], "padding": "valid", "data_format": "channels_last", "dilation_rate": [1, 1], "activation": "linear", "use_bias": false, "kernel_initializer": {"class_name": "VarianceScaling", "config": {"scale": 2.0, "mode": "fan_in", "distribution": "uniform", "seed": null}}, "bias_initializer": {"class_name": "Zeros", "config": {}}, "kernel_regularizer": null, "bias_regularizer": null, "activity_regularizer": null, "kernel_constraint": null, "bias_constraint": null}, "inbound_nodes": [[["activation_141", 0, 0, {}]]]}, {"name": "batch_normalization_89", "class_name": "BatchNormalization", "config": {"name": "batch_normalization_89", "trainable": true, "dtype": "float32", "axis": 3, "momentum": 0.99, "epsilon": 9.999999747378752e-06, "center": true, "scale": true, "beta_initializer": {"class_name": "Zeros", "config": {}}, "gamma_initializer": {"class_name": "Ones", "config": {}}, "moving_mean_initializer": {"class_name": "Zeros", "config": {}}, "moving_variance_initializer": {"class_name": "Ones", "config": {}}, "beta_regularizer": null, "gamma_regularizer": null, "beta_constraint": null, "gamma_constraint": null}, "inbound_nodes": [[["conv2d_145", 0, 0, {}]]]}, {"name": "activation_142", "class_name": "Activation", "config": {"name": "activation_142", "trainable": true, "dtype": "float32", "activation": "relu"}, "inbound_nodes": [[["batch_normalization_89", 0, 0, {}]]]}, {"name": "zero_padding2d_31", "class_name": "ZeroPadding2D", "config": {"name": "zero_padding2d_31", "trainable": true, "dtype": "float32", "padding": [[1, 1], [1, 1]], "data_format": "channels_last"}, "inbound_nodes": [[["activation_142", 0, 0, {}]]]}, {"name": "conv2d_146", "class_name": "Conv2D", "config": {"name": "conv2d_146", "trainable": true, "dtype": "float32", "filters": 256, "kernel_size": [3, 3], "strides": [1, 1], "padding": "valid", "data_format": "channels_last", "dilation_rate": [1, 1], "activation": "linear", "use_bias": false, "kernel_initializer": {"class_name": "VarianceScaling", "config": {"scale": 2.0, "mode": "fan_in", "distribution": "uniform", "seed": null}}, "bias_initializer": {"class_name": "Zeros", "config": {}}, "kernel_regularizer": null, "bias_regularizer": null, "activity_regularizer": null, "kernel_constraint": null, "bias_constraint": null}, "inbound_nodes": [[["zero_padding2d_31", 0, 0, {}]]]}, {"name": "batch_normalization_90", "class_name": "BatchNormalization", "config": {"name": "batch_normalization_90", "trainable": true, "dtype": "float32", "axis": 3, "momentum": 0.99, "epsilon": 9.999999747378752e-06, "center": true, "scale": true, "beta_initializer": {"class_name": "Zeros", "config": {}}, "gamma_initializer": {"class_name": "Ones", "config": {}}, "moving_mean_initializer": {"class_name": "Zeros", "config": {}}, "moving_variance_initializer": {"class_name": "Ones", "config": {}}, "beta_regularizer": null, "gamma_regularizer": null, "beta_constraint": null, "gamma_constraint": null}, "inbound_nodes": [[["conv2d_146", 0, 0, {}]]]}, {"name": "activation_143", "class_name": "Activation", "config": {"name": "activation_143", "trainable": true, "dtype": "float32", "activation": "relu"}, "inbound_nodes": [[["batch_normalization_90", 0, 0, {}]]]}, {"name": "conv2d_147", "class_name": "Conv2D", "config": {"name": "conv2d_147", "trainable": true, "dtype": "float32", "filters": 1024, "kernel_size": [1, 1], "strides": [1, 1], "padding": "valid", "data_format": "channels_last", "dilation_rate": [1, 1], "activation": "linear", "use_bias": false, "kernel_initializer": {"class_name": "VarianceScaling", "config": {"scale": 2.0, "mode": "fan_in", "distribution": "uniform", "seed": null}}, "bias_initializer": {"class_name": "Zeros", "config": {}}, "kernel_regularizer": null, "bias_regularizer": null, "activity_regularizer": null, "kernel_constraint": null, "bias_constraint": null}, "inbound_nodes": [[["activation_143", 0, 0, {}]]]}, {"name": "batch_normalization_91", "class_name": "BatchNormalization", "config": {"name": "batch_normalization_91", "trainable": true, "dtype": "float32", "axis": 3, "momentum": 0.99, "epsilon": 9.999999747378752e-06, "center": true, "scale": true, "beta_initializer": {"class_name": "Zeros", "config": {}}, "gamma_initializer": {"class_name": "Ones", "config": {}}, "moving_mean_initializer": {"class_name": "Zeros", "config": {}}, "moving_variance_initializer": {"class_name": "Ones", "config": {}}, "beta_regularizer": null, "gamma_regularizer": null, "beta_constraint": null, "gamma_constraint": null}, "inbound_nodes": [[["conv2d_147", 0, 0, {}]]]}, {"name": "global_average_pooling2d_29", "class_name": "GlobalAveragePooling2D", "config": {"name": "global_average_pooling2d_29", "trainable": true, "dtype": "float32", "data_format": "channels_last"}, "inbound_nodes": [[["batch_normalization_91", 0, 0, {}]]]}, {"name": "lambda_29", "class_name": "Lambda", "config": {"name": "lambda_29", "trainable": true, "dtype": "float32", "function": ["4wIAAAAAAAAAAgAAAAYAAABDAAAAc1IAAAB8AWQBawJyIHwAZABkAIUCZABkAGQAZACFAmYEGQBT\nAHwBZAJrAnJAfABkAGQAhQJkAGQAhQJkAGQAZgQZAFMAdABkA6ABfAGhAYMBggFkAFMAKQRO6QMA\nAADpAQAAAHonU2xpY2UgYXhpcyBzaG91bGQgYmUgaW4gKDEsIDMpLCBnb3Qge30uKQLaClZhbHVl\nRXJyb3LaBmZvcm1hdCkC2gF42g1jaGFubmVsc19heGlzqQByBwAAAPppL2hvbWUvcm9mYWlkYS9w\neXRob24tZW52cy9lbnYyL2xpYi9weXRob24zLjcvc2l0ZS1wYWNrYWdlcy9jbGFzc2lmaWNhdGlv\nbl9tb2RlbHMvbW9kZWxzL19jb21tb25fYmxvY2tzLnB52gtleHBhbmRfZGltc08AAABzCgAAAAAB\nCAEYAQgBGAI=\n", null, null], "function_type": "lambda", "output_shape": null, "output_shape_type": "raw", "arguments": {"channels_axis": 3}}, "inbound_nodes": [[["global_average_pooling2d_29", 0, 0, {}]]]}, {"name": "conv2d_148", "class_name": "Conv2D", "config": {"name": "conv2d_148", "trainable": true, "dtype": "float32", "filters": 64, "kernel_size": [1, 1], "strides": [1, 1], "padding": "valid", "data_format": "channels_last", "dilation_rate": [1, 1], "activation": "linear", "use_bias": true, "kernel_initializer": {"class_name": "VarianceScaling", "config": {"scale": 2.0, "mode": "fan_in", "distribution": "uniform", "seed": null}}, "bias_initializer": {"class_name": "Zeros", "config": {}}, "kernel_regularizer": null, "bias_regularizer": null, "activity_regularizer": null, "kernel_constraint": null, "bias_constraint": null}, "inbound_nodes": [[["lambda_29", 0, 0, {}]]]}, {"name": "activation_144", "class_name": "Activation", "config": {"name": "activation_144", "trainable": true, "dtype": "float32", "activation": "relu"}, "inbound_nodes": [[["conv2d_148", 0, 0, {}]]]}, {"name": "conv2d_149", "class_name": "Conv2D", "config": {"name": "conv2d_149", "trainable": true, "dtype": "float32", "filters": 1024, "kernel_size": [1, 1], "strides": [1, 1], "padding": "valid", "data_format": "channels_last", "dilation_rate": [1, 1], "activation": "linear", "use_bias": true, "kernel_initializer": {"class_name": "VarianceScaling", "config": {"scale": 2.0, "mode": "fan_in", "distribution": "uniform", "seed": null}}, "bias_initializer": {"class_name": "Zeros", "config": {}}, "kernel_regularizer": null, "bias_regularizer": null, "activity_regularizer": null, "kernel_constraint": null, "bias_constraint": null}, "inbound_nodes": [[["activation_144", 0, 0, {}]]]}, {"name": "activation_145", "class_name": "Activation", "config": {"name": "activation_145", "trainable": true, "dtype": "float32", "activation": "sigmoid"}, "inbound_nodes": [[["conv2d_149", 0, 0, {}]]]}, {"name": "multiply_29", "class_name": "Multiply", "config": {"name": "multiply_29", "trainable": true, "dtype": "float32"}, "inbound_nodes": [[["batch_normalization_91", 0, 0, {}], ["activation_145", 0, 0, {}]]]}, {"name": "add_29", "class_name": "Add", "config": {"name": "add_29", "trainable": true, "dtype": "float32"}, "inbound_nodes": [[["multiply_29", 0, 0, {}], ["activation_141", 0, 0, {}]]]}, {"name": "activation_146", "class_name": "Activation", "config": {"name": "activation_146", "trainable": true, "dtype": "float32", "activation": "relu"}, "inbound_nodes": [[["add_29", 0, 0, {}]]]}, {"name": "conv2d_150", "class_name": "Conv2D", "config": {"name": "conv2d_150", "trainable": true, "dtype": "float32", "filters": 256, "kernel_size": [1, 1], "strides": [1, 1], "padding": "valid", "data_format": "channels_last", "dilation_rate": [1, 1], "activation": "linear", "use_bias": false, "kernel_initializer": {"class_name": "VarianceScaling", "config": {"scale": 2.0, "mode": "fan_in", "distribution": "uniform", "seed": null}}, "bias_initializer": {"class_name": "Zeros", "config": {}}, "kernel_regularizer": null, "bias_regularizer": null, "activity_regularizer": null, "kernel_constraint": null, "bias_constraint": null}, "inbound_nodes": [[["activation_146", 0, 0, {}]]]}, {"name": "batch_normalization_92", "class_name": "BatchNormalization", "config": {"name": "batch_normalization_92", "trainable": true, "dtype": "float32", "axis": 3, "momentum": 0.99, "epsilon": 9.999999747378752e-06, "center": true, "scale": true, "beta_initializer": {"class_name": "Zeros", "config": {}}, "gamma_initializer": {"class_name": "Ones", "config": {}}, "moving_mean_initializer": {"class_name": "Zeros", "config": {}}, "moving_variance_initializer": {"class_name": "Ones", "config": {}}, "beta_regularizer": null, "gamma_regularizer": null, "beta_constraint": null, "gamma_constraint": null}, "inbound_nodes": [[["conv2d_150", 0, 0, {}]]]}, {"name": "activation_147", "class_name": "Activation", "config": {"name": "activation_147", "trainable": true, "dtype": "float32", "activation": "relu"}, "inbound_nodes": [[["batch_normalization_92", 0, 0, {}]]]}, {"name": "zero_padding2d_32", "class_name": "ZeroPadding2D", "config": {"name": "zero_padding2d_32", "trainable": true, "dtype": "float32", "padding": [[1, 1], [1, 1]], "data_format": "channels_last"}, "inbound_nodes": [[["activation_147", 0, 0, {}]]]}, {"name": "conv2d_151", "class_name": "Conv2D", "config": {"name": "conv2d_151", "trainable": true, "dtype": "float32", "filters": 256, "kernel_size": [3, 3], "strides": [1, 1], "padding": "valid", "data_format": "channels_last", "dilation_rate": [1, 1], "activation": "linear", "use_bias": false, "kernel_initializer": {"class_name": "VarianceScaling", "config": {"scale": 2.0, "mode": "fan_in", "distribution": "uniform", "seed": null}}, "bias_initializer": {"class_name": "Zeros", "config": {}}, "kernel_regularizer": null, "bias_regularizer": null, "activity_regularizer": null, "kernel_constraint": null, "bias_constraint": null}, "inbound_nodes": [[["zero_padding2d_32", 0, 0, {}]]]}, {"name": "batch_normalization_93", "class_name": "BatchNormalization", "config": {"name": "batch_normalization_93", "trainable": true, "dtype": "float32", "axis": 3, "momentum": 0.99, "epsilon": 9.999999747378752e-06, "center": true, "scale": true, "beta_initializer": {"class_name": "Zeros", "config": {}}, "gamma_initializer": {"class_name": "Ones", "config": {}}, "moving_mean_initializer": {"class_name": "Zeros", "config": {}}, "moving_variance_initializer": {"class_name": "Ones", "config": {}}, "beta_regularizer": null, "gamma_regularizer": null, "beta_constraint": null, "gamma_constraint": null}, "inbound_nodes": [[["conv2d_151", 0, 0, {}]]]}, {"name": "activation_148", "class_name": "Activation", "config": {"name": "activation_148", "trainable": true, "dtype": "float32", "activation": "relu"}, "inbound_nodes": [[["batch_normalization_93", 0, 0, {}]]]}, {"name": "conv2d_152", "class_name": "Conv2D", "config": {"name": "conv2d_152", "trainable": true, "dtype": "float32", "filters": 1024, "kernel_size": [1, 1], "strides": [1, 1], "padding": "valid", "data_format": "channels_last", "dilation_rate": [1, 1], "activation": "linear", "use_bias": false, "kernel_initializer": {"class_name": "VarianceScaling", "config": {"scale": 2.0, "mode": "fan_in", "distribution": "uniform", "seed": null}}, "bias_initializer": {"class_name": "Zeros", "config": {}}, "kernel_regularizer": null, "bias_regularizer": null, "activity_regularizer": null, "kernel_constraint": null, "bias_constraint": null}, "inbound_nodes": [[["activation_148", 0, 0, {}]]]}, {"name": "batch_normalization_94", "class_name": "BatchNormalization", "config": {"name": "batch_normalization_94", "trainable": true, "dtype": "float32", "axis": 3, "momentum": 0.99, "epsilon": 9.999999747378752e-06, "center": true, "scale": true, "beta_initializer": {"class_name": "Zeros", "config": {}}, "gamma_initializer": {"class_name": "Ones", "config": {}}, "moving_mean_initializer": {"class_name": "Zeros", "config": {}}, "moving_variance_initializer": {"class_name": "Ones", "config": {}}, "beta_regularizer": null, "gamma_regularizer": null, "beta_constraint": null, "gamma_constraint": null}, "inbound_nodes": [[["conv2d_152", 0, 0, {}]]]}, {"name": "global_average_pooling2d_30", "class_name": "GlobalAveragePooling2D", "config": {"name": "global_average_pooling2d_30", "trainable": true, "dtype": "float32", "data_format": "channels_last"}, "inbound_nodes": [[["batch_normalization_94", 0, 0, {}]]]}, {"name": "lambda_30", "class_name": "Lambda", "config": {"name": "lambda_30", "trainable": true, "dtype": "float32", "function": ["4wIAAAAAAAAAAgAAAAYAAABDAAAAc1IAAAB8AWQBawJyIHwAZABkAIUCZABkAGQAZACFAmYEGQBT\nAHwBZAJrAnJAfABkAGQAhQJkAGQAhQJkAGQAZgQZAFMAdABkA6ABfAGhAYMBggFkAFMAKQRO6QMA\nAADpAQAAAHonU2xpY2UgYXhpcyBzaG91bGQgYmUgaW4gKDEsIDMpLCBnb3Qge30uKQLaClZhbHVl\nRXJyb3LaBmZvcm1hdCkC2gF42g1jaGFubmVsc19heGlzqQByBwAAAPppL2hvbWUvcm9mYWlkYS9w\neXRob24tZW52cy9lbnYyL2xpYi9weXRob24zLjcvc2l0ZS1wYWNrYWdlcy9jbGFzc2lmaWNhdGlv\nbl9tb2RlbHMvbW9kZWxzL19jb21tb25fYmxvY2tzLnB52gtleHBhbmRfZGltc08AAABzCgAAAAAB\nCAEYAQgBGAI=\n", null, null], "function_type": "lambda", "output_shape": null, "output_shape_type": "raw", "arguments": {"channels_axis": 3}}, "inbound_nodes": [[["global_average_pooling2d_30", 0, 0, {}]]]}, {"name": "conv2d_153", "class_name": "Conv2D", "config": {"name": "conv2d_153", "trainable": true, "dtype": "float32", "filters": 64, "kernel_size": [1, 1], "strides": [1, 1], "padding": "valid", "data_format": "channels_last", "dilation_rate": [1, 1], "activation": "linear", "use_bias": true, "kernel_initializer": {"class_name": "VarianceScaling", "config": {"scale": 2.0, "mode": "fan_in", "distribution": "uniform", "seed": null}}, "bias_initializer": {"class_name": "Zeros", "config": {}}, "kernel_regularizer": null, "bias_regularizer": null, "activity_regularizer": null, "kernel_constraint": null, "bias_constraint": null}, "inbound_nodes": [[["lambda_30", 0, 0, {}]]]}, {"name": "activation_149", "class_name": "Activation", "config": {"name": "activation_149", "trainable": true, "dtype": "float32", "activation": "relu"}, "inbound_nodes": [[["conv2d_153", 0, 0, {}]]]}, {"name": "conv2d_154", "class_name": "Conv2D", "config": {"name": "conv2d_154", "trainable": true, "dtype": "float32", "filters": 1024, "kernel_size": [1, 1], "strides": [1, 1], "padding": "valid", "data_format": "channels_last", "dilation_rate": [1, 1], "activation": "linear", "use_bias": true, "kernel_initializer": {"class_name": "VarianceScaling", "config": {"scale": 2.0, "mode": "fan_in", "distribution": "uniform", "seed": null}}, "bias_initializer": {"class_name": "Zeros", "config": {}}, "kernel_regularizer": null, "bias_regularizer": null, "activity_regularizer": null, "kernel_constraint": null, "bias_constraint": null}, "inbound_nodes": [[["activation_149", 0, 0, {}]]]}, {"name": "activation_150", "class_name": "Activation", "config": {"name": "activation_150", "trainable": true, "dtype": "float32", "activation": "sigmoid"}, "inbound_nodes": [[["conv2d_154", 0, 0, {}]]]}, {"name": "multiply_30", "class_name": "Multiply", "config": {"name": "multiply_30", "trainable": true, "dtype": "float32"}, "inbound_nodes": [[["batch_normalization_94", 0, 0, {}], ["activation_150", 0, 0, {}]]]}, {"name": "add_30", "class_name": "Add", "config": {"name": "add_30", "trainable": true, "dtype": "float32"}, "inbound_nodes": [[["multiply_30", 0, 0, {}], ["activation_146", 0, 0, {}]]]}, {"name": "activation_151", "class_name": "Activation", "config": {"name": "activation_151", "trainable": true, "dtype": "float32", "activation": "relu"}, "inbound_nodes": [[["add_30", 0, 0, {}]]]}, {"name": "conv2d_155", "class_name": "Conv2D", "config": {"name": "conv2d_155", "trainable": true, "dtype": "float32", "filters": 512, "kernel_size": [1, 1], "strides": [2, 2], "padding": "valid", "data_format": "channels_last", "dilation_rate": [1, 1], "activation": "linear", "use_bias": false, "kernel_initializer": {"class_name": "VarianceScaling", "config": {"scale": 2.0, "mode": "fan_in", "distribution": "uniform", "seed": null}}, "bias_initializer": {"class_name": "Zeros", "config": {}}, "kernel_regularizer": null, "bias_regularizer": null, "activity_regularizer": null, "kernel_constraint": null, "bias_constraint": null}, "inbound_nodes": [[["activation_151", 0, 0, {}]]]}, {"name": "batch_normalization_95", "class_name": "BatchNormalization", "config": {"name": "batch_normalization_95", "trainable": true, "dtype": "float32", "axis": 3, "momentum": 0.99, "epsilon": 9.999999747378752e-06, "center": true, "scale": true, "beta_initializer": {"class_name": "Zeros", "config": {}}, "gamma_initializer": {"class_name": "Ones", "config": {}}, "moving_mean_initializer": {"class_name": "Zeros", "config": {}}, "moving_variance_initializer": {"class_name": "Ones", "config": {}}, "beta_regularizer": null, "gamma_regularizer": null, "beta_constraint": null, "gamma_constraint": null}, "inbound_nodes": [[["conv2d_155", 0, 0, {}]]]}, {"name": "activation_152", "class_name": "Activation", "config": {"name": "activation_152", "trainable": true, "dtype": "float32", "activation": "relu"}, "inbound_nodes": [[["batch_normalization_95", 0, 0, {}]]]}, {"name": "zero_padding2d_33", "class_name": "ZeroPadding2D", "config": {"name": "zero_padding2d_33", "trainable": true, "dtype": "float32", "padding": [[1, 1], [1, 1]], "data_format": "channels_last"}, "inbound_nodes": [[["activation_152", 0, 0, {}]]]}, {"name": "conv2d_156", "class_name": "Conv2D", "config": {"name": "conv2d_156", "trainable": true, "dtype": "float32", "filters": 512, "kernel_size": [3, 3], "strides": [1, 1], "padding": "valid", "data_format": "channels_last", "dilation_rate": [1, 1], "activation": "linear", "use_bias": false, "kernel_initializer": {"class_name": "VarianceScaling", "config": {"scale": 2.0, "mode": "fan_in", "distribution": "uniform", "seed": null}}, "bias_initializer": {"class_name": "Zeros", "config": {}}, "kernel_regularizer": null, "bias_regularizer": null, "activity_regularizer": null, "kernel_constraint": null, "bias_constraint": null}, "inbound_nodes": [[["zero_padding2d_33", 0, 0, {}]]]}, {"name": "batch_normalization_96", "class_name": "BatchNormalization", "config": {"name": "batch_normalization_96", "trainable": true, "dtype": "float32", "axis": 3, "momentum": 0.99, "epsilon": 9.999999747378752e-06, "center": true, "scale": true, "beta_initializer": {"class_name": "Zeros", "config": {}}, "gamma_initializer": {"class_name": "Ones", "config": {}}, "moving_mean_initializer": {"class_name": "Zeros", "config": {}}, "moving_variance_initializer": {"class_name": "Ones", "config": {}}, "beta_regularizer": null, "gamma_regularizer": null, "beta_constraint": null, "gamma_constraint": null}, "inbound_nodes": [[["conv2d_156", 0, 0, {}]]]}, {"name": "activation_153", "class_name": "Activation", "config": {"name": "activation_153", "trainable": true, "dtype": "float32", "activation": "relu"}, "inbound_nodes": [[["batch_normalization_96", 0, 0, {}]]]}, {"name": "conv2d_157", "class_name": "Conv2D", "config": {"name": "conv2d_157", "trainable": true, "dtype": "float32", "filters": 2048, "kernel_size": [1, 1], "strides": [1, 1], "padding": "valid", "data_format": "channels_last", "dilation_rate": [1, 1], "activation": "linear", "use_bias": false, "kernel_initializer": {"class_name": "VarianceScaling", "config": {"scale": 2.0, "mode": "fan_in", "distribution": "uniform", "seed": null}}, "bias_initializer": {"class_name": "Zeros", "config": {}}, "kernel_regularizer": null, "bias_regularizer": null, "activity_regularizer": null, "kernel_constraint": null, "bias_constraint": null}, "inbound_nodes": [[["activation_153", 0, 0, {}]]]}, {"name": "batch_normalization_97", "class_name": "BatchNormalization", "config": {"name": "batch_normalization_97", "trainable": true, "dtype": "float32", "axis": 3, "momentum": 0.99, "epsilon": 9.999999747378752e-06, "center": true, "scale": true, "beta_initializer": {"class_name": "Zeros", "config": {}}, "gamma_initializer": {"class_name": "Ones", "config": {}}, "moving_mean_initializer": {"class_name": "Zeros", "config": {}}, "moving_variance_initializer": {"class_name": "Ones", "config": {}}, "beta_regularizer": null, "gamma_regularizer": null, "beta_constraint": null, "gamma_constraint": null}, "inbound_nodes": [[["conv2d_157", 0, 0, {}]]]}, {"name": "global_average_pooling2d_31", "class_name": "GlobalAveragePooling2D", "config": {"name": "global_average_pooling2d_31", "trainable": true, "dtype": "float32", "data_format": "channels_last"}, "inbound_nodes": [[["batch_normalization_97", 0, 0, {}]]]}, {"name": "lambda_31", "class_name": "Lambda", "config": {"name": "lambda_31", "trainable": true, "dtype": "float32", "function": ["4wIAAAAAAAAAAgAAAAYAAABDAAAAc1IAAAB8AWQBawJyIHwAZABkAIUCZABkAGQAZACFAmYEGQBT\nAHwBZAJrAnJAfABkAGQAhQJkAGQAhQJkAGQAZgQZAFMAdABkA6ABfAGhAYMBggFkAFMAKQRO6QMA\nAADpAQAAAHonU2xpY2UgYXhpcyBzaG91bGQgYmUgaW4gKDEsIDMpLCBnb3Qge30uKQLaClZhbHVl\nRXJyb3LaBmZvcm1hdCkC2gF42g1jaGFubmVsc19heGlzqQByBwAAAPppL2hvbWUvcm9mYWlkYS9w\neXRob24tZW52cy9lbnYyL2xpYi9weXRob24zLjcvc2l0ZS1wYWNrYWdlcy9jbGFzc2lmaWNhdGlv\nbl9tb2RlbHMvbW9kZWxzL19jb21tb25fYmxvY2tzLnB52gtleHBhbmRfZGltc08AAABzCgAAAAAB\nCAEYAQgBGAI=\n", null, null], "function_type": "lambda", "output_shape": null, "output_shape_type": "raw", "arguments": {"channels_axis": 3}}, "inbound_nodes": [[["global_average_pooling2d_31", 0, 0, {}]]]}, {"name": "conv2d_159", "class_name": "Conv2D", "config": {"name": "conv2d_159", "trainable": true, "dtype": "float32", "filters": 128, "kernel_size": [1, 1], "strides": [1, 1], "padding": "valid", "data_format": "channels_last", "dilation_rate": [1, 1], "activation": "linear", "use_bias": true, "kernel_initializer": {"class_name": "VarianceScaling", "config": {"scale": 2.0, "mode": "fan_in", "distribution": "uniform", "seed": null}}, "bias_initializer": {"class_name": "Zeros", "config": {}}, "kernel_regularizer": null, "bias_regularizer": null, "activity_regularizer": null, "kernel_constraint": null, "bias_constraint": null}, "inbound_nodes": [[["lambda_31", 0, 0, {}]]]}, {"name": "activation_154", "class_name": "Activation", "config": {"name": "activation_154", "trainable": true, "dtype": "float32", "activation": "relu"}, "inbound_nodes": [[["conv2d_159", 0, 0, {}]]]}, {"name": "conv2d_160", "class_name": "Conv2D", "config": {"name": "conv2d_160", "trainable": true, "dtype": "float32", "filters": 2048, "kernel_size": [1, 1], "strides": [1, 1], "padding": "valid", "data_format": "channels_last", "dilation_rate": [1, 1], "activation": "linear", "use_bias": true, "kernel_initializer": {"class_name": "VarianceScaling", "config": {"scale": 2.0, "mode": "fan_in", "distribution": "uniform", "seed": null}}, "bias_initializer": {"class_name": "Zeros", "config": {}}, "kernel_regularizer": null, "bias_regularizer": null, "activity_regularizer": null, "kernel_constraint": null, "bias_constraint": null}, "inbound_nodes": [[["activation_154", 0, 0, {}]]]}, {"name": "activation_155", "class_name": "Activation", "config": {"name": "activation_155", "trainable": true, "dtype": "float32", "activation": "sigmoid"}, "inbound_nodes": [[["conv2d_160", 0, 0, {}]]]}, {"name": "conv2d_158", "class_name": "Conv2D", "config": {"name": "conv2d_158", "trainable": true, "dtype": "float32", "filters": 2048, "kernel_size": [1, 1], "strides": [2, 2], "padding": "valid", "data_format": "channels_last", "dilation_rate": [1, 1], "activation": "linear", "use_bias": false, "kernel_initializer": {"class_name": "VarianceScaling", "config": {"scale": 2.0, "mode": "fan_in", "distribution": "uniform", "seed": null}}, "bias_initializer": {"class_name": "Zeros", "config": {}}, "kernel_regularizer": null, "bias_regularizer": null, "activity_regularizer": null, "kernel_constraint": null, "bias_constraint": null}, "inbound_nodes": [[["activation_151", 0, 0, {}]]]}, {"name": "multiply_31", "class_name": "Multiply", "config": {"name": "multiply_31", "trainable": true, "dtype": "float32"}, "inbound_nodes": [[["batch_normalization_97", 0, 0, {}], ["activation_155", 0, 0, {}]]]}, {"name": "batch_normalization_98", "class_name": "BatchNormalization", "config": {"name": "batch_normalization_98", "trainable": true, "dtype": "float32", "axis": 3, "momentum": 0.99, "epsilon": 9.999999747378752e-06, "center": true, "scale": true, "beta_initializer": {"class_name": "Zeros", "config": {}}, "gamma_initializer": {"class_name": "Ones", "config": {}}, "moving_mean_initializer": {"class_name": "Zeros", "config": {}}, "moving_variance_initializer": {"class_name": "Ones", "config": {}}, "beta_regularizer": null, "gamma_regularizer": null, "beta_constraint": null, "gamma_constraint": null}, "inbound_nodes": [[["conv2d_158", 0, 0, {}]]]}, {"name": "add_31", "class_name": "Add", "config": {"name": "add_31", "trainable": true, "dtype": "float32"}, "inbound_nodes": [[["multiply_31", 0, 0, {}], ["batch_normalization_98", 0, 0, {}]]]}, {"name": "activation_156", "class_name": "Activation", "config": {"name": "activation_156", "trainable": true, "dtype": "float32", "activation": "relu"}, "inbound_nodes": [[["add_31", 0, 0, {}]]]}, {"name": "conv2d_161", "class_name": "Conv2D", "config": {"name": "conv2d_161", "trainable": true, "dtype": "float32", "filters": 512, "kernel_size": [1, 1], "strides": [1, 1], "padding": "valid", "data_format": "channels_last", "dilation_rate": [1, 1], "activation": "linear", "use_bias": false, "kernel_initializer": {"class_name": "VarianceScaling", "config": {"scale": 2.0, "mode": "fan_in", "distribution": "uniform", "seed": null}}, "bias_initializer": {"class_name": "Zeros", "config": {}}, "kernel_regularizer": null, "bias_regularizer": null, "activity_regularizer": null, "kernel_constraint": null, "bias_constraint": null}, "inbound_nodes": [[["activation_156", 0, 0, {}]]]}, {"name": "batch_normalization_99", "class_name": "BatchNormalization", "config": {"name": "batch_normalization_99", "trainable": true, "dtype": "float32", "axis": 3, "momentum": 0.99, "epsilon": 9.999999747378752e-06, "center": true, "scale": true, "beta_initializer": {"class_name": "Zeros", "config": {}}, "gamma_initializer": {"class_name": "Ones", "config": {}}, "moving_mean_initializer": {"class_name": "Zeros", "config": {}}, "moving_variance_initializer": {"class_name": "Ones", "config": {}}, "beta_regularizer": null, "gamma_regularizer": null, "beta_constraint": null, "gamma_constraint": null}, "inbound_nodes": [[["conv2d_161", 0, 0, {}]]]}, {"name": "activation_157", "class_name": "Activation", "config": {"name": "activation_157", "trainable": true, "dtype": "float32", "activation": "relu"}, "inbound_nodes": [[["batch_normalization_99", 0, 0, {}]]]}, {"name": "zero_padding2d_34", "class_name": "ZeroPadding2D", "config": {"name": "zero_padding2d_34", "trainable": true, "dtype": "float32", "padding": [[1, 1], [1, 1]], "data_format": "channels_last"}, "inbound_nodes": [[["activation_157", 0, 0, {}]]]}, {"name": "conv2d_162", "class_name": "Conv2D", "config": {"name": "conv2d_162", "trainable": true, "dtype": "float32", "filters": 512, "kernel_size": [3, 3], "strides": [1, 1], "padding": "valid", "data_format": "channels_last", "dilation_rate": [1, 1], "activation": "linear", "use_bias": false, "kernel_initializer": {"class_name": "VarianceScaling", "config": {"scale": 2.0, "mode": "fan_in", "distribution": "uniform", "seed": null}}, "bias_initializer": {"class_name": "Zeros", "config": {}}, "kernel_regularizer": null, "bias_regularizer": null, "activity_regularizer": null, "kernel_constraint": null, "bias_constraint": null}, "inbound_nodes": [[["zero_padding2d_34", 0, 0, {}]]]}, {"name": "batch_normalization_100", "class_name": "BatchNormalization", "config": {"name": "batch_normalization_100", "trainable": true, "dtype": "float32", "axis": 3, "momentum": 0.99, "epsilon": 9.999999747378752e-06, "center": true, "scale": true, "beta_initializer": {"class_name": "Zeros", "config": {}}, "gamma_initializer": {"class_name": "Ones", "config": {}}, "moving_mean_initializer": {"class_name": "Zeros", "config": {}}, "moving_variance_initializer": {"class_name": "Ones", "config": {}}, "beta_regularizer": null, "gamma_regularizer": null, "beta_constraint": null, "gamma_constraint": null}, "inbound_nodes": [[["conv2d_162", 0, 0, {}]]]}, {"name": "activation_158", "class_name": "Activation", "config": {"name": "activation_158", "trainable": true, "dtype": "float32", "activation": "relu"}, "inbound_nodes": [[["batch_normalization_100", 0, 0, {}]]]}, {"name": "conv2d_163", "class_name": "Conv2D", "config": {"name": "conv2d_163", "trainable": true, "dtype": "float32", "filters": 2048, "kernel_size": [1, 1], "strides": [1, 1], "padding": "valid", "data_format": "channels_last", "dilation_rate": [1, 1], "activation": "linear", "use_bias": false, "kernel_initializer": {"class_name": "VarianceScaling", "config": {"scale": 2.0, "mode": "fan_in", "distribution": "uniform", "seed": null}}, "bias_initializer": {"class_name": "Zeros", "config": {}}, "kernel_regularizer": null, "bias_regularizer": null, "activity_regularizer": null, "kernel_constraint": null, "bias_constraint": null}, "inbound_nodes": [[["activation_158", 0, 0, {}]]]}, {"name": "batch_normalization_101", "class_name": "BatchNormalization", "config": {"name": "batch_normalization_101", "trainable": true, "dtype": "float32", "axis": 3, "momentum": 0.99, "epsilon": 9.999999747378752e-06, "center": true, "scale": true, "beta_initializer": {"class_name": "Zeros", "config": {}}, "gamma_initializer": {"class_name": "Ones", "config": {}}, "moving_mean_initializer": {"class_name": "Zeros", "config": {}}, "moving_variance_initializer": {"class_name": "Ones", "config": {}}, "beta_regularizer": null, "gamma_regularizer": null, "beta_constraint": null, "gamma_constraint": null}, "inbound_nodes": [[["conv2d_163", 0, 0, {}]]]}, {"name": "global_average_pooling2d_32", "class_name": "GlobalAveragePooling2D", "config": {"name": "global_average_pooling2d_32", "trainable": true, "dtype": "float32", "data_format": "channels_last"}, "inbound_nodes": [[["batch_normalization_101", 0, 0, {}]]]}, {"name": "lambda_32", "class_name": "Lambda", "config": {"name": "lambda_32", "trainable": true, "dtype": "float32", "function": ["4wIAAAAAAAAAAgAAAAYAAABDAAAAc1IAAAB8AWQBawJyIHwAZABkAIUCZABkAGQAZACFAmYEGQBT\nAHwBZAJrAnJAfABkAGQAhQJkAGQAhQJkAGQAZgQZAFMAdABkA6ABfAGhAYMBggFkAFMAKQRO6QMA\nAADpAQAAAHonU2xpY2UgYXhpcyBzaG91bGQgYmUgaW4gKDEsIDMpLCBnb3Qge30uKQLaClZhbHVl\nRXJyb3LaBmZvcm1hdCkC2gF42g1jaGFubmVsc19heGlzqQByBwAAAPppL2hvbWUvcm9mYWlkYS9w\neXRob24tZW52cy9lbnYyL2xpYi9weXRob24zLjcvc2l0ZS1wYWNrYWdlcy9jbGFzc2lmaWNhdGlv\nbl9tb2RlbHMvbW9kZWxzL19jb21tb25fYmxvY2tzLnB52gtleHBhbmRfZGltc08AAABzCgAAAAAB\nCAEYAQgBGAI=\n", null, null], "function_type": "lambda", "output_shape": null, "output_shape_type": "raw", "arguments": {"channels_axis": 3}}, "inbound_nodes": [[["global_average_pooling2d_32", 0, 0, {}]]]}, {"name": "conv2d_164", "class_name": "Conv2D", "config": {"name": "conv2d_164", "trainable": true, "dtype": "float32", "filters": 128, "kernel_size": [1, 1], "strides": [1, 1], "padding": "valid", "data_format": "channels_last", "dilation_rate": [1, 1], "activation": "linear", "use_bias": true, "kernel_initializer": {"class_name": "VarianceScaling", "config": {"scale": 2.0, "mode": "fan_in", "distribution": "uniform", "seed": null}}, "bias_initializer": {"class_name": "Zeros", "config": {}}, "kernel_regularizer": null, "bias_regularizer": null, "activity_regularizer": null, "kernel_constraint": null, "bias_constraint": null}, "inbound_nodes": [[["lambda_32", 0, 0, {}]]]}, {"name": "activation_159", "class_name": "Activation", "config": {"name": "activation_159", "trainable": true, "dtype": "float32", "activation": "relu"}, "inbound_nodes": [[["conv2d_164", 0, 0, {}]]]}, {"name": "conv2d_165", "class_name": "Conv2D", "config": {"name": "conv2d_165", "trainable": true, "dtype": "float32", "filters": 2048, "kernel_size": [1, 1], "strides": [1, 1], "padding": "valid", "data_format": "channels_last", "dilation_rate": [1, 1], "activation": "linear", "use_bias": true, "kernel_initializer": {"class_name": "VarianceScaling", "config": {"scale": 2.0, "mode": "fan_in", "distribution": "uniform", "seed": null}}, "bias_initializer": {"class_name": "Zeros", "config": {}}, "kernel_regularizer": null, "bias_regularizer": null, "activity_regularizer": null, "kernel_constraint": null, "bias_constraint": null}, "inbound_nodes": [[["activation_159", 0, 0, {}]]]}, {"name": "activation_160", "class_name": "Activation", "config": {"name": "activation_160", "trainable": true, "dtype": "float32", "activation": "sigmoid"}, "inbound_nodes": [[["conv2d_165", 0, 0, {}]]]}, {"name": "multiply_32", "class_name": "Multiply", "config": {"name": "multiply_32", "trainable": true, "dtype": "float32"}, "inbound_nodes": [[["batch_normalization_101", 0, 0, {}], ["activation_160", 0, 0, {}]]]}, {"name": "add_32", "class_name": "Add", "config": {"name": "add_32", "trainable": true, "dtype": "float32"}, "inbound_nodes": [[["multiply_32", 0, 0, {}], ["activation_156", 0, 0, {}]]]}, {"name": "activation_161", "class_name": "Activation", "config": {"name": "activation_161", "trainable": true, "dtype": "float32", "activation": "relu"}, "inbound_nodes": [[["add_32", 0, 0, {}]]]}, {"name": "conv2d_166", "class_name": "Conv2D", "config": {"name": "conv2d_166", "trainable": true, "dtype": "float32", "filters": 512, "kernel_size": [1, 1], "strides": [1, 1], "padding": "valid", "data_format": "channels_last", "dilation_rate": [1, 1], "activation": "linear", "use_bias": false, "kernel_initializer": {"class_name": "VarianceScaling", "config": {"scale": 2.0, "mode": "fan_in", "distribution": "uniform", "seed": null}}, "bias_initializer": {"class_name": "Zeros", "config": {}}, "kernel_regularizer": null, "bias_regularizer": null, "activity_regularizer": null, "kernel_constraint": null, "bias_constraint": null}, "inbound_nodes": [[["activation_161", 0, 0, {}]]]}, {"name": "batch_normalization_102", "class_name": "BatchNormalization", "config": {"name": "batch_normalization_102", "trainable": true, "dtype": "float32", "axis": 3, "momentum": 0.99, "epsilon": 9.999999747378752e-06, "center": true, "scale": true, "beta_initializer": {"class_name": "Zeros", "config": {}}, "gamma_initializer": {"class_name": "Ones", "config": {}}, "moving_mean_initializer": {"class_name": "Zeros", "config": {}}, "moving_variance_initializer": {"class_name": "Ones", "config": {}}, "beta_regularizer": null, "gamma_regularizer": null, "beta_constraint": null, "gamma_constraint": null}, "inbound_nodes": [[["conv2d_166", 0, 0, {}]]]}, {"name": "activation_162", "class_name": "Activation", "config": {"name": "activation_162", "trainable": true, "dtype": "float32", "activation": "relu"}, "inbound_nodes": [[["batch_normalization_102", 0, 0, {}]]]}, {"name": "zero_padding2d_35", "class_name": "ZeroPadding2D", "config": {"name": "zero_padding2d_35", "trainable": true, "dtype": "float32", "padding": [[1, 1], [1, 1]], "data_format": "channels_last"}, "inbound_nodes": [[["activation_162", 0, 0, {}]]]}, {"name": "conv2d_167", "class_name": "Conv2D", "config": {"name": "conv2d_167", "trainable": true, "dtype": "float32", "filters": 512, "kernel_size": [3, 3], "strides": [1, 1], "padding": "valid", "data_format": "channels_last", "dilation_rate": [1, 1], "activation": "linear", "use_bias": false, "kernel_initializer": {"class_name": "VarianceScaling", "config": {"scale": 2.0, "mode": "fan_in", "distribution": "uniform", "seed": null}}, "bias_initializer": {"class_name": "Zeros", "config": {}}, "kernel_regularizer": null, "bias_regularizer": null, "activity_regularizer": null, "kernel_constraint": null, "bias_constraint": null}, "inbound_nodes": [[["zero_padding2d_35", 0, 0, {}]]]}, {"name": "batch_normalization_103", "class_name": "BatchNormalization", "config": {"name": "batch_normalization_103", "trainable": true, "dtype": "float32", "axis": 3, "momentum": 0.99, "epsilon": 9.999999747378752e-06, "center": true, "scale": true, "beta_initializer": {"class_name": "Zeros", "config": {}}, "gamma_initializer": {"class_name": "Ones", "config": {}}, "moving_mean_initializer": {"class_name": "Zeros", "config": {}}, "moving_variance_initializer": {"class_name": "Ones", "config": {}}, "beta_regularizer": null, "gamma_regularizer": null, "beta_constraint": null, "gamma_constraint": null}, "inbound_nodes": [[["conv2d_167", 0, 0, {}]]]}, {"name": "activation_163", "class_name": "Activation", "config": {"name": "activation_163", "trainable": true, "dtype": "float32", "activation": "relu"}, "inbound_nodes": [[["batch_normalization_103", 0, 0, {}]]]}, {"name": "conv2d_168", "class_name": "Conv2D", "config": {"name": "conv2d_168", "trainable": true, "dtype": "float32", "filters": 2048, "kernel_size": [1, 1], "strides": [1, 1], "padding": "valid", "data_format": "channels_last", "dilation_rate": [1, 1], "activation": "linear", "use_bias": false, "kernel_initializer": {"class_name": "VarianceScaling", "config": {"scale": 2.0, "mode": "fan_in", "distribution": "uniform", "seed": null}}, "bias_initializer": {"class_name": "Zeros", "config": {}}, "kernel_regularizer": null, "bias_regularizer": null, "activity_regularizer": null, "kernel_constraint": null, "bias_constraint": null}, "inbound_nodes": [[["activation_163", 0, 0, {}]]]}, {"name": "batch_normalization_104", "class_name": "BatchNormalization", "config": {"name": "batch_normalization_104", "trainable": true, "dtype": "float32", "axis": 3, "momentum": 0.99, "epsilon": 9.999999747378752e-06, "center": true, "scale": true, "beta_initializer": {"class_name": "Zeros", "config": {}}, "gamma_initializer": {"class_name": "Ones", "config": {}}, "moving_mean_initializer": {"class_name": "Zeros", "config": {}}, "moving_variance_initializer": {"class_name": "Ones", "config": {}}, "beta_regularizer": null, "gamma_regularizer": null, "beta_constraint": null, "gamma_constraint": null}, "inbound_nodes": [[["conv2d_168", 0, 0, {}]]]}, {"name": "global_average_pooling2d_33", "class_name": "GlobalAveragePooling2D", "config": {"name": "global_average_pooling2d_33", "trainable": true, "dtype": "float32", "data_format": "channels_last"}, "inbound_nodes": [[["batch_normalization_104", 0, 0, {}]]]}, {"name": "lambda_33", "class_name": "Lambda", "config": {"name": "lambda_33", "trainable": true, "dtype": "float32", "function": ["4wIAAAAAAAAAAgAAAAYAAABDAAAAc1IAAAB8AWQBawJyIHwAZABkAIUCZABkAGQAZACFAmYEGQBT\nAHwBZAJrAnJAfABkAGQAhQJkAGQAhQJkAGQAZgQZAFMAdABkA6ABfAGhAYMBggFkAFMAKQRO6QMA\nAADpAQAAAHonU2xpY2UgYXhpcyBzaG91bGQgYmUgaW4gKDEsIDMpLCBnb3Qge30uKQLaClZhbHVl\nRXJyb3LaBmZvcm1hdCkC2gF42g1jaGFubmVsc19heGlzqQByBwAAAPppL2hvbWUvcm9mYWlkYS9w\neXRob24tZW52cy9lbnYyL2xpYi9weXRob24zLjcvc2l0ZS1wYWNrYWdlcy9jbGFzc2lmaWNhdGlv\nbl9tb2RlbHMvbW9kZWxzL19jb21tb25fYmxvY2tzLnB52gtleHBhbmRfZGltc08AAABzCgAAAAAB\nCAEYAQgBGAI=\n", null, null], "function_type": "lambda", "output_shape": null, "output_shape_type": "raw", "arguments": {"channels_axis": 3}}, "inbound_nodes": [[["global_average_pooling2d_33", 0, 0, {}]]]}, {"name": "conv2d_169", "class_name": "Conv2D", "config": {"name": "conv2d_169", "trainable": true, "dtype": "float32", "filters": 128, "kernel_size": [1, 1], "strides": [1, 1], "padding": "valid", "data_format": "channels_last", "dilation_rate": [1, 1], "activation": "linear", "use_bias": true, "kernel_initializer": {"class_name": "VarianceScaling", "config": {"scale": 2.0, "mode": "fan_in", "distribution": "uniform", "seed": null}}, "bias_initializer": {"class_name": "Zeros", "config": {}}, "kernel_regularizer": null, "bias_regularizer": null, "activity_regularizer": null, "kernel_constraint": null, "bias_constraint": null}, "inbound_nodes": [[["lambda_33", 0, 0, {}]]]}, {"name": "activation_164", "class_name": "Activation", "config": {"name": "activation_164", "trainable": true, "dtype": "float32", "activation": "relu"}, "inbound_nodes": [[["conv2d_169", 0, 0, {}]]]}, {"name": "conv2d_170", "class_name": "Conv2D", "config": {"name": "conv2d_170", "trainable": true, "dtype": "float32", "filters": 2048, "kernel_size": [1, 1], "strides": [1, 1], "padding": "valid", "data_format": "channels_last", "dilation_rate": [1, 1], "activation": "linear", "use_bias": true, "kernel_initializer": {"class_name": "VarianceScaling", "config": {"scale": 2.0, "mode": "fan_in", "distribution": "uniform", "seed": null}}, "bias_initializer": {"class_name": "Zeros", "config": {}}, "kernel_regularizer": null, "bias_regularizer": null, "activity_regularizer": null, "kernel_constraint": null, "bias_constraint": null}, "inbound_nodes": [[["activation_164", 0, 0, {}]]]}, {"name": "activation_165", "class_name": "Activation", "config": {"name": "activation_165", "trainable": true, "dtype": "float32", "activation": "sigmoid"}, "inbound_nodes": [[["conv2d_170", 0, 0, {}]]]}, {"name": "multiply_33", "class_name": "Multiply", "config": {"name": "multiply_33", "trainable": true, "dtype": "float32"}, "inbound_nodes": [[["batch_normalization_104", 0, 0, {}], ["activation_165", 0, 0, {}]]]}, {"name": "add_33", "class_name": "Add", "config": {"name": "add_33", "trainable": true, "dtype": "float32"}, "inbound_nodes": [[["multiply_33", 0, 0, {}], ["activation_161", 0, 0, {}]]]}, {"name": "activation_166", "class_name": "Activation", "config": {"name": "activation_166", "trainable": true, "dtype": "float32", "activation": "relu"}, "inbound_nodes": [[["add_33", 0, 0, {}]]]}, {"name": "global_average_pooling2d_34", "class_name": "GlobalAveragePooling2D", "config": {"name": "global_average_pooling2d_34", "trainable": true, "dtype": "float32", "data_format": "channels_last"}, "inbound_nodes": [[["activation_166", 0, 0, {}]]]}, {"name": "dense_1", "class_name": "Dense", "config": {"name": "dense_1", "trainable": true, "dtype": "float32", "units": 1000, "activation": "linear", "use_bias": true, "kernel_initializer": {"class_name": "VarianceScaling", "config": {"scale": 1.0, "mode": "fan_avg", "distribution": "uniform", "seed": null}}, "bias_initializer": {"class_name": "Zeros", "config": {}}, "kernel_regularizer": null, "bias_regularizer": null, "activity_regularizer": null, "kernel_constraint": null, "bias_constraint": null}, "inbound_nodes": [[["global_average_pooling2d_34", 0, 0, {}]]]}, {"name": "output", "class_name": "Activation", "config": {"name": "output", "trainable": true, "dtype": "float32", "activation": "softmax"}, "inbound_nodes": [[["dense_1", 0, 0, {}]]]}], "input_layers": [["input_1", 0, 0]], "output_layers": [["output", 0, 0]]}, "keras_version": "2.3.1", "backend": "tensorflow"}