{"class_name": "Model", "config": {"name": "ShuffleNetV2_1.0_1_373", "layers": [{"name": "input_1", "class_name": "InputLayer", "config": {"batch_input_shape": [null, 240, 240, 3], "dtype": "float32", "sparse": false, "name": "input_1"}, "inbound_nodes": []}, {"name": "conv1", "class_name": "Conv2D", "config": {"name": "conv1", "trainable": true, "dtype": "float32", "filters": 24, "kernel_size": [3, 3], "strides": [2, 2], "padding": "same", "data_format": "channels_last", "dilation_rate": [1, 1], "activation": "relu", "use_bias": false, "kernel_initializer": {"class_name": "VarianceScaling", "config": {"scale": 1.0, "mode": "fan_avg", "distribution": "uniform", "seed": null}}, "bias_initializer": {"class_name": "Zeros", "config": {}}, "kernel_regularizer": null, "bias_regularizer": null, "activity_regularizer": null, "kernel_constraint": null, "bias_constraint": null}, "inbound_nodes": [[["input_1", 0, 0, {}]]]}, {"name": "maxpool1", "class_name": "MaxPooling2D", "config": {"name": "maxpool1", "trainable": true, "dtype": "float32", "pool_size": [3, 3], "padding": "same", "strides": [2, 2], "data_format": "channels_last"}, "inbound_nodes": [[["conv1", 0, 0, {}]]]}, {"name": "stage2/block1/1x1conv_1", "class_name": "Conv2D", "config": {"name": "stage2/block1/1x1conv_1", "trainable": true, "dtype": "float32", "filters": 116, "kernel_size": [1, 1], "strides": [1, 1], "padding": "same", "data_format": "channels_last", "dilation_rate": [1, 1], "activation": "linear", "use_bias": true, "kernel_initializer": {"class_name": "VarianceScaling", "config": {"scale": 1.0, "mode": "fan_avg", "distribution": "uniform", "seed": null}}, "bias_initializer": {"class_name": "Zeros", "config": {}}, "kernel_regularizer": null, "bias_regularizer": null, "activity_regularizer": null, "kernel_constraint": null, "bias_constraint": null}, "inbound_nodes": [[["maxpool1", 0, 0, {}]]]}, {"name": "stage2/block1/bn_1x1conv_1", "class_name": "BatchNormalization", "config": {"name": "stage2/block1/bn_1x1conv_1", "trainable": true, "dtype": "float32", "axis": -1, "momentum": 0.99, "epsilon": 0.001, "center": true, "scale": true, "beta_initializer": {"class_name": "Zeros", "config": {}}, "gamma_initializer": {"class_name": "Ones", "config": {}}, "moving_mean_initializer": {"class_name": "Zeros", "config": {}}, "moving_variance_initializer": {"class_name": "Ones", "config": {}}, "beta_regularizer": null, "gamma_regularizer": null, "beta_constraint": null, "gamma_constraint": null}, "inbound_nodes": [[["stage2/block1/1x1conv_1", 0, 0, {}]]]}, {"name": "stage2/block1/relu_1x1conv_1", "class_name": "Activation", "config": {"name": "stage2/block1/relu_1x1conv_1", "trainable": true, "dtype": "float32", "activation": "relu"}, "inbound_nodes": [[["stage2/block1/bn_1x1conv_1", 0, 0, {}]]]}, {"name": "stage2/block1/3x3dwconv", "class_name": "DepthwiseConv2D", "config": {"name": "stage2/block1/3x3dwconv", "trainable": true, "dtype": "float32", "kernel_size": [3, 3], "strides": [2, 2], "padding": "same", "data_format": "channels_last", "dilation_rate": [1, 1], "activation": "linear", "use_bias": true, "bias_initializer": {"class_name": "Zeros", "config": {}}, "bias_regularizer": null, "activity_regularizer": null, "bias_constraint": null, "depth_multiplier": 1, "depthwise_initializer": {"class_name": "VarianceScaling", "config": {"scale": 1.0, "mode": "fan_avg", "distribution": "uniform", "seed": null}}, "depthwise_regularizer": null, "depthwise_constraint": null}, "inbound_nodes": [[["stage2/block1/relu_1x1conv_1", 0, 0, {}]]]}, {"name": "stage2/block1/3x3dwconv_2", "class_name": "DepthwiseConv2D", "config": {"name": "stage2/block1/3x3dwconv_2", "trainable": true, "dtype": "float32", "kernel_size": [3, 3], "strides": [2, 2], "padding": "same", "data_format": "channels_last", "dilation_rate": [1, 1], "activation": "linear", "use_bias": true, "bias_initializer": {"class_name": "Zeros", "config": {}}, "bias_regularizer": null, "activity_regularizer": null, "bias_constraint": null, "depth_multiplier": 1, "depthwise_initializer": {"class_name": "VarianceScaling", "config": {"scale": 1.0, "mode": "fan_avg", "distribution": "uniform", "seed": null}}, "depthwise_regularizer": null, "depthwise_constraint": null}, "inbound_nodes": [[["maxpool1", 0, 0, {}]]]}, {"name": "stage2/block1/bn_3x3dwconv", "class_name": "BatchNormalization", "config": {"name": "stage2/block1/bn_3x3dwconv", "trainable": true, "dtype": "float32", "axis": -1, "momentum": 0.99, "epsilon": 0.001, "center": true, "scale": true, "beta_initializer": {"class_name": "Zeros", "config": {}}, "gamma_initializer": {"class_name": "Ones", "config": {}}, "moving_mean_initializer": {"class_name": "Zeros", "config": {}}, "moving_variance_initializer": {"class_name": "Ones", "config": {}}, "beta_regularizer": null, "gamma_regularizer": null, "beta_constraint": null, "gamma_constraint": null}, "inbound_nodes": [[["stage2/block1/3x3dwconv", 0, 0, {}]]]}, {"name": "stage2/block1/bn_3x3dwconv_2", "class_name": "BatchNormalization", "config": {"name": "stage2/block1/bn_3x3dwconv_2", "trainable": true, "dtype": "float32", "axis": -1, "momentum": 0.99, "epsilon": 0.001, "center": true, "scale": true, "beta_initializer": {"class_name": "Zeros", "config": {}}, "gamma_initializer": {"class_name": "Ones", "config": {}}, "moving_mean_initializer": {"class_name": "Zeros", "config": {}}, "moving_variance_initializer": {"class_name": "Ones", "config": {}}, "beta_regularizer": null, "gamma_regularizer": null, "beta_constraint": null, "gamma_constraint": null}, "inbound_nodes": [[["stage2/block1/3x3dwconv_2", 0, 0, {}]]]}, {"name": "stage2/block1/1x1conv_2", "class_name": "Conv2D", "config": {"name": "stage2/block1/1x1conv_2", "trainable": true, "dtype": "float32", "filters": 116, "kernel_size": [1, 1], "strides": [1, 1], "padding": "same", "data_format": "channels_last", "dilation_rate": [1, 1], "activation": "linear", "use_bias": true, "kernel_initializer": {"class_name": "VarianceScaling", "config": {"scale": 1.0, "mode": "fan_avg", "distribution": "uniform", "seed": null}}, "bias_initializer": {"class_name": "Zeros", "config": {}}, "kernel_regularizer": null, "bias_regularizer": null, "activity_regularizer": null, "kernel_constraint": null, "bias_constraint": null}, "inbound_nodes": [[["stage2/block1/bn_3x3dwconv", 0, 0, {}]]]}, {"name": "stage2/block1/1x1_conv_3", "class_name": "Conv2D", "config": {"name": "stage2/block1/1x1_conv_3", "trainable": true, "dtype": "float32", "filters": 116, "kernel_size": [1, 1], "strides": [1, 1], "padding": "same", "data_format": "channels_last", "dilation_rate": [1, 1], "activation": "linear", "use_bias": true, "kernel_initializer": {"class_name": "VarianceScaling", "config": {"scale": 1.0, "mode": "fan_avg", "distribution": "uniform", "seed": null}}, "bias_initializer": {"class_name": "Zeros", "config": {}}, "kernel_regularizer": null, "bias_regularizer": null, "activity_regularizer": null, "kernel_constraint": null, "bias_constraint": null}, "inbound_nodes": [[["stage2/block1/bn_3x3dwconv_2", 0, 0, {}]]]}, {"name": "stage2/block1/bn_1x1conv_2", "class_name": "BatchNormalization", "config": {"name": "stage2/block1/bn_1x1conv_2", "trainable": true, "dtype": "float32", "axis": -1, "momentum": 0.99, "epsilon": 0.001, "center": true, "scale": true, "beta_initializer": {"class_name": "Zeros", "config": {}}, "gamma_initializer": {"class_name": "Ones", "config": {}}, "moving_mean_initializer": {"class_name": "Zeros", "config": {}}, "moving_variance_initializer": {"class_name": "Ones", "config": {}}, "beta_regularizer": null, "gamma_regularizer": null, "beta_constraint": null, "gamma_constraint": null}, "inbound_nodes": [[["stage2/block1/1x1conv_2", 0, 0, {}]]]}, {"name": "stage2/block1/bn_1x1conv_3", "class_name": "BatchNormalization", "config": {"name": "stage2/block1/bn_1x1conv_3", "trainable": true, "dtype": "float32", "axis": -1, "momentum": 0.99, "epsilon": 0.001, "center": true, "scale": true, "beta_initializer": {"class_name": "Zeros", "config": {}}, "gamma_initializer": {"class_name": "Ones", "config": {}}, "moving_mean_initializer": {"class_name": "Zeros", "config": {}}, "moving_variance_initializer": {"class_name": "Ones", "config": {}}, "beta_regularizer": null, "gamma_regularizer": null, "beta_constraint": null, "gamma_constraint": null}, "inbound_nodes": [[["stage2/block1/1x1_conv_3", 0, 0, {}]]]}, {"name": "stage2/block1/relu_1x1conv_2", "class_name": "Activation", "config": {"name": "stage2/block1/relu_1x1conv_2", "trainable": true, "dtype": "float32", "activation": "relu"}, "inbound_nodes": [[["stage2/block1/bn_1x1conv_2", 0, 0, {}]]]}, {"name": "stage2/block1/relu_1x1conv_3", "class_name": "Activation", "config": {"name": "stage2/block1/relu_1x1conv_3", "trainable": true, "dtype": "float32", "activation": "relu"}, "inbound_nodes": [[["stage2/block1/bn_1x1conv_3", 0, 0, {}]]]}, {"name": "stage2/block1/concat_2", "class_name": "Concatenate", "config": {"name": "stage2/block1/concat_2", "trainable": true, "dtype": "float32", "axis": -1}, "inbound_nodes": [[["stage2/block1/relu_1x1conv_2", 0, 0, {}], ["stage2/block1/relu_1x1conv_3", 0, 0, {}]]]}, {"name": "stage2/block1/channel_shuffle", "class_name": "Lambda", "config": {"name": "stage2/block1/channel_shuffle", "trainable": true, "dtype": "float32", "function": ["4wEAAAAAAAAABQAAAAgAAABDAAAAc1oAAAB8AGoAoAGhAGQBZACFAhkAXAN9AX0CfQN8A2QCGgB9\nBHQCoAN8AGQDfAF8AmQCfARnBaECfQB0AqAEfABkBKECfQB0AqADfABkA3wBfAJ8A2cEoQJ9AHwA\nUwApBU7pAQAAAOkCAAAA6f////8pBekAAAAAcgEAAAByAgAAAOkEAAAA6QMAAAApBdoFc2hhcGXa\nB2FzX2xpc3TaAUvaB3Jlc2hhcGXaEnBlcm11dGVfZGltZW5zaW9ucykF2gF42gZoZWlnaHTaBXdp\nZHRo2ghjaGFubmVsc1oSY2hhbm5lbHNfcGVyX3NwbGl0qQByEAAAAPo9L2hvbWUvcm9mYWlkYS9w\neXRob24tZW52cy9lbnYyL25ldy1Nb2RlbHMvdXRpbHNfc2h1ZmZsZW5ldC5wedoPY2hhbm5lbF9z\naHVmZmxlGgAAAHMMAAAAAAEYAQgBFgEMARQB\n", null, null], "function_type": "lambda", "output_shape": null, "output_shape_type": "raw", "arguments": {}}, "inbound_nodes": [[["stage2/block1/concat_2", 0, 0, {}]]]}, {"name": "stage2/block2/spl/sp1_slice", "class_name": "Lambda", "config": {"name": "stage2/block2/spl/sp1_slice", "trainable": true, "dtype": "float32", "function": ["4wEAAAAAAAAAAQAAAAYAAAATAAAAcyAAAAB8AGQAZACFAmQAZACFAmQAZACFAogAZACFAmYEGQBT\nACkBTqkAKQHaAXopAdoCaXByAQAAAPo9L2hvbWUvcm9mYWlkYS9weXRob24tZW52cy9lbnYyL25l\ndy1Nb2RlbHMvdXRpbHNfc2h1ZmZsZW5ldC5wedoIPGxhbWJkYT4XAAAA8wAAAAA=\n", null, [116]], "function_type": "lambda", "output_shape": null, "output_shape_type": "raw", "arguments": {}}, "inbound_nodes": [[["stage2/block1/channel_shuffle", 0, 0, {}]]]}, {"name": "stage2/block2/1x1conv_1", "class_name": "Conv2D", "config": {"name": "stage2/block2/1x1conv_1", "trainable": true, "dtype": "float32", "filters": 116, "kernel_size": [1, 1], "strides": [1, 1], "padding": "same", "data_format": "channels_last", "dilation_rate": [1, 1], "activation": "linear", "use_bias": true, "kernel_initializer": {"class_name": "VarianceScaling", "config": {"scale": 1.0, "mode": "fan_avg", "distribution": "uniform", "seed": null}}, "bias_initializer": {"class_name": "Zeros", "config": {}}, "kernel_regularizer": null, "bias_regularizer": null, "activity_regularizer": null, "kernel_constraint": null, "bias_constraint": null}, "inbound_nodes": [[["stage2/block2/spl/sp1_slice", 0, 0, {}]]]}, {"name": "stage2/block2/bn_1x1conv_1", "class_name": "BatchNormalization", "config": {"name": "stage2/block2/bn_1x1conv_1", "trainable": true, "dtype": "float32", "axis": -1, "momentum": 0.99, "epsilon": 0.001, "center": true, "scale": true, "beta_initializer": {"class_name": "Zeros", "config": {}}, "gamma_initializer": {"class_name": "Ones", "config": {}}, "moving_mean_initializer": {"class_name": "Zeros", "config": {}}, "moving_variance_initializer": {"class_name": "Ones", "config": {}}, "beta_regularizer": null, "gamma_regularizer": null, "beta_constraint": null, "gamma_constraint": null}, "inbound_nodes": [[["stage2/block2/1x1conv_1", 0, 0, {}]]]}, {"name": "stage2/block2/relu_1x1conv_1", "class_name": "Activation", "config": {"name": "stage2/block2/relu_1x1conv_1", "trainable": true, "dtype": "float32", "activation": "relu"}, "inbound_nodes": [[["stage2/block2/bn_1x1conv_1", 0, 0, {}]]]}, {"name": "stage2/block2/3x3dwconv", "class_name": "DepthwiseConv2D", "config": {"name": "stage2/block2/3x3dwconv", "trainable": true, "dtype": "float32", "kernel_size": [3, 3], "strides": [1, 1], "padding": "same", "data_format": "channels_last", "dilation_rate": [1, 1], "activation": "linear", "use_bias": true, "bias_initializer": {"class_name": "Zeros", "config": {}}, "bias_regularizer": null, "activity_regularizer": null, "bias_constraint": null, "depth_multiplier": 1, "depthwise_initializer": {"class_name": "VarianceScaling", "config": {"scale": 1.0, "mode": "fan_avg", "distribution": "uniform", "seed": null}}, "depthwise_regularizer": null, "depthwise_constraint": null}, "inbound_nodes": [[["stage2/block2/relu_1x1conv_1", 0, 0, {}]]]}, {"name": "stage2/block2/bn_3x3dwconv", "class_name": "BatchNormalization", "config": {"name": "stage2/block2/bn_3x3dwconv", "trainable": true, "dtype": "float32", "axis": -1, "momentum": 0.99, "epsilon": 0.001, "center": true, "scale": true, "beta_initializer": {"class_name": "Zeros", "config": {}}, "gamma_initializer": {"class_name": "Ones", "config": {}}, "moving_mean_initializer": {"class_name": "Zeros", "config": {}}, "moving_variance_initializer": {"class_name": "Ones", "config": {}}, "beta_regularizer": null, "gamma_regularizer": null, "beta_constraint": null, "gamma_constraint": null}, "inbound_nodes": [[["stage2/block2/3x3dwconv", 0, 0, {}]]]}, {"name": "stage2/block2/1x1conv_2", "class_name": "Conv2D", "config": {"name": "stage2/block2/1x1conv_2", "trainable": true, "dtype": "float32", "filters": 116, "kernel_size": [1, 1], "strides": [1, 1], "padding": "same", "data_format": "channels_last", "dilation_rate": [1, 1], "activation": "linear", "use_bias": true, "kernel_initializer": {"class_name": "VarianceScaling", "config": {"scale": 1.0, "mode": "fan_avg", "distribution": "uniform", "seed": null}}, "bias_initializer": {"class_name": "Zeros", "config": {}}, "kernel_regularizer": null, "bias_regularizer": null, "activity_regularizer": null, "kernel_constraint": null, "bias_constraint": null}, "inbound_nodes": [[["stage2/block2/bn_3x3dwconv", 0, 0, {}]]]}, {"name": "stage2/block2/bn_1x1conv_2", "class_name": "BatchNormalization", "config": {"name": "stage2/block2/bn_1x1conv_2", "trainable": true, "dtype": "float32", "axis": -1, "momentum": 0.99, "epsilon": 0.001, "center": true, "scale": true, "beta_initializer": {"class_name": "Zeros", "config": {}}, "gamma_initializer": {"class_name": "Ones", "config": {}}, "moving_mean_initializer": {"class_name": "Zeros", "config": {}}, "moving_variance_initializer": {"class_name": "Ones", "config": {}}, "beta_regularizer": null, "gamma_regularizer": null, "beta_constraint": null, "gamma_constraint": null}, "inbound_nodes": [[["stage2/block2/1x1conv_2", 0, 0, {}]]]}, {"name": "stage2/block2/relu_1x1conv_2", "class_name": "Activation", "config": {"name": "stage2/block2/relu_1x1conv_2", "trainable": true, "dtype": "float32", "activation": "relu"}, "inbound_nodes": [[["stage2/block2/bn_1x1conv_2", 0, 0, {}]]]}, {"name": "stage2/block2/spl/sp0_slice", "class_name": "Lambda", "config": {"name": "stage2/block2/spl/sp0_slice", "trainable": true, "dtype": "float32", "function": ["4wEAAAAAAAAAAQAAAAYAAAATAAAAcyAAAAB8AGQAZACFAmQAZACFAmQAZACFAmQBiACFAmYEGQBT\nACkCTukAAAAAqQApAdoBeikB2gJpcHICAAAA+j0vaG9tZS9yb2ZhaWRhL3B5dGhvbi1lbnZzL2Vu\ndjIvbmV3LU1vZGVscy91dGlsc19zaHVmZmxlbmV0LnB52gg8bGFtYmRhPhYAAADzAAAAAA==\n", null, [116]], "function_type": "lambda", "output_shape": null, "output_shape_type": "raw", "arguments": {}}, "inbound_nodes": [[["stage2/block1/channel_shuffle", 0, 0, {}]]]}, {"name": "stage2/block2/concat_1", "class_name": "Concatenate", "config": {"name": "stage2/block2/concat_1", "trainable": true, "dtype": "float32", "axis": -1}, "inbound_nodes": [[["stage2/block2/relu_1x1conv_2", 0, 0, {}], ["stage2/block2/spl/sp0_slice", 0, 0, {}]]]}, {"name": "stage2/block2/channel_shuffle", "class_name": "Lambda", "config": {"name": "stage2/block2/channel_shuffle", "trainable": true, "dtype": "float32", "function": ["4wEAAAAAAAAABQAAAAgAAABDAAAAc1oAAAB8AGoAoAGhAGQBZACFAhkAXAN9AX0CfQN8A2QCGgB9\nBHQCoAN8AGQDfAF8AmQCfARnBaECfQB0AqAEfABkBKECfQB0AqADfABkA3wBfAJ8A2cEoQJ9AHwA\nUwApBU7pAQAAAOkCAAAA6f////8pBekAAAAAcgEAAAByAgAAAOkEAAAA6QMAAAApBdoFc2hhcGXa\nB2FzX2xpc3TaAUvaB3Jlc2hhcGXaEnBlcm11dGVfZGltZW5zaW9ucykF2gF42gZoZWlnaHTaBXdp\nZHRo2ghjaGFubmVsc1oSY2hhbm5lbHNfcGVyX3NwbGl0qQByEAAAAPo9L2hvbWUvcm9mYWlkYS9w\neXRob24tZW52cy9lbnYyL25ldy1Nb2RlbHMvdXRpbHNfc2h1ZmZsZW5ldC5wedoPY2hhbm5lbF9z\naHVmZmxlGgAAAHMMAAAAAAEYAQgBFgEMARQB\n", null, null], "function_type": "lambda", "output_shape": null, "output_shape_type": "raw", "arguments": {}}, "inbound_nodes": [[["stage2/block2/concat_1", 0, 0, {}]]]}, {"name": "stage2/block3/spl/sp1_slice", "class_name": "Lambda", "config": {"name": "stage2/block3/spl/sp1_slice", "trainable": true, "dtype": "float32", "function": ["4wEAAAAAAAAAAQAAAAYAAAATAAAAcyAAAAB8AGQAZACFAmQAZACFAmQAZACFAogAZACFAmYEGQBT\nACkBTqkAKQHaAXopAdoCaXByAQAAAPo9L2hvbWUvcm9mYWlkYS9weXRob24tZW52cy9lbnYyL25l\ndy1Nb2RlbHMvdXRpbHNfc2h1ZmZsZW5ldC5wedoIPGxhbWJkYT4XAAAA8wAAAAA=\n", null, [116]], "function_type": "lambda", "output_shape": null, "output_shape_type": "raw", "arguments": {}}, "inbound_nodes": [[["stage2/block2/channel_shuffle", 0, 0, {}]]]}, {"name": "stage2/block3/1x1conv_1", "class_name": "Conv2D", "config": {"name": "stage2/block3/1x1conv_1", "trainable": true, "dtype": "float32", "filters": 116, "kernel_size": [1, 1], "strides": [1, 1], "padding": "same", "data_format": "channels_last", "dilation_rate": [1, 1], "activation": "linear", "use_bias": true, "kernel_initializer": {"class_name": "VarianceScaling", "config": {"scale": 1.0, "mode": "fan_avg", "distribution": "uniform", "seed": null}}, "bias_initializer": {"class_name": "Zeros", "config": {}}, "kernel_regularizer": null, "bias_regularizer": null, "activity_regularizer": null, "kernel_constraint": null, "bias_constraint": null}, "inbound_nodes": [[["stage2/block3/spl/sp1_slice", 0, 0, {}]]]}, {"name": "stage2/block3/bn_1x1conv_1", "class_name": "BatchNormalization", "config": {"name": "stage2/block3/bn_1x1conv_1", "trainable": true, "dtype": "float32", "axis": -1, "momentum": 0.99, "epsilon": 0.001, "center": true, "scale": true, "beta_initializer": {"class_name": "Zeros", "config": {}}, "gamma_initializer": {"class_name": "Ones", "config": {}}, "moving_mean_initializer": {"class_name": "Zeros", "config": {}}, "moving_variance_initializer": {"class_name": "Ones", "config": {}}, "beta_regularizer": null, "gamma_regularizer": null, "beta_constraint": null, "gamma_constraint": null}, "inbound_nodes": [[["stage2/block3/1x1conv_1", 0, 0, {}]]]}, {"name": "stage2/block3/relu_1x1conv_1", "class_name": "Activation", "config": {"name": "stage2/block3/relu_1x1conv_1", "trainable": true, "dtype": "float32", "activation": "relu"}, "inbound_nodes": [[["stage2/block3/bn_1x1conv_1", 0, 0, {}]]]}, {"name": "stage2/block3/3x3dwconv", "class_name": "DepthwiseConv2D", "config": {"name": "stage2/block3/3x3dwconv", "trainable": true, "dtype": "float32", "kernel_size": [3, 3], "strides": [1, 1], "padding": "same", "data_format": "channels_last", "dilation_rate": [1, 1], "activation": "linear", "use_bias": true, "bias_initializer": {"class_name": "Zeros", "config": {}}, "bias_regularizer": null, "activity_regularizer": null, "bias_constraint": null, "depth_multiplier": 1, "depthwise_initializer": {"class_name": "VarianceScaling", "config": {"scale": 1.0, "mode": "fan_avg", "distribution": "uniform", "seed": null}}, "depthwise_regularizer": null, "depthwise_constraint": null}, "inbound_nodes": [[["stage2/block3/relu_1x1conv_1", 0, 0, {}]]]}, {"name": "stage2/block3/bn_3x3dwconv", "class_name": "BatchNormalization", "config": {"name": "stage2/block3/bn_3x3dwconv", "trainable": true, "dtype": "float32", "axis": -1, "momentum": 0.99, "epsilon": 0.001, "center": true, "scale": true, "beta_initializer": {"class_name": "Zeros", "config": {}}, "gamma_initializer": {"class_name": "Ones", "config": {}}, "moving_mean_initializer": {"class_name": "Zeros", "config": {}}, "moving_variance_initializer": {"class_name": "Ones", "config": {}}, "beta_regularizer": null, "gamma_regularizer": null, "beta_constraint": null, "gamma_constraint": null}, "inbound_nodes": [[["stage2/block3/3x3dwconv", 0, 0, {}]]]}, {"name": "stage2/block3/1x1conv_2", "class_name": "Conv2D", "config": {"name": "stage2/block3/1x1conv_2", "trainable": true, "dtype": "float32", "filters": 116, "kernel_size": [1, 1], "strides": [1, 1], "padding": "same", "data_format": "channels_last", "dilation_rate": [1, 1], "activation": "linear", "use_bias": true, "kernel_initializer": {"class_name": "VarianceScaling", "config": {"scale": 1.0, "mode": "fan_avg", "distribution": "uniform", "seed": null}}, "bias_initializer": {"class_name": "Zeros", "config": {}}, "kernel_regularizer": null, "bias_regularizer": null, "activity_regularizer": null, "kernel_constraint": null, "bias_constraint": null}, "inbound_nodes": [[["stage2/block3/bn_3x3dwconv", 0, 0, {}]]]}, {"name": "stage2/block3/bn_1x1conv_2", "class_name": "BatchNormalization", "config": {"name": "stage2/block3/bn_1x1conv_2", "trainable": true, "dtype": "float32", "axis": -1, "momentum": 0.99, "epsilon": 0.001, "center": true, "scale": true, "beta_initializer": {"class_name": "Zeros", "config": {}}, "gamma_initializer": {"class_name": "Ones", "config": {}}, "moving_mean_initializer": {"class_name": "Zeros", "config": {}}, "moving_variance_initializer": {"class_name": "Ones", "config": {}}, "beta_regularizer": null, "gamma_regularizer": null, "beta_constraint": null, "gamma_constraint": null}, "inbound_nodes": [[["stage2/block3/1x1conv_2", 0, 0, {}]]]}, {"name": "stage2/block3/relu_1x1conv_2", "class_name": "Activation", "config": {"name": "stage2/block3/relu_1x1conv_2", "trainable": true, "dtype": "float32", "activation": "relu"}, "inbound_nodes": [[["stage2/block3/bn_1x1conv_2", 0, 0, {}]]]}, {"name": "stage2/block3/spl/sp0_slice", "class_name": "Lambda", "config": {"name": "stage2/block3/spl/sp0_slice", "trainable": true, "dtype": "float32", "function": ["4wEAAAAAAAAAAQAAAAYAAAATAAAAcyAAAAB8AGQAZACFAmQAZACFAmQAZACFAmQBiACFAmYEGQBT\nACkCTukAAAAAqQApAdoBeikB2gJpcHICAAAA+j0vaG9tZS9yb2ZhaWRhL3B5dGhvbi1lbnZzL2Vu\ndjIvbmV3LU1vZGVscy91dGlsc19zaHVmZmxlbmV0LnB52gg8bGFtYmRhPhYAAADzAAAAAA==\n", null, [116]], "function_type": "lambda", "output_shape": null, "output_shape_type": "raw", "arguments": {}}, "inbound_nodes": [[["stage2/block2/channel_shuffle", 0, 0, {}]]]}, {"name": "stage2/block3/concat_1", "class_name": "Concatenate", "config": {"name": "stage2/block3/concat_1", "trainable": true, "dtype": "float32", "axis": -1}, "inbound_nodes": [[["stage2/block3/relu_1x1conv_2", 0, 0, {}], ["stage2/block3/spl/sp0_slice", 0, 0, {}]]]}, {"name": "stage2/block3/channel_shuffle", "class_name": "Lambda", "config": {"name": "stage2/block3/channel_shuffle", "trainable": true, "dtype": "float32", "function": ["4wEAAAAAAAAABQAAAAgAAABDAAAAc1oAAAB8AGoAoAGhAGQBZACFAhkAXAN9AX0CfQN8A2QCGgB9\nBHQCoAN8AGQDfAF8AmQCfARnBaECfQB0AqAEfABkBKECfQB0AqADfABkA3wBfAJ8A2cEoQJ9AHwA\nUwApBU7pAQAAAOkCAAAA6f////8pBekAAAAAcgEAAAByAgAAAOkEAAAA6QMAAAApBdoFc2hhcGXa\nB2FzX2xpc3TaAUvaB3Jlc2hhcGXaEnBlcm11dGVfZGltZW5zaW9ucykF2gF42gZoZWlnaHTaBXdp\nZHRo2ghjaGFubmVsc1oSY2hhbm5lbHNfcGVyX3NwbGl0qQByEAAAAPo9L2hvbWUvcm9mYWlkYS9w\neXRob24tZW52cy9lbnYyL25ldy1Nb2RlbHMvdXRpbHNfc2h1ZmZsZW5ldC5wedoPY2hhbm5lbF9z\naHVmZmxlGgAAAHMMAAAAAAEYAQgBFgEMARQB\n", null, null], "function_type": "lambda", "output_shape": null, "output_shape_type": "raw", "arguments": {}}, "inbound_nodes": [[["stage2/block3/concat_1", 0, 0, {}]]]}, {"name": "stage2/block4/spl/sp1_slice", "class_name": "Lambda", "config": {"name": "stage2/block4/spl/sp1_slice", "trainable": true, "dtype": "float32", "function": ["4wEAAAAAAAAAAQAAAAYAAAATAAAAcyAAAAB8AGQAZACFAmQAZACFAmQAZACFAogAZACFAmYEGQBT\nACkBTqkAKQHaAXopAdoCaXByAQAAAPo9L2hvbWUvcm9mYWlkYS9weXRob24tZW52cy9lbnYyL25l\ndy1Nb2RlbHMvdXRpbHNfc2h1ZmZsZW5ldC5wedoIPGxhbWJkYT4XAAAA8wAAAAA=\n", null, [116]], "function_type": "lambda", "output_shape": null, "output_shape_type": "raw", "arguments": {}}, "inbound_nodes": [[["stage2/block3/channel_shuffle", 0, 0, {}]]]}, {"name": "stage2/block4/1x1conv_1", "class_name": "Conv2D", "config": {"name": "stage2/block4/1x1conv_1", "trainable": true, "dtype": "float32", "filters": 116, "kernel_size": [1, 1], "strides": [1, 1], "padding": "same", "data_format": "channels_last", "dilation_rate": [1, 1], "activation": "linear", "use_bias": true, "kernel_initializer": {"class_name": "VarianceScaling", "config": {"scale": 1.0, "mode": "fan_avg", "distribution": "uniform", "seed": null}}, "bias_initializer": {"class_name": "Zeros", "config": {}}, "kernel_regularizer": null, "bias_regularizer": null, "activity_regularizer": null, "kernel_constraint": null, "bias_constraint": null}, "inbound_nodes": [[["stage2/block4/spl/sp1_slice", 0, 0, {}]]]}, {"name": "stage2/block4/bn_1x1conv_1", "class_name": "BatchNormalization", "config": {"name": "stage2/block4/bn_1x1conv_1", "trainable": true, "dtype": "float32", "axis": -1, "momentum": 0.99, "epsilon": 0.001, "center": true, "scale": true, "beta_initializer": {"class_name": "Zeros", "config": {}}, "gamma_initializer": {"class_name": "Ones", "config": {}}, "moving_mean_initializer": {"class_name": "Zeros", "config": {}}, "moving_variance_initializer": {"class_name": "Ones", "config": {}}, "beta_regularizer": null, "gamma_regularizer": null, "beta_constraint": null, "gamma_constraint": null}, "inbound_nodes": [[["stage2/block4/1x1conv_1", 0, 0, {}]]]}, {"name": "stage2/block4/relu_1x1conv_1", "class_name": "Activation", "config": {"name": "stage2/block4/relu_1x1conv_1", "trainable": true, "dtype": "float32", "activation": "relu"}, "inbound_nodes": [[["stage2/block4/bn_1x1conv_1", 0, 0, {}]]]}, {"name": "stage2/block4/3x3dwconv", "class_name": "DepthwiseConv2D", "config": {"name": "stage2/block4/3x3dwconv", "trainable": true, "dtype": "float32", "kernel_size": [3, 3], "strides": [1, 1], "padding": "same", "data_format": "channels_last", "dilation_rate": [1, 1], "activation": "linear", "use_bias": true, "bias_initializer": {"class_name": "Zeros", "config": {}}, "bias_regularizer": null, "activity_regularizer": null, "bias_constraint": null, "depth_multiplier": 1, "depthwise_initializer": {"class_name": "VarianceScaling", "config": {"scale": 1.0, "mode": "fan_avg", "distribution": "uniform", "seed": null}}, "depthwise_regularizer": null, "depthwise_constraint": null}, "inbound_nodes": [[["stage2/block4/relu_1x1conv_1", 0, 0, {}]]]}, {"name": "stage2/block4/bn_3x3dwconv", "class_name": "BatchNormalization", "config": {"name": "stage2/block4/bn_3x3dwconv", "trainable": true, "dtype": "float32", "axis": -1, "momentum": 0.99, "epsilon": 0.001, "center": true, "scale": true, "beta_initializer": {"class_name": "Zeros", "config": {}}, "gamma_initializer": {"class_name": "Ones", "config": {}}, "moving_mean_initializer": {"class_name": "Zeros", "config": {}}, "moving_variance_initializer": {"class_name": "Ones", "config": {}}, "beta_regularizer": null, "gamma_regularizer": null, "beta_constraint": null, "gamma_constraint": null}, "inbound_nodes": [[["stage2/block4/3x3dwconv", 0, 0, {}]]]}, {"name": "stage2/block4/1x1conv_2", "class_name": "Conv2D", "config": {"name": "stage2/block4/1x1conv_2", "trainable": true, "dtype": "float32", "filters": 116, "kernel_size": [1, 1], "strides": [1, 1], "padding": "same", "data_format": "channels_last", "dilation_rate": [1, 1], "activation": "linear", "use_bias": true, "kernel_initializer": {"class_name": "VarianceScaling", "config": {"scale": 1.0, "mode": "fan_avg", "distribution": "uniform", "seed": null}}, "bias_initializer": {"class_name": "Zeros", "config": {}}, "kernel_regularizer": null, "bias_regularizer": null, "activity_regularizer": null, "kernel_constraint": null, "bias_constraint": null}, "inbound_nodes": [[["stage2/block4/bn_3x3dwconv", 0, 0, {}]]]}, {"name": "stage2/block4/bn_1x1conv_2", "class_name": "BatchNormalization", "config": {"name": "stage2/block4/bn_1x1conv_2", "trainable": true, "dtype": "float32", "axis": -1, "momentum": 0.99, "epsilon": 0.001, "center": true, "scale": true, "beta_initializer": {"class_name": "Zeros", "config": {}}, "gamma_initializer": {"class_name": "Ones", "config": {}}, "moving_mean_initializer": {"class_name": "Zeros", "config": {}}, "moving_variance_initializer": {"class_name": "Ones", "config": {}}, "beta_regularizer": null, "gamma_regularizer": null, "beta_constraint": null, "gamma_constraint": null}, "inbound_nodes": [[["stage2/block4/1x1conv_2", 0, 0, {}]]]}, {"name": "stage2/block4/relu_1x1conv_2", "class_name": "Activation", "config": {"name": "stage2/block4/relu_1x1conv_2", "trainable": true, "dtype": "float32", "activation": "relu"}, "inbound_nodes": [[["stage2/block4/bn_1x1conv_2", 0, 0, {}]]]}, {"name": "stage2/block4/spl/sp0_slice", "class_name": "Lambda", "config": {"name": "stage2/block4/spl/sp0_slice", "trainable": true, "dtype": "float32", "function": ["4wEAAAAAAAAAAQAAAAYAAAATAAAAcyAAAAB8AGQAZACFAmQAZACFAmQAZACFAmQBiACFAmYEGQBT\nACkCTukAAAAAqQApAdoBeikB2gJpcHICAAAA+j0vaG9tZS9yb2ZhaWRhL3B5dGhvbi1lbnZzL2Vu\ndjIvbmV3LU1vZGVscy91dGlsc19zaHVmZmxlbmV0LnB52gg8bGFtYmRhPhYAAADzAAAAAA==\n", null, [116]], "function_type": "lambda", "output_shape": null, "output_shape_type": "raw", "arguments": {}}, "inbound_nodes": [[["stage2/block3/channel_shuffle", 0, 0, {}]]]}, {"name": "stage2/block4/concat_1", "class_name": "Concatenate", "config": {"name": "stage2/block4/concat_1", "trainable": true, "dtype": "float32", "axis": -1}, "inbound_nodes": [[["stage2/block4/relu_1x1conv_2", 0, 0, {}], ["stage2/block4/spl/sp0_slice", 0, 0, {}]]]}, {"name": "stage2/block4/channel_shuffle", "class_name": "Lambda", "config": {"name": "stage2/block4/channel_shuffle", "trainable": true, "dtype": "float32", "function": ["4wEAAAAAAAAABQAAAAgAAABDAAAAc1oAAAB8AGoAoAGhAGQBZACFAhkAXAN9AX0CfQN8A2QCGgB9\nBHQCoAN8AGQDfAF8AmQCfARnBaECfQB0AqAEfABkBKECfQB0AqADfABkA3wBfAJ8A2cEoQJ9AHwA\nUwApBU7pAQAAAOkCAAAA6f////8pBekAAAAAcgEAAAByAgAAAOkEAAAA6QMAAAApBdoFc2hhcGXa\nB2FzX2xpc3TaAUvaB3Jlc2hhcGXaEnBlcm11dGVfZGltZW5zaW9ucykF2gF42gZoZWlnaHTaBXdp\nZHRo2ghjaGFubmVsc1oSY2hhbm5lbHNfcGVyX3NwbGl0qQByEAAAAPo9L2hvbWUvcm9mYWlkYS9w\neXRob24tZW52cy9lbnYyL25ldy1Nb2RlbHMvdXRpbHNfc2h1ZmZsZW5ldC5wedoPY2hhbm5lbF9z\naHVmZmxlGgAAAHMMAAAAAAEYAQgBFgEMARQB\n", null, null], "function_type": "lambda", "output_shape": null, "output_shape_type": "raw", "arguments": {}}, "inbound_nodes": [[["stage2/block4/concat_1", 0, 0, {}]]]}, {"name": "stage3/block1/1x1conv_1", "class_name": "Conv2D", "config": {"name": "stage3/block1/1x1conv_1", "trainable": true, "dtype": "float32", "filters": 232, "kernel_size": [1, 1], "strides": [1, 1], "padding": "same", "data_format": "channels_last", "dilation_rate": [1, 1], "activation": "linear", "use_bias": true, "kernel_initializer": {"class_name": "VarianceScaling", "config": {"scale": 1.0, "mode": "fan_avg", "distribution": "uniform", "seed": null}}, "bias_initializer": {"class_name": "Zeros", "config": {}}, "kernel_regularizer": null, "bias_regularizer": null, "activity_regularizer": null, "kernel_constraint": null, "bias_constraint": null}, "inbound_nodes": [[["stage2/block4/channel_shuffle", 0, 0, {}]]]}, {"name": "stage3/block1/bn_1x1conv_1", "class_name": "BatchNormalization", "config": {"name": "stage3/block1/bn_1x1conv_1", "trainable": true, "dtype": "float32", "axis": -1, "momentum": 0.99, "epsilon": 0.001, "center": true, "scale": true, "beta_initializer": {"class_name": "Zeros", "config": {}}, "gamma_initializer": {"class_name": "Ones", "config": {}}, "moving_mean_initializer": {"class_name": "Zeros", "config": {}}, "moving_variance_initializer": {"class_name": "Ones", "config": {}}, "beta_regularizer": null, "gamma_regularizer": null, "beta_constraint": null, "gamma_constraint": null}, "inbound_nodes": [[["stage3/block1/1x1conv_1", 0, 0, {}]]]}, {"name": "stage3/block1/relu_1x1conv_1", "class_name": "Activation", "config": {"name": "stage3/block1/relu_1x1conv_1", "trainable": true, "dtype": "float32", "activation": "relu"}, "inbound_nodes": [[["stage3/block1/bn_1x1conv_1", 0, 0, {}]]]}, {"name": "stage3/block1/3x3dwconv", "class_name": "DepthwiseConv2D", "config": {"name": "stage3/block1/3x3dwconv", "trainable": true, "dtype": "float32", "kernel_size": [3, 3], "strides": [2, 2], "padding": "same", "data_format": "channels_last", "dilation_rate": [1, 1], "activation": "linear", "use_bias": true, "bias_initializer": {"class_name": "Zeros", "config": {}}, "bias_regularizer": null, "activity_regularizer": null, "bias_constraint": null, "depth_multiplier": 1, "depthwise_initializer": {"class_name": "VarianceScaling", "config": {"scale": 1.0, "mode": "fan_avg", "distribution": "uniform", "seed": null}}, "depthwise_regularizer": null, "depthwise_constraint": null}, "inbound_nodes": [[["stage3/block1/relu_1x1conv_1", 0, 0, {}]]]}, {"name": "stage3/block1/3x3dwconv_2", "class_name": "DepthwiseConv2D", "config": {"name": "stage3/block1/3x3dwconv_2", "trainable": true, "dtype": "float32", "kernel_size": [3, 3], "strides": [2, 2], "padding": "same", "data_format": "channels_last", "dilation_rate": [1, 1], "activation": "linear", "use_bias": true, "bias_initializer": {"class_name": "Zeros", "config": {}}, "bias_regularizer": null, "activity_regularizer": null, "bias_constraint": null, "depth_multiplier": 1, "depthwise_initializer": {"class_name": "VarianceScaling", "config": {"scale": 1.0, "mode": "fan_avg", "distribution": "uniform", "seed": null}}, "depthwise_regularizer": null, "depthwise_constraint": null}, "inbound_nodes": [[["stage2/block4/channel_shuffle", 0, 0, {}]]]}, {"name": "stage3/block1/bn_3x3dwconv", "class_name": "BatchNormalization", "config": {"name": "stage3/block1/bn_3x3dwconv", "trainable": true, "dtype": "float32", "axis": -1, "momentum": 0.99, "epsilon": 0.001, "center": true, "scale": true, "beta_initializer": {"class_name": "Zeros", "config": {}}, "gamma_initializer": {"class_name": "Ones", "config": {}}, "moving_mean_initializer": {"class_name": "Zeros", "config": {}}, "moving_variance_initializer": {"class_name": "Ones", "config": {}}, "beta_regularizer": null, "gamma_regularizer": null, "beta_constraint": null, "gamma_constraint": null}, "inbound_nodes": [[["stage3/block1/3x3dwconv", 0, 0, {}]]]}, {"name": "stage3/block1/bn_3x3dwconv_2", "class_name": "BatchNormalization", "config": {"name": "stage3/block1/bn_3x3dwconv_2", "trainable": true, "dtype": "float32", "axis": -1, "momentum": 0.99, "epsilon": 0.001, "center": true, "scale": true, "beta_initializer": {"class_name": "Zeros", "config": {}}, "gamma_initializer": {"class_name": "Ones", "config": {}}, "moving_mean_initializer": {"class_name": "Zeros", "config": {}}, "moving_variance_initializer": {"class_name": "Ones", "config": {}}, "beta_regularizer": null, "gamma_regularizer": null, "beta_constraint": null, "gamma_constraint": null}, "inbound_nodes": [[["stage3/block1/3x3dwconv_2", 0, 0, {}]]]}, {"name": "stage3/block1/1x1conv_2", "class_name": "Conv2D", "config": {"name": "stage3/block1/1x1conv_2", "trainable": true, "dtype": "float32", "filters": 232, "kernel_size": [1, 1], "strides": [1, 1], "padding": "same", "data_format": "channels_last", "dilation_rate": [1, 1], "activation": "linear", "use_bias": true, "kernel_initializer": {"class_name": "VarianceScaling", "config": {"scale": 1.0, "mode": "fan_avg", "distribution": "uniform", "seed": null}}, "bias_initializer": {"class_name": "Zeros", "config": {}}, "kernel_regularizer": null, "bias_regularizer": null, "activity_regularizer": null, "kernel_constraint": null, "bias_constraint": null}, "inbound_nodes": [[["stage3/block1/bn_3x3dwconv", 0, 0, {}]]]}, {"name": "stage3/block1/1x1_conv_3", "class_name": "Conv2D", "config": {"name": "stage3/block1/1x1_conv_3", "trainable": true, "dtype": "float32", "filters": 232, "kernel_size": [1, 1], "strides": [1, 1], "padding": "same", "data_format": "channels_last", "dilation_rate": [1, 1], "activation": "linear", "use_bias": true, "kernel_initializer": {"class_name": "VarianceScaling", "config": {"scale": 1.0, "mode": "fan_avg", "distribution": "uniform", "seed": null}}, "bias_initializer": {"class_name": "Zeros", "config": {}}, "kernel_regularizer": null, "bias_regularizer": null, "activity_regularizer": null, "kernel_constraint": null, "bias_constraint": null}, "inbound_nodes": [[["stage3/block1/bn_3x3dwconv_2", 0, 0, {}]]]}, {"name": "stage3/block1/bn_1x1conv_2", "class_name": "BatchNormalization", "config": {"name": "stage3/block1/bn_1x1conv_2", "trainable": true, "dtype": "float32", "axis": -1, "momentum": 0.99, "epsilon": 0.001, "center": true, "scale": true, "beta_initializer": {"class_name": "Zeros", "config": {}}, "gamma_initializer": {"class_name": "Ones", "config": {}}, "moving_mean_initializer": {"class_name": "Zeros", "config": {}}, "moving_variance_initializer": {"class_name": "Ones", "config": {}}, "beta_regularizer": null, "gamma_regularizer": null, "beta_constraint": null, "gamma_constraint": null}, "inbound_nodes": [[["stage3/block1/1x1conv_2", 0, 0, {}]]]}, {"name": "stage3/block1/bn_1x1conv_3", "class_name": "BatchNormalization", "config": {"name": "stage3/block1/bn_1x1conv_3", "trainable": true, "dtype": "float32", "axis": -1, "momentum": 0.99, "epsilon": 0.001, "center": true, "scale": true, "beta_initializer": {"class_name": "Zeros", "config": {}}, "gamma_initializer": {"class_name": "Ones", "config": {}}, "moving_mean_initializer": {"class_name": "Zeros", "config": {}}, "moving_variance_initializer": {"class_name": "Ones", "config": {}}, "beta_regularizer": null, "gamma_regularizer": null, "beta_constraint": null, "gamma_constraint": null}, "inbound_nodes": [[["stage3/block1/1x1_conv_3", 0, 0, {}]]]}, {"name": "stage3/block1/relu_1x1conv_2", "class_name": "Activation", "config": {"name": "stage3/block1/relu_1x1conv_2", "trainable": true, "dtype": "float32", "activation": "relu"}, "inbound_nodes": [[["stage3/block1/bn_1x1conv_2", 0, 0, {}]]]}, {"name": "stage3/block1/relu_1x1conv_3", "class_name": "Activation", "config": {"name": "stage3/block1/relu_1x1conv_3", "trainable": true, "dtype": "float32", "activation": "relu"}, "inbound_nodes": [[["stage3/block1/bn_1x1conv_3", 0, 0, {}]]]}, {"name": "stage3/block1/concat_2", "class_name": "Concatenate", "config": {"name": "stage3/block1/concat_2", "trainable": true, "dtype": "float32", "axis": -1}, "inbound_nodes": [[["stage3/block1/relu_1x1conv_2", 0, 0, {}], ["stage3/block1/relu_1x1conv_3", 0, 0, {}]]]}, {"name": "stage3/block1/channel_shuffle", "class_name": "Lambda", "config": {"name": "stage3/block1/channel_shuffle", "trainable": true, "dtype": "float32", "function": ["4wEAAAAAAAAABQAAAAgAAABDAAAAc1oAAAB8AGoAoAGhAGQBZACFAhkAXAN9AX0CfQN8A2QCGgB9\nBHQCoAN8AGQDfAF8AmQCfARnBaECfQB0AqAEfABkBKECfQB0AqADfABkA3wBfAJ8A2cEoQJ9AHwA\nUwApBU7pAQAAAOkCAAAA6f////8pBekAAAAAcgEAAAByAgAAAOkEAAAA6QMAAAApBdoFc2hhcGXa\nB2FzX2xpc3TaAUvaB3Jlc2hhcGXaEnBlcm11dGVfZGltZW5zaW9ucykF2gF42gZoZWlnaHTaBXdp\nZHRo2ghjaGFubmVsc1oSY2hhbm5lbHNfcGVyX3NwbGl0qQByEAAAAPo9L2hvbWUvcm9mYWlkYS9w\neXRob24tZW52cy9lbnYyL25ldy1Nb2RlbHMvdXRpbHNfc2h1ZmZsZW5ldC5wedoPY2hhbm5lbF9z\naHVmZmxlGgAAAHMMAAAAAAEYAQgBFgEMARQB\n", null, null], "function_type": "lambda", "output_shape": null, "output_shape_type": "raw", "arguments": {}}, "inbound_nodes": [[["stage3/block1/concat_2", 0, 0, {}]]]}, {"name": "stage3/block2/spl/sp1_slice", "class_name": "Lambda", "config": {"name": "stage3/block2/spl/sp1_slice", "trainable": true, "dtype": "float32", "function": ["4wEAAAAAAAAAAQAAAAYAAAATAAAAcyAAAAB8AGQAZACFAmQAZACFAmQAZACFAogAZACFAmYEGQBT\nACkBTqkAKQHaAXopAdoCaXByAQAAAPo9L2hvbWUvcm9mYWlkYS9weXRob24tZW52cy9lbnYyL25l\ndy1Nb2RlbHMvdXRpbHNfc2h1ZmZsZW5ldC5wedoIPGxhbWJkYT4XAAAA8wAAAAA=\n", null, [232]], "function_type": "lambda", "output_shape": null, "output_shape_type": "raw", "arguments": {}}, "inbound_nodes": [[["stage3/block1/channel_shuffle", 0, 0, {}]]]}, {"name": "stage3/block2/1x1conv_1", "class_name": "Conv2D", "config": {"name": "stage3/block2/1x1conv_1", "trainable": true, "dtype": "float32", "filters": 232, "kernel_size": [1, 1], "strides": [1, 1], "padding": "same", "data_format": "channels_last", "dilation_rate": [1, 1], "activation": "linear", "use_bias": true, "kernel_initializer": {"class_name": "VarianceScaling", "config": {"scale": 1.0, "mode": "fan_avg", "distribution": "uniform", "seed": null}}, "bias_initializer": {"class_name": "Zeros", "config": {}}, "kernel_regularizer": null, "bias_regularizer": null, "activity_regularizer": null, "kernel_constraint": null, "bias_constraint": null}, "inbound_nodes": [[["stage3/block2/spl/sp1_slice", 0, 0, {}]]]}, {"name": "stage3/block2/bn_1x1conv_1", "class_name": "BatchNormalization", "config": {"name": "stage3/block2/bn_1x1conv_1", "trainable": true, "dtype": "float32", "axis": -1, "momentum": 0.99, "epsilon": 0.001, "center": true, "scale": true, "beta_initializer": {"class_name": "Zeros", "config": {}}, "gamma_initializer": {"class_name": "Ones", "config": {}}, "moving_mean_initializer": {"class_name": "Zeros", "config": {}}, "moving_variance_initializer": {"class_name": "Ones", "config": {}}, "beta_regularizer": null, "gamma_regularizer": null, "beta_constraint": null, "gamma_constraint": null}, "inbound_nodes": [[["stage3/block2/1x1conv_1", 0, 0, {}]]]}, {"name": "stage3/block2/relu_1x1conv_1", "class_name": "Activation", "config": {"name": "stage3/block2/relu_1x1conv_1", "trainable": true, "dtype": "float32", "activation": "relu"}, "inbound_nodes": [[["stage3/block2/bn_1x1conv_1", 0, 0, {}]]]}, {"name": "stage3/block2/3x3dwconv", "class_name": "DepthwiseConv2D", "config": {"name": "stage3/block2/3x3dwconv", "trainable": true, "dtype": "float32", "kernel_size": [3, 3], "strides": [1, 1], "padding": "same", "data_format": "channels_last", "dilation_rate": [1, 1], "activation": "linear", "use_bias": true, "bias_initializer": {"class_name": "Zeros", "config": {}}, "bias_regularizer": null, "activity_regularizer": null, "bias_constraint": null, "depth_multiplier": 1, "depthwise_initializer": {"class_name": "VarianceScaling", "config": {"scale": 1.0, "mode": "fan_avg", "distribution": "uniform", "seed": null}}, "depthwise_regularizer": null, "depthwise_constraint": null}, "inbound_nodes": [[["stage3/block2/relu_1x1conv_1", 0, 0, {}]]]}, {"name": "stage3/block2/bn_3x3dwconv", "class_name": "BatchNormalization", "config": {"name": "stage3/block2/bn_3x3dwconv", "trainable": true, "dtype": "float32", "axis": -1, "momentum": 0.99, "epsilon": 0.001, "center": true, "scale": true, "beta_initializer": {"class_name": "Zeros", "config": {}}, "gamma_initializer": {"class_name": "Ones", "config": {}}, "moving_mean_initializer": {"class_name": "Zeros", "config": {}}, "moving_variance_initializer": {"class_name": "Ones", "config": {}}, "beta_regularizer": null, "gamma_regularizer": null, "beta_constraint": null, "gamma_constraint": null}, "inbound_nodes": [[["stage3/block2/3x3dwconv", 0, 0, {}]]]}, {"name": "stage3/block2/1x1conv_2", "class_name": "Conv2D", "config": {"name": "stage3/block2/1x1conv_2", "trainable": true, "dtype": "float32", "filters": 232, "kernel_size": [1, 1], "strides": [1, 1], "padding": "same", "data_format": "channels_last", "dilation_rate": [1, 1], "activation": "linear", "use_bias": true, "kernel_initializer": {"class_name": "VarianceScaling", "config": {"scale": 1.0, "mode": "fan_avg", "distribution": "uniform", "seed": null}}, "bias_initializer": {"class_name": "Zeros", "config": {}}, "kernel_regularizer": null, "bias_regularizer": null, "activity_regularizer": null, "kernel_constraint": null, "bias_constraint": null}, "inbound_nodes": [[["stage3/block2/bn_3x3dwconv", 0, 0, {}]]]}, {"name": "stage3/block2/bn_1x1conv_2", "class_name": "BatchNormalization", "config": {"name": "stage3/block2/bn_1x1conv_2", "trainable": true, "dtype": "float32", "axis": -1, "momentum": 0.99, "epsilon": 0.001, "center": true, "scale": true, "beta_initializer": {"class_name": "Zeros", "config": {}}, "gamma_initializer": {"class_name": "Ones", "config": {}}, "moving_mean_initializer": {"class_name": "Zeros", "config": {}}, "moving_variance_initializer": {"class_name": "Ones", "config": {}}, "beta_regularizer": null, "gamma_regularizer": null, "beta_constraint": null, "gamma_constraint": null}, "inbound_nodes": [[["stage3/block2/1x1conv_2", 0, 0, {}]]]}, {"name": "stage3/block2/relu_1x1conv_2", "class_name": "Activation", "config": {"name": "stage3/block2/relu_1x1conv_2", "trainable": true, "dtype": "float32", "activation": "relu"}, "inbound_nodes": [[["stage3/block2/bn_1x1conv_2", 0, 0, {}]]]}, {"name": "stage3/block2/spl/sp0_slice", "class_name": "Lambda", "config": {"name": "stage3/block2/spl/sp0_slice", "trainable": true, "dtype": "float32", "function": ["4wEAAAAAAAAAAQAAAAYAAAATAAAAcyAAAAB8AGQAZACFAmQAZACFAmQAZACFAmQBiACFAmYEGQBT\nACkCTukAAAAAqQApAdoBeikB2gJpcHICAAAA+j0vaG9tZS9yb2ZhaWRhL3B5dGhvbi1lbnZzL2Vu\ndjIvbmV3LU1vZGVscy91dGlsc19zaHVmZmxlbmV0LnB52gg8bGFtYmRhPhYAAADzAAAAAA==\n", null, [232]], "function_type": "lambda", "output_shape": null, "output_shape_type": "raw", "arguments": {}}, "inbound_nodes": [[["stage3/block1/channel_shuffle", 0, 0, {}]]]}, {"name": "stage3/block2/concat_1", "class_name": "Concatenate", "config": {"name": "stage3/block2/concat_1", "trainable": true, "dtype": "float32", "axis": -1}, "inbound_nodes": [[["stage3/block2/relu_1x1conv_2", 0, 0, {}], ["stage3/block2/spl/sp0_slice", 0, 0, {}]]]}, {"name": "stage3/block2/channel_shuffle", "class_name": "Lambda", "config": {"name": "stage3/block2/channel_shuffle", "trainable": true, "dtype": "float32", "function": ["4wEAAAAAAAAABQAAAAgAAABDAAAAc1oAAAB8AGoAoAGhAGQBZACFAhkAXAN9AX0CfQN8A2QCGgB9\nBHQCoAN8AGQDfAF8AmQCfARnBaECfQB0AqAEfABkBKECfQB0AqADfABkA3wBfAJ8A2cEoQJ9AHwA\nUwApBU7pAQAAAOkCAAAA6f////8pBekAAAAAcgEAAAByAgAAAOkEAAAA6QMAAAApBdoFc2hhcGXa\nB2FzX2xpc3TaAUvaB3Jlc2hhcGXaEnBlcm11dGVfZGltZW5zaW9ucykF2gF42gZoZWlnaHTaBXdp\nZHRo2ghjaGFubmVsc1oSY2hhbm5lbHNfcGVyX3NwbGl0qQByEAAAAPo9L2hvbWUvcm9mYWlkYS9w\neXRob24tZW52cy9lbnYyL25ldy1Nb2RlbHMvdXRpbHNfc2h1ZmZsZW5ldC5wedoPY2hhbm5lbF9z\naHVmZmxlGgAAAHMMAAAAAAEYAQgBFgEMARQB\n", null, null], "function_type": "lambda", "output_shape": null, "output_shape_type": "raw", "arguments": {}}, "inbound_nodes": [[["stage3/block2/concat_1", 0, 0, {}]]]}, {"name": "stage3/block3/spl/sp1_slice", "class_name": "Lambda", "config": {"name": "stage3/block3/spl/sp1_slice", "trainable": true, "dtype": "float32", "function": ["4wEAAAAAAAAAAQAAAAYAAAATAAAAcyAAAAB8AGQAZACFAmQAZACFAmQAZACFAogAZACFAmYEGQBT\nACkBTqkAKQHaAXopAdoCaXByAQAAAPo9L2hvbWUvcm9mYWlkYS9weXRob24tZW52cy9lbnYyL25l\ndy1Nb2RlbHMvdXRpbHNfc2h1ZmZsZW5ldC5wedoIPGxhbWJkYT4XAAAA8wAAAAA=\n", null, [232]], "function_type": "lambda", "output_shape": null, "output_shape_type": "raw", "arguments": {}}, "inbound_nodes": [[["stage3/block2/channel_shuffle", 0, 0, {}]]]}, {"name": "stage3/block3/1x1conv_1", "class_name": "Conv2D", "config": {"name": "stage3/block3/1x1conv_1", "trainable": true, "dtype": "float32", "filters": 232, "kernel_size": [1, 1], "strides": [1, 1], "padding": "same", "data_format": "channels_last", "dilation_rate": [1, 1], "activation": "linear", "use_bias": true, "kernel_initializer": {"class_name": "VarianceScaling", "config": {"scale": 1.0, "mode": "fan_avg", "distribution": "uniform", "seed": null}}, "bias_initializer": {"class_name": "Zeros", "config": {}}, "kernel_regularizer": null, "bias_regularizer": null, "activity_regularizer": null, "kernel_constraint": null, "bias_constraint": null}, "inbound_nodes": [[["stage3/block3/spl/sp1_slice", 0, 0, {}]]]}, {"name": "stage3/block3/bn_1x1conv_1", "class_name": "BatchNormalization", "config": {"name": "stage3/block3/bn_1x1conv_1", "trainable": true, "dtype": "float32", "axis": -1, "momentum": 0.99, "epsilon": 0.001, "center": true, "scale": true, "beta_initializer": {"class_name": "Zeros", "config": {}}, "gamma_initializer": {"class_name": "Ones", "config": {}}, "moving_mean_initializer": {"class_name": "Zeros", "config": {}}, "moving_variance_initializer": {"class_name": "Ones", "config": {}}, "beta_regularizer": null, "gamma_regularizer": null, "beta_constraint": null, "gamma_constraint": null}, "inbound_nodes": [[["stage3/block3/1x1conv_1", 0, 0, {}]]]}, {"name": "stage3/block3/relu_1x1conv_1", "class_name": "Activation", "config": {"name": "stage3/block3/relu_1x1conv_1", "trainable": true, "dtype": "float32", "activation": "relu"}, "inbound_nodes": [[["stage3/block3/bn_1x1conv_1", 0, 0, {}]]]}, {"name": "stage3/block3/3x3dwconv", "class_name": "DepthwiseConv2D", "config": {"name": "stage3/block3/3x3dwconv", "trainable": true, "dtype": "float32", "kernel_size": [3, 3], "strides": [1, 1], "padding": "same", "data_format": "channels_last", "dilation_rate": [1, 1], "activation": "linear", "use_bias": true, "bias_initializer": {"class_name": "Zeros", "config": {}}, "bias_regularizer": null, "activity_regularizer": null, "bias_constraint": null, "depth_multiplier": 1, "depthwise_initializer": {"class_name": "VarianceScaling", "config": {"scale": 1.0, "mode": "fan_avg", "distribution": "uniform", "seed": null}}, "depthwise_regularizer": null, "depthwise_constraint": null}, "inbound_nodes": [[["stage3/block3/relu_1x1conv_1", 0, 0, {}]]]}, {"name": "stage3/block3/bn_3x3dwconv", "class_name": "BatchNormalization", "config": {"name": "stage3/block3/bn_3x3dwconv", "trainable": true, "dtype": "float32", "axis": -1, "momentum": 0.99, "epsilon": 0.001, "center": true, "scale": true, "beta_initializer": {"class_name": "Zeros", "config": {}}, "gamma_initializer": {"class_name": "Ones", "config": {}}, "moving_mean_initializer": {"class_name": "Zeros", "config": {}}, "moving_variance_initializer": {"class_name": "Ones", "config": {}}, "beta_regularizer": null, "gamma_regularizer": null, "beta_constraint": null, "gamma_constraint": null}, "inbound_nodes": [[["stage3/block3/3x3dwconv", 0, 0, {}]]]}, {"name": "stage3/block3/1x1conv_2", "class_name": "Conv2D", "config": {"name": "stage3/block3/1x1conv_2", "trainable": true, "dtype": "float32", "filters": 232, "kernel_size": [1, 1], "strides": [1, 1], "padding": "same", "data_format": "channels_last", "dilation_rate": [1, 1], "activation": "linear", "use_bias": true, "kernel_initializer": {"class_name": "VarianceScaling", "config": {"scale": 1.0, "mode": "fan_avg", "distribution": "uniform", "seed": null}}, "bias_initializer": {"class_name": "Zeros", "config": {}}, "kernel_regularizer": null, "bias_regularizer": null, "activity_regularizer": null, "kernel_constraint": null, "bias_constraint": null}, "inbound_nodes": [[["stage3/block3/bn_3x3dwconv", 0, 0, {}]]]}, {"name": "stage3/block3/bn_1x1conv_2", "class_name": "BatchNormalization", "config": {"name": "stage3/block3/bn_1x1conv_2", "trainable": true, "dtype": "float32", "axis": -1, "momentum": 0.99, "epsilon": 0.001, "center": true, "scale": true, "beta_initializer": {"class_name": "Zeros", "config": {}}, "gamma_initializer": {"class_name": "Ones", "config": {}}, "moving_mean_initializer": {"class_name": "Zeros", "config": {}}, "moving_variance_initializer": {"class_name": "Ones", "config": {}}, "beta_regularizer": null, "gamma_regularizer": null, "beta_constraint": null, "gamma_constraint": null}, "inbound_nodes": [[["stage3/block3/1x1conv_2", 0, 0, {}]]]}, {"name": "stage3/block3/relu_1x1conv_2", "class_name": "Activation", "config": {"name": "stage3/block3/relu_1x1conv_2", "trainable": true, "dtype": "float32", "activation": "relu"}, "inbound_nodes": [[["stage3/block3/bn_1x1conv_2", 0, 0, {}]]]}, {"name": "stage3/block3/spl/sp0_slice", "class_name": "Lambda", "config": {"name": "stage3/block3/spl/sp0_slice", "trainable": true, "dtype": "float32", "function": ["4wEAAAAAAAAAAQAAAAYAAAATAAAAcyAAAAB8AGQAZACFAmQAZACFAmQAZACFAmQBiACFAmYEGQBT\nACkCTukAAAAAqQApAdoBeikB2gJpcHICAAAA+j0vaG9tZS9yb2ZhaWRhL3B5dGhvbi1lbnZzL2Vu\ndjIvbmV3LU1vZGVscy91dGlsc19zaHVmZmxlbmV0LnB52gg8bGFtYmRhPhYAAADzAAAAAA==\n", null, [232]], "function_type": "lambda", "output_shape": null, "output_shape_type": "raw", "arguments": {}}, "inbound_nodes": [[["stage3/block2/channel_shuffle", 0, 0, {}]]]}, {"name": "stage3/block3/concat_1", "class_name": "Concatenate", "config": {"name": "stage3/block3/concat_1", "trainable": true, "dtype": "float32", "axis": -1}, "inbound_nodes": [[["stage3/block3/relu_1x1conv_2", 0, 0, {}], ["stage3/block3/spl/sp0_slice", 0, 0, {}]]]}, {"name": "stage3/block3/channel_shuffle", "class_name": "Lambda", "config": {"name": "stage3/block3/channel_shuffle", "trainable": true, "dtype": "float32", "function": ["4wEAAAAAAAAABQAAAAgAAABDAAAAc1oAAAB8AGoAoAGhAGQBZACFAhkAXAN9AX0CfQN8A2QCGgB9\nBHQCoAN8AGQDfAF8AmQCfARnBaECfQB0AqAEfABkBKECfQB0AqADfABkA3wBfAJ8A2cEoQJ9AHwA\nUwApBU7pAQAAAOkCAAAA6f////8pBekAAAAAcgEAAAByAgAAAOkEAAAA6QMAAAApBdoFc2hhcGXa\nB2FzX2xpc3TaAUvaB3Jlc2hhcGXaEnBlcm11dGVfZGltZW5zaW9ucykF2gF42gZoZWlnaHTaBXdp\nZHRo2ghjaGFubmVsc1oSY2hhbm5lbHNfcGVyX3NwbGl0qQByEAAAAPo9L2hvbWUvcm9mYWlkYS9w\neXRob24tZW52cy9lbnYyL25ldy1Nb2RlbHMvdXRpbHNfc2h1ZmZsZW5ldC5wedoPY2hhbm5lbF9z\naHVmZmxlGgAAAHMMAAAAAAEYAQgBFgEMARQB\n", null, null], "function_type": "lambda", "output_shape": null, "output_shape_type": "raw", "arguments": {}}, "inbound_nodes": [[["stage3/block3/concat_1", 0, 0, {}]]]}, {"name": "stage3/block4/spl/sp1_slice", "class_name": "Lambda", "config": {"name": "stage3/block4/spl/sp1_slice", "trainable": true, "dtype": "float32", "function": ["4wEAAAAAAAAAAQAAAAYAAAATAAAAcyAAAAB8AGQAZACFAmQAZACFAmQAZACFAogAZACFAmYEGQBT\nACkBTqkAKQHaAXopAdoCaXByAQAAAPo9L2hvbWUvcm9mYWlkYS9weXRob24tZW52cy9lbnYyL25l\ndy1Nb2RlbHMvdXRpbHNfc2h1ZmZsZW5ldC5wedoIPGxhbWJkYT4XAAAA8wAAAAA=\n", null, [232]], "function_type": "lambda", "output_shape": null, "output_shape_type": "raw", "arguments": {}}, "inbound_nodes": [[["stage3/block3/channel_shuffle", 0, 0, {}]]]}, {"name": "stage3/block4/1x1conv_1", "class_name": "Conv2D", "config": {"name": "stage3/block4/1x1conv_1", "trainable": true, "dtype": "float32", "filters": 232, "kernel_size": [1, 1], "strides": [1, 1], "padding": "same", "data_format": "channels_last", "dilation_rate": [1, 1], "activation": "linear", "use_bias": true, "kernel_initializer": {"class_name": "VarianceScaling", "config": {"scale": 1.0, "mode": "fan_avg", "distribution": "uniform", "seed": null}}, "bias_initializer": {"class_name": "Zeros", "config": {}}, "kernel_regularizer": null, "bias_regularizer": null, "activity_regularizer": null, "kernel_constraint": null, "bias_constraint": null}, "inbound_nodes": [[["stage3/block4/spl/sp1_slice", 0, 0, {}]]]}, {"name": "stage3/block4/bn_1x1conv_1", "class_name": "BatchNormalization", "config": {"name": "stage3/block4/bn_1x1conv_1", "trainable": true, "dtype": "float32", "axis": -1, "momentum": 0.99, "epsilon": 0.001, "center": true, "scale": true, "beta_initializer": {"class_name": "Zeros", "config": {}}, "gamma_initializer": {"class_name": "Ones", "config": {}}, "moving_mean_initializer": {"class_name": "Zeros", "config": {}}, "moving_variance_initializer": {"class_name": "Ones", "config": {}}, "beta_regularizer": null, "gamma_regularizer": null, "beta_constraint": null, "gamma_constraint": null}, "inbound_nodes": [[["stage3/block4/1x1conv_1", 0, 0, {}]]]}, {"name": "stage3/block4/relu_1x1conv_1", "class_name": "Activation", "config": {"name": "stage3/block4/relu_1x1conv_1", "trainable": true, "dtype": "float32", "activation": "relu"}, "inbound_nodes": [[["stage3/block4/bn_1x1conv_1", 0, 0, {}]]]}, {"name": "stage3/block4/3x3dwconv", "class_name": "DepthwiseConv2D", "config": {"name": "stage3/block4/3x3dwconv", "trainable": true, "dtype": "float32", "kernel_size": [3, 3], "strides": [1, 1], "padding": "same", "data_format": "channels_last", "dilation_rate": [1, 1], "activation": "linear", "use_bias": true, "bias_initializer": {"class_name": "Zeros", "config": {}}, "bias_regularizer": null, "activity_regularizer": null, "bias_constraint": null, "depth_multiplier": 1, "depthwise_initializer": {"class_name": "VarianceScaling", "config": {"scale": 1.0, "mode": "fan_avg", "distribution": "uniform", "seed": null}}, "depthwise_regularizer": null, "depthwise_constraint": null}, "inbound_nodes": [[["stage3/block4/relu_1x1conv_1", 0, 0, {}]]]}, {"name": "stage3/block4/bn_3x3dwconv", "class_name": "BatchNormalization", "config": {"name": "stage3/block4/bn_3x3dwconv", "trainable": true, "dtype": "float32", "axis": -1, "momentum": 0.99, "epsilon": 0.001, "center": true, "scale": true, "beta_initializer": {"class_name": "Zeros", "config": {}}, "gamma_initializer": {"class_name": "Ones", "config": {}}, "moving_mean_initializer": {"class_name": "Zeros", "config": {}}, "moving_variance_initializer": {"class_name": "Ones", "config": {}}, "beta_regularizer": null, "gamma_regularizer": null, "beta_constraint": null, "gamma_constraint": null}, "inbound_nodes": [[["stage3/block4/3x3dwconv", 0, 0, {}]]]}, {"name": "stage3/block4/1x1conv_2", "class_name": "Conv2D", "config": {"name": "stage3/block4/1x1conv_2", "trainable": true, "dtype": "float32", "filters": 232, "kernel_size": [1, 1], "strides": [1, 1], "padding": "same", "data_format": "channels_last", "dilation_rate": [1, 1], "activation": "linear", "use_bias": true, "kernel_initializer": {"class_name": "VarianceScaling", "config": {"scale": 1.0, "mode": "fan_avg", "distribution": "uniform", "seed": null}}, "bias_initializer": {"class_name": "Zeros", "config": {}}, "kernel_regularizer": null, "bias_regularizer": null, "activity_regularizer": null, "kernel_constraint": null, "bias_constraint": null}, "inbound_nodes": [[["stage3/block4/bn_3x3dwconv", 0, 0, {}]]]}, {"name": "stage3/block4/bn_1x1conv_2", "class_name": "BatchNormalization", "config": {"name": "stage3/block4/bn_1x1conv_2", "trainable": true, "dtype": "float32", "axis": -1, "momentum": 0.99, "epsilon": 0.001, "center": true, "scale": true, "beta_initializer": {"class_name": "Zeros", "config": {}}, "gamma_initializer": {"class_name": "Ones", "config": {}}, "moving_mean_initializer": {"class_name": "Zeros", "config": {}}, "moving_variance_initializer": {"class_name": "Ones", "config": {}}, "beta_regularizer": null, "gamma_regularizer": null, "beta_constraint": null, "gamma_constraint": null}, "inbound_nodes": [[["stage3/block4/1x1conv_2", 0, 0, {}]]]}, {"name": "stage3/block4/relu_1x1conv_2", "class_name": "Activation", "config": {"name": "stage3/block4/relu_1x1conv_2", "trainable": true, "dtype": "float32", "activation": "relu"}, "inbound_nodes": [[["stage3/block4/bn_1x1conv_2", 0, 0, {}]]]}, {"name": "stage3/block4/spl/sp0_slice", "class_name": "Lambda", "config": {"name": "stage3/block4/spl/sp0_slice", "trainable": true, "dtype": "float32", "function": ["4wEAAAAAAAAAAQAAAAYAAAATAAAAcyAAAAB8AGQAZACFAmQAZACFAmQAZACFAmQBiACFAmYEGQBT\nACkCTukAAAAAqQApAdoBeikB2gJpcHICAAAA+j0vaG9tZS9yb2ZhaWRhL3B5dGhvbi1lbnZzL2Vu\ndjIvbmV3LU1vZGVscy91dGlsc19zaHVmZmxlbmV0LnB52gg8bGFtYmRhPhYAAADzAAAAAA==\n", null, [232]], "function_type": "lambda", "output_shape": null, "output_shape_type": "raw", "arguments": {}}, "inbound_nodes": [[["stage3/block3/channel_shuffle", 0, 0, {}]]]}, {"name": "stage3/block4/concat_1", "class_name": "Concatenate", "config": {"name": "stage3/block4/concat_1", "trainable": true, "dtype": "float32", "axis": -1}, "inbound_nodes": [[["stage3/block4/relu_1x1conv_2", 0, 0, {}], ["stage3/block4/spl/sp0_slice", 0, 0, {}]]]}, {"name": "stage3/block4/channel_shuffle", "class_name": "Lambda", "config": {"name": "stage3/block4/channel_shuffle", "trainable": true, "dtype": "float32", "function": ["4wEAAAAAAAAABQAAAAgAAABDAAAAc1oAAAB8AGoAoAGhAGQBZACFAhkAXAN9AX0CfQN8A2QCGgB9\nBHQCoAN8AGQDfAF8AmQCfARnBaECfQB0AqAEfABkBKECfQB0AqADfABkA3wBfAJ8A2cEoQJ9AHwA\nUwApBU7pAQAAAOkCAAAA6f////8pBekAAAAAcgEAAAByAgAAAOkEAAAA6QMAAAApBdoFc2hhcGXa\nB2FzX2xpc3TaAUvaB3Jlc2hhcGXaEnBlcm11dGVfZGltZW5zaW9ucykF2gF42gZoZWlnaHTaBXdp\nZHRo2ghjaGFubmVsc1oSY2hhbm5lbHNfcGVyX3NwbGl0qQByEAAAAPo9L2hvbWUvcm9mYWlkYS9w\neXRob24tZW52cy9lbnYyL25ldy1Nb2RlbHMvdXRpbHNfc2h1ZmZsZW5ldC5wedoPY2hhbm5lbF9z\naHVmZmxlGgAAAHMMAAAAAAEYAQgBFgEMARQB\n", null, null], "function_type": "lambda", "output_shape": null, "output_shape_type": "raw", "arguments": {}}, "inbound_nodes": [[["stage3/block4/concat_1", 0, 0, {}]]]}, {"name": "stage3/block5/spl/sp1_slice", "class_name": "Lambda", "config": {"name": "stage3/block5/spl/sp1_slice", "trainable": true, "dtype": "float32", "function": ["4wEAAAAAAAAAAQAAAAYAAAATAAAAcyAAAAB8AGQAZACFAmQAZACFAmQAZACFAogAZACFAmYEGQBT\nACkBTqkAKQHaAXopAdoCaXByAQAAAPo9L2hvbWUvcm9mYWlkYS9weXRob24tZW52cy9lbnYyL25l\ndy1Nb2RlbHMvdXRpbHNfc2h1ZmZsZW5ldC5wedoIPGxhbWJkYT4XAAAA8wAAAAA=\n", null, [232]], "function_type": "lambda", "output_shape": null, "output_shape_type": "raw", "arguments": {}}, "inbound_nodes": [[["stage3/block4/channel_shuffle", 0, 0, {}]]]}, {"name": "stage3/block5/1x1conv_1", "class_name": "Conv2D", "config": {"name": "stage3/block5/1x1conv_1", "trainable": true, "dtype": "float32", "filters": 232, "kernel_size": [1, 1], "strides": [1, 1], "padding": "same", "data_format": "channels_last", "dilation_rate": [1, 1], "activation": "linear", "use_bias": true, "kernel_initializer": {"class_name": "VarianceScaling", "config": {"scale": 1.0, "mode": "fan_avg", "distribution": "uniform", "seed": null}}, "bias_initializer": {"class_name": "Zeros", "config": {}}, "kernel_regularizer": null, "bias_regularizer": null, "activity_regularizer": null, "kernel_constraint": null, "bias_constraint": null}, "inbound_nodes": [[["stage3/block5/spl/sp1_slice", 0, 0, {}]]]}, {"name": "stage3/block5/bn_1x1conv_1", "class_name": "BatchNormalization", "config": {"name": "stage3/block5/bn_1x1conv_1", "trainable": true, "dtype": "float32", "axis": -1, "momentum": 0.99, "epsilon": 0.001, "center": true, "scale": true, "beta_initializer": {"class_name": "Zeros", "config": {}}, "gamma_initializer": {"class_name": "Ones", "config": {}}, "moving_mean_initializer": {"class_name": "Zeros", "config": {}}, "moving_variance_initializer": {"class_name": "Ones", "config": {}}, "beta_regularizer": null, "gamma_regularizer": null, "beta_constraint": null, "gamma_constraint": null}, "inbound_nodes": [[["stage3/block5/1x1conv_1", 0, 0, {}]]]}, {"name": "stage3/block5/relu_1x1conv_1", "class_name": "Activation", "config": {"name": "stage3/block5/relu_1x1conv_1", "trainable": true, "dtype": "float32", "activation": "relu"}, "inbound_nodes": [[["stage3/block5/bn_1x1conv_1", 0, 0, {}]]]}, {"name": "stage3/block5/3x3dwconv", "class_name": "DepthwiseConv2D", "config": {"name": "stage3/block5/3x3dwconv", "trainable": true, "dtype": "float32", "kernel_size": [3, 3], "strides": [1, 1], "padding": "same", "data_format": "channels_last", "dilation_rate": [1, 1], "activation": "linear", "use_bias": true, "bias_initializer": {"class_name": "Zeros", "config": {}}, "bias_regularizer": null, "activity_regularizer": null, "bias_constraint": null, "depth_multiplier": 1, "depthwise_initializer": {"class_name": "VarianceScaling", "config": {"scale": 1.0, "mode": "fan_avg", "distribution": "uniform", "seed": null}}, "depthwise_regularizer": null, "depthwise_constraint": null}, "inbound_nodes": [[["stage3/block5/relu_1x1conv_1", 0, 0, {}]]]}, {"name": "stage3/block5/bn_3x3dwconv", "class_name": "BatchNormalization", "config": {"name": "stage3/block5/bn_3x3dwconv", "trainable": true, "dtype": "float32", "axis": -1, "momentum": 0.99, "epsilon": 0.001, "center": true, "scale": true, "beta_initializer": {"class_name": "Zeros", "config": {}}, "gamma_initializer": {"class_name": "Ones", "config": {}}, "moving_mean_initializer": {"class_name": "Zeros", "config": {}}, "moving_variance_initializer": {"class_name": "Ones", "config": {}}, "beta_regularizer": null, "gamma_regularizer": null, "beta_constraint": null, "gamma_constraint": null}, "inbound_nodes": [[["stage3/block5/3x3dwconv", 0, 0, {}]]]}, {"name": "stage3/block5/1x1conv_2", "class_name": "Conv2D", "config": {"name": "stage3/block5/1x1conv_2", "trainable": true, "dtype": "float32", "filters": 232, "kernel_size": [1, 1], "strides": [1, 1], "padding": "same", "data_format": "channels_last", "dilation_rate": [1, 1], "activation": "linear", "use_bias": true, "kernel_initializer": {"class_name": "VarianceScaling", "config": {"scale": 1.0, "mode": "fan_avg", "distribution": "uniform", "seed": null}}, "bias_initializer": {"class_name": "Zeros", "config": {}}, "kernel_regularizer": null, "bias_regularizer": null, "activity_regularizer": null, "kernel_constraint": null, "bias_constraint": null}, "inbound_nodes": [[["stage3/block5/bn_3x3dwconv", 0, 0, {}]]]}, {"name": "stage3/block5/bn_1x1conv_2", "class_name": "BatchNormalization", "config": {"name": "stage3/block5/bn_1x1conv_2", "trainable": true, "dtype": "float32", "axis": -1, "momentum": 0.99, "epsilon": 0.001, "center": true, "scale": true, "beta_initializer": {"class_name": "Zeros", "config": {}}, "gamma_initializer": {"class_name": "Ones", "config": {}}, "moving_mean_initializer": {"class_name": "Zeros", "config": {}}, "moving_variance_initializer": {"class_name": "Ones", "config": {}}, "beta_regularizer": null, "gamma_regularizer": null, "beta_constraint": null, "gamma_constraint": null}, "inbound_nodes": [[["stage3/block5/1x1conv_2", 0, 0, {}]]]}, {"name": "stage3/block5/relu_1x1conv_2", "class_name": "Activation", "config": {"name": "stage3/block5/relu_1x1conv_2", "trainable": true, "dtype": "float32", "activation": "relu"}, "inbound_nodes": [[["stage3/block5/bn_1x1conv_2", 0, 0, {}]]]}, {"name": "stage3/block5/spl/sp0_slice", "class_name": "Lambda", "config": {"name": "stage3/block5/spl/sp0_slice", "trainable": true, "dtype": "float32", "function": ["4wEAAAAAAAAAAQAAAAYAAAATAAAAcyAAAAB8AGQAZACFAmQAZACFAmQAZACFAmQBiACFAmYEGQBT\nACkCTukAAAAAqQApAdoBeikB2gJpcHICAAAA+j0vaG9tZS9yb2ZhaWRhL3B5dGhvbi1lbnZzL2Vu\ndjIvbmV3LU1vZGVscy91dGlsc19zaHVmZmxlbmV0LnB52gg8bGFtYmRhPhYAAADzAAAAAA==\n", null, [232]], "function_type": "lambda", "output_shape": null, "output_shape_type": "raw", "arguments": {}}, "inbound_nodes": [[["stage3/block4/channel_shuffle", 0, 0, {}]]]}, {"name": "stage3/block5/concat_1", "class_name": "Concatenate", "config": {"name": "stage3/block5/concat_1", "trainable": true, "dtype": "float32", "axis": -1}, "inbound_nodes": [[["stage3/block5/relu_1x1conv_2", 0, 0, {}], ["stage3/block5/spl/sp0_slice", 0, 0, {}]]]}, {"name": "stage3/block5/channel_shuffle", "class_name": "Lambda", "config": {"name": "stage3/block5/channel_shuffle", "trainable": true, "dtype": "float32", "function": ["4wEAAAAAAAAABQAAAAgAAABDAAAAc1oAAAB8AGoAoAGhAGQBZACFAhkAXAN9AX0CfQN8A2QCGgB9\nBHQCoAN8AGQDfAF8AmQCfARnBaECfQB0AqAEfABkBKECfQB0AqADfABkA3wBfAJ8A2cEoQJ9AHwA\nUwApBU7pAQAAAOkCAAAA6f////8pBekAAAAAcgEAAAByAgAAAOkEAAAA6QMAAAApBdoFc2hhcGXa\nB2FzX2xpc3TaAUvaB3Jlc2hhcGXaEnBlcm11dGVfZGltZW5zaW9ucykF2gF42gZoZWlnaHTaBXdp\nZHRo2ghjaGFubmVsc1oSY2hhbm5lbHNfcGVyX3NwbGl0qQByEAAAAPo9L2hvbWUvcm9mYWlkYS9w\neXRob24tZW52cy9lbnYyL25ldy1Nb2RlbHMvdXRpbHNfc2h1ZmZsZW5ldC5wedoPY2hhbm5lbF9z\naHVmZmxlGgAAAHMMAAAAAAEYAQgBFgEMARQB\n", null, null], "function_type": "lambda", "output_shape": null, "output_shape_type": "raw", "arguments": {}}, "inbound_nodes": [[["stage3/block5/concat_1", 0, 0, {}]]]}, {"name": "stage3/block6/spl/sp1_slice", "class_name": "Lambda", "config": {"name": "stage3/block6/spl/sp1_slice", "trainable": true, "dtype": "float32", "function": ["4wEAAAAAAAAAAQAAAAYAAAATAAAAcyAAAAB8AGQAZACFAmQAZACFAmQAZACFAogAZACFAmYEGQBT\nACkBTqkAKQHaAXopAdoCaXByAQAAAPo9L2hvbWUvcm9mYWlkYS9weXRob24tZW52cy9lbnYyL25l\ndy1Nb2RlbHMvdXRpbHNfc2h1ZmZsZW5ldC5wedoIPGxhbWJkYT4XAAAA8wAAAAA=\n", null, [232]], "function_type": "lambda", "output_shape": null, "output_shape_type": "raw", "arguments": {}}, "inbound_nodes": [[["stage3/block5/channel_shuffle", 0, 0, {}]]]}, {"name": "stage3/block6/1x1conv_1", "class_name": "Conv2D", "config": {"name": "stage3/block6/1x1conv_1", "trainable": true, "dtype": "float32", "filters": 232, "kernel_size": [1, 1], "strides": [1, 1], "padding": "same", "data_format": "channels_last", "dilation_rate": [1, 1], "activation": "linear", "use_bias": true, "kernel_initializer": {"class_name": "VarianceScaling", "config": {"scale": 1.0, "mode": "fan_avg", "distribution": "uniform", "seed": null}}, "bias_initializer": {"class_name": "Zeros", "config": {}}, "kernel_regularizer": null, "bias_regularizer": null, "activity_regularizer": null, "kernel_constraint": null, "bias_constraint": null}, "inbound_nodes": [[["stage3/block6/spl/sp1_slice", 0, 0, {}]]]}, {"name": "stage3/block6/bn_1x1conv_1", "class_name": "BatchNormalization", "config": {"name": "stage3/block6/bn_1x1conv_1", "trainable": true, "dtype": "float32", "axis": -1, "momentum": 0.99, "epsilon": 0.001, "center": true, "scale": true, "beta_initializer": {"class_name": "Zeros", "config": {}}, "gamma_initializer": {"class_name": "Ones", "config": {}}, "moving_mean_initializer": {"class_name": "Zeros", "config": {}}, "moving_variance_initializer": {"class_name": "Ones", "config": {}}, "beta_regularizer": null, "gamma_regularizer": null, "beta_constraint": null, "gamma_constraint": null}, "inbound_nodes": [[["stage3/block6/1x1conv_1", 0, 0, {}]]]}, {"name": "stage3/block6/relu_1x1conv_1", "class_name": "Activation", "config": {"name": "stage3/block6/relu_1x1conv_1", "trainable": true, "dtype": "float32", "activation": "relu"}, "inbound_nodes": [[["stage3/block6/bn_1x1conv_1", 0, 0, {}]]]}, {"name": "stage3/block6/3x3dwconv", "class_name": "DepthwiseConv2D", "config": {"name": "stage3/block6/3x3dwconv", "trainable": true, "dtype": "float32", "kernel_size": [3, 3], "strides": [1, 1], "padding": "same", "data_format": "channels_last", "dilation_rate": [1, 1], "activation": "linear", "use_bias": true, "bias_initializer": {"class_name": "Zeros", "config": {}}, "bias_regularizer": null, "activity_regularizer": null, "bias_constraint": null, "depth_multiplier": 1, "depthwise_initializer": {"class_name": "VarianceScaling", "config": {"scale": 1.0, "mode": "fan_avg", "distribution": "uniform", "seed": null}}, "depthwise_regularizer": null, "depthwise_constraint": null}, "inbound_nodes": [[["stage3/block6/relu_1x1conv_1", 0, 0, {}]]]}, {"name": "stage3/block6/bn_3x3dwconv", "class_name": "BatchNormalization", "config": {"name": "stage3/block6/bn_3x3dwconv", "trainable": true, "dtype": "float32", "axis": -1, "momentum": 0.99, "epsilon": 0.001, "center": true, "scale": true, "beta_initializer": {"class_name": "Zeros", "config": {}}, "gamma_initializer": {"class_name": "Ones", "config": {}}, "moving_mean_initializer": {"class_name": "Zeros", "config": {}}, "moving_variance_initializer": {"class_name": "Ones", "config": {}}, "beta_regularizer": null, "gamma_regularizer": null, "beta_constraint": null, "gamma_constraint": null}, "inbound_nodes": [[["stage3/block6/3x3dwconv", 0, 0, {}]]]}, {"name": "stage3/block6/1x1conv_2", "class_name": "Conv2D", "config": {"name": "stage3/block6/1x1conv_2", "trainable": true, "dtype": "float32", "filters": 232, "kernel_size": [1, 1], "strides": [1, 1], "padding": "same", "data_format": "channels_last", "dilation_rate": [1, 1], "activation": "linear", "use_bias": true, "kernel_initializer": {"class_name": "VarianceScaling", "config": {"scale": 1.0, "mode": "fan_avg", "distribution": "uniform", "seed": null}}, "bias_initializer": {"class_name": "Zeros", "config": {}}, "kernel_regularizer": null, "bias_regularizer": null, "activity_regularizer": null, "kernel_constraint": null, "bias_constraint": null}, "inbound_nodes": [[["stage3/block6/bn_3x3dwconv", 0, 0, {}]]]}, {"name": "stage3/block6/bn_1x1conv_2", "class_name": "BatchNormalization", "config": {"name": "stage3/block6/bn_1x1conv_2", "trainable": true, "dtype": "float32", "axis": -1, "momentum": 0.99, "epsilon": 0.001, "center": true, "scale": true, "beta_initializer": {"class_name": "Zeros", "config": {}}, "gamma_initializer": {"class_name": "Ones", "config": {}}, "moving_mean_initializer": {"class_name": "Zeros", "config": {}}, "moving_variance_initializer": {"class_name": "Ones", "config": {}}, "beta_regularizer": null, "gamma_regularizer": null, "beta_constraint": null, "gamma_constraint": null}, "inbound_nodes": [[["stage3/block6/1x1conv_2", 0, 0, {}]]]}, {"name": "stage3/block6/relu_1x1conv_2", "class_name": "Activation", "config": {"name": "stage3/block6/relu_1x1conv_2", "trainable": true, "dtype": "float32", "activation": "relu"}, "inbound_nodes": [[["stage3/block6/bn_1x1conv_2", 0, 0, {}]]]}, {"name": "stage3/block6/spl/sp0_slice", "class_name": "Lambda", "config": {"name": "stage3/block6/spl/sp0_slice", "trainable": true, "dtype": "float32", "function": ["4wEAAAAAAAAAAQAAAAYAAAATAAAAcyAAAAB8AGQAZACFAmQAZACFAmQAZACFAmQBiACFAmYEGQBT\nACkCTukAAAAAqQApAdoBeikB2gJpcHICAAAA+j0vaG9tZS9yb2ZhaWRhL3B5dGhvbi1lbnZzL2Vu\ndjIvbmV3LU1vZGVscy91dGlsc19zaHVmZmxlbmV0LnB52gg8bGFtYmRhPhYAAADzAAAAAA==\n", null, [232]], "function_type": "lambda", "output_shape": null, "output_shape_type": "raw", "arguments": {}}, "inbound_nodes": [[["stage3/block5/channel_shuffle", 0, 0, {}]]]}, {"name": "stage3/block6/concat_1", "class_name": "Concatenate", "config": {"name": "stage3/block6/concat_1", "trainable": true, "dtype": "float32", "axis": -1}, "inbound_nodes": [[["stage3/block6/relu_1x1conv_2", 0, 0, {}], ["stage3/block6/spl/sp0_slice", 0, 0, {}]]]}, {"name": "stage3/block6/channel_shuffle", "class_name": "Lambda", "config": {"name": "stage3/block6/channel_shuffle", "trainable": true, "dtype": "float32", "function": ["4wEAAAAAAAAABQAAAAgAAABDAAAAc1oAAAB8AGoAoAGhAGQBZACFAhkAXAN9AX0CfQN8A2QCGgB9\nBHQCoAN8AGQDfAF8AmQCfARnBaECfQB0AqAEfABkBKECfQB0AqADfABkA3wBfAJ8A2cEoQJ9AHwA\nUwApBU7pAQAAAOkCAAAA6f////8pBekAAAAAcgEAAAByAgAAAOkEAAAA6QMAAAApBdoFc2hhcGXa\nB2FzX2xpc3TaAUvaB3Jlc2hhcGXaEnBlcm11dGVfZGltZW5zaW9ucykF2gF42gZoZWlnaHTaBXdp\nZHRo2ghjaGFubmVsc1oSY2hhbm5lbHNfcGVyX3NwbGl0qQByEAAAAPo9L2hvbWUvcm9mYWlkYS9w\neXRob24tZW52cy9lbnYyL25ldy1Nb2RlbHMvdXRpbHNfc2h1ZmZsZW5ldC5wedoPY2hhbm5lbF9z\naHVmZmxlGgAAAHMMAAAAAAEYAQgBFgEMARQB\n", null, null], "function_type": "lambda", "output_shape": null, "output_shape_type": "raw", "arguments": {}}, "inbound_nodes": [[["stage3/block6/concat_1", 0, 0, {}]]]}, {"name": "stage3/block7/spl/sp1_slice", "class_name": "Lambda", "config": {"name": "stage3/block7/spl/sp1_slice", "trainable": true, "dtype": "float32", "function": ["4wEAAAAAAAAAAQAAAAYAAAATAAAAcyAAAAB8AGQAZACFAmQAZACFAmQAZACFAogAZACFAmYEGQBT\nACkBTqkAKQHaAXopAdoCaXByAQAAAPo9L2hvbWUvcm9mYWlkYS9weXRob24tZW52cy9lbnYyL25l\ndy1Nb2RlbHMvdXRpbHNfc2h1ZmZsZW5ldC5wedoIPGxhbWJkYT4XAAAA8wAAAAA=\n", null, [232]], "function_type": "lambda", "output_shape": null, "output_shape_type": "raw", "arguments": {}}, "inbound_nodes": [[["stage3/block6/channel_shuffle", 0, 0, {}]]]}, {"name": "stage3/block7/1x1conv_1", "class_name": "Conv2D", "config": {"name": "stage3/block7/1x1conv_1", "trainable": true, "dtype": "float32", "filters": 232, "kernel_size": [1, 1], "strides": [1, 1], "padding": "same", "data_format": "channels_last", "dilation_rate": [1, 1], "activation": "linear", "use_bias": true, "kernel_initializer": {"class_name": "VarianceScaling", "config": {"scale": 1.0, "mode": "fan_avg", "distribution": "uniform", "seed": null}}, "bias_initializer": {"class_name": "Zeros", "config": {}}, "kernel_regularizer": null, "bias_regularizer": null, "activity_regularizer": null, "kernel_constraint": null, "bias_constraint": null}, "inbound_nodes": [[["stage3/block7/spl/sp1_slice", 0, 0, {}]]]}, {"name": "stage3/block7/bn_1x1conv_1", "class_name": "BatchNormalization", "config": {"name": "stage3/block7/bn_1x1conv_1", "trainable": true, "dtype": "float32", "axis": -1, "momentum": 0.99, "epsilon": 0.001, "center": true, "scale": true, "beta_initializer": {"class_name": "Zeros", "config": {}}, "gamma_initializer": {"class_name": "Ones", "config": {}}, "moving_mean_initializer": {"class_name": "Zeros", "config": {}}, "moving_variance_initializer": {"class_name": "Ones", "config": {}}, "beta_regularizer": null, "gamma_regularizer": null, "beta_constraint": null, "gamma_constraint": null}, "inbound_nodes": [[["stage3/block7/1x1conv_1", 0, 0, {}]]]}, {"name": "stage3/block7/relu_1x1conv_1", "class_name": "Activation", "config": {"name": "stage3/block7/relu_1x1conv_1", "trainable": true, "dtype": "float32", "activation": "relu"}, "inbound_nodes": [[["stage3/block7/bn_1x1conv_1", 0, 0, {}]]]}, {"name": "stage3/block7/3x3dwconv", "class_name": "DepthwiseConv2D", "config": {"name": "stage3/block7/3x3dwconv", "trainable": true, "dtype": "float32", "kernel_size": [3, 3], "strides": [1, 1], "padding": "same", "data_format": "channels_last", "dilation_rate": [1, 1], "activation": "linear", "use_bias": true, "bias_initializer": {"class_name": "Zeros", "config": {}}, "bias_regularizer": null, "activity_regularizer": null, "bias_constraint": null, "depth_multiplier": 1, "depthwise_initializer": {"class_name": "VarianceScaling", "config": {"scale": 1.0, "mode": "fan_avg", "distribution": "uniform", "seed": null}}, "depthwise_regularizer": null, "depthwise_constraint": null}, "inbound_nodes": [[["stage3/block7/relu_1x1conv_1", 0, 0, {}]]]}, {"name": "stage3/block7/bn_3x3dwconv", "class_name": "BatchNormalization", "config": {"name": "stage3/block7/bn_3x3dwconv", "trainable": true, "dtype": "float32", "axis": -1, "momentum": 0.99, "epsilon": 0.001, "center": true, "scale": true, "beta_initializer": {"class_name": "Zeros", "config": {}}, "gamma_initializer": {"class_name": "Ones", "config": {}}, "moving_mean_initializer": {"class_name": "Zeros", "config": {}}, "moving_variance_initializer": {"class_name": "Ones", "config": {}}, "beta_regularizer": null, "gamma_regularizer": null, "beta_constraint": null, "gamma_constraint": null}, "inbound_nodes": [[["stage3/block7/3x3dwconv", 0, 0, {}]]]}, {"name": "stage3/block7/1x1conv_2", "class_name": "Conv2D", "config": {"name": "stage3/block7/1x1conv_2", "trainable": true, "dtype": "float32", "filters": 232, "kernel_size": [1, 1], "strides": [1, 1], "padding": "same", "data_format": "channels_last", "dilation_rate": [1, 1], "activation": "linear", "use_bias": true, "kernel_initializer": {"class_name": "VarianceScaling", "config": {"scale": 1.0, "mode": "fan_avg", "distribution": "uniform", "seed": null}}, "bias_initializer": {"class_name": "Zeros", "config": {}}, "kernel_regularizer": null, "bias_regularizer": null, "activity_regularizer": null, "kernel_constraint": null, "bias_constraint": null}, "inbound_nodes": [[["stage3/block7/bn_3x3dwconv", 0, 0, {}]]]}, {"name": "stage3/block7/bn_1x1conv_2", "class_name": "BatchNormalization", "config": {"name": "stage3/block7/bn_1x1conv_2", "trainable": true, "dtype": "float32", "axis": -1, "momentum": 0.99, "epsilon": 0.001, "center": true, "scale": true, "beta_initializer": {"class_name": "Zeros", "config": {}}, "gamma_initializer": {"class_name": "Ones", "config": {}}, "moving_mean_initializer": {"class_name": "Zeros", "config": {}}, "moving_variance_initializer": {"class_name": "Ones", "config": {}}, "beta_regularizer": null, "gamma_regularizer": null, "beta_constraint": null, "gamma_constraint": null}, "inbound_nodes": [[["stage3/block7/1x1conv_2", 0, 0, {}]]]}, {"name": "stage3/block7/relu_1x1conv_2", "class_name": "Activation", "config": {"name": "stage3/block7/relu_1x1conv_2", "trainable": true, "dtype": "float32", "activation": "relu"}, "inbound_nodes": [[["stage3/block7/bn_1x1conv_2", 0, 0, {}]]]}, {"name": "stage3/block7/spl/sp0_slice", "class_name": "Lambda", "config": {"name": "stage3/block7/spl/sp0_slice", "trainable": true, "dtype": "float32", "function": ["4wEAAAAAAAAAAQAAAAYAAAATAAAAcyAAAAB8AGQAZACFAmQAZACFAmQAZACFAmQBiACFAmYEGQBT\nACkCTukAAAAAqQApAdoBeikB2gJpcHICAAAA+j0vaG9tZS9yb2ZhaWRhL3B5dGhvbi1lbnZzL2Vu\ndjIvbmV3LU1vZGVscy91dGlsc19zaHVmZmxlbmV0LnB52gg8bGFtYmRhPhYAAADzAAAAAA==\n", null, [232]], "function_type": "lambda", "output_shape": null, "output_shape_type": "raw", "arguments": {}}, "inbound_nodes": [[["stage3/block6/channel_shuffle", 0, 0, {}]]]}, {"name": "stage3/block7/concat_1", "class_name": "Concatenate", "config": {"name": "stage3/block7/concat_1", "trainable": true, "dtype": "float32", "axis": -1}, "inbound_nodes": [[["stage3/block7/relu_1x1conv_2", 0, 0, {}], ["stage3/block7/spl/sp0_slice", 0, 0, {}]]]}, {"name": "stage3/block7/channel_shuffle", "class_name": "Lambda", "config": {"name": "stage3/block7/channel_shuffle", "trainable": true, "dtype": "float32", "function": ["4wEAAAAAAAAABQAAAAgAAABDAAAAc1oAAAB8AGoAoAGhAGQBZACFAhkAXAN9AX0CfQN8A2QCGgB9\nBHQCoAN8AGQDfAF8AmQCfARnBaECfQB0AqAEfABkBKECfQB0AqADfABkA3wBfAJ8A2cEoQJ9AHwA\nUwApBU7pAQAAAOkCAAAA6f////8pBekAAAAAcgEAAAByAgAAAOkEAAAA6QMAAAApBdoFc2hhcGXa\nB2FzX2xpc3TaAUvaB3Jlc2hhcGXaEnBlcm11dGVfZGltZW5zaW9ucykF2gF42gZoZWlnaHTaBXdp\nZHRo2ghjaGFubmVsc1oSY2hhbm5lbHNfcGVyX3NwbGl0qQByEAAAAPo9L2hvbWUvcm9mYWlkYS9w\neXRob24tZW52cy9lbnYyL25ldy1Nb2RlbHMvdXRpbHNfc2h1ZmZsZW5ldC5wedoPY2hhbm5lbF9z\naHVmZmxlGgAAAHMMAAAAAAEYAQgBFgEMARQB\n", null, null], "function_type": "lambda", "output_shape": null, "output_shape_type": "raw", "arguments": {}}, "inbound_nodes": [[["stage3/block7/concat_1", 0, 0, {}]]]}, {"name": "stage3/block8/spl/sp1_slice", "class_name": "Lambda", "config": {"name": "stage3/block8/spl/sp1_slice", "trainable": true, "dtype": "float32", "function": ["4wEAAAAAAAAAAQAAAAYAAAATAAAAcyAAAAB8AGQAZACFAmQAZACFAmQAZACFAogAZACFAmYEGQBT\nACkBTqkAKQHaAXopAdoCaXByAQAAAPo9L2hvbWUvcm9mYWlkYS9weXRob24tZW52cy9lbnYyL25l\ndy1Nb2RlbHMvdXRpbHNfc2h1ZmZsZW5ldC5wedoIPGxhbWJkYT4XAAAA8wAAAAA=\n", null, [232]], "function_type": "lambda", "output_shape": null, "output_shape_type": "raw", "arguments": {}}, "inbound_nodes": [[["stage3/block7/channel_shuffle", 0, 0, {}]]]}, {"name": "stage3/block8/1x1conv_1", "class_name": "Conv2D", "config": {"name": "stage3/block8/1x1conv_1", "trainable": true, "dtype": "float32", "filters": 232, "kernel_size": [1, 1], "strides": [1, 1], "padding": "same", "data_format": "channels_last", "dilation_rate": [1, 1], "activation": "linear", "use_bias": true, "kernel_initializer": {"class_name": "VarianceScaling", "config": {"scale": 1.0, "mode": "fan_avg", "distribution": "uniform", "seed": null}}, "bias_initializer": {"class_name": "Zeros", "config": {}}, "kernel_regularizer": null, "bias_regularizer": null, "activity_regularizer": null, "kernel_constraint": null, "bias_constraint": null}, "inbound_nodes": [[["stage3/block8/spl/sp1_slice", 0, 0, {}]]]}, {"name": "stage3/block8/bn_1x1conv_1", "class_name": "BatchNormalization", "config": {"name": "stage3/block8/bn_1x1conv_1", "trainable": true, "dtype": "float32", "axis": -1, "momentum": 0.99, "epsilon": 0.001, "center": true, "scale": true, "beta_initializer": {"class_name": "Zeros", "config": {}}, "gamma_initializer": {"class_name": "Ones", "config": {}}, "moving_mean_initializer": {"class_name": "Zeros", "config": {}}, "moving_variance_initializer": {"class_name": "Ones", "config": {}}, "beta_regularizer": null, "gamma_regularizer": null, "beta_constraint": null, "gamma_constraint": null}, "inbound_nodes": [[["stage3/block8/1x1conv_1", 0, 0, {}]]]}, {"name": "stage3/block8/relu_1x1conv_1", "class_name": "Activation", "config": {"name": "stage3/block8/relu_1x1conv_1", "trainable": true, "dtype": "float32", "activation": "relu"}, "inbound_nodes": [[["stage3/block8/bn_1x1conv_1", 0, 0, {}]]]}, {"name": "stage3/block8/3x3dwconv", "class_name": "DepthwiseConv2D", "config": {"name": "stage3/block8/3x3dwconv", "trainable": true, "dtype": "float32", "kernel_size": [3, 3], "strides": [1, 1], "padding": "same", "data_format": "channels_last", "dilation_rate": [1, 1], "activation": "linear", "use_bias": true, "bias_initializer": {"class_name": "Zeros", "config": {}}, "bias_regularizer": null, "activity_regularizer": null, "bias_constraint": null, "depth_multiplier": 1, "depthwise_initializer": {"class_name": "VarianceScaling", "config": {"scale": 1.0, "mode": "fan_avg", "distribution": "uniform", "seed": null}}, "depthwise_regularizer": null, "depthwise_constraint": null}, "inbound_nodes": [[["stage3/block8/relu_1x1conv_1", 0, 0, {}]]]}, {"name": "stage3/block8/bn_3x3dwconv", "class_name": "BatchNormalization", "config": {"name": "stage3/block8/bn_3x3dwconv", "trainable": true, "dtype": "float32", "axis": -1, "momentum": 0.99, "epsilon": 0.001, "center": true, "scale": true, "beta_initializer": {"class_name": "Zeros", "config": {}}, "gamma_initializer": {"class_name": "Ones", "config": {}}, "moving_mean_initializer": {"class_name": "Zeros", "config": {}}, "moving_variance_initializer": {"class_name": "Ones", "config": {}}, "beta_regularizer": null, "gamma_regularizer": null, "beta_constraint": null, "gamma_constraint": null}, "inbound_nodes": [[["stage3/block8/3x3dwconv", 0, 0, {}]]]}, {"name": "stage3/block8/1x1conv_2", "class_name": "Conv2D", "config": {"name": "stage3/block8/1x1conv_2", "trainable": true, "dtype": "float32", "filters": 232, "kernel_size": [1, 1], "strides": [1, 1], "padding": "same", "data_format": "channels_last", "dilation_rate": [1, 1], "activation": "linear", "use_bias": true, "kernel_initializer": {"class_name": "VarianceScaling", "config": {"scale": 1.0, "mode": "fan_avg", "distribution": "uniform", "seed": null}}, "bias_initializer": {"class_name": "Zeros", "config": {}}, "kernel_regularizer": null, "bias_regularizer": null, "activity_regularizer": null, "kernel_constraint": null, "bias_constraint": null}, "inbound_nodes": [[["stage3/block8/bn_3x3dwconv", 0, 0, {}]]]}, {"name": "stage3/block8/bn_1x1conv_2", "class_name": "BatchNormalization", "config": {"name": "stage3/block8/bn_1x1conv_2", "trainable": true, "dtype": "float32", "axis": -1, "momentum": 0.99, "epsilon": 0.001, "center": true, "scale": true, "beta_initializer": {"class_name": "Zeros", "config": {}}, "gamma_initializer": {"class_name": "Ones", "config": {}}, "moving_mean_initializer": {"class_name": "Zeros", "config": {}}, "moving_variance_initializer": {"class_name": "Ones", "config": {}}, "beta_regularizer": null, "gamma_regularizer": null, "beta_constraint": null, "gamma_constraint": null}, "inbound_nodes": [[["stage3/block8/1x1conv_2", 0, 0, {}]]]}, {"name": "stage3/block8/relu_1x1conv_2", "class_name": "Activation", "config": {"name": "stage3/block8/relu_1x1conv_2", "trainable": true, "dtype": "float32", "activation": "relu"}, "inbound_nodes": [[["stage3/block8/bn_1x1conv_2", 0, 0, {}]]]}, {"name": "stage3/block8/spl/sp0_slice", "class_name": "Lambda", "config": {"name": "stage3/block8/spl/sp0_slice", "trainable": true, "dtype": "float32", "function": ["4wEAAAAAAAAAAQAAAAYAAAATAAAAcyAAAAB8AGQAZACFAmQAZACFAmQAZACFAmQBiACFAmYEGQBT\nACkCTukAAAAAqQApAdoBeikB2gJpcHICAAAA+j0vaG9tZS9yb2ZhaWRhL3B5dGhvbi1lbnZzL2Vu\ndjIvbmV3LU1vZGVscy91dGlsc19zaHVmZmxlbmV0LnB52gg8bGFtYmRhPhYAAADzAAAAAA==\n", null, [232]], "function_type": "lambda", "output_shape": null, "output_shape_type": "raw", "arguments": {}}, "inbound_nodes": [[["stage3/block7/channel_shuffle", 0, 0, {}]]]}, {"name": "stage3/block8/concat_1", "class_name": "Concatenate", "config": {"name": "stage3/block8/concat_1", "trainable": true, "dtype": "float32", "axis": -1}, "inbound_nodes": [[["stage3/block8/relu_1x1conv_2", 0, 0, {}], ["stage3/block8/spl/sp0_slice", 0, 0, {}]]]}, {"name": "stage3/block8/channel_shuffle", "class_name": "Lambda", "config": {"name": "stage3/block8/channel_shuffle", "trainable": true, "dtype": "float32", "function": ["4wEAAAAAAAAABQAAAAgAAABDAAAAc1oAAAB8AGoAoAGhAGQBZACFAhkAXAN9AX0CfQN8A2QCGgB9\nBHQCoAN8AGQDfAF8AmQCfARnBaECfQB0AqAEfABkBKECfQB0AqADfABkA3wBfAJ8A2cEoQJ9AHwA\nUwApBU7pAQAAAOkCAAAA6f////8pBekAAAAAcgEAAAByAgAAAOkEAAAA6QMAAAApBdoFc2hhcGXa\nB2FzX2xpc3TaAUvaB3Jlc2hhcGXaEnBlcm11dGVfZGltZW5zaW9ucykF2gF42gZoZWlnaHTaBXdp\nZHRo2ghjaGFubmVsc1oSY2hhbm5lbHNfcGVyX3NwbGl0qQByEAAAAPo9L2hvbWUvcm9mYWlkYS9w\neXRob24tZW52cy9lbnYyL25ldy1Nb2RlbHMvdXRpbHNfc2h1ZmZsZW5ldC5wedoPY2hhbm5lbF9z\naHVmZmxlGgAAAHMMAAAAAAEYAQgBFgEMARQB\n", null, null], "function_type": "lambda", "output_shape": null, "output_shape_type": "raw", "arguments": {}}, "inbound_nodes": [[["stage3/block8/concat_1", 0, 0, {}]]]}, {"name": "stage4/block1/1x1conv_1", "class_name": "Conv2D", "config": {"name": "stage4/block1/1x1conv_1", "trainable": true, "dtype": "float32", "filters": 464, "kernel_size": [1, 1], "strides": [1, 1], "padding": "same", "data_format": "channels_last", "dilation_rate": [1, 1], "activation": "linear", "use_bias": true, "kernel_initializer": {"class_name": "VarianceScaling", "config": {"scale": 1.0, "mode": "fan_avg", "distribution": "uniform", "seed": null}}, "bias_initializer": {"class_name": "Zeros", "config": {}}, "kernel_regularizer": null, "bias_regularizer": null, "activity_regularizer": null, "kernel_constraint": null, "bias_constraint": null}, "inbound_nodes": [[["stage3/block8/channel_shuffle", 0, 0, {}]]]}, {"name": "stage4/block1/bn_1x1conv_1", "class_name": "BatchNormalization", "config": {"name": "stage4/block1/bn_1x1conv_1", "trainable": true, "dtype": "float32", "axis": -1, "momentum": 0.99, "epsilon": 0.001, "center": true, "scale": true, "beta_initializer": {"class_name": "Zeros", "config": {}}, "gamma_initializer": {"class_name": "Ones", "config": {}}, "moving_mean_initializer": {"class_name": "Zeros", "config": {}}, "moving_variance_initializer": {"class_name": "Ones", "config": {}}, "beta_regularizer": null, "gamma_regularizer": null, "beta_constraint": null, "gamma_constraint": null}, "inbound_nodes": [[["stage4/block1/1x1conv_1", 0, 0, {}]]]}, {"name": "stage4/block1/relu_1x1conv_1", "class_name": "Activation", "config": {"name": "stage4/block1/relu_1x1conv_1", "trainable": true, "dtype": "float32", "activation": "relu"}, "inbound_nodes": [[["stage4/block1/bn_1x1conv_1", 0, 0, {}]]]}, {"name": "stage4/block1/3x3dwconv", "class_name": "DepthwiseConv2D", "config": {"name": "stage4/block1/3x3dwconv", "trainable": true, "dtype": "float32", "kernel_size": [3, 3], "strides": [2, 2], "padding": "same", "data_format": "channels_last", "dilation_rate": [1, 1], "activation": "linear", "use_bias": true, "bias_initializer": {"class_name": "Zeros", "config": {}}, "bias_regularizer": null, "activity_regularizer": null, "bias_constraint": null, "depth_multiplier": 1, "depthwise_initializer": {"class_name": "VarianceScaling", "config": {"scale": 1.0, "mode": "fan_avg", "distribution": "uniform", "seed": null}}, "depthwise_regularizer": null, "depthwise_constraint": null}, "inbound_nodes": [[["stage4/block1/relu_1x1conv_1", 0, 0, {}]]]}, {"name": "stage4/block1/3x3dwconv_2", "class_name": "DepthwiseConv2D", "config": {"name": "stage4/block1/3x3dwconv_2", "trainable": true, "dtype": "float32", "kernel_size": [3, 3], "strides": [2, 2], "padding": "same", "data_format": "channels_last", "dilation_rate": [1, 1], "activation": "linear", "use_bias": true, "bias_initializer": {"class_name": "Zeros", "config": {}}, "bias_regularizer": null, "activity_regularizer": null, "bias_constraint": null, "depth_multiplier": 1, "depthwise_initializer": {"class_name": "VarianceScaling", "config": {"scale": 1.0, "mode": "fan_avg", "distribution": "uniform", "seed": null}}, "depthwise_regularizer": null, "depthwise_constraint": null}, "inbound_nodes": [[["stage3/block8/channel_shuffle", 0, 0, {}]]]}, {"name": "stage4/block1/bn_3x3dwconv", "class_name": "BatchNormalization", "config": {"name": "stage4/block1/bn_3x3dwconv", "trainable": true, "dtype": "float32", "axis": -1, "momentum": 0.99, "epsilon": 0.001, "center": true, "scale": true, "beta_initializer": {"class_name": "Zeros", "config": {}}, "gamma_initializer": {"class_name": "Ones", "config": {}}, "moving_mean_initializer": {"class_name": "Zeros", "config": {}}, "moving_variance_initializer": {"class_name": "Ones", "config": {}}, "beta_regularizer": null, "gamma_regularizer": null, "beta_constraint": null, "gamma_constraint": null}, "inbound_nodes": [[["stage4/block1/3x3dwconv", 0, 0, {}]]]}, {"name": "stage4/block1/bn_3x3dwconv_2", "class_name": "BatchNormalization", "config": {"name": "stage4/block1/bn_3x3dwconv_2", "trainable": true, "dtype": "float32", "axis": -1, "momentum": 0.99, "epsilon": 0.001, "center": true, "scale": true, "beta_initializer": {"class_name": "Zeros", "config": {}}, "gamma_initializer": {"class_name": "Ones", "config": {}}, "moving_mean_initializer": {"class_name": "Zeros", "config": {}}, "moving_variance_initializer": {"class_name": "Ones", "config": {}}, "beta_regularizer": null, "gamma_regularizer": null, "beta_constraint": null, "gamma_constraint": null}, "inbound_nodes": [[["stage4/block1/3x3dwconv_2", 0, 0, {}]]]}, {"name": "stage4/block1/1x1conv_2", "class_name": "Conv2D", "config": {"name": "stage4/block1/1x1conv_2", "trainable": true, "dtype": "float32", "filters": 464, "kernel_size": [1, 1], "strides": [1, 1], "padding": "same", "data_format": "channels_last", "dilation_rate": [1, 1], "activation": "linear", "use_bias": true, "kernel_initializer": {"class_name": "VarianceScaling", "config": {"scale": 1.0, "mode": "fan_avg", "distribution": "uniform", "seed": null}}, "bias_initializer": {"class_name": "Zeros", "config": {}}, "kernel_regularizer": null, "bias_regularizer": null, "activity_regularizer": null, "kernel_constraint": null, "bias_constraint": null}, "inbound_nodes": [[["stage4/block1/bn_3x3dwconv", 0, 0, {}]]]}, {"name": "stage4/block1/1x1_conv_3", "class_name": "Conv2D", "config": {"name": "stage4/block1/1x1_conv_3", "trainable": true, "dtype": "float32", "filters": 464, "kernel_size": [1, 1], "strides": [1, 1], "padding": "same", "data_format": "channels_last", "dilation_rate": [1, 1], "activation": "linear", "use_bias": true, "kernel_initializer": {"class_name": "VarianceScaling", "config": {"scale": 1.0, "mode": "fan_avg", "distribution": "uniform", "seed": null}}, "bias_initializer": {"class_name": "Zeros", "config": {}}, "kernel_regularizer": null, "bias_regularizer": null, "activity_regularizer": null, "kernel_constraint": null, "bias_constraint": null}, "inbound_nodes": [[["stage4/block1/bn_3x3dwconv_2", 0, 0, {}]]]}, {"name": "stage4/block1/bn_1x1conv_2", "class_name": "BatchNormalization", "config": {"name": "stage4/block1/bn_1x1conv_2", "trainable": true, "dtype": "float32", "axis": -1, "momentum": 0.99, "epsilon": 0.001, "center": true, "scale": true, "beta_initializer": {"class_name": "Zeros", "config": {}}, "gamma_initializer": {"class_name": "Ones", "config": {}}, "moving_mean_initializer": {"class_name": "Zeros", "config": {}}, "moving_variance_initializer": {"class_name": "Ones", "config": {}}, "beta_regularizer": null, "gamma_regularizer": null, "beta_constraint": null, "gamma_constraint": null}, "inbound_nodes": [[["stage4/block1/1x1conv_2", 0, 0, {}]]]}, {"name": "stage4/block1/bn_1x1conv_3", "class_name": "BatchNormalization", "config": {"name": "stage4/block1/bn_1x1conv_3", "trainable": true, "dtype": "float32", "axis": -1, "momentum": 0.99, "epsilon": 0.001, "center": true, "scale": true, "beta_initializer": {"class_name": "Zeros", "config": {}}, "gamma_initializer": {"class_name": "Ones", "config": {}}, "moving_mean_initializer": {"class_name": "Zeros", "config": {}}, "moving_variance_initializer": {"class_name": "Ones", "config": {}}, "beta_regularizer": null, "gamma_regularizer": null, "beta_constraint": null, "gamma_constraint": null}, "inbound_nodes": [[["stage4/block1/1x1_conv_3", 0, 0, {}]]]}, {"name": "stage4/block1/relu_1x1conv_2", "class_name": "Activation", "config": {"name": "stage4/block1/relu_1x1conv_2", "trainable": true, "dtype": "float32", "activation": "relu"}, "inbound_nodes": [[["stage4/block1/bn_1x1conv_2", 0, 0, {}]]]}, {"name": "stage4/block1/relu_1x1conv_3", "class_name": "Activation", "config": {"name": "stage4/block1/relu_1x1conv_3", "trainable": true, "dtype": "float32", "activation": "relu"}, "inbound_nodes": [[["stage4/block1/bn_1x1conv_3", 0, 0, {}]]]}, {"name": "stage4/block1/concat_2", "class_name": "Concatenate", "config": {"name": "stage4/block1/concat_2", "trainable": true, "dtype": "float32", "axis": -1}, "inbound_nodes": [[["stage4/block1/relu_1x1conv_2", 0, 0, {}], ["stage4/block1/relu_1x1conv_3", 0, 0, {}]]]}, {"name": "stage4/block1/channel_shuffle", "class_name": "Lambda", "config": {"name": "stage4/block1/channel_shuffle", "trainable": true, "dtype": "float32", "function": ["4wEAAAAAAAAABQAAAAgAAABDAAAAc1oAAAB8AGoAoAGhAGQBZACFAhkAXAN9AX0CfQN8A2QCGgB9\nBHQCoAN8AGQDfAF8AmQCfARnBaECfQB0AqAEfABkBKECfQB0AqADfABkA3wBfAJ8A2cEoQJ9AHwA\nUwApBU7pAQAAAOkCAAAA6f////8pBekAAAAAcgEAAAByAgAAAOkEAAAA6QMAAAApBdoFc2hhcGXa\nB2FzX2xpc3TaAUvaB3Jlc2hhcGXaEnBlcm11dGVfZGltZW5zaW9ucykF2gF42gZoZWlnaHTaBXdp\nZHRo2ghjaGFubmVsc1oSY2hhbm5lbHNfcGVyX3NwbGl0qQByEAAAAPo9L2hvbWUvcm9mYWlkYS9w\neXRob24tZW52cy9lbnYyL25ldy1Nb2RlbHMvdXRpbHNfc2h1ZmZsZW5ldC5wedoPY2hhbm5lbF9z\naHVmZmxlGgAAAHMMAAAAAAEYAQgBFgEMARQB\n", null, null], "function_type": "lambda", "output_shape": null, "output_shape_type": "raw", "arguments": {}}, "inbound_nodes": [[["stage4/block1/concat_2", 0, 0, {}]]]}, {"name": "stage4/block2/spl/sp1_slice", "class_name": "Lambda", "config": {"name": "stage4/block2/spl/sp1_slice", "trainable": true, "dtype": "float32", "function": ["4wEAAAAAAAAAAQAAAAYAAAATAAAAcyAAAAB8AGQAZACFAmQAZACFAmQAZACFAogAZACFAmYEGQBT\nACkBTqkAKQHaAXopAdoCaXByAQAAAPo9L2hvbWUvcm9mYWlkYS9weXRob24tZW52cy9lbnYyL25l\ndy1Nb2RlbHMvdXRpbHNfc2h1ZmZsZW5ldC5wedoIPGxhbWJkYT4XAAAA8wAAAAA=\n", null, [464]], "function_type": "lambda", "output_shape": null, "output_shape_type": "raw", "arguments": {}}, "inbound_nodes": [[["stage4/block1/channel_shuffle", 0, 0, {}]]]}, {"name": "stage4/block2/1x1conv_1", "class_name": "Conv2D", "config": {"name": "stage4/block2/1x1conv_1", "trainable": true, "dtype": "float32", "filters": 464, "kernel_size": [1, 1], "strides": [1, 1], "padding": "same", "data_format": "channels_last", "dilation_rate": [1, 1], "activation": "linear", "use_bias": true, "kernel_initializer": {"class_name": "VarianceScaling", "config": {"scale": 1.0, "mode": "fan_avg", "distribution": "uniform", "seed": null}}, "bias_initializer": {"class_name": "Zeros", "config": {}}, "kernel_regularizer": null, "bias_regularizer": null, "activity_regularizer": null, "kernel_constraint": null, "bias_constraint": null}, "inbound_nodes": [[["stage4/block2/spl/sp1_slice", 0, 0, {}]]]}, {"name": "stage4/block2/bn_1x1conv_1", "class_name": "BatchNormalization", "config": {"name": "stage4/block2/bn_1x1conv_1", "trainable": true, "dtype": "float32", "axis": -1, "momentum": 0.99, "epsilon": 0.001, "center": true, "scale": true, "beta_initializer": {"class_name": "Zeros", "config": {}}, "gamma_initializer": {"class_name": "Ones", "config": {}}, "moving_mean_initializer": {"class_name": "Zeros", "config": {}}, "moving_variance_initializer": {"class_name": "Ones", "config": {}}, "beta_regularizer": null, "gamma_regularizer": null, "beta_constraint": null, "gamma_constraint": null}, "inbound_nodes": [[["stage4/block2/1x1conv_1", 0, 0, {}]]]}, {"name": "stage4/block2/relu_1x1conv_1", "class_name": "Activation", "config": {"name": "stage4/block2/relu_1x1conv_1", "trainable": true, "dtype": "float32", "activation": "relu"}, "inbound_nodes": [[["stage4/block2/bn_1x1conv_1", 0, 0, {}]]]}, {"name": "stage4/block2/3x3dwconv", "class_name": "DepthwiseConv2D", "config": {"name": "stage4/block2/3x3dwconv", "trainable": true, "dtype": "float32", "kernel_size": [3, 3], "strides": [1, 1], "padding": "same", "data_format": "channels_last", "dilation_rate": [1, 1], "activation": "linear", "use_bias": true, "bias_initializer": {"class_name": "Zeros", "config": {}}, "bias_regularizer": null, "activity_regularizer": null, "bias_constraint": null, "depth_multiplier": 1, "depthwise_initializer": {"class_name": "VarianceScaling", "config": {"scale": 1.0, "mode": "fan_avg", "distribution": "uniform", "seed": null}}, "depthwise_regularizer": null, "depthwise_constraint": null}, "inbound_nodes": [[["stage4/block2/relu_1x1conv_1", 0, 0, {}]]]}, {"name": "stage4/block2/bn_3x3dwconv", "class_name": "BatchNormalization", "config": {"name": "stage4/block2/bn_3x3dwconv", "trainable": true, "dtype": "float32", "axis": -1, "momentum": 0.99, "epsilon": 0.001, "center": true, "scale": true, "beta_initializer": {"class_name": "Zeros", "config": {}}, "gamma_initializer": {"class_name": "Ones", "config": {}}, "moving_mean_initializer": {"class_name": "Zeros", "config": {}}, "moving_variance_initializer": {"class_name": "Ones", "config": {}}, "beta_regularizer": null, "gamma_regularizer": null, "beta_constraint": null, "gamma_constraint": null}, "inbound_nodes": [[["stage4/block2/3x3dwconv", 0, 0, {}]]]}, {"name": "stage4/block2/1x1conv_2", "class_name": "Conv2D", "config": {"name": "stage4/block2/1x1conv_2", "trainable": true, "dtype": "float32", "filters": 464, "kernel_size": [1, 1], "strides": [1, 1], "padding": "same", "data_format": "channels_last", "dilation_rate": [1, 1], "activation": "linear", "use_bias": true, "kernel_initializer": {"class_name": "VarianceScaling", "config": {"scale": 1.0, "mode": "fan_avg", "distribution": "uniform", "seed": null}}, "bias_initializer": {"class_name": "Zeros", "config": {}}, "kernel_regularizer": null, "bias_regularizer": null, "activity_regularizer": null, "kernel_constraint": null, "bias_constraint": null}, "inbound_nodes": [[["stage4/block2/bn_3x3dwconv", 0, 0, {}]]]}, {"name": "stage4/block2/bn_1x1conv_2", "class_name": "BatchNormalization", "config": {"name": "stage4/block2/bn_1x1conv_2", "trainable": true, "dtype": "float32", "axis": -1, "momentum": 0.99, "epsilon": 0.001, "center": true, "scale": true, "beta_initializer": {"class_name": "Zeros", "config": {}}, "gamma_initializer": {"class_name": "Ones", "config": {}}, "moving_mean_initializer": {"class_name": "Zeros", "config": {}}, "moving_variance_initializer": {"class_name": "Ones", "config": {}}, "beta_regularizer": null, "gamma_regularizer": null, "beta_constraint": null, "gamma_constraint": null}, "inbound_nodes": [[["stage4/block2/1x1conv_2", 0, 0, {}]]]}, {"name": "stage4/block2/relu_1x1conv_2", "class_name": "Activation", "config": {"name": "stage4/block2/relu_1x1conv_2", "trainable": true, "dtype": "float32", "activation": "relu"}, "inbound_nodes": [[["stage4/block2/bn_1x1conv_2", 0, 0, {}]]]}, {"name": "stage4/block2/spl/sp0_slice", "class_name": "Lambda", "config": {"name": "stage4/block2/spl/sp0_slice", "trainable": true, "dtype": "float32", "function": ["4wEAAAAAAAAAAQAAAAYAAAATAAAAcyAAAAB8AGQAZACFAmQAZACFAmQAZACFAmQBiACFAmYEGQBT\nACkCTukAAAAAqQApAdoBeikB2gJpcHICAAAA+j0vaG9tZS9yb2ZhaWRhL3B5dGhvbi1lbnZzL2Vu\ndjIvbmV3LU1vZGVscy91dGlsc19zaHVmZmxlbmV0LnB52gg8bGFtYmRhPhYAAADzAAAAAA==\n", null, [464]], "function_type": "lambda", "output_shape": null, "output_shape_type": "raw", "arguments": {}}, "inbound_nodes": [[["stage4/block1/channel_shuffle", 0, 0, {}]]]}, {"name": "stage4/block2/concat_1", "class_name": "Concatenate", "config": {"name": "stage4/block2/concat_1", "trainable": true, "dtype": "float32", "axis": -1}, "inbound_nodes": [[["stage4/block2/relu_1x1conv_2", 0, 0, {}], ["stage4/block2/spl/sp0_slice", 0, 0, {}]]]}, {"name": "stage4/block2/channel_shuffle", "class_name": "Lambda", "config": {"name": "stage4/block2/channel_shuffle", "trainable": true, "dtype": "float32", "function": ["4wEAAAAAAAAABQAAAAgAAABDAAAAc1oAAAB8AGoAoAGhAGQBZACFAhkAXAN9AX0CfQN8A2QCGgB9\nBHQCoAN8AGQDfAF8AmQCfARnBaECfQB0AqAEfABkBKECfQB0AqADfABkA3wBfAJ8A2cEoQJ9AHwA\nUwApBU7pAQAAAOkCAAAA6f////8pBekAAAAAcgEAAAByAgAAAOkEAAAA6QMAAAApBdoFc2hhcGXa\nB2FzX2xpc3TaAUvaB3Jlc2hhcGXaEnBlcm11dGVfZGltZW5zaW9ucykF2gF42gZoZWlnaHTaBXdp\nZHRo2ghjaGFubmVsc1oSY2hhbm5lbHNfcGVyX3NwbGl0qQByEAAAAPo9L2hvbWUvcm9mYWlkYS9w\neXRob24tZW52cy9lbnYyL25ldy1Nb2RlbHMvdXRpbHNfc2h1ZmZsZW5ldC5wedoPY2hhbm5lbF9z\naHVmZmxlGgAAAHMMAAAAAAEYAQgBFgEMARQB\n", null, null], "function_type": "lambda", "output_shape": null, "output_shape_type": "raw", "arguments": {}}, "inbound_nodes": [[["stage4/block2/concat_1", 0, 0, {}]]]}, {"name": "stage4/block3/spl/sp1_slice", "class_name": "Lambda", "config": {"name": "stage4/block3/spl/sp1_slice", "trainable": true, "dtype": "float32", "function": ["4wEAAAAAAAAAAQAAAAYAAAATAAAAcyAAAAB8AGQAZACFAmQAZACFAmQAZACFAogAZACFAmYEGQBT\nACkBTqkAKQHaAXopAdoCaXByAQAAAPo9L2hvbWUvcm9mYWlkYS9weXRob24tZW52cy9lbnYyL25l\ndy1Nb2RlbHMvdXRpbHNfc2h1ZmZsZW5ldC5wedoIPGxhbWJkYT4XAAAA8wAAAAA=\n", null, [464]], "function_type": "lambda", "output_shape": null, "output_shape_type": "raw", "arguments": {}}, "inbound_nodes": [[["stage4/block2/channel_shuffle", 0, 0, {}]]]}, {"name": "stage4/block3/1x1conv_1", "class_name": "Conv2D", "config": {"name": "stage4/block3/1x1conv_1", "trainable": true, "dtype": "float32", "filters": 464, "kernel_size": [1, 1], "strides": [1, 1], "padding": "same", "data_format": "channels_last", "dilation_rate": [1, 1], "activation": "linear", "use_bias": true, "kernel_initializer": {"class_name": "VarianceScaling", "config": {"scale": 1.0, "mode": "fan_avg", "distribution": "uniform", "seed": null}}, "bias_initializer": {"class_name": "Zeros", "config": {}}, "kernel_regularizer": null, "bias_regularizer": null, "activity_regularizer": null, "kernel_constraint": null, "bias_constraint": null}, "inbound_nodes": [[["stage4/block3/spl/sp1_slice", 0, 0, {}]]]}, {"name": "stage4/block3/bn_1x1conv_1", "class_name": "BatchNormalization", "config": {"name": "stage4/block3/bn_1x1conv_1", "trainable": true, "dtype": "float32", "axis": -1, "momentum": 0.99, "epsilon": 0.001, "center": true, "scale": true, "beta_initializer": {"class_name": "Zeros", "config": {}}, "gamma_initializer": {"class_name": "Ones", "config": {}}, "moving_mean_initializer": {"class_name": "Zeros", "config": {}}, "moving_variance_initializer": {"class_name": "Ones", "config": {}}, "beta_regularizer": null, "gamma_regularizer": null, "beta_constraint": null, "gamma_constraint": null}, "inbound_nodes": [[["stage4/block3/1x1conv_1", 0, 0, {}]]]}, {"name": "stage4/block3/relu_1x1conv_1", "class_name": "Activation", "config": {"name": "stage4/block3/relu_1x1conv_1", "trainable": true, "dtype": "float32", "activation": "relu"}, "inbound_nodes": [[["stage4/block3/bn_1x1conv_1", 0, 0, {}]]]}, {"name": "stage4/block3/3x3dwconv", "class_name": "DepthwiseConv2D", "config": {"name": "stage4/block3/3x3dwconv", "trainable": true, "dtype": "float32", "kernel_size": [3, 3], "strides": [1, 1], "padding": "same", "data_format": "channels_last", "dilation_rate": [1, 1], "activation": "linear", "use_bias": true, "bias_initializer": {"class_name": "Zeros", "config": {}}, "bias_regularizer": null, "activity_regularizer": null, "bias_constraint": null, "depth_multiplier": 1, "depthwise_initializer": {"class_name": "VarianceScaling", "config": {"scale": 1.0, "mode": "fan_avg", "distribution": "uniform", "seed": null}}, "depthwise_regularizer": null, "depthwise_constraint": null}, "inbound_nodes": [[["stage4/block3/relu_1x1conv_1", 0, 0, {}]]]}, {"name": "stage4/block3/bn_3x3dwconv", "class_name": "BatchNormalization", "config": {"name": "stage4/block3/bn_3x3dwconv", "trainable": true, "dtype": "float32", "axis": -1, "momentum": 0.99, "epsilon": 0.001, "center": true, "scale": true, "beta_initializer": {"class_name": "Zeros", "config": {}}, "gamma_initializer": {"class_name": "Ones", "config": {}}, "moving_mean_initializer": {"class_name": "Zeros", "config": {}}, "moving_variance_initializer": {"class_name": "Ones", "config": {}}, "beta_regularizer": null, "gamma_regularizer": null, "beta_constraint": null, "gamma_constraint": null}, "inbound_nodes": [[["stage4/block3/3x3dwconv", 0, 0, {}]]]}, {"name": "stage4/block3/1x1conv_2", "class_name": "Conv2D", "config": {"name": "stage4/block3/1x1conv_2", "trainable": true, "dtype": "float32", "filters": 464, "kernel_size": [1, 1], "strides": [1, 1], "padding": "same", "data_format": "channels_last", "dilation_rate": [1, 1], "activation": "linear", "use_bias": true, "kernel_initializer": {"class_name": "VarianceScaling", "config": {"scale": 1.0, "mode": "fan_avg", "distribution": "uniform", "seed": null}}, "bias_initializer": {"class_name": "Zeros", "config": {}}, "kernel_regularizer": null, "bias_regularizer": null, "activity_regularizer": null, "kernel_constraint": null, "bias_constraint": null}, "inbound_nodes": [[["stage4/block3/bn_3x3dwconv", 0, 0, {}]]]}, {"name": "stage4/block3/bn_1x1conv_2", "class_name": "BatchNormalization", "config": {"name": "stage4/block3/bn_1x1conv_2", "trainable": true, "dtype": "float32", "axis": -1, "momentum": 0.99, "epsilon": 0.001, "center": true, "scale": true, "beta_initializer": {"class_name": "Zeros", "config": {}}, "gamma_initializer": {"class_name": "Ones", "config": {}}, "moving_mean_initializer": {"class_name": "Zeros", "config": {}}, "moving_variance_initializer": {"class_name": "Ones", "config": {}}, "beta_regularizer": null, "gamma_regularizer": null, "beta_constraint": null, "gamma_constraint": null}, "inbound_nodes": [[["stage4/block3/1x1conv_2", 0, 0, {}]]]}, {"name": "stage4/block3/relu_1x1conv_2", "class_name": "Activation", "config": {"name": "stage4/block3/relu_1x1conv_2", "trainable": true, "dtype": "float32", "activation": "relu"}, "inbound_nodes": [[["stage4/block3/bn_1x1conv_2", 0, 0, {}]]]}, {"name": "stage4/block3/spl/sp0_slice", "class_name": "Lambda", "config": {"name": "stage4/block3/spl/sp0_slice", "trainable": true, "dtype": "float32", "function": ["4wEAAAAAAAAAAQAAAAYAAAATAAAAcyAAAAB8AGQAZACFAmQAZACFAmQAZACFAmQBiACFAmYEGQBT\nACkCTukAAAAAqQApAdoBeikB2gJpcHICAAAA+j0vaG9tZS9yb2ZhaWRhL3B5dGhvbi1lbnZzL2Vu\ndjIvbmV3LU1vZGVscy91dGlsc19zaHVmZmxlbmV0LnB52gg8bGFtYmRhPhYAAADzAAAAAA==\n", null, [464]], "function_type": "lambda", "output_shape": null, "output_shape_type": "raw", "arguments": {}}, "inbound_nodes": [[["stage4/block2/channel_shuffle", 0, 0, {}]]]}, {"name": "stage4/block3/concat_1", "class_name": "Concatenate", "config": {"name": "stage4/block3/concat_1", "trainable": true, "dtype": "float32", "axis": -1}, "inbound_nodes": [[["stage4/block3/relu_1x1conv_2", 0, 0, {}], ["stage4/block3/spl/sp0_slice", 0, 0, {}]]]}, {"name": "stage4/block3/channel_shuffle", "class_name": "Lambda", "config": {"name": "stage4/block3/channel_shuffle", "trainable": true, "dtype": "float32", "function": ["4wEAAAAAAAAABQAAAAgAAABDAAAAc1oAAAB8AGoAoAGhAGQBZACFAhkAXAN9AX0CfQN8A2QCGgB9\nBHQCoAN8AGQDfAF8AmQCfARnBaECfQB0AqAEfABkBKECfQB0AqADfABkA3wBfAJ8A2cEoQJ9AHwA\nUwApBU7pAQAAAOkCAAAA6f////8pBekAAAAAcgEAAAByAgAAAOkEAAAA6QMAAAApBdoFc2hhcGXa\nB2FzX2xpc3TaAUvaB3Jlc2hhcGXaEnBlcm11dGVfZGltZW5zaW9ucykF2gF42gZoZWlnaHTaBXdp\nZHRo2ghjaGFubmVsc1oSY2hhbm5lbHNfcGVyX3NwbGl0qQByEAAAAPo9L2hvbWUvcm9mYWlkYS9w\neXRob24tZW52cy9lbnYyL25ldy1Nb2RlbHMvdXRpbHNfc2h1ZmZsZW5ldC5wedoPY2hhbm5lbF9z\naHVmZmxlGgAAAHMMAAAAAAEYAQgBFgEMARQB\n", null, null], "function_type": "lambda", "output_shape": null, "output_shape_type": "raw", "arguments": {}}, "inbound_nodes": [[["stage4/block3/concat_1", 0, 0, {}]]]}, {"name": "stage4/block4/spl/sp1_slice", "class_name": "Lambda", "config": {"name": "stage4/block4/spl/sp1_slice", "trainable": true, "dtype": "float32", "function": ["4wEAAAAAAAAAAQAAAAYAAAATAAAAcyAAAAB8AGQAZACFAmQAZACFAmQAZACFAogAZACFAmYEGQBT\nACkBTqkAKQHaAXopAdoCaXByAQAAAPo9L2hvbWUvcm9mYWlkYS9weXRob24tZW52cy9lbnYyL25l\ndy1Nb2RlbHMvdXRpbHNfc2h1ZmZsZW5ldC5wedoIPGxhbWJkYT4XAAAA8wAAAAA=\n", null, [464]], "function_type": "lambda", "output_shape": null, "output_shape_type": "raw", "arguments": {}}, "inbound_nodes": [[["stage4/block3/channel_shuffle", 0, 0, {}]]]}, {"name": "stage4/block4/1x1conv_1", "class_name": "Conv2D", "config": {"name": "stage4/block4/1x1conv_1", "trainable": true, "dtype": "float32", "filters": 464, "kernel_size": [1, 1], "strides": [1, 1], "padding": "same", "data_format": "channels_last", "dilation_rate": [1, 1], "activation": "linear", "use_bias": true, "kernel_initializer": {"class_name": "VarianceScaling", "config": {"scale": 1.0, "mode": "fan_avg", "distribution": "uniform", "seed": null}}, "bias_initializer": {"class_name": "Zeros", "config": {}}, "kernel_regularizer": null, "bias_regularizer": null, "activity_regularizer": null, "kernel_constraint": null, "bias_constraint": null}, "inbound_nodes": [[["stage4/block4/spl/sp1_slice", 0, 0, {}]]]}, {"name": "stage4/block4/bn_1x1conv_1", "class_name": "BatchNormalization", "config": {"name": "stage4/block4/bn_1x1conv_1", "trainable": true, "dtype": "float32", "axis": -1, "momentum": 0.99, "epsilon": 0.001, "center": true, "scale": true, "beta_initializer": {"class_name": "Zeros", "config": {}}, "gamma_initializer": {"class_name": "Ones", "config": {}}, "moving_mean_initializer": {"class_name": "Zeros", "config": {}}, "moving_variance_initializer": {"class_name": "Ones", "config": {}}, "beta_regularizer": null, "gamma_regularizer": null, "beta_constraint": null, "gamma_constraint": null}, "inbound_nodes": [[["stage4/block4/1x1conv_1", 0, 0, {}]]]}, {"name": "stage4/block4/relu_1x1conv_1", "class_name": "Activation", "config": {"name": "stage4/block4/relu_1x1conv_1", "trainable": true, "dtype": "float32", "activation": "relu"}, "inbound_nodes": [[["stage4/block4/bn_1x1conv_1", 0, 0, {}]]]}, {"name": "stage4/block4/3x3dwconv", "class_name": "DepthwiseConv2D", "config": {"name": "stage4/block4/3x3dwconv", "trainable": true, "dtype": "float32", "kernel_size": [3, 3], "strides": [1, 1], "padding": "same", "data_format": "channels_last", "dilation_rate": [1, 1], "activation": "linear", "use_bias": true, "bias_initializer": {"class_name": "Zeros", "config": {}}, "bias_regularizer": null, "activity_regularizer": null, "bias_constraint": null, "depth_multiplier": 1, "depthwise_initializer": {"class_name": "VarianceScaling", "config": {"scale": 1.0, "mode": "fan_avg", "distribution": "uniform", "seed": null}}, "depthwise_regularizer": null, "depthwise_constraint": null}, "inbound_nodes": [[["stage4/block4/relu_1x1conv_1", 0, 0, {}]]]}, {"name": "stage4/block4/bn_3x3dwconv", "class_name": "BatchNormalization", "config": {"name": "stage4/block4/bn_3x3dwconv", "trainable": true, "dtype": "float32", "axis": -1, "momentum": 0.99, "epsilon": 0.001, "center": true, "scale": true, "beta_initializer": {"class_name": "Zeros", "config": {}}, "gamma_initializer": {"class_name": "Ones", "config": {}}, "moving_mean_initializer": {"class_name": "Zeros", "config": {}}, "moving_variance_initializer": {"class_name": "Ones", "config": {}}, "beta_regularizer": null, "gamma_regularizer": null, "beta_constraint": null, "gamma_constraint": null}, "inbound_nodes": [[["stage4/block4/3x3dwconv", 0, 0, {}]]]}, {"name": "stage4/block4/1x1conv_2", "class_name": "Conv2D", "config": {"name": "stage4/block4/1x1conv_2", "trainable": true, "dtype": "float32", "filters": 464, "kernel_size": [1, 1], "strides": [1, 1], "padding": "same", "data_format": "channels_last", "dilation_rate": [1, 1], "activation": "linear", "use_bias": true, "kernel_initializer": {"class_name": "VarianceScaling", "config": {"scale": 1.0, "mode": "fan_avg", "distribution": "uniform", "seed": null}}, "bias_initializer": {"class_name": "Zeros", "config": {}}, "kernel_regularizer": null, "bias_regularizer": null, "activity_regularizer": null, "kernel_constraint": null, "bias_constraint": null}, "inbound_nodes": [[["stage4/block4/bn_3x3dwconv", 0, 0, {}]]]}, {"name": "stage4/block4/bn_1x1conv_2", "class_name": "BatchNormalization", "config": {"name": "stage4/block4/bn_1x1conv_2", "trainable": true, "dtype": "float32", "axis": -1, "momentum": 0.99, "epsilon": 0.001, "center": true, "scale": true, "beta_initializer": {"class_name": "Zeros", "config": {}}, "gamma_initializer": {"class_name": "Ones", "config": {}}, "moving_mean_initializer": {"class_name": "Zeros", "config": {}}, "moving_variance_initializer": {"class_name": "Ones", "config": {}}, "beta_regularizer": null, "gamma_regularizer": null, "beta_constraint": null, "gamma_constraint": null}, "inbound_nodes": [[["stage4/block4/1x1conv_2", 0, 0, {}]]]}, {"name": "stage4/block4/relu_1x1conv_2", "class_name": "Activation", "config": {"name": "stage4/block4/relu_1x1conv_2", "trainable": true, "dtype": "float32", "activation": "relu"}, "inbound_nodes": [[["stage4/block4/bn_1x1conv_2", 0, 0, {}]]]}, {"name": "stage4/block4/spl/sp0_slice", "class_name": "Lambda", "config": {"name": "stage4/block4/spl/sp0_slice", "trainable": true, "dtype": "float32", "function": ["4wEAAAAAAAAAAQAAAAYAAAATAAAAcyAAAAB8AGQAZACFAmQAZACFAmQAZACFAmQBiACFAmYEGQBT\nACkCTukAAAAAqQApAdoBeikB2gJpcHICAAAA+j0vaG9tZS9yb2ZhaWRhL3B5dGhvbi1lbnZzL2Vu\ndjIvbmV3LU1vZGVscy91dGlsc19zaHVmZmxlbmV0LnB52gg8bGFtYmRhPhYAAADzAAAAAA==\n", null, [464]], "function_type": "lambda", "output_shape": null, "output_shape_type": "raw", "arguments": {}}, "inbound_nodes": [[["stage4/block3/channel_shuffle", 0, 0, {}]]]}, {"name": "stage4/block4/concat_1", "class_name": "Concatenate", "config": {"name": "stage4/block4/concat_1", "trainable": true, "dtype": "float32", "axis": -1}, "inbound_nodes": [[["stage4/block4/relu_1x1conv_2", 0, 0, {}], ["stage4/block4/spl/sp0_slice", 0, 0, {}]]]}, {"name": "stage4/block4/channel_shuffle", "class_name": "Lambda", "config": {"name": "stage4/block4/channel_shuffle", "trainable": true, "dtype": "float32", "function": ["4wEAAAAAAAAABQAAAAgAAABDAAAAc1oAAAB8AGoAoAGhAGQBZACFAhkAXAN9AX0CfQN8A2QCGgB9\nBHQCoAN8AGQDfAF8AmQCfARnBaECfQB0AqAEfABkBKECfQB0AqADfABkA3wBfAJ8A2cEoQJ9AHwA\nUwApBU7pAQAAAOkCAAAA6f////8pBekAAAAAcgEAAAByAgAAAOkEAAAA6QMAAAApBdoFc2hhcGXa\nB2FzX2xpc3TaAUvaB3Jlc2hhcGXaEnBlcm11dGVfZGltZW5zaW9ucykF2gF42gZoZWlnaHTaBXdp\nZHRo2ghjaGFubmVsc1oSY2hhbm5lbHNfcGVyX3NwbGl0qQByEAAAAPo9L2hvbWUvcm9mYWlkYS9w\neXRob24tZW52cy9lbnYyL25ldy1Nb2RlbHMvdXRpbHNfc2h1ZmZsZW5ldC5wedoPY2hhbm5lbF9z\naHVmZmxlGgAAAHMMAAAAAAEYAQgBFgEMARQB\n", null, null], "function_type": "lambda", "output_shape": null, "output_shape_type": "raw", "arguments": {}}, "inbound_nodes": [[["stage4/block4/concat_1", 0, 0, {}]]]}, {"name": "1x1conv5_out", "class_name": "Conv2D", "config": {"name": "1x1conv5_out", "trainable": true, "dtype": "float32", "filters": 1024, "kernel_size": [1, 1], "strides": [1, 1], "padding": "same", "data_format": "channels_last", "dilation_rate": [1, 1], "activation": "relu", "use_bias": true, "kernel_initializer": {"class_name": "VarianceScaling", "config": {"scale": 1.0, "mode": "fan_avg", "distribution": "uniform", "seed": null}}, "bias_initializer": {"class_name": "Zeros", "config": {}}, "kernel_regularizer": null, "bias_regularizer": null, "activity_regularizer": null, "kernel_constraint": null, "bias_constraint": null}, "inbound_nodes": [[["stage4/block4/channel_shuffle", 0, 0, {}]]]}, {"name": "global_max_pool", "class_name": "GlobalMaxPooling2D", "config": {"name": "global_max_pool", "trainable": true, "dtype": "float32", "data_format": "channels_last"}, "inbound_nodes": [[["1x1conv5_out", 0, 0, {}]]]}, {"name": "fc", "class_name": "Dense", "config": {"name": "fc", "trainable": true, "dtype": "float32", "units": 1000, "activation": "linear", "use_bias": true, "kernel_initializer": {"class_name": "VarianceScaling", "config": {"scale": 1.0, "mode": "fan_avg", "distribution": "uniform", "seed": null}}, "bias_initializer": {"class_name": "Zeros", "config": {}}, "kernel_regularizer": null, "bias_regularizer": null, "activity_regularizer": null, "kernel_constraint": null, "bias_constraint": null}, "inbound_nodes": [[["global_max_pool", 0, 0, {}]]]}, {"name": "softmax", "class_name": "Activation", "config": {"name": "softmax", "trainable": true, "dtype": "float32", "activation": "softmax"}, "inbound_nodes": [[["fc", 0, 0, {}]]]}], "input_layers": [["input_1", 0, 0]], "output_layers": [["softmax", 0, 0]]}, "keras_version": "2.3.1", "backend": "tensorflow"}