{"class_name": "Model", "config": {"name": "densenet", "layers": [{"name": "input_1", "class_name": "InputLayer", "config": {"batch_input_shape": [null, 224, 224, 3], "dtype": "float32", "sparse": false, "name": "input_1"}, "inbound_nodes": []}, {"name": "initial_conv2D", "class_name": "Conv2D", "config": {"name": "initial_conv2D", "trainable": true, "dtype": "float32", "filters": 64, "kernel_size": [7, 7], "strides": [2, 2], "padding": "same", "data_format": "channels_last", "dilation_rate": [1, 1], "activation": "linear", "use_bias": false, "kernel_initializer": {"class_name": "VarianceScaling", "config": {"scale": 2.0, "mode": "fan_in", "distribution": "normal", "seed": null}}, "bias_initializer": {"class_name": "Zeros", "config": {}}, "kernel_regularizer": {"class_name": "L1L2", "config": {"l1": 0.0, "l2": 9.999999747378752e-05}}, "bias_regularizer": null, "activity_regularizer": null, "kernel_constraint": null, "bias_constraint": null}, "inbound_nodes": [[["input_1", 0, 0, {}]]]}, {"name": "initial_bn", "class_name": "BatchNormalization", "config": {"name": "initial_bn", "trainable": true, "dtype": "float32", "axis": -1, "momentum": 0.99, "epsilon": 1.1e-05, "center": true, "scale": true, "beta_initializer": {"class_name": "Zeros", "config": {}}, "gamma_initializer": {"class_name": "Ones", "config": {}}, "moving_mean_initializer": {"class_name": "Zeros", "config": {}}, "moving_variance_initializer": {"class_name": "Ones", "config": {}}, "beta_regularizer": null, "gamma_regularizer": null, "beta_constraint": null, "gamma_constraint": null}, "inbound_nodes": [[["initial_conv2D", 0, 0, {}]]]}, {"name": "activation_1", "class_name": "Activation", "config": {"name": "activation_1", "trainable": true, "dtype": "float32", "activation": "relu"}, "inbound_nodes": [[["initial_bn", 0, 0, {}]]]}, {"name": "max_pooling2d_1", "class_name": "MaxPooling2D", "config": {"name": "max_pooling2d_1", "trainable": true, "dtype": "float32", "pool_size": [3, 3], "padding": "same", "strides": [2, 2], "data_format": "channels_last"}, "inbound_nodes": [[["activation_1", 0, 0, {}]]]}, {"name": "dense_0_0_bn", "class_name": "BatchNormalization", "config": {"name": "dense_0_0_bn", "trainable": true, "dtype": "float32", "axis": -1, "momentum": 0.99, "epsilon": 1.1e-05, "center": true, "scale": true, "beta_initializer": {"class_name": "Zeros", "config": {}}, "gamma_initializer": {"class_name": "Ones", "config": {}}, "moving_mean_initializer": {"class_name": "Zeros", "config": {}}, "moving_variance_initializer": {"class_name": "Ones", "config": {}}, "beta_regularizer": null, "gamma_regularizer": null, "beta_constraint": null, "gamma_constraint": null}, "inbound_nodes": [[["max_pooling2d_1", 0, 0, {}]]]}, {"name": "activation_2", "class_name": "Activation", "config": {"name": "activation_2", "trainable": true, "dtype": "float32", "activation": "relu"}, "inbound_nodes": [[["dense_0_0_bn", 0, 0, {}]]]}, {"name": "dense_0_0_bottleneck_conv2D", "class_name": "Conv2D", "config": {"name": "dense_0_0_bottleneck_conv2D", "trainable": true, "dtype": "float32", "filters": 128, "kernel_size": [1, 1], "strides": [1, 1], "padding": "same", "data_format": "channels_last", "dilation_rate": [1, 1], "activation": "linear", "use_bias": false, "kernel_initializer": {"class_name": "VarianceScaling", "config": {"scale": 2.0, "mode": "fan_in", "distribution": "normal", "seed": null}}, "bias_initializer": {"class_name": "Zeros", "config": {}}, "kernel_regularizer": {"class_name": "L1L2", "config": {"l1": 0.0, "l2": 9.999999747378752e-05}}, "bias_regularizer": null, "activity_regularizer": null, "kernel_constraint": null, "bias_constraint": null}, "inbound_nodes": [[["activation_2", 0, 0, {}]]]}, {"name": "dense_0_0_bottleneck_bn", "class_name": "BatchNormalization", "config": {"name": "dense_0_0_bottleneck_bn", "trainable": true, "dtype": "float32", "axis": -1, "momentum": 0.99, "epsilon": 1.1e-05, "center": true, "scale": true, "beta_initializer": {"class_name": "Zeros", "config": {}}, "gamma_initializer": {"class_name": "Ones", "config": {}}, "moving_mean_initializer": {"class_name": "Zeros", "config": {}}, "moving_variance_initializer": {"class_name": "Ones", "config": {}}, "beta_regularizer": null, "gamma_regularizer": null, "beta_constraint": null, "gamma_constraint": null}, "inbound_nodes": [[["dense_0_0_bottleneck_conv2D", 0, 0, {}]]]}, {"name": "activation_3", "class_name": "Activation", "config": {"name": "activation_3", "trainable": true, "dtype": "float32", "activation": "relu"}, "inbound_nodes": [[["dense_0_0_bottleneck_bn", 0, 0, {}]]]}, {"name": "dense_0_0_conv2D", "class_name": "Conv2D", "config": {"name": "dense_0_0_conv2D", "trainable": true, "dtype": "float32", "filters": 32, "kernel_size": [3, 3], "strides": [1, 1], "padding": "same", "data_format": "channels_last", "dilation_rate": [1, 1], "activation": "linear", "use_bias": false, "kernel_initializer": {"class_name": "VarianceScaling", "config": {"scale": 2.0, "mode": "fan_in", "distribution": "normal", "seed": null}}, "bias_initializer": {"class_name": "Zeros", "config": {}}, "kernel_regularizer": null, "bias_regularizer": null, "activity_regularizer": null, "kernel_constraint": null, "bias_constraint": null}, "inbound_nodes": [[["activation_3", 0, 0, {}]]]}, {"name": "concatenate_1", "class_name": "Concatenate", "config": {"name": "concatenate_1", "trainable": true, "dtype": "float32", "axis": -1}, "inbound_nodes": [[["max_pooling2d_1", 0, 0, {}], ["dense_0_0_conv2D", 0, 0, {}]]]}, {"name": "dense_0_1_bn", "class_name": "BatchNormalization", "config": {"name": "dense_0_1_bn", "trainable": true, "dtype": "float32", "axis": -1, "momentum": 0.99, "epsilon": 1.1e-05, "center": true, "scale": true, "beta_initializer": {"class_name": "Zeros", "config": {}}, "gamma_initializer": {"class_name": "Ones", "config": {}}, "moving_mean_initializer": {"class_name": "Zeros", "config": {}}, "moving_variance_initializer": {"class_name": "Ones", "config": {}}, "beta_regularizer": null, "gamma_regularizer": null, "beta_constraint": null, "gamma_constraint": null}, "inbound_nodes": [[["concatenate_1", 0, 0, {}]]]}, {"name": "activation_4", "class_name": "Activation", "config": {"name": "activation_4", "trainable": true, "dtype": "float32", "activation": "relu"}, "inbound_nodes": [[["dense_0_1_bn", 0, 0, {}]]]}, {"name": "dense_0_1_bottleneck_conv2D", "class_name": "Conv2D", "config": {"name": "dense_0_1_bottleneck_conv2D", "trainable": true, "dtype": "float32", "filters": 128, "kernel_size": [1, 1], "strides": [1, 1], "padding": "same", "data_format": "channels_last", "dilation_rate": [1, 1], "activation": "linear", "use_bias": false, "kernel_initializer": {"class_name": "VarianceScaling", "config": {"scale": 2.0, "mode": "fan_in", "distribution": "normal", "seed": null}}, "bias_initializer": {"class_name": "Zeros", "config": {}}, "kernel_regularizer": {"class_name": "L1L2", "config": {"l1": 0.0, "l2": 9.999999747378752e-05}}, "bias_regularizer": null, "activity_regularizer": null, "kernel_constraint": null, "bias_constraint": null}, "inbound_nodes": [[["activation_4", 0, 0, {}]]]}, {"name": "dense_0_1_bottleneck_bn", "class_name": "BatchNormalization", "config": {"name": "dense_0_1_bottleneck_bn", "trainable": true, "dtype": "float32", "axis": -1, "momentum": 0.99, "epsilon": 1.1e-05, "center": true, "scale": true, "beta_initializer": {"class_name": "Zeros", "config": {}}, "gamma_initializer": {"class_name": "Ones", "config": {}}, "moving_mean_initializer": {"class_name": "Zeros", "config": {}}, "moving_variance_initializer": {"class_name": "Ones", "config": {}}, "beta_regularizer": null, "gamma_regularizer": null, "beta_constraint": null, "gamma_constraint": null}, "inbound_nodes": [[["dense_0_1_bottleneck_conv2D", 0, 0, {}]]]}, {"name": "activation_5", "class_name": "Activation", "config": {"name": "activation_5", "trainable": true, "dtype": "float32", "activation": "relu"}, "inbound_nodes": [[["dense_0_1_bottleneck_bn", 0, 0, {}]]]}, {"name": "dense_0_1_conv2D", "class_name": "Conv2D", "config": {"name": "dense_0_1_conv2D", "trainable": true, "dtype": "float32", "filters": 32, "kernel_size": [3, 3], "strides": [1, 1], "padding": "same", "data_format": "channels_last", "dilation_rate": [1, 1], "activation": "linear", "use_bias": false, "kernel_initializer": {"class_name": "VarianceScaling", "config": {"scale": 2.0, "mode": "fan_in", "distribution": "normal", "seed": null}}, "bias_initializer": {"class_name": "Zeros", "config": {}}, "kernel_regularizer": null, "bias_regularizer": null, "activity_regularizer": null, "kernel_constraint": null, "bias_constraint": null}, "inbound_nodes": [[["activation_5", 0, 0, {}]]]}, {"name": "concatenate_2", "class_name": "Concatenate", "config": {"name": "concatenate_2", "trainable": true, "dtype": "float32", "axis": -1}, "inbound_nodes": [[["concatenate_1", 0, 0, {}], ["dense_0_1_conv2D", 0, 0, {}]]]}, {"name": "dense_0_2_bn", "class_name": "BatchNormalization", "config": {"name": "dense_0_2_bn", "trainable": true, "dtype": "float32", "axis": -1, "momentum": 0.99, "epsilon": 1.1e-05, "center": true, "scale": true, "beta_initializer": {"class_name": "Zeros", "config": {}}, "gamma_initializer": {"class_name": "Ones", "config": {}}, "moving_mean_initializer": {"class_name": "Zeros", "config": {}}, "moving_variance_initializer": {"class_name": "Ones", "config": {}}, "beta_regularizer": null, "gamma_regularizer": null, "beta_constraint": null, "gamma_constraint": null}, "inbound_nodes": [[["concatenate_2", 0, 0, {}]]]}, {"name": "activation_6", "class_name": "Activation", "config": {"name": "activation_6", "trainable": true, "dtype": "float32", "activation": "relu"}, "inbound_nodes": [[["dense_0_2_bn", 0, 0, {}]]]}, {"name": "dense_0_2_bottleneck_conv2D", "class_name": "Conv2D", "config": {"name": "dense_0_2_bottleneck_conv2D", "trainable": true, "dtype": "float32", "filters": 128, "kernel_size": [1, 1], "strides": [1, 1], "padding": "same", "data_format": "channels_last", "dilation_rate": [1, 1], "activation": "linear", "use_bias": false, "kernel_initializer": {"class_name": "VarianceScaling", "config": {"scale": 2.0, "mode": "fan_in", "distribution": "normal", "seed": null}}, "bias_initializer": {"class_name": "Zeros", "config": {}}, "kernel_regularizer": {"class_name": "L1L2", "config": {"l1": 0.0, "l2": 9.999999747378752e-05}}, "bias_regularizer": null, "activity_regularizer": null, "kernel_constraint": null, "bias_constraint": null}, "inbound_nodes": [[["activation_6", 0, 0, {}]]]}, {"name": "dense_0_2_bottleneck_bn", "class_name": "BatchNormalization", "config": {"name": "dense_0_2_bottleneck_bn", "trainable": true, "dtype": "float32", "axis": -1, "momentum": 0.99, "epsilon": 1.1e-05, "center": true, "scale": true, "beta_initializer": {"class_name": "Zeros", "config": {}}, "gamma_initializer": {"class_name": "Ones", "config": {}}, "moving_mean_initializer": {"class_name": "Zeros", "config": {}}, "moving_variance_initializer": {"class_name": "Ones", "config": {}}, "beta_regularizer": null, "gamma_regularizer": null, "beta_constraint": null, "gamma_constraint": null}, "inbound_nodes": [[["dense_0_2_bottleneck_conv2D", 0, 0, {}]]]}, {"name": "activation_7", "class_name": "Activation", "config": {"name": "activation_7", "trainable": true, "dtype": "float32", "activation": "relu"}, "inbound_nodes": [[["dense_0_2_bottleneck_bn", 0, 0, {}]]]}, {"name": "dense_0_2_conv2D", "class_name": "Conv2D", "config": {"name": "dense_0_2_conv2D", "trainable": true, "dtype": "float32", "filters": 32, "kernel_size": [3, 3], "strides": [1, 1], "padding": "same", "data_format": "channels_last", "dilation_rate": [1, 1], "activation": "linear", "use_bias": false, "kernel_initializer": {"class_name": "VarianceScaling", "config": {"scale": 2.0, "mode": "fan_in", "distribution": "normal", "seed": null}}, "bias_initializer": {"class_name": "Zeros", "config": {}}, "kernel_regularizer": null, "bias_regularizer": null, "activity_regularizer": null, "kernel_constraint": null, "bias_constraint": null}, "inbound_nodes": [[["activation_7", 0, 0, {}]]]}, {"name": "concatenate_3", "class_name": "Concatenate", "config": {"name": "concatenate_3", "trainable": true, "dtype": "float32", "axis": -1}, "inbound_nodes": [[["concatenate_2", 0, 0, {}], ["dense_0_2_conv2D", 0, 0, {}]]]}, {"name": "dense_0_3_bn", "class_name": "BatchNormalization", "config": {"name": "dense_0_3_bn", "trainable": true, "dtype": "float32", "axis": -1, "momentum": 0.99, "epsilon": 1.1e-05, "center": true, "scale": true, "beta_initializer": {"class_name": "Zeros", "config": {}}, "gamma_initializer": {"class_name": "Ones", "config": {}}, "moving_mean_initializer": {"class_name": "Zeros", "config": {}}, "moving_variance_initializer": {"class_name": "Ones", "config": {}}, "beta_regularizer": null, "gamma_regularizer": null, "beta_constraint": null, "gamma_constraint": null}, "inbound_nodes": [[["concatenate_3", 0, 0, {}]]]}, {"name": "activation_8", "class_name": "Activation", "config": {"name": "activation_8", "trainable": true, "dtype": "float32", "activation": "relu"}, "inbound_nodes": [[["dense_0_3_bn", 0, 0, {}]]]}, {"name": "dense_0_3_bottleneck_conv2D", "class_name": "Conv2D", "config": {"name": "dense_0_3_bottleneck_conv2D", "trainable": true, "dtype": "float32", "filters": 128, "kernel_size": [1, 1], "strides": [1, 1], "padding": "same", "data_format": "channels_last", "dilation_rate": [1, 1], "activation": "linear", "use_bias": false, "kernel_initializer": {"class_name": "VarianceScaling", "config": {"scale": 2.0, "mode": "fan_in", "distribution": "normal", "seed": null}}, "bias_initializer": {"class_name": "Zeros", "config": {}}, "kernel_regularizer": {"class_name": "L1L2", "config": {"l1": 0.0, "l2": 9.999999747378752e-05}}, "bias_regularizer": null, "activity_regularizer": null, "kernel_constraint": null, "bias_constraint": null}, "inbound_nodes": [[["activation_8", 0, 0, {}]]]}, {"name": "dense_0_3_bottleneck_bn", "class_name": "BatchNormalization", "config": {"name": "dense_0_3_bottleneck_bn", "trainable": true, "dtype": "float32", "axis": -1, "momentum": 0.99, "epsilon": 1.1e-05, "center": true, "scale": true, "beta_initializer": {"class_name": "Zeros", "config": {}}, "gamma_initializer": {"class_name": "Ones", "config": {}}, "moving_mean_initializer": {"class_name": "Zeros", "config": {}}, "moving_variance_initializer": {"class_name": "Ones", "config": {}}, "beta_regularizer": null, "gamma_regularizer": null, "beta_constraint": null, "gamma_constraint": null}, "inbound_nodes": [[["dense_0_3_bottleneck_conv2D", 0, 0, {}]]]}, {"name": "activation_9", "class_name": "Activation", "config": {"name": "activation_9", "trainable": true, "dtype": "float32", "activation": "relu"}, "inbound_nodes": [[["dense_0_3_bottleneck_bn", 0, 0, {}]]]}, {"name": "dense_0_3_conv2D", "class_name": "Conv2D", "config": {"name": "dense_0_3_conv2D", "trainable": true, "dtype": "float32", "filters": 32, "kernel_size": [3, 3], "strides": [1, 1], "padding": "same", "data_format": "channels_last", "dilation_rate": [1, 1], "activation": "linear", "use_bias": false, "kernel_initializer": {"class_name": "VarianceScaling", "config": {"scale": 2.0, "mode": "fan_in", "distribution": "normal", "seed": null}}, "bias_initializer": {"class_name": "Zeros", "config": {}}, "kernel_regularizer": null, "bias_regularizer": null, "activity_regularizer": null, "kernel_constraint": null, "bias_constraint": null}, "inbound_nodes": [[["activation_9", 0, 0, {}]]]}, {"name": "concatenate_4", "class_name": "Concatenate", "config": {"name": "concatenate_4", "trainable": true, "dtype": "float32", "axis": -1}, "inbound_nodes": [[["concatenate_3", 0, 0, {}], ["dense_0_3_conv2D", 0, 0, {}]]]}, {"name": "dense_0_4_bn", "class_name": "BatchNormalization", "config": {"name": "dense_0_4_bn", "trainable": true, "dtype": "float32", "axis": -1, "momentum": 0.99, "epsilon": 1.1e-05, "center": true, "scale": true, "beta_initializer": {"class_name": "Zeros", "config": {}}, "gamma_initializer": {"class_name": "Ones", "config": {}}, "moving_mean_initializer": {"class_name": "Zeros", "config": {}}, "moving_variance_initializer": {"class_name": "Ones", "config": {}}, "beta_regularizer": null, "gamma_regularizer": null, "beta_constraint": null, "gamma_constraint": null}, "inbound_nodes": [[["concatenate_4", 0, 0, {}]]]}, {"name": "activation_10", "class_name": "Activation", "config": {"name": "activation_10", "trainable": true, "dtype": "float32", "activation": "relu"}, "inbound_nodes": [[["dense_0_4_bn", 0, 0, {}]]]}, {"name": "dense_0_4_bottleneck_conv2D", "class_name": "Conv2D", "config": {"name": "dense_0_4_bottleneck_conv2D", "trainable": true, "dtype": "float32", "filters": 128, "kernel_size": [1, 1], "strides": [1, 1], "padding": "same", "data_format": "channels_last", "dilation_rate": [1, 1], "activation": "linear", "use_bias": false, "kernel_initializer": {"class_name": "VarianceScaling", "config": {"scale": 2.0, "mode": "fan_in", "distribution": "normal", "seed": null}}, "bias_initializer": {"class_name": "Zeros", "config": {}}, "kernel_regularizer": {"class_name": "L1L2", "config": {"l1": 0.0, "l2": 9.999999747378752e-05}}, "bias_regularizer": null, "activity_regularizer": null, "kernel_constraint": null, "bias_constraint": null}, "inbound_nodes": [[["activation_10", 0, 0, {}]]]}, {"name": "dense_0_4_bottleneck_bn", "class_name": "BatchNormalization", "config": {"name": "dense_0_4_bottleneck_bn", "trainable": true, "dtype": "float32", "axis": -1, "momentum": 0.99, "epsilon": 1.1e-05, "center": true, "scale": true, "beta_initializer": {"class_name": "Zeros", "config": {}}, "gamma_initializer": {"class_name": "Ones", "config": {}}, "moving_mean_initializer": {"class_name": "Zeros", "config": {}}, "moving_variance_initializer": {"class_name": "Ones", "config": {}}, "beta_regularizer": null, "gamma_regularizer": null, "beta_constraint": null, "gamma_constraint": null}, "inbound_nodes": [[["dense_0_4_bottleneck_conv2D", 0, 0, {}]]]}, {"name": "activation_11", "class_name": "Activation", "config": {"name": "activation_11", "trainable": true, "dtype": "float32", "activation": "relu"}, "inbound_nodes": [[["dense_0_4_bottleneck_bn", 0, 0, {}]]]}, {"name": "dense_0_4_conv2D", "class_name": "Conv2D", "config": {"name": "dense_0_4_conv2D", "trainable": true, "dtype": "float32", "filters": 32, "kernel_size": [3, 3], "strides": [1, 1], "padding": "same", "data_format": "channels_last", "dilation_rate": [1, 1], "activation": "linear", "use_bias": false, "kernel_initializer": {"class_name": "VarianceScaling", "config": {"scale": 2.0, "mode": "fan_in", "distribution": "normal", "seed": null}}, "bias_initializer": {"class_name": "Zeros", "config": {}}, "kernel_regularizer": null, "bias_regularizer": null, "activity_regularizer": null, "kernel_constraint": null, "bias_constraint": null}, "inbound_nodes": [[["activation_11", 0, 0, {}]]]}, {"name": "concatenate_5", "class_name": "Concatenate", "config": {"name": "concatenate_5", "trainable": true, "dtype": "float32", "axis": -1}, "inbound_nodes": [[["concatenate_4", 0, 0, {}], ["dense_0_4_conv2D", 0, 0, {}]]]}, {"name": "dense_0_5_bn", "class_name": "BatchNormalization", "config": {"name": "dense_0_5_bn", "trainable": true, "dtype": "float32", "axis": -1, "momentum": 0.99, "epsilon": 1.1e-05, "center": true, "scale": true, "beta_initializer": {"class_name": "Zeros", "config": {}}, "gamma_initializer": {"class_name": "Ones", "config": {}}, "moving_mean_initializer": {"class_name": "Zeros", "config": {}}, "moving_variance_initializer": {"class_name": "Ones", "config": {}}, "beta_regularizer": null, "gamma_regularizer": null, "beta_constraint": null, "gamma_constraint": null}, "inbound_nodes": [[["concatenate_5", 0, 0, {}]]]}, {"name": "activation_12", "class_name": "Activation", "config": {"name": "activation_12", "trainable": true, "dtype": "float32", "activation": "relu"}, "inbound_nodes": [[["dense_0_5_bn", 0, 0, {}]]]}, {"name": "dense_0_5_bottleneck_conv2D", "class_name": "Conv2D", "config": {"name": "dense_0_5_bottleneck_conv2D", "trainable": true, "dtype": "float32", "filters": 128, "kernel_size": [1, 1], "strides": [1, 1], "padding": "same", "data_format": "channels_last", "dilation_rate": [1, 1], "activation": "linear", "use_bias": false, "kernel_initializer": {"class_name": "VarianceScaling", "config": {"scale": 2.0, "mode": "fan_in", "distribution": "normal", "seed": null}}, "bias_initializer": {"class_name": "Zeros", "config": {}}, "kernel_regularizer": {"class_name": "L1L2", "config": {"l1": 0.0, "l2": 9.999999747378752e-05}}, "bias_regularizer": null, "activity_regularizer": null, "kernel_constraint": null, "bias_constraint": null}, "inbound_nodes": [[["activation_12", 0, 0, {}]]]}, {"name": "dense_0_5_bottleneck_bn", "class_name": "BatchNormalization", "config": {"name": "dense_0_5_bottleneck_bn", "trainable": true, "dtype": "float32", "axis": -1, "momentum": 0.99, "epsilon": 1.1e-05, "center": true, "scale": true, "beta_initializer": {"class_name": "Zeros", "config": {}}, "gamma_initializer": {"class_name": "Ones", "config": {}}, "moving_mean_initializer": {"class_name": "Zeros", "config": {}}, "moving_variance_initializer": {"class_name": "Ones", "config": {}}, "beta_regularizer": null, "gamma_regularizer": null, "beta_constraint": null, "gamma_constraint": null}, "inbound_nodes": [[["dense_0_5_bottleneck_conv2D", 0, 0, {}]]]}, {"name": "activation_13", "class_name": "Activation", "config": {"name": "activation_13", "trainable": true, "dtype": "float32", "activation": "relu"}, "inbound_nodes": [[["dense_0_5_bottleneck_bn", 0, 0, {}]]]}, {"name": "dense_0_5_conv2D", "class_name": "Conv2D", "config": {"name": "dense_0_5_conv2D", "trainable": true, "dtype": "float32", "filters": 32, "kernel_size": [3, 3], "strides": [1, 1], "padding": "same", "data_format": "channels_last", "dilation_rate": [1, 1], "activation": "linear", "use_bias": false, "kernel_initializer": {"class_name": "VarianceScaling", "config": {"scale": 2.0, "mode": "fan_in", "distribution": "normal", "seed": null}}, "bias_initializer": {"class_name": "Zeros", "config": {}}, "kernel_regularizer": null, "bias_regularizer": null, "activity_regularizer": null, "kernel_constraint": null, "bias_constraint": null}, "inbound_nodes": [[["activation_13", 0, 0, {}]]]}, {"name": "concatenate_6", "class_name": "Concatenate", "config": {"name": "concatenate_6", "trainable": true, "dtype": "float32", "axis": -1}, "inbound_nodes": [[["concatenate_5", 0, 0, {}], ["dense_0_5_conv2D", 0, 0, {}]]]}, {"name": "tr_0_bn", "class_name": "BatchNormalization", "config": {"name": "tr_0_bn", "trainable": true, "dtype": "float32", "axis": -1, "momentum": 0.99, "epsilon": 1.1e-05, "center": true, "scale": true, "beta_initializer": {"class_name": "Zeros", "config": {}}, "gamma_initializer": {"class_name": "Ones", "config": {}}, "moving_mean_initializer": {"class_name": "Zeros", "config": {}}, "moving_variance_initializer": {"class_name": "Ones", "config": {}}, "beta_regularizer": null, "gamma_regularizer": null, "beta_constraint": null, "gamma_constraint": null}, "inbound_nodes": [[["concatenate_6", 0, 0, {}]]]}, {"name": "activation_14", "class_name": "Activation", "config": {"name": "activation_14", "trainable": true, "dtype": "float32", "activation": "relu"}, "inbound_nodes": [[["tr_0_bn", 0, 0, {}]]]}, {"name": "tr_0_conv2D", "class_name": "Conv2D", "config": {"name": "tr_0_conv2D", "trainable": true, "dtype": "float32", "filters": 128, "kernel_size": [1, 1], "strides": [1, 1], "padding": "same", "data_format": "channels_last", "dilation_rate": [1, 1], "activation": "linear", "use_bias": false, "kernel_initializer": {"class_name": "VarianceScaling", "config": {"scale": 2.0, "mode": "fan_in", "distribution": "normal", "seed": null}}, "bias_initializer": {"class_name": "Zeros", "config": {}}, "kernel_regularizer": {"class_name": "L1L2", "config": {"l1": 0.0, "l2": 9.999999747378752e-05}}, "bias_regularizer": null, "activity_regularizer": null, "kernel_constraint": null, "bias_constraint": null}, "inbound_nodes": [[["activation_14", 0, 0, {}]]]}, {"name": "average_pooling2d_1", "class_name": "AveragePooling2D", "config": {"name": "average_pooling2d_1", "trainable": true, "dtype": "float32", "pool_size": [2, 2], "padding": "valid", "strides": [2, 2], "data_format": "channels_last"}, "inbound_nodes": [[["tr_0_conv2D", 0, 0, {}]]]}, {"name": "dense_1_0_bn", "class_name": "BatchNormalization", "config": {"name": "dense_1_0_bn", "trainable": true, "dtype": "float32", "axis": -1, "momentum": 0.99, "epsilon": 1.1e-05, "center": true, "scale": true, "beta_initializer": {"class_name": "Zeros", "config": {}}, "gamma_initializer": {"class_name": "Ones", "config": {}}, "moving_mean_initializer": {"class_name": "Zeros", "config": {}}, "moving_variance_initializer": {"class_name": "Ones", "config": {}}, "beta_regularizer": null, "gamma_regularizer": null, "beta_constraint": null, "gamma_constraint": null}, "inbound_nodes": [[["average_pooling2d_1", 0, 0, {}]]]}, {"name": "activation_15", "class_name": "Activation", "config": {"name": "activation_15", "trainable": true, "dtype": "float32", "activation": "relu"}, "inbound_nodes": [[["dense_1_0_bn", 0, 0, {}]]]}, {"name": "dense_1_0_bottleneck_conv2D", "class_name": "Conv2D", "config": {"name": "dense_1_0_bottleneck_conv2D", "trainable": true, "dtype": "float32", "filters": 128, "kernel_size": [1, 1], "strides": [1, 1], "padding": "same", "data_format": "channels_last", "dilation_rate": [1, 1], "activation": "linear", "use_bias": false, "kernel_initializer": {"class_name": "VarianceScaling", "config": {"scale": 2.0, "mode": "fan_in", "distribution": "normal", "seed": null}}, "bias_initializer": {"class_name": "Zeros", "config": {}}, "kernel_regularizer": {"class_name": "L1L2", "config": {"l1": 0.0, "l2": 9.999999747378752e-05}}, "bias_regularizer": null, "activity_regularizer": null, "kernel_constraint": null, "bias_constraint": null}, "inbound_nodes": [[["activation_15", 0, 0, {}]]]}, {"name": "dense_1_0_bottleneck_bn", "class_name": "BatchNormalization", "config": {"name": "dense_1_0_bottleneck_bn", "trainable": true, "dtype": "float32", "axis": -1, "momentum": 0.99, "epsilon": 1.1e-05, "center": true, "scale": true, "beta_initializer": {"class_name": "Zeros", "config": {}}, "gamma_initializer": {"class_name": "Ones", "config": {}}, "moving_mean_initializer": {"class_name": "Zeros", "config": {}}, "moving_variance_initializer": {"class_name": "Ones", "config": {}}, "beta_regularizer": null, "gamma_regularizer": null, "beta_constraint": null, "gamma_constraint": null}, "inbound_nodes": [[["dense_1_0_bottleneck_conv2D", 0, 0, {}]]]}, {"name": "activation_16", "class_name": "Activation", "config": {"name": "activation_16", "trainable": true, "dtype": "float32", "activation": "relu"}, "inbound_nodes": [[["dense_1_0_bottleneck_bn", 0, 0, {}]]]}, {"name": "dense_1_0_conv2D", "class_name": "Conv2D", "config": {"name": "dense_1_0_conv2D", "trainable": true, "dtype": "float32", "filters": 32, "kernel_size": [3, 3], "strides": [1, 1], "padding": "same", "data_format": "channels_last", "dilation_rate": [1, 1], "activation": "linear", "use_bias": false, "kernel_initializer": {"class_name": "VarianceScaling", "config": {"scale": 2.0, "mode": "fan_in", "distribution": "normal", "seed": null}}, "bias_initializer": {"class_name": "Zeros", "config": {}}, "kernel_regularizer": null, "bias_regularizer": null, "activity_regularizer": null, "kernel_constraint": null, "bias_constraint": null}, "inbound_nodes": [[["activation_16", 0, 0, {}]]]}, {"name": "concatenate_7", "class_name": "Concatenate", "config": {"name": "concatenate_7", "trainable": true, "dtype": "float32", "axis": -1}, "inbound_nodes": [[["average_pooling2d_1", 0, 0, {}], ["dense_1_0_conv2D", 0, 0, {}]]]}, {"name": "dense_1_1_bn", "class_name": "BatchNormalization", "config": {"name": "dense_1_1_bn", "trainable": true, "dtype": "float32", "axis": -1, "momentum": 0.99, "epsilon": 1.1e-05, "center": true, "scale": true, "beta_initializer": {"class_name": "Zeros", "config": {}}, "gamma_initializer": {"class_name": "Ones", "config": {}}, "moving_mean_initializer": {"class_name": "Zeros", "config": {}}, "moving_variance_initializer": {"class_name": "Ones", "config": {}}, "beta_regularizer": null, "gamma_regularizer": null, "beta_constraint": null, "gamma_constraint": null}, "inbound_nodes": [[["concatenate_7", 0, 0, {}]]]}, {"name": "activation_17", "class_name": "Activation", "config": {"name": "activation_17", "trainable": true, "dtype": "float32", "activation": "relu"}, "inbound_nodes": [[["dense_1_1_bn", 0, 0, {}]]]}, {"name": "dense_1_1_bottleneck_conv2D", "class_name": "Conv2D", "config": {"name": "dense_1_1_bottleneck_conv2D", "trainable": true, "dtype": "float32", "filters": 128, "kernel_size": [1, 1], "strides": [1, 1], "padding": "same", "data_format": "channels_last", "dilation_rate": [1, 1], "activation": "linear", "use_bias": false, "kernel_initializer": {"class_name": "VarianceScaling", "config": {"scale": 2.0, "mode": "fan_in", "distribution": "normal", "seed": null}}, "bias_initializer": {"class_name": "Zeros", "config": {}}, "kernel_regularizer": {"class_name": "L1L2", "config": {"l1": 0.0, "l2": 9.999999747378752e-05}}, "bias_regularizer": null, "activity_regularizer": null, "kernel_constraint": null, "bias_constraint": null}, "inbound_nodes": [[["activation_17", 0, 0, {}]]]}, {"name": "dense_1_1_bottleneck_bn", "class_name": "BatchNormalization", "config": {"name": "dense_1_1_bottleneck_bn", "trainable": true, "dtype": "float32", "axis": -1, "momentum": 0.99, "epsilon": 1.1e-05, "center": true, "scale": true, "beta_initializer": {"class_name": "Zeros", "config": {}}, "gamma_initializer": {"class_name": "Ones", "config": {}}, "moving_mean_initializer": {"class_name": "Zeros", "config": {}}, "moving_variance_initializer": {"class_name": "Ones", "config": {}}, "beta_regularizer": null, "gamma_regularizer": null, "beta_constraint": null, "gamma_constraint": null}, "inbound_nodes": [[["dense_1_1_bottleneck_conv2D", 0, 0, {}]]]}, {"name": "activation_18", "class_name": "Activation", "config": {"name": "activation_18", "trainable": true, "dtype": "float32", "activation": "relu"}, "inbound_nodes": [[["dense_1_1_bottleneck_bn", 0, 0, {}]]]}, {"name": "dense_1_1_conv2D", "class_name": "Conv2D", "config": {"name": "dense_1_1_conv2D", "trainable": true, "dtype": "float32", "filters": 32, "kernel_size": [3, 3], "strides": [1, 1], "padding": "same", "data_format": "channels_last", "dilation_rate": [1, 1], "activation": "linear", "use_bias": false, "kernel_initializer": {"class_name": "VarianceScaling", "config": {"scale": 2.0, "mode": "fan_in", "distribution": "normal", "seed": null}}, "bias_initializer": {"class_name": "Zeros", "config": {}}, "kernel_regularizer": null, "bias_regularizer": null, "activity_regularizer": null, "kernel_constraint": null, "bias_constraint": null}, "inbound_nodes": [[["activation_18", 0, 0, {}]]]}, {"name": "concatenate_8", "class_name": "Concatenate", "config": {"name": "concatenate_8", "trainable": true, "dtype": "float32", "axis": -1}, "inbound_nodes": [[["concatenate_7", 0, 0, {}], ["dense_1_1_conv2D", 0, 0, {}]]]}, {"name": "dense_1_2_bn", "class_name": "BatchNormalization", "config": {"name": "dense_1_2_bn", "trainable": true, "dtype": "float32", "axis": -1, "momentum": 0.99, "epsilon": 1.1e-05, "center": true, "scale": true, "beta_initializer": {"class_name": "Zeros", "config": {}}, "gamma_initializer": {"class_name": "Ones", "config": {}}, "moving_mean_initializer": {"class_name": "Zeros", "config": {}}, "moving_variance_initializer": {"class_name": "Ones", "config": {}}, "beta_regularizer": null, "gamma_regularizer": null, "beta_constraint": null, "gamma_constraint": null}, "inbound_nodes": [[["concatenate_8", 0, 0, {}]]]}, {"name": "activation_19", "class_name": "Activation", "config": {"name": "activation_19", "trainable": true, "dtype": "float32", "activation": "relu"}, "inbound_nodes": [[["dense_1_2_bn", 0, 0, {}]]]}, {"name": "dense_1_2_bottleneck_conv2D", "class_name": "Conv2D", "config": {"name": "dense_1_2_bottleneck_conv2D", "trainable": true, "dtype": "float32", "filters": 128, "kernel_size": [1, 1], "strides": [1, 1], "padding": "same", "data_format": "channels_last", "dilation_rate": [1, 1], "activation": "linear", "use_bias": false, "kernel_initializer": {"class_name": "VarianceScaling", "config": {"scale": 2.0, "mode": "fan_in", "distribution": "normal", "seed": null}}, "bias_initializer": {"class_name": "Zeros", "config": {}}, "kernel_regularizer": {"class_name": "L1L2", "config": {"l1": 0.0, "l2": 9.999999747378752e-05}}, "bias_regularizer": null, "activity_regularizer": null, "kernel_constraint": null, "bias_constraint": null}, "inbound_nodes": [[["activation_19", 0, 0, {}]]]}, {"name": "dense_1_2_bottleneck_bn", "class_name": "BatchNormalization", "config": {"name": "dense_1_2_bottleneck_bn", "trainable": true, "dtype": "float32", "axis": -1, "momentum": 0.99, "epsilon": 1.1e-05, "center": true, "scale": true, "beta_initializer": {"class_name": "Zeros", "config": {}}, "gamma_initializer": {"class_name": "Ones", "config": {}}, "moving_mean_initializer": {"class_name": "Zeros", "config": {}}, "moving_variance_initializer": {"class_name": "Ones", "config": {}}, "beta_regularizer": null, "gamma_regularizer": null, "beta_constraint": null, "gamma_constraint": null}, "inbound_nodes": [[["dense_1_2_bottleneck_conv2D", 0, 0, {}]]]}, {"name": "activation_20", "class_name": "Activation", "config": {"name": "activation_20", "trainable": true, "dtype": "float32", "activation": "relu"}, "inbound_nodes": [[["dense_1_2_bottleneck_bn", 0, 0, {}]]]}, {"name": "dense_1_2_conv2D", "class_name": "Conv2D", "config": {"name": "dense_1_2_conv2D", "trainable": true, "dtype": "float32", "filters": 32, "kernel_size": [3, 3], "strides": [1, 1], "padding": "same", "data_format": "channels_last", "dilation_rate": [1, 1], "activation": "linear", "use_bias": false, "kernel_initializer": {"class_name": "VarianceScaling", "config": {"scale": 2.0, "mode": "fan_in", "distribution": "normal", "seed": null}}, "bias_initializer": {"class_name": "Zeros", "config": {}}, "kernel_regularizer": null, "bias_regularizer": null, "activity_regularizer": null, "kernel_constraint": null, "bias_constraint": null}, "inbound_nodes": [[["activation_20", 0, 0, {}]]]}, {"name": "concatenate_9", "class_name": "Concatenate", "config": {"name": "concatenate_9", "trainable": true, "dtype": "float32", "axis": -1}, "inbound_nodes": [[["concatenate_8", 0, 0, {}], ["dense_1_2_conv2D", 0, 0, {}]]]}, {"name": "dense_1_3_bn", "class_name": "BatchNormalization", "config": {"name": "dense_1_3_bn", "trainable": true, "dtype": "float32", "axis": -1, "momentum": 0.99, "epsilon": 1.1e-05, "center": true, "scale": true, "beta_initializer": {"class_name": "Zeros", "config": {}}, "gamma_initializer": {"class_name": "Ones", "config": {}}, "moving_mean_initializer": {"class_name": "Zeros", "config": {}}, "moving_variance_initializer": {"class_name": "Ones", "config": {}}, "beta_regularizer": null, "gamma_regularizer": null, "beta_constraint": null, "gamma_constraint": null}, "inbound_nodes": [[["concatenate_9", 0, 0, {}]]]}, {"name": "activation_21", "class_name": "Activation", "config": {"name": "activation_21", "trainable": true, "dtype": "float32", "activation": "relu"}, "inbound_nodes": [[["dense_1_3_bn", 0, 0, {}]]]}, {"name": "dense_1_3_bottleneck_conv2D", "class_name": "Conv2D", "config": {"name": "dense_1_3_bottleneck_conv2D", "trainable": true, "dtype": "float32", "filters": 128, "kernel_size": [1, 1], "strides": [1, 1], "padding": "same", "data_format": "channels_last", "dilation_rate": [1, 1], "activation": "linear", "use_bias": false, "kernel_initializer": {"class_name": "VarianceScaling", "config": {"scale": 2.0, "mode": "fan_in", "distribution": "normal", "seed": null}}, "bias_initializer": {"class_name": "Zeros", "config": {}}, "kernel_regularizer": {"class_name": "L1L2", "config": {"l1": 0.0, "l2": 9.999999747378752e-05}}, "bias_regularizer": null, "activity_regularizer": null, "kernel_constraint": null, "bias_constraint": null}, "inbound_nodes": [[["activation_21", 0, 0, {}]]]}, {"name": "dense_1_3_bottleneck_bn", "class_name": "BatchNormalization", "config": {"name": "dense_1_3_bottleneck_bn", "trainable": true, "dtype": "float32", "axis": -1, "momentum": 0.99, "epsilon": 1.1e-05, "center": true, "scale": true, "beta_initializer": {"class_name": "Zeros", "config": {}}, "gamma_initializer": {"class_name": "Ones", "config": {}}, "moving_mean_initializer": {"class_name": "Zeros", "config": {}}, "moving_variance_initializer": {"class_name": "Ones", "config": {}}, "beta_regularizer": null, "gamma_regularizer": null, "beta_constraint": null, "gamma_constraint": null}, "inbound_nodes": [[["dense_1_3_bottleneck_conv2D", 0, 0, {}]]]}, {"name": "activation_22", "class_name": "Activation", "config": {"name": "activation_22", "trainable": true, "dtype": "float32", "activation": "relu"}, "inbound_nodes": [[["dense_1_3_bottleneck_bn", 0, 0, {}]]]}, {"name": "dense_1_3_conv2D", "class_name": "Conv2D", "config": {"name": "dense_1_3_conv2D", "trainable": true, "dtype": "float32", "filters": 32, "kernel_size": [3, 3], "strides": [1, 1], "padding": "same", "data_format": "channels_last", "dilation_rate": [1, 1], "activation": "linear", "use_bias": false, "kernel_initializer": {"class_name": "VarianceScaling", "config": {"scale": 2.0, "mode": "fan_in", "distribution": "normal", "seed": null}}, "bias_initializer": {"class_name": "Zeros", "config": {}}, "kernel_regularizer": null, "bias_regularizer": null, "activity_regularizer": null, "kernel_constraint": null, "bias_constraint": null}, "inbound_nodes": [[["activation_22", 0, 0, {}]]]}, {"name": "concatenate_10", "class_name": "Concatenate", "config": {"name": "concatenate_10", "trainable": true, "dtype": "float32", "axis": -1}, "inbound_nodes": [[["concatenate_9", 0, 0, {}], ["dense_1_3_conv2D", 0, 0, {}]]]}, {"name": "dense_1_4_bn", "class_name": "BatchNormalization", "config": {"name": "dense_1_4_bn", "trainable": true, "dtype": "float32", "axis": -1, "momentum": 0.99, "epsilon": 1.1e-05, "center": true, "scale": true, "beta_initializer": {"class_name": "Zeros", "config": {}}, "gamma_initializer": {"class_name": "Ones", "config": {}}, "moving_mean_initializer": {"class_name": "Zeros", "config": {}}, "moving_variance_initializer": {"class_name": "Ones", "config": {}}, "beta_regularizer": null, "gamma_regularizer": null, "beta_constraint": null, "gamma_constraint": null}, "inbound_nodes": [[["concatenate_10", 0, 0, {}]]]}, {"name": "activation_23", "class_name": "Activation", "config": {"name": "activation_23", "trainable": true, "dtype": "float32", "activation": "relu"}, "inbound_nodes": [[["dense_1_4_bn", 0, 0, {}]]]}, {"name": "dense_1_4_bottleneck_conv2D", "class_name": "Conv2D", "config": {"name": "dense_1_4_bottleneck_conv2D", "trainable": true, "dtype": "float32", "filters": 128, "kernel_size": [1, 1], "strides": [1, 1], "padding": "same", "data_format": "channels_last", "dilation_rate": [1, 1], "activation": "linear", "use_bias": false, "kernel_initializer": {"class_name": "VarianceScaling", "config": {"scale": 2.0, "mode": "fan_in", "distribution": "normal", "seed": null}}, "bias_initializer": {"class_name": "Zeros", "config": {}}, "kernel_regularizer": {"class_name": "L1L2", "config": {"l1": 0.0, "l2": 9.999999747378752e-05}}, "bias_regularizer": null, "activity_regularizer": null, "kernel_constraint": null, "bias_constraint": null}, "inbound_nodes": [[["activation_23", 0, 0, {}]]]}, {"name": "dense_1_4_bottleneck_bn", "class_name": "BatchNormalization", "config": {"name": "dense_1_4_bottleneck_bn", "trainable": true, "dtype": "float32", "axis": -1, "momentum": 0.99, "epsilon": 1.1e-05, "center": true, "scale": true, "beta_initializer": {"class_name": "Zeros", "config": {}}, "gamma_initializer": {"class_name": "Ones", "config": {}}, "moving_mean_initializer": {"class_name": "Zeros", "config": {}}, "moving_variance_initializer": {"class_name": "Ones", "config": {}}, "beta_regularizer": null, "gamma_regularizer": null, "beta_constraint": null, "gamma_constraint": null}, "inbound_nodes": [[["dense_1_4_bottleneck_conv2D", 0, 0, {}]]]}, {"name": "activation_24", "class_name": "Activation", "config": {"name": "activation_24", "trainable": true, "dtype": "float32", "activation": "relu"}, "inbound_nodes": [[["dense_1_4_bottleneck_bn", 0, 0, {}]]]}, {"name": "dense_1_4_conv2D", "class_name": "Conv2D", "config": {"name": "dense_1_4_conv2D", "trainable": true, "dtype": "float32", "filters": 32, "kernel_size": [3, 3], "strides": [1, 1], "padding": "same", "data_format": "channels_last", "dilation_rate": [1, 1], "activation": "linear", "use_bias": false, "kernel_initializer": {"class_name": "VarianceScaling", "config": {"scale": 2.0, "mode": "fan_in", "distribution": "normal", "seed": null}}, "bias_initializer": {"class_name": "Zeros", "config": {}}, "kernel_regularizer": null, "bias_regularizer": null, "activity_regularizer": null, "kernel_constraint": null, "bias_constraint": null}, "inbound_nodes": [[["activation_24", 0, 0, {}]]]}, {"name": "concatenate_11", "class_name": "Concatenate", "config": {"name": "concatenate_11", "trainable": true, "dtype": "float32", "axis": -1}, "inbound_nodes": [[["concatenate_10", 0, 0, {}], ["dense_1_4_conv2D", 0, 0, {}]]]}, {"name": "dense_1_5_bn", "class_name": "BatchNormalization", "config": {"name": "dense_1_5_bn", "trainable": true, "dtype": "float32", "axis": -1, "momentum": 0.99, "epsilon": 1.1e-05, "center": true, "scale": true, "beta_initializer": {"class_name": "Zeros", "config": {}}, "gamma_initializer": {"class_name": "Ones", "config": {}}, "moving_mean_initializer": {"class_name": "Zeros", "config": {}}, "moving_variance_initializer": {"class_name": "Ones", "config": {}}, "beta_regularizer": null, "gamma_regularizer": null, "beta_constraint": null, "gamma_constraint": null}, "inbound_nodes": [[["concatenate_11", 0, 0, {}]]]}, {"name": "activation_25", "class_name": "Activation", "config": {"name": "activation_25", "trainable": true, "dtype": "float32", "activation": "relu"}, "inbound_nodes": [[["dense_1_5_bn", 0, 0, {}]]]}, {"name": "dense_1_5_bottleneck_conv2D", "class_name": "Conv2D", "config": {"name": "dense_1_5_bottleneck_conv2D", "trainable": true, "dtype": "float32", "filters": 128, "kernel_size": [1, 1], "strides": [1, 1], "padding": "same", "data_format": "channels_last", "dilation_rate": [1, 1], "activation": "linear", "use_bias": false, "kernel_initializer": {"class_name": "VarianceScaling", "config": {"scale": 2.0, "mode": "fan_in", "distribution": "normal", "seed": null}}, "bias_initializer": {"class_name": "Zeros", "config": {}}, "kernel_regularizer": {"class_name": "L1L2", "config": {"l1": 0.0, "l2": 9.999999747378752e-05}}, "bias_regularizer": null, "activity_regularizer": null, "kernel_constraint": null, "bias_constraint": null}, "inbound_nodes": [[["activation_25", 0, 0, {}]]]}, {"name": "dense_1_5_bottleneck_bn", "class_name": "BatchNormalization", "config": {"name": "dense_1_5_bottleneck_bn", "trainable": true, "dtype": "float32", "axis": -1, "momentum": 0.99, "epsilon": 1.1e-05, "center": true, "scale": true, "beta_initializer": {"class_name": "Zeros", "config": {}}, "gamma_initializer": {"class_name": "Ones", "config": {}}, "moving_mean_initializer": {"class_name": "Zeros", "config": {}}, "moving_variance_initializer": {"class_name": "Ones", "config": {}}, "beta_regularizer": null, "gamma_regularizer": null, "beta_constraint": null, "gamma_constraint": null}, "inbound_nodes": [[["dense_1_5_bottleneck_conv2D", 0, 0, {}]]]}, {"name": "activation_26", "class_name": "Activation", "config": {"name": "activation_26", "trainable": true, "dtype": "float32", "activation": "relu"}, "inbound_nodes": [[["dense_1_5_bottleneck_bn", 0, 0, {}]]]}, {"name": "dense_1_5_conv2D", "class_name": "Conv2D", "config": {"name": "dense_1_5_conv2D", "trainable": true, "dtype": "float32", "filters": 32, "kernel_size": [3, 3], "strides": [1, 1], "padding": "same", "data_format": "channels_last", "dilation_rate": [1, 1], "activation": "linear", "use_bias": false, "kernel_initializer": {"class_name": "VarianceScaling", "config": {"scale": 2.0, "mode": "fan_in", "distribution": "normal", "seed": null}}, "bias_initializer": {"class_name": "Zeros", "config": {}}, "kernel_regularizer": null, "bias_regularizer": null, "activity_regularizer": null, "kernel_constraint": null, "bias_constraint": null}, "inbound_nodes": [[["activation_26", 0, 0, {}]]]}, {"name": "concatenate_12", "class_name": "Concatenate", "config": {"name": "concatenate_12", "trainable": true, "dtype": "float32", "axis": -1}, "inbound_nodes": [[["concatenate_11", 0, 0, {}], ["dense_1_5_conv2D", 0, 0, {}]]]}, {"name": "dense_1_6_bn", "class_name": "BatchNormalization", "config": {"name": "dense_1_6_bn", "trainable": true, "dtype": "float32", "axis": -1, "momentum": 0.99, "epsilon": 1.1e-05, "center": true, "scale": true, "beta_initializer": {"class_name": "Zeros", "config": {}}, "gamma_initializer": {"class_name": "Ones", "config": {}}, "moving_mean_initializer": {"class_name": "Zeros", "config": {}}, "moving_variance_initializer": {"class_name": "Ones", "config": {}}, "beta_regularizer": null, "gamma_regularizer": null, "beta_constraint": null, "gamma_constraint": null}, "inbound_nodes": [[["concatenate_12", 0, 0, {}]]]}, {"name": "activation_27", "class_name": "Activation", "config": {"name": "activation_27", "trainable": true, "dtype": "float32", "activation": "relu"}, "inbound_nodes": [[["dense_1_6_bn", 0, 0, {}]]]}, {"name": "dense_1_6_bottleneck_conv2D", "class_name": "Conv2D", "config": {"name": "dense_1_6_bottleneck_conv2D", "trainable": true, "dtype": "float32", "filters": 128, "kernel_size": [1, 1], "strides": [1, 1], "padding": "same", "data_format": "channels_last", "dilation_rate": [1, 1], "activation": "linear", "use_bias": false, "kernel_initializer": {"class_name": "VarianceScaling", "config": {"scale": 2.0, "mode": "fan_in", "distribution": "normal", "seed": null}}, "bias_initializer": {"class_name": "Zeros", "config": {}}, "kernel_regularizer": {"class_name": "L1L2", "config": {"l1": 0.0, "l2": 9.999999747378752e-05}}, "bias_regularizer": null, "activity_regularizer": null, "kernel_constraint": null, "bias_constraint": null}, "inbound_nodes": [[["activation_27", 0, 0, {}]]]}, {"name": "dense_1_6_bottleneck_bn", "class_name": "BatchNormalization", "config": {"name": "dense_1_6_bottleneck_bn", "trainable": true, "dtype": "float32", "axis": -1, "momentum": 0.99, "epsilon": 1.1e-05, "center": true, "scale": true, "beta_initializer": {"class_name": "Zeros", "config": {}}, "gamma_initializer": {"class_name": "Ones", "config": {}}, "moving_mean_initializer": {"class_name": "Zeros", "config": {}}, "moving_variance_initializer": {"class_name": "Ones", "config": {}}, "beta_regularizer": null, "gamma_regularizer": null, "beta_constraint": null, "gamma_constraint": null}, "inbound_nodes": [[["dense_1_6_bottleneck_conv2D", 0, 0, {}]]]}, {"name": "activation_28", "class_name": "Activation", "config": {"name": "activation_28", "trainable": true, "dtype": "float32", "activation": "relu"}, "inbound_nodes": [[["dense_1_6_bottleneck_bn", 0, 0, {}]]]}, {"name": "dense_1_6_conv2D", "class_name": "Conv2D", "config": {"name": "dense_1_6_conv2D", "trainable": true, "dtype": "float32", "filters": 32, "kernel_size": [3, 3], "strides": [1, 1], "padding": "same", "data_format": "channels_last", "dilation_rate": [1, 1], "activation": "linear", "use_bias": false, "kernel_initializer": {"class_name": "VarianceScaling", "config": {"scale": 2.0, "mode": "fan_in", "distribution": "normal", "seed": null}}, "bias_initializer": {"class_name": "Zeros", "config": {}}, "kernel_regularizer": null, "bias_regularizer": null, "activity_regularizer": null, "kernel_constraint": null, "bias_constraint": null}, "inbound_nodes": [[["activation_28", 0, 0, {}]]]}, {"name": "concatenate_13", "class_name": "Concatenate", "config": {"name": "concatenate_13", "trainable": true, "dtype": "float32", "axis": -1}, "inbound_nodes": [[["concatenate_12", 0, 0, {}], ["dense_1_6_conv2D", 0, 0, {}]]]}, {"name": "dense_1_7_bn", "class_name": "BatchNormalization", "config": {"name": "dense_1_7_bn", "trainable": true, "dtype": "float32", "axis": -1, "momentum": 0.99, "epsilon": 1.1e-05, "center": true, "scale": true, "beta_initializer": {"class_name": "Zeros", "config": {}}, "gamma_initializer": {"class_name": "Ones", "config": {}}, "moving_mean_initializer": {"class_name": "Zeros", "config": {}}, "moving_variance_initializer": {"class_name": "Ones", "config": {}}, "beta_regularizer": null, "gamma_regularizer": null, "beta_constraint": null, "gamma_constraint": null}, "inbound_nodes": [[["concatenate_13", 0, 0, {}]]]}, {"name": "activation_29", "class_name": "Activation", "config": {"name": "activation_29", "trainable": true, "dtype": "float32", "activation": "relu"}, "inbound_nodes": [[["dense_1_7_bn", 0, 0, {}]]]}, {"name": "dense_1_7_bottleneck_conv2D", "class_name": "Conv2D", "config": {"name": "dense_1_7_bottleneck_conv2D", "trainable": true, "dtype": "float32", "filters": 128, "kernel_size": [1, 1], "strides": [1, 1], "padding": "same", "data_format": "channels_last", "dilation_rate": [1, 1], "activation": "linear", "use_bias": false, "kernel_initializer": {"class_name": "VarianceScaling", "config": {"scale": 2.0, "mode": "fan_in", "distribution": "normal", "seed": null}}, "bias_initializer": {"class_name": "Zeros", "config": {}}, "kernel_regularizer": {"class_name": "L1L2", "config": {"l1": 0.0, "l2": 9.999999747378752e-05}}, "bias_regularizer": null, "activity_regularizer": null, "kernel_constraint": null, "bias_constraint": null}, "inbound_nodes": [[["activation_29", 0, 0, {}]]]}, {"name": "dense_1_7_bottleneck_bn", "class_name": "BatchNormalization", "config": {"name": "dense_1_7_bottleneck_bn", "trainable": true, "dtype": "float32", "axis": -1, "momentum": 0.99, "epsilon": 1.1e-05, "center": true, "scale": true, "beta_initializer": {"class_name": "Zeros", "config": {}}, "gamma_initializer": {"class_name": "Ones", "config": {}}, "moving_mean_initializer": {"class_name": "Zeros", "config": {}}, "moving_variance_initializer": {"class_name": "Ones", "config": {}}, "beta_regularizer": null, "gamma_regularizer": null, "beta_constraint": null, "gamma_constraint": null}, "inbound_nodes": [[["dense_1_7_bottleneck_conv2D", 0, 0, {}]]]}, {"name": "activation_30", "class_name": "Activation", "config": {"name": "activation_30", "trainable": true, "dtype": "float32", "activation": "relu"}, "inbound_nodes": [[["dense_1_7_bottleneck_bn", 0, 0, {}]]]}, {"name": "dense_1_7_conv2D", "class_name": "Conv2D", "config": {"name": "dense_1_7_conv2D", "trainable": true, "dtype": "float32", "filters": 32, "kernel_size": [3, 3], "strides": [1, 1], "padding": "same", "data_format": "channels_last", "dilation_rate": [1, 1], "activation": "linear", "use_bias": false, "kernel_initializer": {"class_name": "VarianceScaling", "config": {"scale": 2.0, "mode": "fan_in", "distribution": "normal", "seed": null}}, "bias_initializer": {"class_name": "Zeros", "config": {}}, "kernel_regularizer": null, "bias_regularizer": null, "activity_regularizer": null, "kernel_constraint": null, "bias_constraint": null}, "inbound_nodes": [[["activation_30", 0, 0, {}]]]}, {"name": "concatenate_14", "class_name": "Concatenate", "config": {"name": "concatenate_14", "trainable": true, "dtype": "float32", "axis": -1}, "inbound_nodes": [[["concatenate_13", 0, 0, {}], ["dense_1_7_conv2D", 0, 0, {}]]]}, {"name": "dense_1_8_bn", "class_name": "BatchNormalization", "config": {"name": "dense_1_8_bn", "trainable": true, "dtype": "float32", "axis": -1, "momentum": 0.99, "epsilon": 1.1e-05, "center": true, "scale": true, "beta_initializer": {"class_name": "Zeros", "config": {}}, "gamma_initializer": {"class_name": "Ones", "config": {}}, "moving_mean_initializer": {"class_name": "Zeros", "config": {}}, "moving_variance_initializer": {"class_name": "Ones", "config": {}}, "beta_regularizer": null, "gamma_regularizer": null, "beta_constraint": null, "gamma_constraint": null}, "inbound_nodes": [[["concatenate_14", 0, 0, {}]]]}, {"name": "activation_31", "class_name": "Activation", "config": {"name": "activation_31", "trainable": true, "dtype": "float32", "activation": "relu"}, "inbound_nodes": [[["dense_1_8_bn", 0, 0, {}]]]}, {"name": "dense_1_8_bottleneck_conv2D", "class_name": "Conv2D", "config": {"name": "dense_1_8_bottleneck_conv2D", "trainable": true, "dtype": "float32", "filters": 128, "kernel_size": [1, 1], "strides": [1, 1], "padding": "same", "data_format": "channels_last", "dilation_rate": [1, 1], "activation": "linear", "use_bias": false, "kernel_initializer": {"class_name": "VarianceScaling", "config": {"scale": 2.0, "mode": "fan_in", "distribution": "normal", "seed": null}}, "bias_initializer": {"class_name": "Zeros", "config": {}}, "kernel_regularizer": {"class_name": "L1L2", "config": {"l1": 0.0, "l2": 9.999999747378752e-05}}, "bias_regularizer": null, "activity_regularizer": null, "kernel_constraint": null, "bias_constraint": null}, "inbound_nodes": [[["activation_31", 0, 0, {}]]]}, {"name": "dense_1_8_bottleneck_bn", "class_name": "BatchNormalization", "config": {"name": "dense_1_8_bottleneck_bn", "trainable": true, "dtype": "float32", "axis": -1, "momentum": 0.99, "epsilon": 1.1e-05, "center": true, "scale": true, "beta_initializer": {"class_name": "Zeros", "config": {}}, "gamma_initializer": {"class_name": "Ones", "config": {}}, "moving_mean_initializer": {"class_name": "Zeros", "config": {}}, "moving_variance_initializer": {"class_name": "Ones", "config": {}}, "beta_regularizer": null, "gamma_regularizer": null, "beta_constraint": null, "gamma_constraint": null}, "inbound_nodes": [[["dense_1_8_bottleneck_conv2D", 0, 0, {}]]]}, {"name": "activation_32", "class_name": "Activation", "config": {"name": "activation_32", "trainable": true, "dtype": "float32", "activation": "relu"}, "inbound_nodes": [[["dense_1_8_bottleneck_bn", 0, 0, {}]]]}, {"name": "dense_1_8_conv2D", "class_name": "Conv2D", "config": {"name": "dense_1_8_conv2D", "trainable": true, "dtype": "float32", "filters": 32, "kernel_size": [3, 3], "strides": [1, 1], "padding": "same", "data_format": "channels_last", "dilation_rate": [1, 1], "activation": "linear", "use_bias": false, "kernel_initializer": {"class_name": "VarianceScaling", "config": {"scale": 2.0, "mode": "fan_in", "distribution": "normal", "seed": null}}, "bias_initializer": {"class_name": "Zeros", "config": {}}, "kernel_regularizer": null, "bias_regularizer": null, "activity_regularizer": null, "kernel_constraint": null, "bias_constraint": null}, "inbound_nodes": [[["activation_32", 0, 0, {}]]]}, {"name": "concatenate_15", "class_name": "Concatenate", "config": {"name": "concatenate_15", "trainable": true, "dtype": "float32", "axis": -1}, "inbound_nodes": [[["concatenate_14", 0, 0, {}], ["dense_1_8_conv2D", 0, 0, {}]]]}, {"name": "dense_1_9_bn", "class_name": "BatchNormalization", "config": {"name": "dense_1_9_bn", "trainable": true, "dtype": "float32", "axis": -1, "momentum": 0.99, "epsilon": 1.1e-05, "center": true, "scale": true, "beta_initializer": {"class_name": "Zeros", "config": {}}, "gamma_initializer": {"class_name": "Ones", "config": {}}, "moving_mean_initializer": {"class_name": "Zeros", "config": {}}, "moving_variance_initializer": {"class_name": "Ones", "config": {}}, "beta_regularizer": null, "gamma_regularizer": null, "beta_constraint": null, "gamma_constraint": null}, "inbound_nodes": [[["concatenate_15", 0, 0, {}]]]}, {"name": "activation_33", "class_name": "Activation", "config": {"name": "activation_33", "trainable": true, "dtype": "float32", "activation": "relu"}, "inbound_nodes": [[["dense_1_9_bn", 0, 0, {}]]]}, {"name": "dense_1_9_bottleneck_conv2D", "class_name": "Conv2D", "config": {"name": "dense_1_9_bottleneck_conv2D", "trainable": true, "dtype": "float32", "filters": 128, "kernel_size": [1, 1], "strides": [1, 1], "padding": "same", "data_format": "channels_last", "dilation_rate": [1, 1], "activation": "linear", "use_bias": false, "kernel_initializer": {"class_name": "VarianceScaling", "config": {"scale": 2.0, "mode": "fan_in", "distribution": "normal", "seed": null}}, "bias_initializer": {"class_name": "Zeros", "config": {}}, "kernel_regularizer": {"class_name": "L1L2", "config": {"l1": 0.0, "l2": 9.999999747378752e-05}}, "bias_regularizer": null, "activity_regularizer": null, "kernel_constraint": null, "bias_constraint": null}, "inbound_nodes": [[["activation_33", 0, 0, {}]]]}, {"name": "dense_1_9_bottleneck_bn", "class_name": "BatchNormalization", "config": {"name": "dense_1_9_bottleneck_bn", "trainable": true, "dtype": "float32", "axis": -1, "momentum": 0.99, "epsilon": 1.1e-05, "center": true, "scale": true, "beta_initializer": {"class_name": "Zeros", "config": {}}, "gamma_initializer": {"class_name": "Ones", "config": {}}, "moving_mean_initializer": {"class_name": "Zeros", "config": {}}, "moving_variance_initializer": {"class_name": "Ones", "config": {}}, "beta_regularizer": null, "gamma_regularizer": null, "beta_constraint": null, "gamma_constraint": null}, "inbound_nodes": [[["dense_1_9_bottleneck_conv2D", 0, 0, {}]]]}, {"name": "activation_34", "class_name": "Activation", "config": {"name": "activation_34", "trainable": true, "dtype": "float32", "activation": "relu"}, "inbound_nodes": [[["dense_1_9_bottleneck_bn", 0, 0, {}]]]}, {"name": "dense_1_9_conv2D", "class_name": "Conv2D", "config": {"name": "dense_1_9_conv2D", "trainable": true, "dtype": "float32", "filters": 32, "kernel_size": [3, 3], "strides": [1, 1], "padding": "same", "data_format": "channels_last", "dilation_rate": [1, 1], "activation": "linear", "use_bias": false, "kernel_initializer": {"class_name": "VarianceScaling", "config": {"scale": 2.0, "mode": "fan_in", "distribution": "normal", "seed": null}}, "bias_initializer": {"class_name": "Zeros", "config": {}}, "kernel_regularizer": null, "bias_regularizer": null, "activity_regularizer": null, "kernel_constraint": null, "bias_constraint": null}, "inbound_nodes": [[["activation_34", 0, 0, {}]]]}, {"name": "concatenate_16", "class_name": "Concatenate", "config": {"name": "concatenate_16", "trainable": true, "dtype": "float32", "axis": -1}, "inbound_nodes": [[["concatenate_15", 0, 0, {}], ["dense_1_9_conv2D", 0, 0, {}]]]}, {"name": "dense_1_10_bn", "class_name": "BatchNormalization", "config": {"name": "dense_1_10_bn", "trainable": true, "dtype": "float32", "axis": -1, "momentum": 0.99, "epsilon": 1.1e-05, "center": true, "scale": true, "beta_initializer": {"class_name": "Zeros", "config": {}}, "gamma_initializer": {"class_name": "Ones", "config": {}}, "moving_mean_initializer": {"class_name": "Zeros", "config": {}}, "moving_variance_initializer": {"class_name": "Ones", "config": {}}, "beta_regularizer": null, "gamma_regularizer": null, "beta_constraint": null, "gamma_constraint": null}, "inbound_nodes": [[["concatenate_16", 0, 0, {}]]]}, {"name": "activation_35", "class_name": "Activation", "config": {"name": "activation_35", "trainable": true, "dtype": "float32", "activation": "relu"}, "inbound_nodes": [[["dense_1_10_bn", 0, 0, {}]]]}, {"name": "dense_1_10_bottleneck_conv2D", "class_name": "Conv2D", "config": {"name": "dense_1_10_bottleneck_conv2D", "trainable": true, "dtype": "float32", "filters": 128, "kernel_size": [1, 1], "strides": [1, 1], "padding": "same", "data_format": "channels_last", "dilation_rate": [1, 1], "activation": "linear", "use_bias": false, "kernel_initializer": {"class_name": "VarianceScaling", "config": {"scale": 2.0, "mode": "fan_in", "distribution": "normal", "seed": null}}, "bias_initializer": {"class_name": "Zeros", "config": {}}, "kernel_regularizer": {"class_name": "L1L2", "config": {"l1": 0.0, "l2": 9.999999747378752e-05}}, "bias_regularizer": null, "activity_regularizer": null, "kernel_constraint": null, "bias_constraint": null}, "inbound_nodes": [[["activation_35", 0, 0, {}]]]}, {"name": "dense_1_10_bottleneck_bn", "class_name": "BatchNormalization", "config": {"name": "dense_1_10_bottleneck_bn", "trainable": true, "dtype": "float32", "axis": -1, "momentum": 0.99, "epsilon": 1.1e-05, "center": true, "scale": true, "beta_initializer": {"class_name": "Zeros", "config": {}}, "gamma_initializer": {"class_name": "Ones", "config": {}}, "moving_mean_initializer": {"class_name": "Zeros", "config": {}}, "moving_variance_initializer": {"class_name": "Ones", "config": {}}, "beta_regularizer": null, "gamma_regularizer": null, "beta_constraint": null, "gamma_constraint": null}, "inbound_nodes": [[["dense_1_10_bottleneck_conv2D", 0, 0, {}]]]}, {"name": "activation_36", "class_name": "Activation", "config": {"name": "activation_36", "trainable": true, "dtype": "float32", "activation": "relu"}, "inbound_nodes": [[["dense_1_10_bottleneck_bn", 0, 0, {}]]]}, {"name": "dense_1_10_conv2D", "class_name": "Conv2D", "config": {"name": "dense_1_10_conv2D", "trainable": true, "dtype": "float32", "filters": 32, "kernel_size": [3, 3], "strides": [1, 1], "padding": "same", "data_format": "channels_last", "dilation_rate": [1, 1], "activation": "linear", "use_bias": false, "kernel_initializer": {"class_name": "VarianceScaling", "config": {"scale": 2.0, "mode": "fan_in", "distribution": "normal", "seed": null}}, "bias_initializer": {"class_name": "Zeros", "config": {}}, "kernel_regularizer": null, "bias_regularizer": null, "activity_regularizer": null, "kernel_constraint": null, "bias_constraint": null}, "inbound_nodes": [[["activation_36", 0, 0, {}]]]}, {"name": "concatenate_17", "class_name": "Concatenate", "config": {"name": "concatenate_17", "trainable": true, "dtype": "float32", "axis": -1}, "inbound_nodes": [[["concatenate_16", 0, 0, {}], ["dense_1_10_conv2D", 0, 0, {}]]]}, {"name": "dense_1_11_bn", "class_name": "BatchNormalization", "config": {"name": "dense_1_11_bn", "trainable": true, "dtype": "float32", "axis": -1, "momentum": 0.99, "epsilon": 1.1e-05, "center": true, "scale": true, "beta_initializer": {"class_name": "Zeros", "config": {}}, "gamma_initializer": {"class_name": "Ones", "config": {}}, "moving_mean_initializer": {"class_name": "Zeros", "config": {}}, "moving_variance_initializer": {"class_name": "Ones", "config": {}}, "beta_regularizer": null, "gamma_regularizer": null, "beta_constraint": null, "gamma_constraint": null}, "inbound_nodes": [[["concatenate_17", 0, 0, {}]]]}, {"name": "activation_37", "class_name": "Activation", "config": {"name": "activation_37", "trainable": true, "dtype": "float32", "activation": "relu"}, "inbound_nodes": [[["dense_1_11_bn", 0, 0, {}]]]}, {"name": "dense_1_11_bottleneck_conv2D", "class_name": "Conv2D", "config": {"name": "dense_1_11_bottleneck_conv2D", "trainable": true, "dtype": "float32", "filters": 128, "kernel_size": [1, 1], "strides": [1, 1], "padding": "same", "data_format": "channels_last", "dilation_rate": [1, 1], "activation": "linear", "use_bias": false, "kernel_initializer": {"class_name": "VarianceScaling", "config": {"scale": 2.0, "mode": "fan_in", "distribution": "normal", "seed": null}}, "bias_initializer": {"class_name": "Zeros", "config": {}}, "kernel_regularizer": {"class_name": "L1L2", "config": {"l1": 0.0, "l2": 9.999999747378752e-05}}, "bias_regularizer": null, "activity_regularizer": null, "kernel_constraint": null, "bias_constraint": null}, "inbound_nodes": [[["activation_37", 0, 0, {}]]]}, {"name": "dense_1_11_bottleneck_bn", "class_name": "BatchNormalization", "config": {"name": "dense_1_11_bottleneck_bn", "trainable": true, "dtype": "float32", "axis": -1, "momentum": 0.99, "epsilon": 1.1e-05, "center": true, "scale": true, "beta_initializer": {"class_name": "Zeros", "config": {}}, "gamma_initializer": {"class_name": "Ones", "config": {}}, "moving_mean_initializer": {"class_name": "Zeros", "config": {}}, "moving_variance_initializer": {"class_name": "Ones", "config": {}}, "beta_regularizer": null, "gamma_regularizer": null, "beta_constraint": null, "gamma_constraint": null}, "inbound_nodes": [[["dense_1_11_bottleneck_conv2D", 0, 0, {}]]]}, {"name": "activation_38", "class_name": "Activation", "config": {"name": "activation_38", "trainable": true, "dtype": "float32", "activation": "relu"}, "inbound_nodes": [[["dense_1_11_bottleneck_bn", 0, 0, {}]]]}, {"name": "dense_1_11_conv2D", "class_name": "Conv2D", "config": {"name": "dense_1_11_conv2D", "trainable": true, "dtype": "float32", "filters": 32, "kernel_size": [3, 3], "strides": [1, 1], "padding": "same", "data_format": "channels_last", "dilation_rate": [1, 1], "activation": "linear", "use_bias": false, "kernel_initializer": {"class_name": "VarianceScaling", "config": {"scale": 2.0, "mode": "fan_in", "distribution": "normal", "seed": null}}, "bias_initializer": {"class_name": "Zeros", "config": {}}, "kernel_regularizer": null, "bias_regularizer": null, "activity_regularizer": null, "kernel_constraint": null, "bias_constraint": null}, "inbound_nodes": [[["activation_38", 0, 0, {}]]]}, {"name": "concatenate_18", "class_name": "Concatenate", "config": {"name": "concatenate_18", "trainable": true, "dtype": "float32", "axis": -1}, "inbound_nodes": [[["concatenate_17", 0, 0, {}], ["dense_1_11_conv2D", 0, 0, {}]]]}, {"name": "tr_1_bn", "class_name": "BatchNormalization", "config": {"name": "tr_1_bn", "trainable": true, "dtype": "float32", "axis": -1, "momentum": 0.99, "epsilon": 1.1e-05, "center": true, "scale": true, "beta_initializer": {"class_name": "Zeros", "config": {}}, "gamma_initializer": {"class_name": "Ones", "config": {}}, "moving_mean_initializer": {"class_name": "Zeros", "config": {}}, "moving_variance_initializer": {"class_name": "Ones", "config": {}}, "beta_regularizer": null, "gamma_regularizer": null, "beta_constraint": null, "gamma_constraint": null}, "inbound_nodes": [[["concatenate_18", 0, 0, {}]]]}, {"name": "activation_39", "class_name": "Activation", "config": {"name": "activation_39", "trainable": true, "dtype": "float32", "activation": "relu"}, "inbound_nodes": [[["tr_1_bn", 0, 0, {}]]]}, {"name": "tr_1_conv2D", "class_name": "Conv2D", "config": {"name": "tr_1_conv2D", "trainable": true, "dtype": "float32", "filters": 256, "kernel_size": [1, 1], "strides": [1, 1], "padding": "same", "data_format": "channels_last", "dilation_rate": [1, 1], "activation": "linear", "use_bias": false, "kernel_initializer": {"class_name": "VarianceScaling", "config": {"scale": 2.0, "mode": "fan_in", "distribution": "normal", "seed": null}}, "bias_initializer": {"class_name": "Zeros", "config": {}}, "kernel_regularizer": {"class_name": "L1L2", "config": {"l1": 0.0, "l2": 9.999999747378752e-05}}, "bias_regularizer": null, "activity_regularizer": null, "kernel_constraint": null, "bias_constraint": null}, "inbound_nodes": [[["activation_39", 0, 0, {}]]]}, {"name": "average_pooling2d_2", "class_name": "AveragePooling2D", "config": {"name": "average_pooling2d_2", "trainable": true, "dtype": "float32", "pool_size": [2, 2], "padding": "valid", "strides": [2, 2], "data_format": "channels_last"}, "inbound_nodes": [[["tr_1_conv2D", 0, 0, {}]]]}, {"name": "dense_2_0_bn", "class_name": "BatchNormalization", "config": {"name": "dense_2_0_bn", "trainable": true, "dtype": "float32", "axis": -1, "momentum": 0.99, "epsilon": 1.1e-05, "center": true, "scale": true, "beta_initializer": {"class_name": "Zeros", "config": {}}, "gamma_initializer": {"class_name": "Ones", "config": {}}, "moving_mean_initializer": {"class_name": "Zeros", "config": {}}, "moving_variance_initializer": {"class_name": "Ones", "config": {}}, "beta_regularizer": null, "gamma_regularizer": null, "beta_constraint": null, "gamma_constraint": null}, "inbound_nodes": [[["average_pooling2d_2", 0, 0, {}]]]}, {"name": "activation_40", "class_name": "Activation", "config": {"name": "activation_40", "trainable": true, "dtype": "float32", "activation": "relu"}, "inbound_nodes": [[["dense_2_0_bn", 0, 0, {}]]]}, {"name": "dense_2_0_bottleneck_conv2D", "class_name": "Conv2D", "config": {"name": "dense_2_0_bottleneck_conv2D", "trainable": true, "dtype": "float32", "filters": 128, "kernel_size": [1, 1], "strides": [1, 1], "padding": "same", "data_format": "channels_last", "dilation_rate": [1, 1], "activation": "linear", "use_bias": false, "kernel_initializer": {"class_name": "VarianceScaling", "config": {"scale": 2.0, "mode": "fan_in", "distribution": "normal", "seed": null}}, "bias_initializer": {"class_name": "Zeros", "config": {}}, "kernel_regularizer": {"class_name": "L1L2", "config": {"l1": 0.0, "l2": 9.999999747378752e-05}}, "bias_regularizer": null, "activity_regularizer": null, "kernel_constraint": null, "bias_constraint": null}, "inbound_nodes": [[["activation_40", 0, 0, {}]]]}, {"name": "dense_2_0_bottleneck_bn", "class_name": "BatchNormalization", "config": {"name": "dense_2_0_bottleneck_bn", "trainable": true, "dtype": "float32", "axis": -1, "momentum": 0.99, "epsilon": 1.1e-05, "center": true, "scale": true, "beta_initializer": {"class_name": "Zeros", "config": {}}, "gamma_initializer": {"class_name": "Ones", "config": {}}, "moving_mean_initializer": {"class_name": "Zeros", "config": {}}, "moving_variance_initializer": {"class_name": "Ones", "config": {}}, "beta_regularizer": null, "gamma_regularizer": null, "beta_constraint": null, "gamma_constraint": null}, "inbound_nodes": [[["dense_2_0_bottleneck_conv2D", 0, 0, {}]]]}, {"name": "activation_41", "class_name": "Activation", "config": {"name": "activation_41", "trainable": true, "dtype": "float32", "activation": "relu"}, "inbound_nodes": [[["dense_2_0_bottleneck_bn", 0, 0, {}]]]}, {"name": "dense_2_0_conv2D", "class_name": "Conv2D", "config": {"name": "dense_2_0_conv2D", "trainable": true, "dtype": "float32", "filters": 32, "kernel_size": [3, 3], "strides": [1, 1], "padding": "same", "data_format": "channels_last", "dilation_rate": [1, 1], "activation": "linear", "use_bias": false, "kernel_initializer": {"class_name": "VarianceScaling", "config": {"scale": 2.0, "mode": "fan_in", "distribution": "normal", "seed": null}}, "bias_initializer": {"class_name": "Zeros", "config": {}}, "kernel_regularizer": null, "bias_regularizer": null, "activity_regularizer": null, "kernel_constraint": null, "bias_constraint": null}, "inbound_nodes": [[["activation_41", 0, 0, {}]]]}, {"name": "concatenate_19", "class_name": "Concatenate", "config": {"name": "concatenate_19", "trainable": true, "dtype": "float32", "axis": -1}, "inbound_nodes": [[["average_pooling2d_2", 0, 0, {}], ["dense_2_0_conv2D", 0, 0, {}]]]}, {"name": "dense_2_1_bn", "class_name": "BatchNormalization", "config": {"name": "dense_2_1_bn", "trainable": true, "dtype": "float32", "axis": -1, "momentum": 0.99, "epsilon": 1.1e-05, "center": true, "scale": true, "beta_initializer": {"class_name": "Zeros", "config": {}}, "gamma_initializer": {"class_name": "Ones", "config": {}}, "moving_mean_initializer": {"class_name": "Zeros", "config": {}}, "moving_variance_initializer": {"class_name": "Ones", "config": {}}, "beta_regularizer": null, "gamma_regularizer": null, "beta_constraint": null, "gamma_constraint": null}, "inbound_nodes": [[["concatenate_19", 0, 0, {}]]]}, {"name": "activation_42", "class_name": "Activation", "config": {"name": "activation_42", "trainable": true, "dtype": "float32", "activation": "relu"}, "inbound_nodes": [[["dense_2_1_bn", 0, 0, {}]]]}, {"name": "dense_2_1_bottleneck_conv2D", "class_name": "Conv2D", "config": {"name": "dense_2_1_bottleneck_conv2D", "trainable": true, "dtype": "float32", "filters": 128, "kernel_size": [1, 1], "strides": [1, 1], "padding": "same", "data_format": "channels_last", "dilation_rate": [1, 1], "activation": "linear", "use_bias": false, "kernel_initializer": {"class_name": "VarianceScaling", "config": {"scale": 2.0, "mode": "fan_in", "distribution": "normal", "seed": null}}, "bias_initializer": {"class_name": "Zeros", "config": {}}, "kernel_regularizer": {"class_name": "L1L2", "config": {"l1": 0.0, "l2": 9.999999747378752e-05}}, "bias_regularizer": null, "activity_regularizer": null, "kernel_constraint": null, "bias_constraint": null}, "inbound_nodes": [[["activation_42", 0, 0, {}]]]}, {"name": "dense_2_1_bottleneck_bn", "class_name": "BatchNormalization", "config": {"name": "dense_2_1_bottleneck_bn", "trainable": true, "dtype": "float32", "axis": -1, "momentum": 0.99, "epsilon": 1.1e-05, "center": true, "scale": true, "beta_initializer": {"class_name": "Zeros", "config": {}}, "gamma_initializer": {"class_name": "Ones", "config": {}}, "moving_mean_initializer": {"class_name": "Zeros", "config": {}}, "moving_variance_initializer": {"class_name": "Ones", "config": {}}, "beta_regularizer": null, "gamma_regularizer": null, "beta_constraint": null, "gamma_constraint": null}, "inbound_nodes": [[["dense_2_1_bottleneck_conv2D", 0, 0, {}]]]}, {"name": "activation_43", "class_name": "Activation", "config": {"name": "activation_43", "trainable": true, "dtype": "float32", "activation": "relu"}, "inbound_nodes": [[["dense_2_1_bottleneck_bn", 0, 0, {}]]]}, {"name": "dense_2_1_conv2D", "class_name": "Conv2D", "config": {"name": "dense_2_1_conv2D", "trainable": true, "dtype": "float32", "filters": 32, "kernel_size": [3, 3], "strides": [1, 1], "padding": "same", "data_format": "channels_last", "dilation_rate": [1, 1], "activation": "linear", "use_bias": false, "kernel_initializer": {"class_name": "VarianceScaling", "config": {"scale": 2.0, "mode": "fan_in", "distribution": "normal", "seed": null}}, "bias_initializer": {"class_name": "Zeros", "config": {}}, "kernel_regularizer": null, "bias_regularizer": null, "activity_regularizer": null, "kernel_constraint": null, "bias_constraint": null}, "inbound_nodes": [[["activation_43", 0, 0, {}]]]}, {"name": "concatenate_20", "class_name": "Concatenate", "config": {"name": "concatenate_20", "trainable": true, "dtype": "float32", "axis": -1}, "inbound_nodes": [[["concatenate_19", 0, 0, {}], ["dense_2_1_conv2D", 0, 0, {}]]]}, {"name": "dense_2_2_bn", "class_name": "BatchNormalization", "config": {"name": "dense_2_2_bn", "trainable": true, "dtype": "float32", "axis": -1, "momentum": 0.99, "epsilon": 1.1e-05, "center": true, "scale": true, "beta_initializer": {"class_name": "Zeros", "config": {}}, "gamma_initializer": {"class_name": "Ones", "config": {}}, "moving_mean_initializer": {"class_name": "Zeros", "config": {}}, "moving_variance_initializer": {"class_name": "Ones", "config": {}}, "beta_regularizer": null, "gamma_regularizer": null, "beta_constraint": null, "gamma_constraint": null}, "inbound_nodes": [[["concatenate_20", 0, 0, {}]]]}, {"name": "activation_44", "class_name": "Activation", "config": {"name": "activation_44", "trainable": true, "dtype": "float32", "activation": "relu"}, "inbound_nodes": [[["dense_2_2_bn", 0, 0, {}]]]}, {"name": "dense_2_2_bottleneck_conv2D", "class_name": "Conv2D", "config": {"name": "dense_2_2_bottleneck_conv2D", "trainable": true, "dtype": "float32", "filters": 128, "kernel_size": [1, 1], "strides": [1, 1], "padding": "same", "data_format": "channels_last", "dilation_rate": [1, 1], "activation": "linear", "use_bias": false, "kernel_initializer": {"class_name": "VarianceScaling", "config": {"scale": 2.0, "mode": "fan_in", "distribution": "normal", "seed": null}}, "bias_initializer": {"class_name": "Zeros", "config": {}}, "kernel_regularizer": {"class_name": "L1L2", "config": {"l1": 0.0, "l2": 9.999999747378752e-05}}, "bias_regularizer": null, "activity_regularizer": null, "kernel_constraint": null, "bias_constraint": null}, "inbound_nodes": [[["activation_44", 0, 0, {}]]]}, {"name": "dense_2_2_bottleneck_bn", "class_name": "BatchNormalization", "config": {"name": "dense_2_2_bottleneck_bn", "trainable": true, "dtype": "float32", "axis": -1, "momentum": 0.99, "epsilon": 1.1e-05, "center": true, "scale": true, "beta_initializer": {"class_name": "Zeros", "config": {}}, "gamma_initializer": {"class_name": "Ones", "config": {}}, "moving_mean_initializer": {"class_name": "Zeros", "config": {}}, "moving_variance_initializer": {"class_name": "Ones", "config": {}}, "beta_regularizer": null, "gamma_regularizer": null, "beta_constraint": null, "gamma_constraint": null}, "inbound_nodes": [[["dense_2_2_bottleneck_conv2D", 0, 0, {}]]]}, {"name": "activation_45", "class_name": "Activation", "config": {"name": "activation_45", "trainable": true, "dtype": "float32", "activation": "relu"}, "inbound_nodes": [[["dense_2_2_bottleneck_bn", 0, 0, {}]]]}, {"name": "dense_2_2_conv2D", "class_name": "Conv2D", "config": {"name": "dense_2_2_conv2D", "trainable": true, "dtype": "float32", "filters": 32, "kernel_size": [3, 3], "strides": [1, 1], "padding": "same", "data_format": "channels_last", "dilation_rate": [1, 1], "activation": "linear", "use_bias": false, "kernel_initializer": {"class_name": "VarianceScaling", "config": {"scale": 2.0, "mode": "fan_in", "distribution": "normal", "seed": null}}, "bias_initializer": {"class_name": "Zeros", "config": {}}, "kernel_regularizer": null, "bias_regularizer": null, "activity_regularizer": null, "kernel_constraint": null, "bias_constraint": null}, "inbound_nodes": [[["activation_45", 0, 0, {}]]]}, {"name": "concatenate_21", "class_name": "Concatenate", "config": {"name": "concatenate_21", "trainable": true, "dtype": "float32", "axis": -1}, "inbound_nodes": [[["concatenate_20", 0, 0, {}], ["dense_2_2_conv2D", 0, 0, {}]]]}, {"name": "dense_2_3_bn", "class_name": "BatchNormalization", "config": {"name": "dense_2_3_bn", "trainable": true, "dtype": "float32", "axis": -1, "momentum": 0.99, "epsilon": 1.1e-05, "center": true, "scale": true, "beta_initializer": {"class_name": "Zeros", "config": {}}, "gamma_initializer": {"class_name": "Ones", "config": {}}, "moving_mean_initializer": {"class_name": "Zeros", "config": {}}, "moving_variance_initializer": {"class_name": "Ones", "config": {}}, "beta_regularizer": null, "gamma_regularizer": null, "beta_constraint": null, "gamma_constraint": null}, "inbound_nodes": [[["concatenate_21", 0, 0, {}]]]}, {"name": "activation_46", "class_name": "Activation", "config": {"name": "activation_46", "trainable": true, "dtype": "float32", "activation": "relu"}, "inbound_nodes": [[["dense_2_3_bn", 0, 0, {}]]]}, {"name": "dense_2_3_bottleneck_conv2D", "class_name": "Conv2D", "config": {"name": "dense_2_3_bottleneck_conv2D", "trainable": true, "dtype": "float32", "filters": 128, "kernel_size": [1, 1], "strides": [1, 1], "padding": "same", "data_format": "channels_last", "dilation_rate": [1, 1], "activation": "linear", "use_bias": false, "kernel_initializer": {"class_name": "VarianceScaling", "config": {"scale": 2.0, "mode": "fan_in", "distribution": "normal", "seed": null}}, "bias_initializer": {"class_name": "Zeros", "config": {}}, "kernel_regularizer": {"class_name": "L1L2", "config": {"l1": 0.0, "l2": 9.999999747378752e-05}}, "bias_regularizer": null, "activity_regularizer": null, "kernel_constraint": null, "bias_constraint": null}, "inbound_nodes": [[["activation_46", 0, 0, {}]]]}, {"name": "dense_2_3_bottleneck_bn", "class_name": "BatchNormalization", "config": {"name": "dense_2_3_bottleneck_bn", "trainable": true, "dtype": "float32", "axis": -1, "momentum": 0.99, "epsilon": 1.1e-05, "center": true, "scale": true, "beta_initializer": {"class_name": "Zeros", "config": {}}, "gamma_initializer": {"class_name": "Ones", "config": {}}, "moving_mean_initializer": {"class_name": "Zeros", "config": {}}, "moving_variance_initializer": {"class_name": "Ones", "config": {}}, "beta_regularizer": null, "gamma_regularizer": null, "beta_constraint": null, "gamma_constraint": null}, "inbound_nodes": [[["dense_2_3_bottleneck_conv2D", 0, 0, {}]]]}, {"name": "activation_47", "class_name": "Activation", "config": {"name": "activation_47", "trainable": true, "dtype": "float32", "activation": "relu"}, "inbound_nodes": [[["dense_2_3_bottleneck_bn", 0, 0, {}]]]}, {"name": "dense_2_3_conv2D", "class_name": "Conv2D", "config": {"name": "dense_2_3_conv2D", "trainable": true, "dtype": "float32", "filters": 32, "kernel_size": [3, 3], "strides": [1, 1], "padding": "same", "data_format": "channels_last", "dilation_rate": [1, 1], "activation": "linear", "use_bias": false, "kernel_initializer": {"class_name": "VarianceScaling", "config": {"scale": 2.0, "mode": "fan_in", "distribution": "normal", "seed": null}}, "bias_initializer": {"class_name": "Zeros", "config": {}}, "kernel_regularizer": null, "bias_regularizer": null, "activity_regularizer": null, "kernel_constraint": null, "bias_constraint": null}, "inbound_nodes": [[["activation_47", 0, 0, {}]]]}, {"name": "concatenate_22", "class_name": "Concatenate", "config": {"name": "concatenate_22", "trainable": true, "dtype": "float32", "axis": -1}, "inbound_nodes": [[["concatenate_21", 0, 0, {}], ["dense_2_3_conv2D", 0, 0, {}]]]}, {"name": "dense_2_4_bn", "class_name": "BatchNormalization", "config": {"name": "dense_2_4_bn", "trainable": true, "dtype": "float32", "axis": -1, "momentum": 0.99, "epsilon": 1.1e-05, "center": true, "scale": true, "beta_initializer": {"class_name": "Zeros", "config": {}}, "gamma_initializer": {"class_name": "Ones", "config": {}}, "moving_mean_initializer": {"class_name": "Zeros", "config": {}}, "moving_variance_initializer": {"class_name": "Ones", "config": {}}, "beta_regularizer": null, "gamma_regularizer": null, "beta_constraint": null, "gamma_constraint": null}, "inbound_nodes": [[["concatenate_22", 0, 0, {}]]]}, {"name": "activation_48", "class_name": "Activation", "config": {"name": "activation_48", "trainable": true, "dtype": "float32", "activation": "relu"}, "inbound_nodes": [[["dense_2_4_bn", 0, 0, {}]]]}, {"name": "dense_2_4_bottleneck_conv2D", "class_name": "Conv2D", "config": {"name": "dense_2_4_bottleneck_conv2D", "trainable": true, "dtype": "float32", "filters": 128, "kernel_size": [1, 1], "strides": [1, 1], "padding": "same", "data_format": "channels_last", "dilation_rate": [1, 1], "activation": "linear", "use_bias": false, "kernel_initializer": {"class_name": "VarianceScaling", "config": {"scale": 2.0, "mode": "fan_in", "distribution": "normal", "seed": null}}, "bias_initializer": {"class_name": "Zeros", "config": {}}, "kernel_regularizer": {"class_name": "L1L2", "config": {"l1": 0.0, "l2": 9.999999747378752e-05}}, "bias_regularizer": null, "activity_regularizer": null, "kernel_constraint": null, "bias_constraint": null}, "inbound_nodes": [[["activation_48", 0, 0, {}]]]}, {"name": "dense_2_4_bottleneck_bn", "class_name": "BatchNormalization", "config": {"name": "dense_2_4_bottleneck_bn", "trainable": true, "dtype": "float32", "axis": -1, "momentum": 0.99, "epsilon": 1.1e-05, "center": true, "scale": true, "beta_initializer": {"class_name": "Zeros", "config": {}}, "gamma_initializer": {"class_name": "Ones", "config": {}}, "moving_mean_initializer": {"class_name": "Zeros", "config": {}}, "moving_variance_initializer": {"class_name": "Ones", "config": {}}, "beta_regularizer": null, "gamma_regularizer": null, "beta_constraint": null, "gamma_constraint": null}, "inbound_nodes": [[["dense_2_4_bottleneck_conv2D", 0, 0, {}]]]}, {"name": "activation_49", "class_name": "Activation", "config": {"name": "activation_49", "trainable": true, "dtype": "float32", "activation": "relu"}, "inbound_nodes": [[["dense_2_4_bottleneck_bn", 0, 0, {}]]]}, {"name": "dense_2_4_conv2D", "class_name": "Conv2D", "config": {"name": "dense_2_4_conv2D", "trainable": true, "dtype": "float32", "filters": 32, "kernel_size": [3, 3], "strides": [1, 1], "padding": "same", "data_format": "channels_last", "dilation_rate": [1, 1], "activation": "linear", "use_bias": false, "kernel_initializer": {"class_name": "VarianceScaling", "config": {"scale": 2.0, "mode": "fan_in", "distribution": "normal", "seed": null}}, "bias_initializer": {"class_name": "Zeros", "config": {}}, "kernel_regularizer": null, "bias_regularizer": null, "activity_regularizer": null, "kernel_constraint": null, "bias_constraint": null}, "inbound_nodes": [[["activation_49", 0, 0, {}]]]}, {"name": "concatenate_23", "class_name": "Concatenate", "config": {"name": "concatenate_23", "trainable": true, "dtype": "float32", "axis": -1}, "inbound_nodes": [[["concatenate_22", 0, 0, {}], ["dense_2_4_conv2D", 0, 0, {}]]]}, {"name": "dense_2_5_bn", "class_name": "BatchNormalization", "config": {"name": "dense_2_5_bn", "trainable": true, "dtype": "float32", "axis": -1, "momentum": 0.99, "epsilon": 1.1e-05, "center": true, "scale": true, "beta_initializer": {"class_name": "Zeros", "config": {}}, "gamma_initializer": {"class_name": "Ones", "config": {}}, "moving_mean_initializer": {"class_name": "Zeros", "config": {}}, "moving_variance_initializer": {"class_name": "Ones", "config": {}}, "beta_regularizer": null, "gamma_regularizer": null, "beta_constraint": null, "gamma_constraint": null}, "inbound_nodes": [[["concatenate_23", 0, 0, {}]]]}, {"name": "activation_50", "class_name": "Activation", "config": {"name": "activation_50", "trainable": true, "dtype": "float32", "activation": "relu"}, "inbound_nodes": [[["dense_2_5_bn", 0, 0, {}]]]}, {"name": "dense_2_5_bottleneck_conv2D", "class_name": "Conv2D", "config": {"name": "dense_2_5_bottleneck_conv2D", "trainable": true, "dtype": "float32", "filters": 128, "kernel_size": [1, 1], "strides": [1, 1], "padding": "same", "data_format": "channels_last", "dilation_rate": [1, 1], "activation": "linear", "use_bias": false, "kernel_initializer": {"class_name": "VarianceScaling", "config": {"scale": 2.0, "mode": "fan_in", "distribution": "normal", "seed": null}}, "bias_initializer": {"class_name": "Zeros", "config": {}}, "kernel_regularizer": {"class_name": "L1L2", "config": {"l1": 0.0, "l2": 9.999999747378752e-05}}, "bias_regularizer": null, "activity_regularizer": null, "kernel_constraint": null, "bias_constraint": null}, "inbound_nodes": [[["activation_50", 0, 0, {}]]]}, {"name": "dense_2_5_bottleneck_bn", "class_name": "BatchNormalization", "config": {"name": "dense_2_5_bottleneck_bn", "trainable": true, "dtype": "float32", "axis": -1, "momentum": 0.99, "epsilon": 1.1e-05, "center": true, "scale": true, "beta_initializer": {"class_name": "Zeros", "config": {}}, "gamma_initializer": {"class_name": "Ones", "config": {}}, "moving_mean_initializer": {"class_name": "Zeros", "config": {}}, "moving_variance_initializer": {"class_name": "Ones", "config": {}}, "beta_regularizer": null, "gamma_regularizer": null, "beta_constraint": null, "gamma_constraint": null}, "inbound_nodes": [[["dense_2_5_bottleneck_conv2D", 0, 0, {}]]]}, {"name": "activation_51", "class_name": "Activation", "config": {"name": "activation_51", "trainable": true, "dtype": "float32", "activation": "relu"}, "inbound_nodes": [[["dense_2_5_bottleneck_bn", 0, 0, {}]]]}, {"name": "dense_2_5_conv2D", "class_name": "Conv2D", "config": {"name": "dense_2_5_conv2D", "trainable": true, "dtype": "float32", "filters": 32, "kernel_size": [3, 3], "strides": [1, 1], "padding": "same", "data_format": "channels_last", "dilation_rate": [1, 1], "activation": "linear", "use_bias": false, "kernel_initializer": {"class_name": "VarianceScaling", "config": {"scale": 2.0, "mode": "fan_in", "distribution": "normal", "seed": null}}, "bias_initializer": {"class_name": "Zeros", "config": {}}, "kernel_regularizer": null, "bias_regularizer": null, "activity_regularizer": null, "kernel_constraint": null, "bias_constraint": null}, "inbound_nodes": [[["activation_51", 0, 0, {}]]]}, {"name": "concatenate_24", "class_name": "Concatenate", "config": {"name": "concatenate_24", "trainable": true, "dtype": "float32", "axis": -1}, "inbound_nodes": [[["concatenate_23", 0, 0, {}], ["dense_2_5_conv2D", 0, 0, {}]]]}, {"name": "dense_2_6_bn", "class_name": "BatchNormalization", "config": {"name": "dense_2_6_bn", "trainable": true, "dtype": "float32", "axis": -1, "momentum": 0.99, "epsilon": 1.1e-05, "center": true, "scale": true, "beta_initializer": {"class_name": "Zeros", "config": {}}, "gamma_initializer": {"class_name": "Ones", "config": {}}, "moving_mean_initializer": {"class_name": "Zeros", "config": {}}, "moving_variance_initializer": {"class_name": "Ones", "config": {}}, "beta_regularizer": null, "gamma_regularizer": null, "beta_constraint": null, "gamma_constraint": null}, "inbound_nodes": [[["concatenate_24", 0, 0, {}]]]}, {"name": "activation_52", "class_name": "Activation", "config": {"name": "activation_52", "trainable": true, "dtype": "float32", "activation": "relu"}, "inbound_nodes": [[["dense_2_6_bn", 0, 0, {}]]]}, {"name": "dense_2_6_bottleneck_conv2D", "class_name": "Conv2D", "config": {"name": "dense_2_6_bottleneck_conv2D", "trainable": true, "dtype": "float32", "filters": 128, "kernel_size": [1, 1], "strides": [1, 1], "padding": "same", "data_format": "channels_last", "dilation_rate": [1, 1], "activation": "linear", "use_bias": false, "kernel_initializer": {"class_name": "VarianceScaling", "config": {"scale": 2.0, "mode": "fan_in", "distribution": "normal", "seed": null}}, "bias_initializer": {"class_name": "Zeros", "config": {}}, "kernel_regularizer": {"class_name": "L1L2", "config": {"l1": 0.0, "l2": 9.999999747378752e-05}}, "bias_regularizer": null, "activity_regularizer": null, "kernel_constraint": null, "bias_constraint": null}, "inbound_nodes": [[["activation_52", 0, 0, {}]]]}, {"name": "dense_2_6_bottleneck_bn", "class_name": "BatchNormalization", "config": {"name": "dense_2_6_bottleneck_bn", "trainable": true, "dtype": "float32", "axis": -1, "momentum": 0.99, "epsilon": 1.1e-05, "center": true, "scale": true, "beta_initializer": {"class_name": "Zeros", "config": {}}, "gamma_initializer": {"class_name": "Ones", "config": {}}, "moving_mean_initializer": {"class_name": "Zeros", "config": {}}, "moving_variance_initializer": {"class_name": "Ones", "config": {}}, "beta_regularizer": null, "gamma_regularizer": null, "beta_constraint": null, "gamma_constraint": null}, "inbound_nodes": [[["dense_2_6_bottleneck_conv2D", 0, 0, {}]]]}, {"name": "activation_53", "class_name": "Activation", "config": {"name": "activation_53", "trainable": true, "dtype": "float32", "activation": "relu"}, "inbound_nodes": [[["dense_2_6_bottleneck_bn", 0, 0, {}]]]}, {"name": "dense_2_6_conv2D", "class_name": "Conv2D", "config": {"name": "dense_2_6_conv2D", "trainable": true, "dtype": "float32", "filters": 32, "kernel_size": [3, 3], "strides": [1, 1], "padding": "same", "data_format": "channels_last", "dilation_rate": [1, 1], "activation": "linear", "use_bias": false, "kernel_initializer": {"class_name": "VarianceScaling", "config": {"scale": 2.0, "mode": "fan_in", "distribution": "normal", "seed": null}}, "bias_initializer": {"class_name": "Zeros", "config": {}}, "kernel_regularizer": null, "bias_regularizer": null, "activity_regularizer": null, "kernel_constraint": null, "bias_constraint": null}, "inbound_nodes": [[["activation_53", 0, 0, {}]]]}, {"name": "concatenate_25", "class_name": "Concatenate", "config": {"name": "concatenate_25", "trainable": true, "dtype": "float32", "axis": -1}, "inbound_nodes": [[["concatenate_24", 0, 0, {}], ["dense_2_6_conv2D", 0, 0, {}]]]}, {"name": "dense_2_7_bn", "class_name": "BatchNormalization", "config": {"name": "dense_2_7_bn", "trainable": true, "dtype": "float32", "axis": -1, "momentum": 0.99, "epsilon": 1.1e-05, "center": true, "scale": true, "beta_initializer": {"class_name": "Zeros", "config": {}}, "gamma_initializer": {"class_name": "Ones", "config": {}}, "moving_mean_initializer": {"class_name": "Zeros", "config": {}}, "moving_variance_initializer": {"class_name": "Ones", "config": {}}, "beta_regularizer": null, "gamma_regularizer": null, "beta_constraint": null, "gamma_constraint": null}, "inbound_nodes": [[["concatenate_25", 0, 0, {}]]]}, {"name": "activation_54", "class_name": "Activation", "config": {"name": "activation_54", "trainable": true, "dtype": "float32", "activation": "relu"}, "inbound_nodes": [[["dense_2_7_bn", 0, 0, {}]]]}, {"name": "dense_2_7_bottleneck_conv2D", "class_name": "Conv2D", "config": {"name": "dense_2_7_bottleneck_conv2D", "trainable": true, "dtype": "float32", "filters": 128, "kernel_size": [1, 1], "strides": [1, 1], "padding": "same", "data_format": "channels_last", "dilation_rate": [1, 1], "activation": "linear", "use_bias": false, "kernel_initializer": {"class_name": "VarianceScaling", "config": {"scale": 2.0, "mode": "fan_in", "distribution": "normal", "seed": null}}, "bias_initializer": {"class_name": "Zeros", "config": {}}, "kernel_regularizer": {"class_name": "L1L2", "config": {"l1": 0.0, "l2": 9.999999747378752e-05}}, "bias_regularizer": null, "activity_regularizer": null, "kernel_constraint": null, "bias_constraint": null}, "inbound_nodes": [[["activation_54", 0, 0, {}]]]}, {"name": "dense_2_7_bottleneck_bn", "class_name": "BatchNormalization", "config": {"name": "dense_2_7_bottleneck_bn", "trainable": true, "dtype": "float32", "axis": -1, "momentum": 0.99, "epsilon": 1.1e-05, "center": true, "scale": true, "beta_initializer": {"class_name": "Zeros", "config": {}}, "gamma_initializer": {"class_name": "Ones", "config": {}}, "moving_mean_initializer": {"class_name": "Zeros", "config": {}}, "moving_variance_initializer": {"class_name": "Ones", "config": {}}, "beta_regularizer": null, "gamma_regularizer": null, "beta_constraint": null, "gamma_constraint": null}, "inbound_nodes": [[["dense_2_7_bottleneck_conv2D", 0, 0, {}]]]}, {"name": "activation_55", "class_name": "Activation", "config": {"name": "activation_55", "trainable": true, "dtype": "float32", "activation": "relu"}, "inbound_nodes": [[["dense_2_7_bottleneck_bn", 0, 0, {}]]]}, {"name": "dense_2_7_conv2D", "class_name": "Conv2D", "config": {"name": "dense_2_7_conv2D", "trainable": true, "dtype": "float32", "filters": 32, "kernel_size": [3, 3], "strides": [1, 1], "padding": "same", "data_format": "channels_last", "dilation_rate": [1, 1], "activation": "linear", "use_bias": false, "kernel_initializer": {"class_name": "VarianceScaling", "config": {"scale": 2.0, "mode": "fan_in", "distribution": "normal", "seed": null}}, "bias_initializer": {"class_name": "Zeros", "config": {}}, "kernel_regularizer": null, "bias_regularizer": null, "activity_regularizer": null, "kernel_constraint": null, "bias_constraint": null}, "inbound_nodes": [[["activation_55", 0, 0, {}]]]}, {"name": "concatenate_26", "class_name": "Concatenate", "config": {"name": "concatenate_26", "trainable": true, "dtype": "float32", "axis": -1}, "inbound_nodes": [[["concatenate_25", 0, 0, {}], ["dense_2_7_conv2D", 0, 0, {}]]]}, {"name": "dense_2_8_bn", "class_name": "BatchNormalization", "config": {"name": "dense_2_8_bn", "trainable": true, "dtype": "float32", "axis": -1, "momentum": 0.99, "epsilon": 1.1e-05, "center": true, "scale": true, "beta_initializer": {"class_name": "Zeros", "config": {}}, "gamma_initializer": {"class_name": "Ones", "config": {}}, "moving_mean_initializer": {"class_name": "Zeros", "config": {}}, "moving_variance_initializer": {"class_name": "Ones", "config": {}}, "beta_regularizer": null, "gamma_regularizer": null, "beta_constraint": null, "gamma_constraint": null}, "inbound_nodes": [[["concatenate_26", 0, 0, {}]]]}, {"name": "activation_56", "class_name": "Activation", "config": {"name": "activation_56", "trainable": true, "dtype": "float32", "activation": "relu"}, "inbound_nodes": [[["dense_2_8_bn", 0, 0, {}]]]}, {"name": "dense_2_8_bottleneck_conv2D", "class_name": "Conv2D", "config": {"name": "dense_2_8_bottleneck_conv2D", "trainable": true, "dtype": "float32", "filters": 128, "kernel_size": [1, 1], "strides": [1, 1], "padding": "same", "data_format": "channels_last", "dilation_rate": [1, 1], "activation": "linear", "use_bias": false, "kernel_initializer": {"class_name": "VarianceScaling", "config": {"scale": 2.0, "mode": "fan_in", "distribution": "normal", "seed": null}}, "bias_initializer": {"class_name": "Zeros", "config": {}}, "kernel_regularizer": {"class_name": "L1L2", "config": {"l1": 0.0, "l2": 9.999999747378752e-05}}, "bias_regularizer": null, "activity_regularizer": null, "kernel_constraint": null, "bias_constraint": null}, "inbound_nodes": [[["activation_56", 0, 0, {}]]]}, {"name": "dense_2_8_bottleneck_bn", "class_name": "BatchNormalization", "config": {"name": "dense_2_8_bottleneck_bn", "trainable": true, "dtype": "float32", "axis": -1, "momentum": 0.99, "epsilon": 1.1e-05, "center": true, "scale": true, "beta_initializer": {"class_name": "Zeros", "config": {}}, "gamma_initializer": {"class_name": "Ones", "config": {}}, "moving_mean_initializer": {"class_name": "Zeros", "config": {}}, "moving_variance_initializer": {"class_name": "Ones", "config": {}}, "beta_regularizer": null, "gamma_regularizer": null, "beta_constraint": null, "gamma_constraint": null}, "inbound_nodes": [[["dense_2_8_bottleneck_conv2D", 0, 0, {}]]]}, {"name": "activation_57", "class_name": "Activation", "config": {"name": "activation_57", "trainable": true, "dtype": "float32", "activation": "relu"}, "inbound_nodes": [[["dense_2_8_bottleneck_bn", 0, 0, {}]]]}, {"name": "dense_2_8_conv2D", "class_name": "Conv2D", "config": {"name": "dense_2_8_conv2D", "trainable": true, "dtype": "float32", "filters": 32, "kernel_size": [3, 3], "strides": [1, 1], "padding": "same", "data_format": "channels_last", "dilation_rate": [1, 1], "activation": "linear", "use_bias": false, "kernel_initializer": {"class_name": "VarianceScaling", "config": {"scale": 2.0, "mode": "fan_in", "distribution": "normal", "seed": null}}, "bias_initializer": {"class_name": "Zeros", "config": {}}, "kernel_regularizer": null, "bias_regularizer": null, "activity_regularizer": null, "kernel_constraint": null, "bias_constraint": null}, "inbound_nodes": [[["activation_57", 0, 0, {}]]]}, {"name": "concatenate_27", "class_name": "Concatenate", "config": {"name": "concatenate_27", "trainable": true, "dtype": "float32", "axis": -1}, "inbound_nodes": [[["concatenate_26", 0, 0, {}], ["dense_2_8_conv2D", 0, 0, {}]]]}, {"name": "dense_2_9_bn", "class_name": "BatchNormalization", "config": {"name": "dense_2_9_bn", "trainable": true, "dtype": "float32", "axis": -1, "momentum": 0.99, "epsilon": 1.1e-05, "center": true, "scale": true, "beta_initializer": {"class_name": "Zeros", "config": {}}, "gamma_initializer": {"class_name": "Ones", "config": {}}, "moving_mean_initializer": {"class_name": "Zeros", "config": {}}, "moving_variance_initializer": {"class_name": "Ones", "config": {}}, "beta_regularizer": null, "gamma_regularizer": null, "beta_constraint": null, "gamma_constraint": null}, "inbound_nodes": [[["concatenate_27", 0, 0, {}]]]}, {"name": "activation_58", "class_name": "Activation", "config": {"name": "activation_58", "trainable": true, "dtype": "float32", "activation": "relu"}, "inbound_nodes": [[["dense_2_9_bn", 0, 0, {}]]]}, {"name": "dense_2_9_bottleneck_conv2D", "class_name": "Conv2D", "config": {"name": "dense_2_9_bottleneck_conv2D", "trainable": true, "dtype": "float32", "filters": 128, "kernel_size": [1, 1], "strides": [1, 1], "padding": "same", "data_format": "channels_last", "dilation_rate": [1, 1], "activation": "linear", "use_bias": false, "kernel_initializer": {"class_name": "VarianceScaling", "config": {"scale": 2.0, "mode": "fan_in", "distribution": "normal", "seed": null}}, "bias_initializer": {"class_name": "Zeros", "config": {}}, "kernel_regularizer": {"class_name": "L1L2", "config": {"l1": 0.0, "l2": 9.999999747378752e-05}}, "bias_regularizer": null, "activity_regularizer": null, "kernel_constraint": null, "bias_constraint": null}, "inbound_nodes": [[["activation_58", 0, 0, {}]]]}, {"name": "dense_2_9_bottleneck_bn", "class_name": "BatchNormalization", "config": {"name": "dense_2_9_bottleneck_bn", "trainable": true, "dtype": "float32", "axis": -1, "momentum": 0.99, "epsilon": 1.1e-05, "center": true, "scale": true, "beta_initializer": {"class_name": "Zeros", "config": {}}, "gamma_initializer": {"class_name": "Ones", "config": {}}, "moving_mean_initializer": {"class_name": "Zeros", "config": {}}, "moving_variance_initializer": {"class_name": "Ones", "config": {}}, "beta_regularizer": null, "gamma_regularizer": null, "beta_constraint": null, "gamma_constraint": null}, "inbound_nodes": [[["dense_2_9_bottleneck_conv2D", 0, 0, {}]]]}, {"name": "activation_59", "class_name": "Activation", "config": {"name": "activation_59", "trainable": true, "dtype": "float32", "activation": "relu"}, "inbound_nodes": [[["dense_2_9_bottleneck_bn", 0, 0, {}]]]}, {"name": "dense_2_9_conv2D", "class_name": "Conv2D", "config": {"name": "dense_2_9_conv2D", "trainable": true, "dtype": "float32", "filters": 32, "kernel_size": [3, 3], "strides": [1, 1], "padding": "same", "data_format": "channels_last", "dilation_rate": [1, 1], "activation": "linear", "use_bias": false, "kernel_initializer": {"class_name": "VarianceScaling", "config": {"scale": 2.0, "mode": "fan_in", "distribution": "normal", "seed": null}}, "bias_initializer": {"class_name": "Zeros", "config": {}}, "kernel_regularizer": null, "bias_regularizer": null, "activity_regularizer": null, "kernel_constraint": null, "bias_constraint": null}, "inbound_nodes": [[["activation_59", 0, 0, {}]]]}, {"name": "concatenate_28", "class_name": "Concatenate", "config": {"name": "concatenate_28", "trainable": true, "dtype": "float32", "axis": -1}, "inbound_nodes": [[["concatenate_27", 0, 0, {}], ["dense_2_9_conv2D", 0, 0, {}]]]}, {"name": "dense_2_10_bn", "class_name": "BatchNormalization", "config": {"name": "dense_2_10_bn", "trainable": true, "dtype": "float32", "axis": -1, "momentum": 0.99, "epsilon": 1.1e-05, "center": true, "scale": true, "beta_initializer": {"class_name": "Zeros", "config": {}}, "gamma_initializer": {"class_name": "Ones", "config": {}}, "moving_mean_initializer": {"class_name": "Zeros", "config": {}}, "moving_variance_initializer": {"class_name": "Ones", "config": {}}, "beta_regularizer": null, "gamma_regularizer": null, "beta_constraint": null, "gamma_constraint": null}, "inbound_nodes": [[["concatenate_28", 0, 0, {}]]]}, {"name": "activation_60", "class_name": "Activation", "config": {"name": "activation_60", "trainable": true, "dtype": "float32", "activation": "relu"}, "inbound_nodes": [[["dense_2_10_bn", 0, 0, {}]]]}, {"name": "dense_2_10_bottleneck_conv2D", "class_name": "Conv2D", "config": {"name": "dense_2_10_bottleneck_conv2D", "trainable": true, "dtype": "float32", "filters": 128, "kernel_size": [1, 1], "strides": [1, 1], "padding": "same", "data_format": "channels_last", "dilation_rate": [1, 1], "activation": "linear", "use_bias": false, "kernel_initializer": {"class_name": "VarianceScaling", "config": {"scale": 2.0, "mode": "fan_in", "distribution": "normal", "seed": null}}, "bias_initializer": {"class_name": "Zeros", "config": {}}, "kernel_regularizer": {"class_name": "L1L2", "config": {"l1": 0.0, "l2": 9.999999747378752e-05}}, "bias_regularizer": null, "activity_regularizer": null, "kernel_constraint": null, "bias_constraint": null}, "inbound_nodes": [[["activation_60", 0, 0, {}]]]}, {"name": "dense_2_10_bottleneck_bn", "class_name": "BatchNormalization", "config": {"name": "dense_2_10_bottleneck_bn", "trainable": true, "dtype": "float32", "axis": -1, "momentum": 0.99, "epsilon": 1.1e-05, "center": true, "scale": true, "beta_initializer": {"class_name": "Zeros", "config": {}}, "gamma_initializer": {"class_name": "Ones", "config": {}}, "moving_mean_initializer": {"class_name": "Zeros", "config": {}}, "moving_variance_initializer": {"class_name": "Ones", "config": {}}, "beta_regularizer": null, "gamma_regularizer": null, "beta_constraint": null, "gamma_constraint": null}, "inbound_nodes": [[["dense_2_10_bottleneck_conv2D", 0, 0, {}]]]}, {"name": "activation_61", "class_name": "Activation", "config": {"name": "activation_61", "trainable": true, "dtype": "float32", "activation": "relu"}, "inbound_nodes": [[["dense_2_10_bottleneck_bn", 0, 0, {}]]]}, {"name": "dense_2_10_conv2D", "class_name": "Conv2D", "config": {"name": "dense_2_10_conv2D", "trainable": true, "dtype": "float32", "filters": 32, "kernel_size": [3, 3], "strides": [1, 1], "padding": "same", "data_format": "channels_last", "dilation_rate": [1, 1], "activation": "linear", "use_bias": false, "kernel_initializer": {"class_name": "VarianceScaling", "config": {"scale": 2.0, "mode": "fan_in", "distribution": "normal", "seed": null}}, "bias_initializer": {"class_name": "Zeros", "config": {}}, "kernel_regularizer": null, "bias_regularizer": null, "activity_regularizer": null, "kernel_constraint": null, "bias_constraint": null}, "inbound_nodes": [[["activation_61", 0, 0, {}]]]}, {"name": "concatenate_29", "class_name": "Concatenate", "config": {"name": "concatenate_29", "trainable": true, "dtype": "float32", "axis": -1}, "inbound_nodes": [[["concatenate_28", 0, 0, {}], ["dense_2_10_conv2D", 0, 0, {}]]]}, {"name": "dense_2_11_bn", "class_name": "BatchNormalization", "config": {"name": "dense_2_11_bn", "trainable": true, "dtype": "float32", "axis": -1, "momentum": 0.99, "epsilon": 1.1e-05, "center": true, "scale": true, "beta_initializer": {"class_name": "Zeros", "config": {}}, "gamma_initializer": {"class_name": "Ones", "config": {}}, "moving_mean_initializer": {"class_name": "Zeros", "config": {}}, "moving_variance_initializer": {"class_name": "Ones", "config": {}}, "beta_regularizer": null, "gamma_regularizer": null, "beta_constraint": null, "gamma_constraint": null}, "inbound_nodes": [[["concatenate_29", 0, 0, {}]]]}, {"name": "activation_62", "class_name": "Activation", "config": {"name": "activation_62", "trainable": true, "dtype": "float32", "activation": "relu"}, "inbound_nodes": [[["dense_2_11_bn", 0, 0, {}]]]}, {"name": "dense_2_11_bottleneck_conv2D", "class_name": "Conv2D", "config": {"name": "dense_2_11_bottleneck_conv2D", "trainable": true, "dtype": "float32", "filters": 128, "kernel_size": [1, 1], "strides": [1, 1], "padding": "same", "data_format": "channels_last", "dilation_rate": [1, 1], "activation": "linear", "use_bias": false, "kernel_initializer": {"class_name": "VarianceScaling", "config": {"scale": 2.0, "mode": "fan_in", "distribution": "normal", "seed": null}}, "bias_initializer": {"class_name": "Zeros", "config": {}}, "kernel_regularizer": {"class_name": "L1L2", "config": {"l1": 0.0, "l2": 9.999999747378752e-05}}, "bias_regularizer": null, "activity_regularizer": null, "kernel_constraint": null, "bias_constraint": null}, "inbound_nodes": [[["activation_62", 0, 0, {}]]]}, {"name": "dense_2_11_bottleneck_bn", "class_name": "BatchNormalization", "config": {"name": "dense_2_11_bottleneck_bn", "trainable": true, "dtype": "float32", "axis": -1, "momentum": 0.99, "epsilon": 1.1e-05, "center": true, "scale": true, "beta_initializer": {"class_name": "Zeros", "config": {}}, "gamma_initializer": {"class_name": "Ones", "config": {}}, "moving_mean_initializer": {"class_name": "Zeros", "config": {}}, "moving_variance_initializer": {"class_name": "Ones", "config": {}}, "beta_regularizer": null, "gamma_regularizer": null, "beta_constraint": null, "gamma_constraint": null}, "inbound_nodes": [[["dense_2_11_bottleneck_conv2D", 0, 0, {}]]]}, {"name": "activation_63", "class_name": "Activation", "config": {"name": "activation_63", "trainable": true, "dtype": "float32", "activation": "relu"}, "inbound_nodes": [[["dense_2_11_bottleneck_bn", 0, 0, {}]]]}, {"name": "dense_2_11_conv2D", "class_name": "Conv2D", "config": {"name": "dense_2_11_conv2D", "trainable": true, "dtype": "float32", "filters": 32, "kernel_size": [3, 3], "strides": [1, 1], "padding": "same", "data_format": "channels_last", "dilation_rate": [1, 1], "activation": "linear", "use_bias": false, "kernel_initializer": {"class_name": "VarianceScaling", "config": {"scale": 2.0, "mode": "fan_in", "distribution": "normal", "seed": null}}, "bias_initializer": {"class_name": "Zeros", "config": {}}, "kernel_regularizer": null, "bias_regularizer": null, "activity_regularizer": null, "kernel_constraint": null, "bias_constraint": null}, "inbound_nodes": [[["activation_63", 0, 0, {}]]]}, {"name": "concatenate_30", "class_name": "Concatenate", "config": {"name": "concatenate_30", "trainable": true, "dtype": "float32", "axis": -1}, "inbound_nodes": [[["concatenate_29", 0, 0, {}], ["dense_2_11_conv2D", 0, 0, {}]]]}, {"name": "dense_2_12_bn", "class_name": "BatchNormalization", "config": {"name": "dense_2_12_bn", "trainable": true, "dtype": "float32", "axis": -1, "momentum": 0.99, "epsilon": 1.1e-05, "center": true, "scale": true, "beta_initializer": {"class_name": "Zeros", "config": {}}, "gamma_initializer": {"class_name": "Ones", "config": {}}, "moving_mean_initializer": {"class_name": "Zeros", "config": {}}, "moving_variance_initializer": {"class_name": "Ones", "config": {}}, "beta_regularizer": null, "gamma_regularizer": null, "beta_constraint": null, "gamma_constraint": null}, "inbound_nodes": [[["concatenate_30", 0, 0, {}]]]}, {"name": "activation_64", "class_name": "Activation", "config": {"name": "activation_64", "trainable": true, "dtype": "float32", "activation": "relu"}, "inbound_nodes": [[["dense_2_12_bn", 0, 0, {}]]]}, {"name": "dense_2_12_bottleneck_conv2D", "class_name": "Conv2D", "config": {"name": "dense_2_12_bottleneck_conv2D", "trainable": true, "dtype": "float32", "filters": 128, "kernel_size": [1, 1], "strides": [1, 1], "padding": "same", "data_format": "channels_last", "dilation_rate": [1, 1], "activation": "linear", "use_bias": false, "kernel_initializer": {"class_name": "VarianceScaling", "config": {"scale": 2.0, "mode": "fan_in", "distribution": "normal", "seed": null}}, "bias_initializer": {"class_name": "Zeros", "config": {}}, "kernel_regularizer": {"class_name": "L1L2", "config": {"l1": 0.0, "l2": 9.999999747378752e-05}}, "bias_regularizer": null, "activity_regularizer": null, "kernel_constraint": null, "bias_constraint": null}, "inbound_nodes": [[["activation_64", 0, 0, {}]]]}, {"name": "dense_2_12_bottleneck_bn", "class_name": "BatchNormalization", "config": {"name": "dense_2_12_bottleneck_bn", "trainable": true, "dtype": "float32", "axis": -1, "momentum": 0.99, "epsilon": 1.1e-05, "center": true, "scale": true, "beta_initializer": {"class_name": "Zeros", "config": {}}, "gamma_initializer": {"class_name": "Ones", "config": {}}, "moving_mean_initializer": {"class_name": "Zeros", "config": {}}, "moving_variance_initializer": {"class_name": "Ones", "config": {}}, "beta_regularizer": null, "gamma_regularizer": null, "beta_constraint": null, "gamma_constraint": null}, "inbound_nodes": [[["dense_2_12_bottleneck_conv2D", 0, 0, {}]]]}, {"name": "activation_65", "class_name": "Activation", "config": {"name": "activation_65", "trainable": true, "dtype": "float32", "activation": "relu"}, "inbound_nodes": [[["dense_2_12_bottleneck_bn", 0, 0, {}]]]}, {"name": "dense_2_12_conv2D", "class_name": "Conv2D", "config": {"name": "dense_2_12_conv2D", "trainable": true, "dtype": "float32", "filters": 32, "kernel_size": [3, 3], "strides": [1, 1], "padding": "same", "data_format": "channels_last", "dilation_rate": [1, 1], "activation": "linear", "use_bias": false, "kernel_initializer": {"class_name": "VarianceScaling", "config": {"scale": 2.0, "mode": "fan_in", "distribution": "normal", "seed": null}}, "bias_initializer": {"class_name": "Zeros", "config": {}}, "kernel_regularizer": null, "bias_regularizer": null, "activity_regularizer": null, "kernel_constraint": null, "bias_constraint": null}, "inbound_nodes": [[["activation_65", 0, 0, {}]]]}, {"name": "concatenate_31", "class_name": "Concatenate", "config": {"name": "concatenate_31", "trainable": true, "dtype": "float32", "axis": -1}, "inbound_nodes": [[["concatenate_30", 0, 0, {}], ["dense_2_12_conv2D", 0, 0, {}]]]}, {"name": "dense_2_13_bn", "class_name": "BatchNormalization", "config": {"name": "dense_2_13_bn", "trainable": true, "dtype": "float32", "axis": -1, "momentum": 0.99, "epsilon": 1.1e-05, "center": true, "scale": true, "beta_initializer": {"class_name": "Zeros", "config": {}}, "gamma_initializer": {"class_name": "Ones", "config": {}}, "moving_mean_initializer": {"class_name": "Zeros", "config": {}}, "moving_variance_initializer": {"class_name": "Ones", "config": {}}, "beta_regularizer": null, "gamma_regularizer": null, "beta_constraint": null, "gamma_constraint": null}, "inbound_nodes": [[["concatenate_31", 0, 0, {}]]]}, {"name": "activation_66", "class_name": "Activation", "config": {"name": "activation_66", "trainable": true, "dtype": "float32", "activation": "relu"}, "inbound_nodes": [[["dense_2_13_bn", 0, 0, {}]]]}, {"name": "dense_2_13_bottleneck_conv2D", "class_name": "Conv2D", "config": {"name": "dense_2_13_bottleneck_conv2D", "trainable": true, "dtype": "float32", "filters": 128, "kernel_size": [1, 1], "strides": [1, 1], "padding": "same", "data_format": "channels_last", "dilation_rate": [1, 1], "activation": "linear", "use_bias": false, "kernel_initializer": {"class_name": "VarianceScaling", "config": {"scale": 2.0, "mode": "fan_in", "distribution": "normal", "seed": null}}, "bias_initializer": {"class_name": "Zeros", "config": {}}, "kernel_regularizer": {"class_name": "L1L2", "config": {"l1": 0.0, "l2": 9.999999747378752e-05}}, "bias_regularizer": null, "activity_regularizer": null, "kernel_constraint": null, "bias_constraint": null}, "inbound_nodes": [[["activation_66", 0, 0, {}]]]}, {"name": "dense_2_13_bottleneck_bn", "class_name": "BatchNormalization", "config": {"name": "dense_2_13_bottleneck_bn", "trainable": true, "dtype": "float32", "axis": -1, "momentum": 0.99, "epsilon": 1.1e-05, "center": true, "scale": true, "beta_initializer": {"class_name": "Zeros", "config": {}}, "gamma_initializer": {"class_name": "Ones", "config": {}}, "moving_mean_initializer": {"class_name": "Zeros", "config": {}}, "moving_variance_initializer": {"class_name": "Ones", "config": {}}, "beta_regularizer": null, "gamma_regularizer": null, "beta_constraint": null, "gamma_constraint": null}, "inbound_nodes": [[["dense_2_13_bottleneck_conv2D", 0, 0, {}]]]}, {"name": "activation_67", "class_name": "Activation", "config": {"name": "activation_67", "trainable": true, "dtype": "float32", "activation": "relu"}, "inbound_nodes": [[["dense_2_13_bottleneck_bn", 0, 0, {}]]]}, {"name": "dense_2_13_conv2D", "class_name": "Conv2D", "config": {"name": "dense_2_13_conv2D", "trainable": true, "dtype": "float32", "filters": 32, "kernel_size": [3, 3], "strides": [1, 1], "padding": "same", "data_format": "channels_last", "dilation_rate": [1, 1], "activation": "linear", "use_bias": false, "kernel_initializer": {"class_name": "VarianceScaling", "config": {"scale": 2.0, "mode": "fan_in", "distribution": "normal", "seed": null}}, "bias_initializer": {"class_name": "Zeros", "config": {}}, "kernel_regularizer": null, "bias_regularizer": null, "activity_regularizer": null, "kernel_constraint": null, "bias_constraint": null}, "inbound_nodes": [[["activation_67", 0, 0, {}]]]}, {"name": "concatenate_32", "class_name": "Concatenate", "config": {"name": "concatenate_32", "trainable": true, "dtype": "float32", "axis": -1}, "inbound_nodes": [[["concatenate_31", 0, 0, {}], ["dense_2_13_conv2D", 0, 0, {}]]]}, {"name": "dense_2_14_bn", "class_name": "BatchNormalization", "config": {"name": "dense_2_14_bn", "trainable": true, "dtype": "float32", "axis": -1, "momentum": 0.99, "epsilon": 1.1e-05, "center": true, "scale": true, "beta_initializer": {"class_name": "Zeros", "config": {}}, "gamma_initializer": {"class_name": "Ones", "config": {}}, "moving_mean_initializer": {"class_name": "Zeros", "config": {}}, "moving_variance_initializer": {"class_name": "Ones", "config": {}}, "beta_regularizer": null, "gamma_regularizer": null, "beta_constraint": null, "gamma_constraint": null}, "inbound_nodes": [[["concatenate_32", 0, 0, {}]]]}, {"name": "activation_68", "class_name": "Activation", "config": {"name": "activation_68", "trainable": true, "dtype": "float32", "activation": "relu"}, "inbound_nodes": [[["dense_2_14_bn", 0, 0, {}]]]}, {"name": "dense_2_14_bottleneck_conv2D", "class_name": "Conv2D", "config": {"name": "dense_2_14_bottleneck_conv2D", "trainable": true, "dtype": "float32", "filters": 128, "kernel_size": [1, 1], "strides": [1, 1], "padding": "same", "data_format": "channels_last", "dilation_rate": [1, 1], "activation": "linear", "use_bias": false, "kernel_initializer": {"class_name": "VarianceScaling", "config": {"scale": 2.0, "mode": "fan_in", "distribution": "normal", "seed": null}}, "bias_initializer": {"class_name": "Zeros", "config": {}}, "kernel_regularizer": {"class_name": "L1L2", "config": {"l1": 0.0, "l2": 9.999999747378752e-05}}, "bias_regularizer": null, "activity_regularizer": null, "kernel_constraint": null, "bias_constraint": null}, "inbound_nodes": [[["activation_68", 0, 0, {}]]]}, {"name": "dense_2_14_bottleneck_bn", "class_name": "BatchNormalization", "config": {"name": "dense_2_14_bottleneck_bn", "trainable": true, "dtype": "float32", "axis": -1, "momentum": 0.99, "epsilon": 1.1e-05, "center": true, "scale": true, "beta_initializer": {"class_name": "Zeros", "config": {}}, "gamma_initializer": {"class_name": "Ones", "config": {}}, "moving_mean_initializer": {"class_name": "Zeros", "config": {}}, "moving_variance_initializer": {"class_name": "Ones", "config": {}}, "beta_regularizer": null, "gamma_regularizer": null, "beta_constraint": null, "gamma_constraint": null}, "inbound_nodes": [[["dense_2_14_bottleneck_conv2D", 0, 0, {}]]]}, {"name": "activation_69", "class_name": "Activation", "config": {"name": "activation_69", "trainable": true, "dtype": "float32", "activation": "relu"}, "inbound_nodes": [[["dense_2_14_bottleneck_bn", 0, 0, {}]]]}, {"name": "dense_2_14_conv2D", "class_name": "Conv2D", "config": {"name": "dense_2_14_conv2D", "trainable": true, "dtype": "float32", "filters": 32, "kernel_size": [3, 3], "strides": [1, 1], "padding": "same", "data_format": "channels_last", "dilation_rate": [1, 1], "activation": "linear", "use_bias": false, "kernel_initializer": {"class_name": "VarianceScaling", "config": {"scale": 2.0, "mode": "fan_in", "distribution": "normal", "seed": null}}, "bias_initializer": {"class_name": "Zeros", "config": {}}, "kernel_regularizer": null, "bias_regularizer": null, "activity_regularizer": null, "kernel_constraint": null, "bias_constraint": null}, "inbound_nodes": [[["activation_69", 0, 0, {}]]]}, {"name": "concatenate_33", "class_name": "Concatenate", "config": {"name": "concatenate_33", "trainable": true, "dtype": "float32", "axis": -1}, "inbound_nodes": [[["concatenate_32", 0, 0, {}], ["dense_2_14_conv2D", 0, 0, {}]]]}, {"name": "dense_2_15_bn", "class_name": "BatchNormalization", "config": {"name": "dense_2_15_bn", "trainable": true, "dtype": "float32", "axis": -1, "momentum": 0.99, "epsilon": 1.1e-05, "center": true, "scale": true, "beta_initializer": {"class_name": "Zeros", "config": {}}, "gamma_initializer": {"class_name": "Ones", "config": {}}, "moving_mean_initializer": {"class_name": "Zeros", "config": {}}, "moving_variance_initializer": {"class_name": "Ones", "config": {}}, "beta_regularizer": null, "gamma_regularizer": null, "beta_constraint": null, "gamma_constraint": null}, "inbound_nodes": [[["concatenate_33", 0, 0, {}]]]}, {"name": "activation_70", "class_name": "Activation", "config": {"name": "activation_70", "trainable": true, "dtype": "float32", "activation": "relu"}, "inbound_nodes": [[["dense_2_15_bn", 0, 0, {}]]]}, {"name": "dense_2_15_bottleneck_conv2D", "class_name": "Conv2D", "config": {"name": "dense_2_15_bottleneck_conv2D", "trainable": true, "dtype": "float32", "filters": 128, "kernel_size": [1, 1], "strides": [1, 1], "padding": "same", "data_format": "channels_last", "dilation_rate": [1, 1], "activation": "linear", "use_bias": false, "kernel_initializer": {"class_name": "VarianceScaling", "config": {"scale": 2.0, "mode": "fan_in", "distribution": "normal", "seed": null}}, "bias_initializer": {"class_name": "Zeros", "config": {}}, "kernel_regularizer": {"class_name": "L1L2", "config": {"l1": 0.0, "l2": 9.999999747378752e-05}}, "bias_regularizer": null, "activity_regularizer": null, "kernel_constraint": null, "bias_constraint": null}, "inbound_nodes": [[["activation_70", 0, 0, {}]]]}, {"name": "dense_2_15_bottleneck_bn", "class_name": "BatchNormalization", "config": {"name": "dense_2_15_bottleneck_bn", "trainable": true, "dtype": "float32", "axis": -1, "momentum": 0.99, "epsilon": 1.1e-05, "center": true, "scale": true, "beta_initializer": {"class_name": "Zeros", "config": {}}, "gamma_initializer": {"class_name": "Ones", "config": {}}, "moving_mean_initializer": {"class_name": "Zeros", "config": {}}, "moving_variance_initializer": {"class_name": "Ones", "config": {}}, "beta_regularizer": null, "gamma_regularizer": null, "beta_constraint": null, "gamma_constraint": null}, "inbound_nodes": [[["dense_2_15_bottleneck_conv2D", 0, 0, {}]]]}, {"name": "activation_71", "class_name": "Activation", "config": {"name": "activation_71", "trainable": true, "dtype": "float32", "activation": "relu"}, "inbound_nodes": [[["dense_2_15_bottleneck_bn", 0, 0, {}]]]}, {"name": "dense_2_15_conv2D", "class_name": "Conv2D", "config": {"name": "dense_2_15_conv2D", "trainable": true, "dtype": "float32", "filters": 32, "kernel_size": [3, 3], "strides": [1, 1], "padding": "same", "data_format": "channels_last", "dilation_rate": [1, 1], "activation": "linear", "use_bias": false, "kernel_initializer": {"class_name": "VarianceScaling", "config": {"scale": 2.0, "mode": "fan_in", "distribution": "normal", "seed": null}}, "bias_initializer": {"class_name": "Zeros", "config": {}}, "kernel_regularizer": null, "bias_regularizer": null, "activity_regularizer": null, "kernel_constraint": null, "bias_constraint": null}, "inbound_nodes": [[["activation_71", 0, 0, {}]]]}, {"name": "concatenate_34", "class_name": "Concatenate", "config": {"name": "concatenate_34", "trainable": true, "dtype": "float32", "axis": -1}, "inbound_nodes": [[["concatenate_33", 0, 0, {}], ["dense_2_15_conv2D", 0, 0, {}]]]}, {"name": "dense_2_16_bn", "class_name": "BatchNormalization", "config": {"name": "dense_2_16_bn", "trainable": true, "dtype": "float32", "axis": -1, "momentum": 0.99, "epsilon": 1.1e-05, "center": true, "scale": true, "beta_initializer": {"class_name": "Zeros", "config": {}}, "gamma_initializer": {"class_name": "Ones", "config": {}}, "moving_mean_initializer": {"class_name": "Zeros", "config": {}}, "moving_variance_initializer": {"class_name": "Ones", "config": {}}, "beta_regularizer": null, "gamma_regularizer": null, "beta_constraint": null, "gamma_constraint": null}, "inbound_nodes": [[["concatenate_34", 0, 0, {}]]]}, {"name": "activation_72", "class_name": "Activation", "config": {"name": "activation_72", "trainable": true, "dtype": "float32", "activation": "relu"}, "inbound_nodes": [[["dense_2_16_bn", 0, 0, {}]]]}, {"name": "dense_2_16_bottleneck_conv2D", "class_name": "Conv2D", "config": {"name": "dense_2_16_bottleneck_conv2D", "trainable": true, "dtype": "float32", "filters": 128, "kernel_size": [1, 1], "strides": [1, 1], "padding": "same", "data_format": "channels_last", "dilation_rate": [1, 1], "activation": "linear", "use_bias": false, "kernel_initializer": {"class_name": "VarianceScaling", "config": {"scale": 2.0, "mode": "fan_in", "distribution": "normal", "seed": null}}, "bias_initializer": {"class_name": "Zeros", "config": {}}, "kernel_regularizer": {"class_name": "L1L2", "config": {"l1": 0.0, "l2": 9.999999747378752e-05}}, "bias_regularizer": null, "activity_regularizer": null, "kernel_constraint": null, "bias_constraint": null}, "inbound_nodes": [[["activation_72", 0, 0, {}]]]}, {"name": "dense_2_16_bottleneck_bn", "class_name": "BatchNormalization", "config": {"name": "dense_2_16_bottleneck_bn", "trainable": true, "dtype": "float32", "axis": -1, "momentum": 0.99, "epsilon": 1.1e-05, "center": true, "scale": true, "beta_initializer": {"class_name": "Zeros", "config": {}}, "gamma_initializer": {"class_name": "Ones", "config": {}}, "moving_mean_initializer": {"class_name": "Zeros", "config": {}}, "moving_variance_initializer": {"class_name": "Ones", "config": {}}, "beta_regularizer": null, "gamma_regularizer": null, "beta_constraint": null, "gamma_constraint": null}, "inbound_nodes": [[["dense_2_16_bottleneck_conv2D", 0, 0, {}]]]}, {"name": "activation_73", "class_name": "Activation", "config": {"name": "activation_73", "trainable": true, "dtype": "float32", "activation": "relu"}, "inbound_nodes": [[["dense_2_16_bottleneck_bn", 0, 0, {}]]]}, {"name": "dense_2_16_conv2D", "class_name": "Conv2D", "config": {"name": "dense_2_16_conv2D", "trainable": true, "dtype": "float32", "filters": 32, "kernel_size": [3, 3], "strides": [1, 1], "padding": "same", "data_format": "channels_last", "dilation_rate": [1, 1], "activation": "linear", "use_bias": false, "kernel_initializer": {"class_name": "VarianceScaling", "config": {"scale": 2.0, "mode": "fan_in", "distribution": "normal", "seed": null}}, "bias_initializer": {"class_name": "Zeros", "config": {}}, "kernel_regularizer": null, "bias_regularizer": null, "activity_regularizer": null, "kernel_constraint": null, "bias_constraint": null}, "inbound_nodes": [[["activation_73", 0, 0, {}]]]}, {"name": "concatenate_35", "class_name": "Concatenate", "config": {"name": "concatenate_35", "trainable": true, "dtype": "float32", "axis": -1}, "inbound_nodes": [[["concatenate_34", 0, 0, {}], ["dense_2_16_conv2D", 0, 0, {}]]]}, {"name": "dense_2_17_bn", "class_name": "BatchNormalization", "config": {"name": "dense_2_17_bn", "trainable": true, "dtype": "float32", "axis": -1, "momentum": 0.99, "epsilon": 1.1e-05, "center": true, "scale": true, "beta_initializer": {"class_name": "Zeros", "config": {}}, "gamma_initializer": {"class_name": "Ones", "config": {}}, "moving_mean_initializer": {"class_name": "Zeros", "config": {}}, "moving_variance_initializer": {"class_name": "Ones", "config": {}}, "beta_regularizer": null, "gamma_regularizer": null, "beta_constraint": null, "gamma_constraint": null}, "inbound_nodes": [[["concatenate_35", 0, 0, {}]]]}, {"name": "activation_74", "class_name": "Activation", "config": {"name": "activation_74", "trainable": true, "dtype": "float32", "activation": "relu"}, "inbound_nodes": [[["dense_2_17_bn", 0, 0, {}]]]}, {"name": "dense_2_17_bottleneck_conv2D", "class_name": "Conv2D", "config": {"name": "dense_2_17_bottleneck_conv2D", "trainable": true, "dtype": "float32", "filters": 128, "kernel_size": [1, 1], "strides": [1, 1], "padding": "same", "data_format": "channels_last", "dilation_rate": [1, 1], "activation": "linear", "use_bias": false, "kernel_initializer": {"class_name": "VarianceScaling", "config": {"scale": 2.0, "mode": "fan_in", "distribution": "normal", "seed": null}}, "bias_initializer": {"class_name": "Zeros", "config": {}}, "kernel_regularizer": {"class_name": "L1L2", "config": {"l1": 0.0, "l2": 9.999999747378752e-05}}, "bias_regularizer": null, "activity_regularizer": null, "kernel_constraint": null, "bias_constraint": null}, "inbound_nodes": [[["activation_74", 0, 0, {}]]]}, {"name": "dense_2_17_bottleneck_bn", "class_name": "BatchNormalization", "config": {"name": "dense_2_17_bottleneck_bn", "trainable": true, "dtype": "float32", "axis": -1, "momentum": 0.99, "epsilon": 1.1e-05, "center": true, "scale": true, "beta_initializer": {"class_name": "Zeros", "config": {}}, "gamma_initializer": {"class_name": "Ones", "config": {}}, "moving_mean_initializer": {"class_name": "Zeros", "config": {}}, "moving_variance_initializer": {"class_name": "Ones", "config": {}}, "beta_regularizer": null, "gamma_regularizer": null, "beta_constraint": null, "gamma_constraint": null}, "inbound_nodes": [[["dense_2_17_bottleneck_conv2D", 0, 0, {}]]]}, {"name": "activation_75", "class_name": "Activation", "config": {"name": "activation_75", "trainable": true, "dtype": "float32", "activation": "relu"}, "inbound_nodes": [[["dense_2_17_bottleneck_bn", 0, 0, {}]]]}, {"name": "dense_2_17_conv2D", "class_name": "Conv2D", "config": {"name": "dense_2_17_conv2D", "trainable": true, "dtype": "float32", "filters": 32, "kernel_size": [3, 3], "strides": [1, 1], "padding": "same", "data_format": "channels_last", "dilation_rate": [1, 1], "activation": "linear", "use_bias": false, "kernel_initializer": {"class_name": "VarianceScaling", "config": {"scale": 2.0, "mode": "fan_in", "distribution": "normal", "seed": null}}, "bias_initializer": {"class_name": "Zeros", "config": {}}, "kernel_regularizer": null, "bias_regularizer": null, "activity_regularizer": null, "kernel_constraint": null, "bias_constraint": null}, "inbound_nodes": [[["activation_75", 0, 0, {}]]]}, {"name": "concatenate_36", "class_name": "Concatenate", "config": {"name": "concatenate_36", "trainable": true, "dtype": "float32", "axis": -1}, "inbound_nodes": [[["concatenate_35", 0, 0, {}], ["dense_2_17_conv2D", 0, 0, {}]]]}, {"name": "dense_2_18_bn", "class_name": "BatchNormalization", "config": {"name": "dense_2_18_bn", "trainable": true, "dtype": "float32", "axis": -1, "momentum": 0.99, "epsilon": 1.1e-05, "center": true, "scale": true, "beta_initializer": {"class_name": "Zeros", "config": {}}, "gamma_initializer": {"class_name": "Ones", "config": {}}, "moving_mean_initializer": {"class_name": "Zeros", "config": {}}, "moving_variance_initializer": {"class_name": "Ones", "config": {}}, "beta_regularizer": null, "gamma_regularizer": null, "beta_constraint": null, "gamma_constraint": null}, "inbound_nodes": [[["concatenate_36", 0, 0, {}]]]}, {"name": "activation_76", "class_name": "Activation", "config": {"name": "activation_76", "trainable": true, "dtype": "float32", "activation": "relu"}, "inbound_nodes": [[["dense_2_18_bn", 0, 0, {}]]]}, {"name": "dense_2_18_bottleneck_conv2D", "class_name": "Conv2D", "config": {"name": "dense_2_18_bottleneck_conv2D", "trainable": true, "dtype": "float32", "filters": 128, "kernel_size": [1, 1], "strides": [1, 1], "padding": "same", "data_format": "channels_last", "dilation_rate": [1, 1], "activation": "linear", "use_bias": false, "kernel_initializer": {"class_name": "VarianceScaling", "config": {"scale": 2.0, "mode": "fan_in", "distribution": "normal", "seed": null}}, "bias_initializer": {"class_name": "Zeros", "config": {}}, "kernel_regularizer": {"class_name": "L1L2", "config": {"l1": 0.0, "l2": 9.999999747378752e-05}}, "bias_regularizer": null, "activity_regularizer": null, "kernel_constraint": null, "bias_constraint": null}, "inbound_nodes": [[["activation_76", 0, 0, {}]]]}, {"name": "dense_2_18_bottleneck_bn", "class_name": "BatchNormalization", "config": {"name": "dense_2_18_bottleneck_bn", "trainable": true, "dtype": "float32", "axis": -1, "momentum": 0.99, "epsilon": 1.1e-05, "center": true, "scale": true, "beta_initializer": {"class_name": "Zeros", "config": {}}, "gamma_initializer": {"class_name": "Ones", "config": {}}, "moving_mean_initializer": {"class_name": "Zeros", "config": {}}, "moving_variance_initializer": {"class_name": "Ones", "config": {}}, "beta_regularizer": null, "gamma_regularizer": null, "beta_constraint": null, "gamma_constraint": null}, "inbound_nodes": [[["dense_2_18_bottleneck_conv2D", 0, 0, {}]]]}, {"name": "activation_77", "class_name": "Activation", "config": {"name": "activation_77", "trainable": true, "dtype": "float32", "activation": "relu"}, "inbound_nodes": [[["dense_2_18_bottleneck_bn", 0, 0, {}]]]}, {"name": "dense_2_18_conv2D", "class_name": "Conv2D", "config": {"name": "dense_2_18_conv2D", "trainable": true, "dtype": "float32", "filters": 32, "kernel_size": [3, 3], "strides": [1, 1], "padding": "same", "data_format": "channels_last", "dilation_rate": [1, 1], "activation": "linear", "use_bias": false, "kernel_initializer": {"class_name": "VarianceScaling", "config": {"scale": 2.0, "mode": "fan_in", "distribution": "normal", "seed": null}}, "bias_initializer": {"class_name": "Zeros", "config": {}}, "kernel_regularizer": null, "bias_regularizer": null, "activity_regularizer": null, "kernel_constraint": null, "bias_constraint": null}, "inbound_nodes": [[["activation_77", 0, 0, {}]]]}, {"name": "concatenate_37", "class_name": "Concatenate", "config": {"name": "concatenate_37", "trainable": true, "dtype": "float32", "axis": -1}, "inbound_nodes": [[["concatenate_36", 0, 0, {}], ["dense_2_18_conv2D", 0, 0, {}]]]}, {"name": "dense_2_19_bn", "class_name": "BatchNormalization", "config": {"name": "dense_2_19_bn", "trainable": true, "dtype": "float32", "axis": -1, "momentum": 0.99, "epsilon": 1.1e-05, "center": true, "scale": true, "beta_initializer": {"class_name": "Zeros", "config": {}}, "gamma_initializer": {"class_name": "Ones", "config": {}}, "moving_mean_initializer": {"class_name": "Zeros", "config": {}}, "moving_variance_initializer": {"class_name": "Ones", "config": {}}, "beta_regularizer": null, "gamma_regularizer": null, "beta_constraint": null, "gamma_constraint": null}, "inbound_nodes": [[["concatenate_37", 0, 0, {}]]]}, {"name": "activation_78", "class_name": "Activation", "config": {"name": "activation_78", "trainable": true, "dtype": "float32", "activation": "relu"}, "inbound_nodes": [[["dense_2_19_bn", 0, 0, {}]]]}, {"name": "dense_2_19_bottleneck_conv2D", "class_name": "Conv2D", "config": {"name": "dense_2_19_bottleneck_conv2D", "trainable": true, "dtype": "float32", "filters": 128, "kernel_size": [1, 1], "strides": [1, 1], "padding": "same", "data_format": "channels_last", "dilation_rate": [1, 1], "activation": "linear", "use_bias": false, "kernel_initializer": {"class_name": "VarianceScaling", "config": {"scale": 2.0, "mode": "fan_in", "distribution": "normal", "seed": null}}, "bias_initializer": {"class_name": "Zeros", "config": {}}, "kernel_regularizer": {"class_name": "L1L2", "config": {"l1": 0.0, "l2": 9.999999747378752e-05}}, "bias_regularizer": null, "activity_regularizer": null, "kernel_constraint": null, "bias_constraint": null}, "inbound_nodes": [[["activation_78", 0, 0, {}]]]}, {"name": "dense_2_19_bottleneck_bn", "class_name": "BatchNormalization", "config": {"name": "dense_2_19_bottleneck_bn", "trainable": true, "dtype": "float32", "axis": -1, "momentum": 0.99, "epsilon": 1.1e-05, "center": true, "scale": true, "beta_initializer": {"class_name": "Zeros", "config": {}}, "gamma_initializer": {"class_name": "Ones", "config": {}}, "moving_mean_initializer": {"class_name": "Zeros", "config": {}}, "moving_variance_initializer": {"class_name": "Ones", "config": {}}, "beta_regularizer": null, "gamma_regularizer": null, "beta_constraint": null, "gamma_constraint": null}, "inbound_nodes": [[["dense_2_19_bottleneck_conv2D", 0, 0, {}]]]}, {"name": "activation_79", "class_name": "Activation", "config": {"name": "activation_79", "trainable": true, "dtype": "float32", "activation": "relu"}, "inbound_nodes": [[["dense_2_19_bottleneck_bn", 0, 0, {}]]]}, {"name": "dense_2_19_conv2D", "class_name": "Conv2D", "config": {"name": "dense_2_19_conv2D", "trainable": true, "dtype": "float32", "filters": 32, "kernel_size": [3, 3], "strides": [1, 1], "padding": "same", "data_format": "channels_last", "dilation_rate": [1, 1], "activation": "linear", "use_bias": false, "kernel_initializer": {"class_name": "VarianceScaling", "config": {"scale": 2.0, "mode": "fan_in", "distribution": "normal", "seed": null}}, "bias_initializer": {"class_name": "Zeros", "config": {}}, "kernel_regularizer": null, "bias_regularizer": null, "activity_regularizer": null, "kernel_constraint": null, "bias_constraint": null}, "inbound_nodes": [[["activation_79", 0, 0, {}]]]}, {"name": "concatenate_38", "class_name": "Concatenate", "config": {"name": "concatenate_38", "trainable": true, "dtype": "float32", "axis": -1}, "inbound_nodes": [[["concatenate_37", 0, 0, {}], ["dense_2_19_conv2D", 0, 0, {}]]]}, {"name": "dense_2_20_bn", "class_name": "BatchNormalization", "config": {"name": "dense_2_20_bn", "trainable": true, "dtype": "float32", "axis": -1, "momentum": 0.99, "epsilon": 1.1e-05, "center": true, "scale": true, "beta_initializer": {"class_name": "Zeros", "config": {}}, "gamma_initializer": {"class_name": "Ones", "config": {}}, "moving_mean_initializer": {"class_name": "Zeros", "config": {}}, "moving_variance_initializer": {"class_name": "Ones", "config": {}}, "beta_regularizer": null, "gamma_regularizer": null, "beta_constraint": null, "gamma_constraint": null}, "inbound_nodes": [[["concatenate_38", 0, 0, {}]]]}, {"name": "activation_80", "class_name": "Activation", "config": {"name": "activation_80", "trainable": true, "dtype": "float32", "activation": "relu"}, "inbound_nodes": [[["dense_2_20_bn", 0, 0, {}]]]}, {"name": "dense_2_20_bottleneck_conv2D", "class_name": "Conv2D", "config": {"name": "dense_2_20_bottleneck_conv2D", "trainable": true, "dtype": "float32", "filters": 128, "kernel_size": [1, 1], "strides": [1, 1], "padding": "same", "data_format": "channels_last", "dilation_rate": [1, 1], "activation": "linear", "use_bias": false, "kernel_initializer": {"class_name": "VarianceScaling", "config": {"scale": 2.0, "mode": "fan_in", "distribution": "normal", "seed": null}}, "bias_initializer": {"class_name": "Zeros", "config": {}}, "kernel_regularizer": {"class_name": "L1L2", "config": {"l1": 0.0, "l2": 9.999999747378752e-05}}, "bias_regularizer": null, "activity_regularizer": null, "kernel_constraint": null, "bias_constraint": null}, "inbound_nodes": [[["activation_80", 0, 0, {}]]]}, {"name": "dense_2_20_bottleneck_bn", "class_name": "BatchNormalization", "config": {"name": "dense_2_20_bottleneck_bn", "trainable": true, "dtype": "float32", "axis": -1, "momentum": 0.99, "epsilon": 1.1e-05, "center": true, "scale": true, "beta_initializer": {"class_name": "Zeros", "config": {}}, "gamma_initializer": {"class_name": "Ones", "config": {}}, "moving_mean_initializer": {"class_name": "Zeros", "config": {}}, "moving_variance_initializer": {"class_name": "Ones", "config": {}}, "beta_regularizer": null, "gamma_regularizer": null, "beta_constraint": null, "gamma_constraint": null}, "inbound_nodes": [[["dense_2_20_bottleneck_conv2D", 0, 0, {}]]]}, {"name": "activation_81", "class_name": "Activation", "config": {"name": "activation_81", "trainable": true, "dtype": "float32", "activation": "relu"}, "inbound_nodes": [[["dense_2_20_bottleneck_bn", 0, 0, {}]]]}, {"name": "dense_2_20_conv2D", "class_name": "Conv2D", "config": {"name": "dense_2_20_conv2D", "trainable": true, "dtype": "float32", "filters": 32, "kernel_size": [3, 3], "strides": [1, 1], "padding": "same", "data_format": "channels_last", "dilation_rate": [1, 1], "activation": "linear", "use_bias": false, "kernel_initializer": {"class_name": "VarianceScaling", "config": {"scale": 2.0, "mode": "fan_in", "distribution": "normal", "seed": null}}, "bias_initializer": {"class_name": "Zeros", "config": {}}, "kernel_regularizer": null, "bias_regularizer": null, "activity_regularizer": null, "kernel_constraint": null, "bias_constraint": null}, "inbound_nodes": [[["activation_81", 0, 0, {}]]]}, {"name": "concatenate_39", "class_name": "Concatenate", "config": {"name": "concatenate_39", "trainable": true, "dtype": "float32", "axis": -1}, "inbound_nodes": [[["concatenate_38", 0, 0, {}], ["dense_2_20_conv2D", 0, 0, {}]]]}, {"name": "dense_2_21_bn", "class_name": "BatchNormalization", "config": {"name": "dense_2_21_bn", "trainable": true, "dtype": "float32", "axis": -1, "momentum": 0.99, "epsilon": 1.1e-05, "center": true, "scale": true, "beta_initializer": {"class_name": "Zeros", "config": {}}, "gamma_initializer": {"class_name": "Ones", "config": {}}, "moving_mean_initializer": {"class_name": "Zeros", "config": {}}, "moving_variance_initializer": {"class_name": "Ones", "config": {}}, "beta_regularizer": null, "gamma_regularizer": null, "beta_constraint": null, "gamma_constraint": null}, "inbound_nodes": [[["concatenate_39", 0, 0, {}]]]}, {"name": "activation_82", "class_name": "Activation", "config": {"name": "activation_82", "trainable": true, "dtype": "float32", "activation": "relu"}, "inbound_nodes": [[["dense_2_21_bn", 0, 0, {}]]]}, {"name": "dense_2_21_bottleneck_conv2D", "class_name": "Conv2D", "config": {"name": "dense_2_21_bottleneck_conv2D", "trainable": true, "dtype": "float32", "filters": 128, "kernel_size": [1, 1], "strides": [1, 1], "padding": "same", "data_format": "channels_last", "dilation_rate": [1, 1], "activation": "linear", "use_bias": false, "kernel_initializer": {"class_name": "VarianceScaling", "config": {"scale": 2.0, "mode": "fan_in", "distribution": "normal", "seed": null}}, "bias_initializer": {"class_name": "Zeros", "config": {}}, "kernel_regularizer": {"class_name": "L1L2", "config": {"l1": 0.0, "l2": 9.999999747378752e-05}}, "bias_regularizer": null, "activity_regularizer": null, "kernel_constraint": null, "bias_constraint": null}, "inbound_nodes": [[["activation_82", 0, 0, {}]]]}, {"name": "dense_2_21_bottleneck_bn", "class_name": "BatchNormalization", "config": {"name": "dense_2_21_bottleneck_bn", "trainable": true, "dtype": "float32", "axis": -1, "momentum": 0.99, "epsilon": 1.1e-05, "center": true, "scale": true, "beta_initializer": {"class_name": "Zeros", "config": {}}, "gamma_initializer": {"class_name": "Ones", "config": {}}, "moving_mean_initializer": {"class_name": "Zeros", "config": {}}, "moving_variance_initializer": {"class_name": "Ones", "config": {}}, "beta_regularizer": null, "gamma_regularizer": null, "beta_constraint": null, "gamma_constraint": null}, "inbound_nodes": [[["dense_2_21_bottleneck_conv2D", 0, 0, {}]]]}, {"name": "activation_83", "class_name": "Activation", "config": {"name": "activation_83", "trainable": true, "dtype": "float32", "activation": "relu"}, "inbound_nodes": [[["dense_2_21_bottleneck_bn", 0, 0, {}]]]}, {"name": "dense_2_21_conv2D", "class_name": "Conv2D", "config": {"name": "dense_2_21_conv2D", "trainable": true, "dtype": "float32", "filters": 32, "kernel_size": [3, 3], "strides": [1, 1], "padding": "same", "data_format": "channels_last", "dilation_rate": [1, 1], "activation": "linear", "use_bias": false, "kernel_initializer": {"class_name": "VarianceScaling", "config": {"scale": 2.0, "mode": "fan_in", "distribution": "normal", "seed": null}}, "bias_initializer": {"class_name": "Zeros", "config": {}}, "kernel_regularizer": null, "bias_regularizer": null, "activity_regularizer": null, "kernel_constraint": null, "bias_constraint": null}, "inbound_nodes": [[["activation_83", 0, 0, {}]]]}, {"name": "concatenate_40", "class_name": "Concatenate", "config": {"name": "concatenate_40", "trainable": true, "dtype": "float32", "axis": -1}, "inbound_nodes": [[["concatenate_39", 0, 0, {}], ["dense_2_21_conv2D", 0, 0, {}]]]}, {"name": "dense_2_22_bn", "class_name": "BatchNormalization", "config": {"name": "dense_2_22_bn", "trainable": true, "dtype": "float32", "axis": -1, "momentum": 0.99, "epsilon": 1.1e-05, "center": true, "scale": true, "beta_initializer": {"class_name": "Zeros", "config": {}}, "gamma_initializer": {"class_name": "Ones", "config": {}}, "moving_mean_initializer": {"class_name": "Zeros", "config": {}}, "moving_variance_initializer": {"class_name": "Ones", "config": {}}, "beta_regularizer": null, "gamma_regularizer": null, "beta_constraint": null, "gamma_constraint": null}, "inbound_nodes": [[["concatenate_40", 0, 0, {}]]]}, {"name": "activation_84", "class_name": "Activation", "config": {"name": "activation_84", "trainable": true, "dtype": "float32", "activation": "relu"}, "inbound_nodes": [[["dense_2_22_bn", 0, 0, {}]]]}, {"name": "dense_2_22_bottleneck_conv2D", "class_name": "Conv2D", "config": {"name": "dense_2_22_bottleneck_conv2D", "trainable": true, "dtype": "float32", "filters": 128, "kernel_size": [1, 1], "strides": [1, 1], "padding": "same", "data_format": "channels_last", "dilation_rate": [1, 1], "activation": "linear", "use_bias": false, "kernel_initializer": {"class_name": "VarianceScaling", "config": {"scale": 2.0, "mode": "fan_in", "distribution": "normal", "seed": null}}, "bias_initializer": {"class_name": "Zeros", "config": {}}, "kernel_regularizer": {"class_name": "L1L2", "config": {"l1": 0.0, "l2": 9.999999747378752e-05}}, "bias_regularizer": null, "activity_regularizer": null, "kernel_constraint": null, "bias_constraint": null}, "inbound_nodes": [[["activation_84", 0, 0, {}]]]}, {"name": "dense_2_22_bottleneck_bn", "class_name": "BatchNormalization", "config": {"name": "dense_2_22_bottleneck_bn", "trainable": true, "dtype": "float32", "axis": -1, "momentum": 0.99, "epsilon": 1.1e-05, "center": true, "scale": true, "beta_initializer": {"class_name": "Zeros", "config": {}}, "gamma_initializer": {"class_name": "Ones", "config": {}}, "moving_mean_initializer": {"class_name": "Zeros", "config": {}}, "moving_variance_initializer": {"class_name": "Ones", "config": {}}, "beta_regularizer": null, "gamma_regularizer": null, "beta_constraint": null, "gamma_constraint": null}, "inbound_nodes": [[["dense_2_22_bottleneck_conv2D", 0, 0, {}]]]}, {"name": "activation_85", "class_name": "Activation", "config": {"name": "activation_85", "trainable": true, "dtype": "float32", "activation": "relu"}, "inbound_nodes": [[["dense_2_22_bottleneck_bn", 0, 0, {}]]]}, {"name": "dense_2_22_conv2D", "class_name": "Conv2D", "config": {"name": "dense_2_22_conv2D", "trainable": true, "dtype": "float32", "filters": 32, "kernel_size": [3, 3], "strides": [1, 1], "padding": "same", "data_format": "channels_last", "dilation_rate": [1, 1], "activation": "linear", "use_bias": false, "kernel_initializer": {"class_name": "VarianceScaling", "config": {"scale": 2.0, "mode": "fan_in", "distribution": "normal", "seed": null}}, "bias_initializer": {"class_name": "Zeros", "config": {}}, "kernel_regularizer": null, "bias_regularizer": null, "activity_regularizer": null, "kernel_constraint": null, "bias_constraint": null}, "inbound_nodes": [[["activation_85", 0, 0, {}]]]}, {"name": "concatenate_41", "class_name": "Concatenate", "config": {"name": "concatenate_41", "trainable": true, "dtype": "float32", "axis": -1}, "inbound_nodes": [[["concatenate_40", 0, 0, {}], ["dense_2_22_conv2D", 0, 0, {}]]]}, {"name": "dense_2_23_bn", "class_name": "BatchNormalization", "config": {"name": "dense_2_23_bn", "trainable": true, "dtype": "float32", "axis": -1, "momentum": 0.99, "epsilon": 1.1e-05, "center": true, "scale": true, "beta_initializer": {"class_name": "Zeros", "config": {}}, "gamma_initializer": {"class_name": "Ones", "config": {}}, "moving_mean_initializer": {"class_name": "Zeros", "config": {}}, "moving_variance_initializer": {"class_name": "Ones", "config": {}}, "beta_regularizer": null, "gamma_regularizer": null, "beta_constraint": null, "gamma_constraint": null}, "inbound_nodes": [[["concatenate_41", 0, 0, {}]]]}, {"name": "activation_86", "class_name": "Activation", "config": {"name": "activation_86", "trainable": true, "dtype": "float32", "activation": "relu"}, "inbound_nodes": [[["dense_2_23_bn", 0, 0, {}]]]}, {"name": "dense_2_23_bottleneck_conv2D", "class_name": "Conv2D", "config": {"name": "dense_2_23_bottleneck_conv2D", "trainable": true, "dtype": "float32", "filters": 128, "kernel_size": [1, 1], "strides": [1, 1], "padding": "same", "data_format": "channels_last", "dilation_rate": [1, 1], "activation": "linear", "use_bias": false, "kernel_initializer": {"class_name": "VarianceScaling", "config": {"scale": 2.0, "mode": "fan_in", "distribution": "normal", "seed": null}}, "bias_initializer": {"class_name": "Zeros", "config": {}}, "kernel_regularizer": {"class_name": "L1L2", "config": {"l1": 0.0, "l2": 9.999999747378752e-05}}, "bias_regularizer": null, "activity_regularizer": null, "kernel_constraint": null, "bias_constraint": null}, "inbound_nodes": [[["activation_86", 0, 0, {}]]]}, {"name": "dense_2_23_bottleneck_bn", "class_name": "BatchNormalization", "config": {"name": "dense_2_23_bottleneck_bn", "trainable": true, "dtype": "float32", "axis": -1, "momentum": 0.99, "epsilon": 1.1e-05, "center": true, "scale": true, "beta_initializer": {"class_name": "Zeros", "config": {}}, "gamma_initializer": {"class_name": "Ones", "config": {}}, "moving_mean_initializer": {"class_name": "Zeros", "config": {}}, "moving_variance_initializer": {"class_name": "Ones", "config": {}}, "beta_regularizer": null, "gamma_regularizer": null, "beta_constraint": null, "gamma_constraint": null}, "inbound_nodes": [[["dense_2_23_bottleneck_conv2D", 0, 0, {}]]]}, {"name": "activation_87", "class_name": "Activation", "config": {"name": "activation_87", "trainable": true, "dtype": "float32", "activation": "relu"}, "inbound_nodes": [[["dense_2_23_bottleneck_bn", 0, 0, {}]]]}, {"name": "dense_2_23_conv2D", "class_name": "Conv2D", "config": {"name": "dense_2_23_conv2D", "trainable": true, "dtype": "float32", "filters": 32, "kernel_size": [3, 3], "strides": [1, 1], "padding": "same", "data_format": "channels_last", "dilation_rate": [1, 1], "activation": "linear", "use_bias": false, "kernel_initializer": {"class_name": "VarianceScaling", "config": {"scale": 2.0, "mode": "fan_in", "distribution": "normal", "seed": null}}, "bias_initializer": {"class_name": "Zeros", "config": {}}, "kernel_regularizer": null, "bias_regularizer": null, "activity_regularizer": null, "kernel_constraint": null, "bias_constraint": null}, "inbound_nodes": [[["activation_87", 0, 0, {}]]]}, {"name": "concatenate_42", "class_name": "Concatenate", "config": {"name": "concatenate_42", "trainable": true, "dtype": "float32", "axis": -1}, "inbound_nodes": [[["concatenate_41", 0, 0, {}], ["dense_2_23_conv2D", 0, 0, {}]]]}, {"name": "dense_2_24_bn", "class_name": "BatchNormalization", "config": {"name": "dense_2_24_bn", "trainable": true, "dtype": "float32", "axis": -1, "momentum": 0.99, "epsilon": 1.1e-05, "center": true, "scale": true, "beta_initializer": {"class_name": "Zeros", "config": {}}, "gamma_initializer": {"class_name": "Ones", "config": {}}, "moving_mean_initializer": {"class_name": "Zeros", "config": {}}, "moving_variance_initializer": {"class_name": "Ones", "config": {}}, "beta_regularizer": null, "gamma_regularizer": null, "beta_constraint": null, "gamma_constraint": null}, "inbound_nodes": [[["concatenate_42", 0, 0, {}]]]}, {"name": "activ…
_regularizer": null, "activity_regularizer": null, "kernel_constraint": null, "bias_constraint": null}, "inbound_nodes": [[["activation_236", 0, 0, {}]]]}, {"name": "concatenate_116", "class_name": "Concatenate", "config": {"name": "concatenate_116", "trainable": true, "dtype": "float32", "axis": -1}, "inbound_nodes": [[["concatenate_115", 0, 0, {}], ["dense_3_33_conv2D", 0, 0, {}]]]}, {"name": "dense_3_34_bn", "class_name": "BatchNormalization", "config": {"name": "dense_3_34_bn", "trainable": true, "dtype": "float32", "axis": -1, "momentum": 0.99, "epsilon": 1.1e-05, "center": true, "scale": true, "beta_initializer": {"class_name": "Zeros", "config": {}}, "gamma_initializer": {"class_name": "Ones", "config": {}}, "moving_mean_initializer": {"class_name": "Zeros", "config": {}}, "moving_variance_initializer": {"class_name": "Ones", "config": {}}, "beta_regularizer": null, "gamma_regularizer": null, "beta_constraint": null, "gamma_constraint": null}, "inbound_nodes": [[["concatenate_116", 0, 0, {}]]]}, {"name": "activation_237", "class_name": "Activation", "config": {"name": "activation_237", "trainable": true, "dtype": "float32", "activation": "relu"}, "inbound_nodes": [[["dense_3_34_bn", 0, 0, {}]]]}, {"name": "dense_3_34_bottleneck_conv2D", "class_name": "Conv2D", "config": {"name": "dense_3_34_bottleneck_conv2D", "trainable": true, "dtype": "float32", "filters": 128, "kernel_size": [1, 1], "strides": [1, 1], "padding": "same", "data_format": "channels_last", "dilation_rate": [1, 1], "activation": "linear", "use_bias": false, "kernel_initializer": {"class_name": "VarianceScaling", "config": {"scale": 2.0, "mode": "fan_in", "distribution": "normal", "seed": null}}, "bias_initializer": {"class_name": "Zeros", "config": {}}, "kernel_regularizer": {"class_name": "L1L2", "config": {"l1": 0.0, "l2": 9.999999747378752e-05}}, "bias_regularizer": null, "activity_regularizer": null, "kernel_constraint": null, "bias_constraint": null}, "inbound_nodes": [[["activation_237", 0, 0, {}]]]}, {"name": "dense_3_34_bottleneck_bn", "class_name": "BatchNormalization", "config": {"name": "dense_3_34_bottleneck_bn", "trainable": true, "dtype": "float32", "axis": -1, "momentum": 0.99, "epsilon": 1.1e-05, "center": true, "scale": true, "beta_initializer": {"class_name": "Zeros", "config": {}}, "gamma_initializer": {"class_name": "Ones", "config": {}}, "moving_mean_initializer": {"class_name": "Zeros", "config": {}}, "moving_variance_initializer": {"class_name": "Ones", "config": {}}, "beta_regularizer": null, "gamma_regularizer": null, "beta_constraint": null, "gamma_constraint": null}, "inbound_nodes": [[["dense_3_34_bottleneck_conv2D", 0, 0, {}]]]}, {"name": "activation_238", "class_name": "Activation", "config": {"name": "activation_238", "trainable": true, "dtype": "float32", "activation": "relu"}, "inbound_nodes": [[["dense_3_34_bottleneck_bn", 0, 0, {}]]]}, {"name": "dense_3_34_conv2D", "class_name": "Conv2D", "config": {"name": "dense_3_34_conv2D", "trainable": true, "dtype": "float32", "filters": 32, "kernel_size": [3, 3], "strides": [1, 1], "padding": "same", "data_format": "channels_last", "dilation_rate": [1, 1], "activation": "linear", "use_bias": false, "kernel_initializer": {"class_name": "VarianceScaling", "config": {"scale": 2.0, "mode": "fan_in", "distribution": "normal", "seed": null}}, "bias_initializer": {"class_name": "Zeros", "config": {}}, "kernel_regularizer": null, "bias_regularizer": null, "activity_regularizer": null, "kernel_constraint": null, "bias_constraint": null}, "inbound_nodes": [[["activation_238", 0, 0, {}]]]}, {"name": "concatenate_117", "class_name": "Concatenate", "config": {"name": "concatenate_117", "trainable": true, "dtype": "float32", "axis": -1}, "inbound_nodes": [[["concatenate_116", 0, 0, {}], ["dense_3_34_conv2D", 0, 0, {}]]]}, {"name": "dense_3_35_bn", "class_name": "BatchNormalization", "config": {"name": "dense_3_35_bn", "trainable": true, "dtype": "float32", "axis": -1, "momentum": 0.99, "epsilon": 1.1e-05, "center": true, "scale": true, "beta_initializer": {"class_name": "Zeros", "config": {}}, "gamma_initializer": {"class_name": "Ones", "config": {}}, "moving_mean_initializer": {"class_name": "Zeros", "config": {}}, "moving_variance_initializer": {"class_name": "Ones", "config": {}}, "beta_regularizer": null, "gamma_regularizer": null, "beta_constraint": null, "gamma_constraint": null}, "inbound_nodes": [[["concatenate_117", 0, 0, {}]]]}, {"name": "activation_239", "class_name": "Activation", "config": {"name": "activation_239", "trainable": true, "dtype": "float32", "activation": "relu"}, "inbound_nodes": [[["dense_3_35_bn", 0, 0, {}]]]}, {"name": "dense_3_35_bottleneck_conv2D", "class_name": "Conv2D", "config": {"name": "dense_3_35_bottleneck_conv2D", "trainable": true, "dtype": "float32", "filters": 128, "kernel_size": [1, 1], "strides": [1, 1], "padding": "same", "data_format": "channels_last", "dilation_rate": [1, 1], "activation": "linear", "use_bias": false, "kernel_initializer": {"class_name": "VarianceScaling", "config": {"scale": 2.0, "mode": "fan_in", "distribution": "normal", "seed": null}}, "bias_initializer": {"class_name": "Zeros", "config": {}}, "kernel_regularizer": {"class_name": "L1L2", "config": {"l1": 0.0, "l2": 9.999999747378752e-05}}, "bias_regularizer": null, "activity_regularizer": null, "kernel_constraint": null, "bias_constraint": null}, "inbound_nodes": [[["activation_239", 0, 0, {}]]]}, {"name": "dense_3_35_bottleneck_bn", "class_name": "BatchNormalization", "config": {"name": "dense_3_35_bottleneck_bn", "trainable": true, "dtype": "float32", "axis": -1, "momentum": 0.99, "epsilon": 1.1e-05, "center": true, "scale": true, "beta_initializer": {"class_name": "Zeros", "config": {}}, "gamma_initializer": {"class_name": "Ones", "config": {}}, "moving_mean_initializer": {"class_name": "Zeros", "config": {}}, "moving_variance_initializer": {"class_name": "Ones", "config": {}}, "beta_regularizer": null, "gamma_regularizer": null, "beta_constraint": null, "gamma_constraint": null}, "inbound_nodes": [[["dense_3_35_bottleneck_conv2D", 0, 0, {}]]]}, {"name": "activation_240", "class_name": "Activation", "config": {"name": "activation_240", "trainable": true, "dtype": "float32", "activation": "relu"}, "inbound_nodes": [[["dense_3_35_bottleneck_bn", 0, 0, {}]]]}, {"name": "dense_3_35_conv2D", "class_name": "Conv2D", "config": {"name": "dense_3_35_conv2D", "trainable": true, "dtype": "float32", "filters": 32, "kernel_size": [3, 3], "strides": [1, 1], "padding": "same", "data_format": "channels_last", "dilation_rate": [1, 1], "activation": "linear", "use_bias": false, "kernel_initializer": {"class_name": "VarianceScaling", "config": {"scale": 2.0, "mode": "fan_in", "distribution": "normal", "seed": null}}, "bias_initializer": {"class_name": "Zeros", "config": {}}, "kernel_regularizer": null, "bias_regularizer": null, "activity_regularizer": null, "kernel_constraint": null, "bias_constraint": null}, "inbound_nodes": [[["activation_240", 0, 0, {}]]]}, {"name": "concatenate_118", "class_name": "Concatenate", "config": {"name": "concatenate_118", "trainable": true, "dtype": "float32", "axis": -1}, "inbound_nodes": [[["concatenate_117", 0, 0, {}], ["dense_3_35_conv2D", 0, 0, {}]]]}, {"name": "dense_3_36_bn", "class_name": "BatchNormalization", "config": {"name": "dense_3_36_bn", "trainable": true, "dtype": "float32", "axis": -1, "momentum": 0.99, "epsilon": 1.1e-05, "center": true, "scale": true, "beta_initializer": {"class_name": "Zeros", "config": {}}, "gamma_initializer": {"class_name": "Ones", "config": {}}, "moving_mean_initializer": {"class_name": "Zeros", "config": {}}, "moving_variance_initializer": {"class_name": "Ones", "config": {}}, "beta_regularizer": null, "gamma_regularizer": null, "beta_constraint": null, "gamma_constraint": null}, "inbound_nodes": [[["concatenate_118", 0, 0, {}]]]}, {"name": "activation_241", "class_name": "Activation", "config": {"name": "activation_241", "trainable": true, "dtype": "float32", "activation": "relu"}, "inbound_nodes": [[["dense_3_36_bn", 0, 0, {}]]]}, {"name": "dense_3_36_bottleneck_conv2D", "class_name": "Conv2D", "config": {"name": "dense_3_36_bottleneck_conv2D", "trainable": true, "dtype": "float32", "filters": 128, "kernel_size": [1, 1], "strides": [1, 1], "padding": "same", "data_format": "channels_last", "dilation_rate": [1, 1], "activation": "linear", "use_bias": false, "kernel_initializer": {"class_name": "VarianceScaling", "config": {"scale": 2.0, "mode": "fan_in", "distribution": "normal", "seed": null}}, "bias_initializer": {"class_name": "Zeros", "config": {}}, "kernel_regularizer": {"class_name": "L1L2", "config": {"l1": 0.0, "l2": 9.999999747378752e-05}}, "bias_regularizer": null, "activity_regularizer": null, "kernel_constraint": null, "bias_constraint": null}, "inbound_nodes": [[["activation_241", 0, 0, {}]]]}, {"name": "dense_3_36_bottleneck_bn", "class_name": "BatchNormalization", "config": {"name": "dense_3_36_bottleneck_bn", "trainable": true, "dtype": "float32", "axis": -1, "momentum": 0.99, "epsilon": 1.1e-05, "center": true, "scale": true, "beta_initializer": {"class_name": "Zeros", "config": {}}, "gamma_initializer": {"class_name": "Ones", "config": {}}, "moving_mean_initializer": {"class_name": "Zeros", "config": {}}, "moving_variance_initializer": {"class_name": "Ones", "config": {}}, "beta_regularizer": null, "gamma_regularizer": null, "beta_constraint": null, "gamma_constraint": null}, "inbound_nodes": [[["dense_3_36_bottleneck_conv2D", 0, 0, {}]]]}, {"name": "activation_242", "class_name": "Activation", "config": {"name": "activation_242", "trainable": true, "dtype": "float32", "activation": "relu"}, "inbound_nodes": [[["dense_3_36_bottleneck_bn", 0, 0, {}]]]}, {"name": "dense_3_36_conv2D", "class_name": "Conv2D", "config": {"name": "dense_3_36_conv2D", "trainable": true, "dtype": "float32", "filters": 32, "kernel_size": [3, 3], "strides": [1, 1], "padding": "same", "data_format": "channels_last", "dilation_rate": [1, 1], "activation": "linear", "use_bias": false, "kernel_initializer": {"class_name": "VarianceScaling", "config": {"scale": 2.0, "mode": "fan_in", "distribution": "normal", "seed": null}}, "bias_initializer": {"class_name": "Zeros", "config": {}}, "kernel_regularizer": null, "bias_regularizer": null, "activity_regularizer": null, "kernel_constraint": null, "bias_constraint": null}, "inbound_nodes": [[["activation_242", 0, 0, {}]]]}, {"name": "concatenate_119", "class_name": "Concatenate", "config": {"name": "concatenate_119", "trainable": true, "dtype": "float32", "axis": -1}, "inbound_nodes": [[["concatenate_118", 0, 0, {}], ["dense_3_36_conv2D", 0, 0, {}]]]}, {"name": "dense_3_37_bn", "class_name": "BatchNormalization", "config": {"name": "dense_3_37_bn", "trainable": true, "dtype": "float32", "axis": -1, "momentum": 0.99, "epsilon": 1.1e-05, "center": true, "scale": true, "beta_initializer": {"class_name": "Zeros", "config": {}}, "gamma_initializer": {"class_name": "Ones", "config": {}}, "moving_mean_initializer": {"class_name": "Zeros", "config": {}}, "moving_variance_initializer": {"class_name": "Ones", "config": {}}, "beta_regularizer": null, "gamma_regularizer": null, "beta_constraint": null, "gamma_constraint": null}, "inbound_nodes": [[["concatenate_119", 0, 0, {}]]]}, {"name": "activation_243", "class_name": "Activation", "config": {"name": "activation_243", "trainable": true, "dtype": "float32", "activation": "relu"}, "inbound_nodes": [[["dense_3_37_bn", 0, 0, {}]]]}, {"name": "dense_3_37_bottleneck_conv2D", "class_name": "Conv2D", "config": {"name": "dense_3_37_bottleneck_conv2D", "trainable": true, "dtype": "float32", "filters": 128, "kernel_size": [1, 1], "strides": [1, 1], "padding": "same", "data_format": "channels_last", "dilation_rate": [1, 1], "activation": "linear", "use_bias": false, "kernel_initializer": {"class_name": "VarianceScaling", "config": {"scale": 2.0, "mode": "fan_in", "distribution": "normal", "seed": null}}, "bias_initializer": {"class_name": "Zeros", "config": {}}, "kernel_regularizer": {"class_name": "L1L2", "config": {"l1": 0.0, "l2": 9.999999747378752e-05}}, "bias_regularizer": null, "activity_regularizer": null, "kernel_constraint": null, "bias_constraint": null}, "inbound_nodes": [[["activation_243", 0, 0, {}]]]}, {"name": "dense_3_37_bottleneck_bn", "class_name": "BatchNormalization", "config": {"name": "dense_3_37_bottleneck_bn", "trainable": true, "dtype": "float32", "axis": -1, "momentum": 0.99, "epsilon": 1.1e-05, "center": true, "scale": true, "beta_initializer": {"class_name": "Zeros", "config": {}}, "gamma_initializer": {"class_name": "Ones", "config": {}}, "moving_mean_initializer": {"class_name": "Zeros", "config": {}}, "moving_variance_initializer": {"class_name": "Ones", "config": {}}, "beta_regularizer": null, "gamma_regularizer": null, "beta_constraint": null, "gamma_constraint": null}, "inbound_nodes": [[["dense_3_37_bottleneck_conv2D", 0, 0, {}]]]}, {"name": "activation_244", "class_name": "Activation", "config": {"name": "activation_244", "trainable": true, "dtype": "float32", "activation": "relu"}, "inbound_nodes": [[["dense_3_37_bottleneck_bn", 0, 0, {}]]]}, {"name": "dense_3_37_conv2D", "class_name": "Conv2D", "config": {"name": "dense_3_37_conv2D", "trainable": true, "dtype": "float32", "filters": 32, "kernel_size": [3, 3], "strides": [1, 1], "padding": "same", "data_format": "channels_last", "dilation_rate": [1, 1], "activation": "linear", "use_bias": false, "kernel_initializer": {"class_name": "VarianceScaling", "config": {"scale": 2.0, "mode": "fan_in", "distribution": "normal", "seed": null}}, "bias_initializer": {"class_name": "Zeros", "config": {}}, "kernel_regularizer": null, "bias_regularizer": null, "activity_regularizer": null, "kernel_constraint": null, "bias_constraint": null}, "inbound_nodes": [[["activation_244", 0, 0, {}]]]}, {"name": "concatenate_120", "class_name": "Concatenate", "config": {"name": "concatenate_120", "trainable": true, "dtype": "float32", "axis": -1}, "inbound_nodes": [[["concatenate_119", 0, 0, {}], ["dense_3_37_conv2D", 0, 0, {}]]]}, {"name": "dense_3_38_bn", "class_name": "BatchNormalization", "config": {"name": "dense_3_38_bn", "trainable": true, "dtype": "float32", "axis": -1, "momentum": 0.99, "epsilon": 1.1e-05, "center": true, "scale": true, "beta_initializer": {"class_name": "Zeros", "config": {}}, "gamma_initializer": {"class_name": "Ones", "config": {}}, "moving_mean_initializer": {"class_name": "Zeros", "config": {}}, "moving_variance_initializer": {"class_name": "Ones", "config": {}}, "beta_regularizer": null, "gamma_regularizer": null, "beta_constraint": null, "gamma_constraint": null}, "inbound_nodes": [[["concatenate_120", 0, 0, {}]]]}, {"name": "activation_245", "class_name": "Activation", "config": {"name": "activation_245", "trainable": true, "dtype": "float32", "activation": "relu"}, "inbound_nodes": [[["dense_3_38_bn", 0, 0, {}]]]}, {"name": "dense_3_38_bottleneck_conv2D", "class_name": "Conv2D", "config": {"name": "dense_3_38_bottleneck_conv2D", "trainable": true, "dtype": "float32", "filters": 128, "kernel_size": [1, 1], "strides": [1, 1], "padding": "same", "data_format": "channels_last", "dilation_rate": [1, 1], "activation": "linear", "use_bias": false, "kernel_initializer": {"class_name": "VarianceScaling", "config": {"scale": 2.0, "mode": "fan_in", "distribution": "normal", "seed": null}}, "bias_initializer": {"class_name": "Zeros", "config": {}}, "kernel_regularizer": {"class_name": "L1L2", "config": {"l1": 0.0, "l2": 9.999999747378752e-05}}, "bias_regularizer": null, "activity_regularizer": null, "kernel_constraint": null, "bias_constraint": null}, "inbound_nodes": [[["activation_245", 0, 0, {}]]]}, {"name": "dense_3_38_bottleneck_bn", "class_name": "BatchNormalization", "config": {"name": "dense_3_38_bottleneck_bn", "trainable": true, "dtype": "float32", "axis": -1, "momentum": 0.99, "epsilon": 1.1e-05, "center": true, "scale": true, "beta_initializer": {"class_name": "Zeros", "config": {}}, "gamma_initializer": {"class_name": "Ones", "config": {}}, "moving_mean_initializer": {"class_name": "Zeros", "config": {}}, "moving_variance_initializer": {"class_name": "Ones", "config": {}}, "beta_regularizer": null, "gamma_regularizer": null, "beta_constraint": null, "gamma_constraint": null}, "inbound_nodes": [[["dense_3_38_bottleneck_conv2D", 0, 0, {}]]]}, {"name": "activation_246", "class_name": "Activation", "config": {"name": "activation_246", "trainable": true, "dtype": "float32", "activation": "relu"}, "inbound_nodes": [[["dense_3_38_bottleneck_bn", 0, 0, {}]]]}, {"name": "dense_3_38_conv2D", "class_name": "Conv2D", "config": {"name": "dense_3_38_conv2D", "trainable": true, "dtype": "float32", "filters": 32, "kernel_size": [3, 3], "strides": [1, 1], "padding": "same", "data_format": "channels_last", "dilation_rate": [1, 1], "activation": "linear", "use_bias": false, "kernel_initializer": {"class_name": "VarianceScaling", "config": {"scale": 2.0, "mode": "fan_in", "distribution": "normal", "seed": null}}, "bias_initializer": {"class_name": "Zeros", "config": {}}, "kernel_regularizer": null, "bias_regularizer": null, "activity_regularizer": null, "kernel_constraint": null, "bias_constraint": null}, "inbound_nodes": [[["activation_246", 0, 0, {}]]]}, {"name": "concatenate_121", "class_name": "Concatenate", "config": {"name": "concatenate_121", "trainable": true, "dtype": "float32", "axis": -1}, "inbound_nodes": [[["concatenate_120", 0, 0, {}], ["dense_3_38_conv2D", 0, 0, {}]]]}, {"name": "dense_3_39_bn", "class_name": "BatchNormalization", "config": {"name": "dense_3_39_bn", "trainable": true, "dtype": "float32", "axis": -1, "momentum": 0.99, "epsilon": 1.1e-05, "center": true, "scale": true, "beta_initializer": {"class_name": "Zeros", "config": {}}, "gamma_initializer": {"class_name": "Ones", "config": {}}, "moving_mean_initializer": {"class_name": "Zeros", "config": {}}, "moving_variance_initializer": {"class_name": "Ones", "config": {}}, "beta_regularizer": null, "gamma_regularizer": null, "beta_constraint": null, "gamma_constraint": null}, "inbound_nodes": [[["concatenate_121", 0, 0, {}]]]}, {"name": "activation_247", "class_name": "Activation", "config": {"name": "activation_247", "trainable": true, "dtype": "float32", "activation": "relu"}, "inbound_nodes": [[["dense_3_39_bn", 0, 0, {}]]]}, {"name": "dense_3_39_bottleneck_conv2D", "class_name": "Conv2D", "config": {"name": "dense_3_39_bottleneck_conv2D", "trainable": true, "dtype": "float32", "filters": 128, "kernel_size": [1, 1], "strides": [1, 1], "padding": "same", "data_format": "channels_last", "dilation_rate": [1, 1], "activation": "linear", "use_bias": false, "kernel_initializer": {"class_name": "VarianceScaling", "config": {"scale": 2.0, "mode": "fan_in", "distribution": "normal", "seed": null}}, "bias_initializer": {"class_name": "Zeros", "config": {}}, "kernel_regularizer": {"class_name": "L1L2", "config": {"l1": 0.0, "l2": 9.999999747378752e-05}}, "bias_regularizer": null, "activity_regularizer": null, "kernel_constraint": null, "bias_constraint": null}, "inbound_nodes": [[["activation_247", 0, 0, {}]]]}, {"name": "dense_3_39_bottleneck_bn", "class_name": "BatchNormalization", "config": {"name": "dense_3_39_bottleneck_bn", "trainable": true, "dtype": "float32", "axis": -1, "momentum": 0.99, "epsilon": 1.1e-05, "center": true, "scale": true, "beta_initializer": {"class_name": "Zeros", "config": {}}, "gamma_initializer": {"class_name": "Ones", "config": {}}, "moving_mean_initializer": {"class_name": "Zeros", "config": {}}, "moving_variance_initializer": {"class_name": "Ones", "config": {}}, "beta_regularizer": null, "gamma_regularizer": null, "beta_constraint": null, "gamma_constraint": null}, "inbound_nodes": [[["dense_3_39_bottleneck_conv2D", 0, 0, {}]]]}, {"name": "activation_248", "class_name": "Activation", "config": {"name": "activation_248", "trainable": true, "dtype": "float32", "activation": "relu"}, "inbound_nodes": [[["dense_3_39_bottleneck_bn", 0, 0, {}]]]}, {"name": "dense_3_39_conv2D", "class_name": "Conv2D", "config": {"name": "dense_3_39_conv2D", "trainable": true, "dtype": "float32", "filters": 32, "kernel_size": [3, 3], "strides": [1, 1], "padding": "same", "data_format": "channels_last", "dilation_rate": [1, 1], "activation": "linear", "use_bias": false, "kernel_initializer": {"class_name": "VarianceScaling", "config": {"scale": 2.0, "mode": "fan_in", "distribution": "normal", "seed": null}}, "bias_initializer": {"class_name": "Zeros", "config": {}}, "kernel_regularizer": null, "bias_regularizer": null, "activity_regularizer": null, "kernel_constraint": null, "bias_constraint": null}, "inbound_nodes": [[["activation_248", 0, 0, {}]]]}, {"name": "concatenate_122", "class_name": "Concatenate", "config": {"name": "concatenate_122", "trainable": true, "dtype": "float32", "axis": -1}, "inbound_nodes": [[["concatenate_121", 0, 0, {}], ["dense_3_39_conv2D", 0, 0, {}]]]}, {"name": "dense_3_40_bn", "class_name": "BatchNormalization", "config": {"name": "dense_3_40_bn", "trainable": true, "dtype": "float32", "axis": -1, "momentum": 0.99, "epsilon": 1.1e-05, "center": true, "scale": true, "beta_initializer": {"class_name": "Zeros", "config": {}}, "gamma_initializer": {"class_name": "Ones", "config": {}}, "moving_mean_initializer": {"class_name": "Zeros", "config": {}}, "moving_variance_initializer": {"class_name": "Ones", "config": {}}, "beta_regularizer": null, "gamma_regularizer": null, "beta_constraint": null, "gamma_constraint": null}, "inbound_nodes": [[["concatenate_122", 0, 0, {}]]]}, {"name": "activation_249", "class_name": "Activation", "config": {"name": "activation_249", "trainable": true, "dtype": "float32", "activation": "relu"}, "inbound_nodes": [[["dense_3_40_bn", 0, 0, {}]]]}, {"name": "dense_3_40_bottleneck_conv2D", "class_name": "Conv2D", "config": {"name": "dense_3_40_bottleneck_conv2D", "trainable": true, "dtype": "float32", "filters": 128, "kernel_size": [1, 1], "strides": [1, 1], "padding": "same", "data_format": "channels_last", "dilation_rate": [1, 1], "activation": "linear", "use_bias": false, "kernel_initializer": {"class_name": "VarianceScaling", "config": {"scale": 2.0, "mode": "fan_in", "distribution": "normal", "seed": null}}, "bias_initializer": {"class_name": "Zeros", "config": {}}, "kernel_regularizer": {"class_name": "L1L2", "config": {"l1": 0.0, "l2": 9.999999747378752e-05}}, "bias_regularizer": null, "activity_regularizer": null, "kernel_constraint": null, "bias_constraint": null}, "inbound_nodes": [[["activation_249", 0, 0, {}]]]}, {"name": "dense_3_40_bottleneck_bn", "class_name": "BatchNormalization", "config": {"name": "dense_3_40_bottleneck_bn", "trainable": true, "dtype": "float32", "axis": -1, "momentum": 0.99, "epsilon": 1.1e-05, "center": true, "scale": true, "beta_initializer": {"class_name": "Zeros", "config": {}}, "gamma_initializer": {"class_name": "Ones", "config": {}}, "moving_mean_initializer": {"class_name": "Zeros", "config": {}}, "moving_variance_initializer": {"class_name": "Ones", "config": {}}, "beta_regularizer": null, "gamma_regularizer": null, "beta_constraint": null, "gamma_constraint": null}, "inbound_nodes": [[["dense_3_40_bottleneck_conv2D", 0, 0, {}]]]}, {"name": "activation_250", "class_name": "Activation", "config": {"name": "activation_250", "trainable": true, "dtype": "float32", "activation": "relu"}, "inbound_nodes": [[["dense_3_40_bottleneck_bn", 0, 0, {}]]]}, {"name": "dense_3_40_conv2D", "class_name": "Conv2D", "config": {"name": "dense_3_40_conv2D", "trainable": true, "dtype": "float32", "filters": 32, "kernel_size": [3, 3], "strides": [1, 1], "padding": "same", "data_format": "channels_last", "dilation_rate": [1, 1], "activation": "linear", "use_bias": false, "kernel_initializer": {"class_name": "VarianceScaling", "config": {"scale": 2.0, "mode": "fan_in", "distribution": "normal", "seed": null}}, "bias_initializer": {"class_name": "Zeros", "config": {}}, "kernel_regularizer": null, "bias_regularizer": null, "activity_regularizer": null, "kernel_constraint": null, "bias_constraint": null}, "inbound_nodes": [[["activation_250", 0, 0, {}]]]}, {"name": "concatenate_123", "class_name": "Concatenate", "config": {"name": "concatenate_123", "trainable": true, "dtype": "float32", "axis": -1}, "inbound_nodes": [[["concatenate_122", 0, 0, {}], ["dense_3_40_conv2D", 0, 0, {}]]]}, {"name": "dense_3_41_bn", "class_name": "BatchNormalization", "config": {"name": "dense_3_41_bn", "trainable": true, "dtype": "float32", "axis": -1, "momentum": 0.99, "epsilon": 1.1e-05, "center": true, "scale": true, "beta_initializer": {"class_name": "Zeros", "config": {}}, "gamma_initializer": {"class_name": "Ones", "config": {}}, "moving_mean_initializer": {"class_name": "Zeros", "config": {}}, "moving_variance_initializer": {"class_name": "Ones", "config": {}}, "beta_regularizer": null, "gamma_regularizer": null, "beta_constraint": null, "gamma_constraint": null}, "inbound_nodes": [[["concatenate_123", 0, 0, {}]]]}, {"name": "activation_251", "class_name": "Activation", "config": {"name": "activation_251", "trainable": true, "dtype": "float32", "activation": "relu"}, "inbound_nodes": [[["dense_3_41_bn", 0, 0, {}]]]}, {"name": "dense_3_41_bottleneck_conv2D", "class_name": "Conv2D", "config": {"name": "dense_3_41_bottleneck_conv2D", "trainable": true, "dtype": "float32", "filters": 128, "kernel_size": [1, 1], "strides": [1, 1], "padding": "same", "data_format": "channels_last", "dilation_rate": [1, 1], "activation": "linear", "use_bias": false, "kernel_initializer": {"class_name": "VarianceScaling", "config": {"scale": 2.0, "mode": "fan_in", "distribution": "normal", "seed": null}}, "bias_initializer": {"class_name": "Zeros", "config": {}}, "kernel_regularizer": {"class_name": "L1L2", "config": {"l1": 0.0, "l2": 9.999999747378752e-05}}, "bias_regularizer": null, "activity_regularizer": null, "kernel_constraint": null, "bias_constraint": null}, "inbound_nodes": [[["activation_251", 0, 0, {}]]]}, {"name": "dense_3_41_bottleneck_bn", "class_name": "BatchNormalization", "config": {"name": "dense_3_41_bottleneck_bn", "trainable": true, "dtype": "float32", "axis": -1, "momentum": 0.99, "epsilon": 1.1e-05, "center": true, "scale": true, "beta_initializer": {"class_name": "Zeros", "config": {}}, "gamma_initializer": {"class_name": "Ones", "config": {}}, "moving_mean_initializer": {"class_name": "Zeros", "config": {}}, "moving_variance_initializer": {"class_name": "Ones", "config": {}}, "beta_regularizer": null, "gamma_regularizer": null, "beta_constraint": null, "gamma_constraint": null}, "inbound_nodes": [[["dense_3_41_bottleneck_conv2D", 0, 0, {}]]]}, {"name": "activation_252", "class_name": "Activation", "config": {"name": "activation_252", "trainable": true, "dtype": "float32", "activation": "relu"}, "inbound_nodes": [[["dense_3_41_bottleneck_bn", 0, 0, {}]]]}, {"name": "dense_3_41_conv2D", "class_name": "Conv2D", "config": {"name": "dense_3_41_conv2D", "trainable": true, "dtype": "float32", "filters": 32, "kernel_size": [3, 3], "strides": [1, 1], "padding": "same", "data_format": "channels_last", "dilation_rate": [1, 1], "activation": "linear", "use_bias": false, "kernel_initializer": {"class_name": "VarianceScaling", "config": {"scale": 2.0, "mode": "fan_in", "distribution": "normal", "seed": null}}, "bias_initializer": {"class_name": "Zeros", "config": {}}, "kernel_regularizer": null, "bias_regularizer": null, "activity_regularizer": null, "kernel_constraint": null, "bias_constraint": null}, "inbound_nodes": [[["activation_252", 0, 0, {}]]]}, {"name": "concatenate_124", "class_name": "Concatenate", "config": {"name": "concatenate_124", "trainable": true, "dtype": "float32", "axis": -1}, "inbound_nodes": [[["concatenate_123", 0, 0, {}], ["dense_3_41_conv2D", 0, 0, {}]]]}, {"name": "dense_3_42_bn", "class_name": "BatchNormalization", "config": {"name": "dense_3_42_bn", "trainable": true, "dtype": "float32", "axis": -1, "momentum": 0.99, "epsilon": 1.1e-05, "center": true, "scale": true, "beta_initializer": {"class_name": "Zeros", "config": {}}, "gamma_initializer": {"class_name": "Ones", "config": {}}, "moving_mean_initializer": {"class_name": "Zeros", "config": {}}, "moving_variance_initializer": {"class_name": "Ones", "config": {}}, "beta_regularizer": null, "gamma_regularizer": null, "beta_constraint": null, "gamma_constraint": null}, "inbound_nodes": [[["concatenate_124", 0, 0, {}]]]}, {"name": "activation_253", "class_name": "Activation", "config": {"name": "activation_253", "trainable": true, "dtype": "float32", "activation": "relu"}, "inbound_nodes": [[["dense_3_42_bn", 0, 0, {}]]]}, {"name": "dense_3_42_bottleneck_conv2D", "class_name": "Conv2D", "config": {"name": "dense_3_42_bottleneck_conv2D", "trainable": true, "dtype": "float32", "filters": 128, "kernel_size": [1, 1], "strides": [1, 1], "padding": "same", "data_format": "channels_last", "dilation_rate": [1, 1], "activation": "linear", "use_bias": false, "kernel_initializer": {"class_name": "VarianceScaling", "config": {"scale": 2.0, "mode": "fan_in", "distribution": "normal", "seed": null}}, "bias_initializer": {"class_name": "Zeros", "config": {}}, "kernel_regularizer": {"class_name": "L1L2", "config": {"l1": 0.0, "l2": 9.999999747378752e-05}}, "bias_regularizer": null, "activity_regularizer": null, "kernel_constraint": null, "bias_constraint": null}, "inbound_nodes": [[["activation_253", 0, 0, {}]]]}, {"name": "dense_3_42_bottleneck_bn", "class_name": "BatchNormalization", "config": {"name": "dense_3_42_bottleneck_bn", "trainable": true, "dtype": "float32", "axis": -1, "momentum": 0.99, "epsilon": 1.1e-05, "center": true, "scale": true, "beta_initializer": {"class_name": "Zeros", "config": {}}, "gamma_initializer": {"class_name": "Ones", "config": {}}, "moving_mean_initializer": {"class_name": "Zeros", "config": {}}, "moving_variance_initializer": {"class_name": "Ones", "config": {}}, "beta_regularizer": null, "gamma_regularizer": null, "beta_constraint": null, "gamma_constraint": null}, "inbound_nodes": [[["dense_3_42_bottleneck_conv2D", 0, 0, {}]]]}, {"name": "activation_254", "class_name": "Activation", "config": {"name": "activation_254", "trainable": true, "dtype": "float32", "activation": "relu"}, "inbound_nodes": [[["dense_3_42_bottleneck_bn", 0, 0, {}]]]}, {"name": "dense_3_42_conv2D", "class_name": "Conv2D", "config": {"name": "dense_3_42_conv2D", "trainable": true, "dtype": "float32", "filters": 32, "kernel_size": [3, 3], "strides": [1, 1], "padding": "same", "data_format": "channels_last", "dilation_rate": [1, 1], "activation": "linear", "use_bias": false, "kernel_initializer": {"class_name": "VarianceScaling", "config": {"scale": 2.0, "mode": "fan_in", "distribution": "normal", "seed": null}}, "bias_initializer": {"class_name": "Zeros", "config": {}}, "kernel_regularizer": null, "bias_regularizer": null, "activity_regularizer": null, "kernel_constraint": null, "bias_constraint": null}, "inbound_nodes": [[["activation_254", 0, 0, {}]]]}, {"name": "concatenate_125", "class_name": "Concatenate", "config": {"name": "concatenate_125", "trainable": true, "dtype": "float32", "axis": -1}, "inbound_nodes": [[["concatenate_124", 0, 0, {}], ["dense_3_42_conv2D", 0, 0, {}]]]}, {"name": "dense_3_43_bn", "class_name": "BatchNormalization", "config": {"name": "dense_3_43_bn", "trainable": true, "dtype": "float32", "axis": -1, "momentum": 0.99, "epsilon": 1.1e-05, "center": true, "scale": true, "beta_initializer": {"class_name": "Zeros", "config": {}}, "gamma_initializer": {"class_name": "Ones", "config": {}}, "moving_mean_initializer": {"class_name": "Zeros", "config": {}}, "moving_variance_initializer": {"class_name": "Ones", "config": {}}, "beta_regularizer": null, "gamma_regularizer": null, "beta_constraint": null, "gamma_constraint": null}, "inbound_nodes": [[["concatenate_125", 0, 0, {}]]]}, {"name": "activation_255", "class_name": "Activation", "config": {"name": "activation_255", "trainable": true, "dtype": "float32", "activation": "relu"}, "inbound_nodes": [[["dense_3_43_bn", 0, 0, {}]]]}, {"name": "dense_3_43_bottleneck_conv2D", "class_name": "Conv2D", "config": {"name": "dense_3_43_bottleneck_conv2D", "trainable": true, "dtype": "float32", "filters": 128, "kernel_size": [1, 1], "strides": [1, 1], "padding": "same", "data_format": "channels_last", "dilation_rate": [1, 1], "activation": "linear", "use_bias": false, "kernel_initializer": {"class_name": "VarianceScaling", "config": {"scale": 2.0, "mode": "fan_in", "distribution": "normal", "seed": null}}, "bias_initializer": {"class_name": "Zeros", "config": {}}, "kernel_regularizer": {"class_name": "L1L2", "config": {"l1": 0.0, "l2": 9.999999747378752e-05}}, "bias_regularizer": null, "activity_regularizer": null, "kernel_constraint": null, "bias_constraint": null}, "inbound_nodes": [[["activation_255", 0, 0, {}]]]}, {"name": "dense_3_43_bottleneck_bn", "class_name": "BatchNormalization", "config": {"name": "dense_3_43_bottleneck_bn", "trainable": true, "dtype": "float32", "axis": -1, "momentum": 0.99, "epsilon": 1.1e-05, "center": true, "scale": true, "beta_initializer": {"class_name": "Zeros", "config": {}}, "gamma_initializer": {"class_name": "Ones", "config": {}}, "moving_mean_initializer": {"class_name": "Zeros", "config": {}}, "moving_variance_initializer": {"class_name": "Ones", "config": {}}, "beta_regularizer": null, "gamma_regularizer": null, "beta_constraint": null, "gamma_constraint": null}, "inbound_nodes": [[["dense_3_43_bottleneck_conv2D", 0, 0, {}]]]}, {"name": "activation_256", "class_name": "Activation", "config": {"name": "activation_256", "trainable": true, "dtype": "float32", "activation": "relu"}, "inbound_nodes": [[["dense_3_43_bottleneck_bn", 0, 0, {}]]]}, {"name": "dense_3_43_conv2D", "class_name": "Conv2D", "config": {"name": "dense_3_43_conv2D", "trainable": true, "dtype": "float32", "filters": 32, "kernel_size": [3, 3], "strides": [1, 1], "padding": "same", "data_format": "channels_last", "dilation_rate": [1, 1], "activation": "linear", "use_bias": false, "kernel_initializer": {"class_name": "VarianceScaling", "config": {"scale": 2.0, "mode": "fan_in", "distribution": "normal", "seed": null}}, "bias_initializer": {"class_name": "Zeros", "config": {}}, "kernel_regularizer": null, "bias_regularizer": null, "activity_regularizer": null, "kernel_constraint": null, "bias_constraint": null}, "inbound_nodes": [[["activation_256", 0, 0, {}]]]}, {"name": "concatenate_126", "class_name": "Concatenate", "config": {"name": "concatenate_126", "trainable": true, "dtype": "float32", "axis": -1}, "inbound_nodes": [[["concatenate_125", 0, 0, {}], ["dense_3_43_conv2D", 0, 0, {}]]]}, {"name": "dense_3_44_bn", "class_name": "BatchNormalization", "config": {"name": "dense_3_44_bn", "trainable": true, "dtype": "float32", "axis": -1, "momentum": 0.99, "epsilon": 1.1e-05, "center": true, "scale": true, "beta_initializer": {"class_name": "Zeros", "config": {}}, "gamma_initializer": {"class_name": "Ones", "config": {}}, "moving_mean_initializer": {"class_name": "Zeros", "config": {}}, "moving_variance_initializer": {"class_name": "Ones", "config": {}}, "beta_regularizer": null, "gamma_regularizer": null, "beta_constraint": null, "gamma_constraint": null}, "inbound_nodes": [[["concatenate_126", 0, 0, {}]]]}, {"name": "activation_257", "class_name": "Activation", "config": {"name": "activation_257", "trainable": true, "dtype": "float32", "activation": "relu"}, "inbound_nodes": [[["dense_3_44_bn", 0, 0, {}]]]}, {"name": "dense_3_44_bottleneck_conv2D", "class_name": "Conv2D", "config": {"name": "dense_3_44_bottleneck_conv2D", "trainable": true, "dtype": "float32", "filters": 128, "kernel_size": [1, 1], "strides": [1, 1], "padding": "same", "data_format": "channels_last", "dilation_rate": [1, 1], "activation": "linear", "use_bias": false, "kernel_initializer": {"class_name": "VarianceScaling", "config": {"scale": 2.0, "mode": "fan_in", "distribution": "normal", "seed": null}}, "bias_initializer": {"class_name": "Zeros", "config": {}}, "kernel_regularizer": {"class_name": "L1L2", "config": {"l1": 0.0, "l2": 9.999999747378752e-05}}, "bias_regularizer": null, "activity_regularizer": null, "kernel_constraint": null, "bias_constraint": null}, "inbound_nodes": [[["activation_257", 0, 0, {}]]]}, {"name": "dense_3_44_bottleneck_bn", "class_name": "BatchNormalization", "config": {"name": "dense_3_44_bottleneck_bn", "trainable": true, "dtype": "float32", "axis": -1, "momentum": 0.99, "epsilon": 1.1e-05, "center": true, "scale": true, "beta_initializer": {"class_name": "Zeros", "config": {}}, "gamma_initializer": {"class_name": "Ones", "config": {}}, "moving_mean_initializer": {"class_name": "Zeros", "config": {}}, "moving_variance_initializer": {"class_name": "Ones", "config": {}}, "beta_regularizer": null, "gamma_regularizer": null, "beta_constraint": null, "gamma_constraint": null}, "inbound_nodes": [[["dense_3_44_bottleneck_conv2D", 0, 0, {}]]]}, {"name": "activation_258", "class_name": "Activation", "config": {"name": "activation_258", "trainable": true, "dtype": "float32", "activation": "relu"}, "inbound_nodes": [[["dense_3_44_bottleneck_bn", 0, 0, {}]]]}, {"name": "dense_3_44_conv2D", "class_name": "Conv2D", "config": {"name": "dense_3_44_conv2D", "trainable": true, "dtype": "float32", "filters": 32, "kernel_size": [3, 3], "strides": [1, 1], "padding": "same", "data_format": "channels_last", "dilation_rate": [1, 1], "activation": "linear", "use_bias": false, "kernel_initializer": {"class_name": "VarianceScaling", "config": {"scale": 2.0, "mode": "fan_in", "distribution": "normal", "seed": null}}, "bias_initializer": {"class_name": "Zeros", "config": {}}, "kernel_regularizer": null, "bias_regularizer": null, "activity_regularizer": null, "kernel_constraint": null, "bias_constraint": null}, "inbound_nodes": [[["activation_258", 0, 0, {}]]]}, {"name": "concatenate_127", "class_name": "Concatenate", "config": {"name": "concatenate_127", "trainable": true, "dtype": "float32", "axis": -1}, "inbound_nodes": [[["concatenate_126", 0, 0, {}], ["dense_3_44_conv2D", 0, 0, {}]]]}, {"name": "dense_3_45_bn", "class_name": "BatchNormalization", "config": {"name": "dense_3_45_bn", "trainable": true, "dtype": "float32", "axis": -1, "momentum": 0.99, "epsilon": 1.1e-05, "center": true, "scale": true, "beta_initializer": {"class_name": "Zeros", "config": {}}, "gamma_initializer": {"class_name": "Ones", "config": {}}, "moving_mean_initializer": {"class_name": "Zeros", "config": {}}, "moving_variance_initializer": {"class_name": "Ones", "config": {}}, "beta_regularizer": null, "gamma_regularizer": null, "beta_constraint": null, "gamma_constraint": null}, "inbound_nodes": [[["concatenate_127", 0, 0, {}]]]}, {"name": "activation_259", "class_name": "Activation", "config": {"name": "activation_259", "trainable": true, "dtype": "float32", "activation": "relu"}, "inbound_nodes": [[["dense_3_45_bn", 0, 0, {}]]]}, {"name": "dense_3_45_bottleneck_conv2D", "class_name": "Conv2D", "config": {"name": "dense_3_45_bottleneck_conv2D", "trainable": true, "dtype": "float32", "filters": 128, "kernel_size": [1, 1], "strides": [1, 1], "padding": "same", "data_format": "channels_last", "dilation_rate": [1, 1], "activation": "linear", "use_bias": false, "kernel_initializer": {"class_name": "VarianceScaling", "config": {"scale": 2.0, "mode": "fan_in", "distribution": "normal", "seed": null}}, "bias_initializer": {"class_name": "Zeros", "config": {}}, "kernel_regularizer": {"class_name": "L1L2", "config": {"l1": 0.0, "l2": 9.999999747378752e-05}}, "bias_regularizer": null, "activity_regularizer": null, "kernel_constraint": null, "bias_constraint": null}, "inbound_nodes": [[["activation_259", 0, 0, {}]]]}, {"name": "dense_3_45_bottleneck_bn", "class_name": "BatchNormalization", "config": {"name": "dense_3_45_bottleneck_bn", "trainable": true, "dtype": "float32", "axis": -1, "momentum": 0.99, "epsilon": 1.1e-05, "center": true, "scale": true, "beta_initializer": {"class_name": "Zeros", "config": {}}, "gamma_initializer": {"class_name": "Ones", "config": {}}, "moving_mean_initializer": {"class_name": "Zeros", "config": {}}, "moving_variance_initializer": {"class_name": "Ones", "config": {}}, "beta_regularizer": null, "gamma_regularizer": null, "beta_constraint": null, "gamma_constraint": null}, "inbound_nodes": [[["dense_3_45_bottleneck_conv2D", 0, 0, {}]]]}, {"name": "activation_260", "class_name": "Activation", "config": {"name": "activation_260", "trainable": true, "dtype": "float32", "activation": "relu"}, "inbound_nodes": [[["dense_3_45_bottleneck_bn", 0, 0, {}]]]}, {"name": "dense_3_45_conv2D", "class_name": "Conv2D", "config": {"name": "dense_3_45_conv2D", "trainable": true, "dtype": "float32", "filters": 32, "kernel_size": [3, 3], "strides": [1, 1], "padding": "same", "data_format": "channels_last", "dilation_rate": [1, 1], "activation": "linear", "use_bias": false, "kernel_initializer": {"class_name": "VarianceScaling", "config": {"scale": 2.0, "mode": "fan_in", "distribution": "normal", "seed": null}}, "bias_initializer": {"class_name": "Zeros", "config": {}}, "kernel_regularizer": null, "bias_regularizer": null, "activity_regularizer": null, "kernel_constraint": null, "bias_constraint": null}, "inbound_nodes": [[["activation_260", 0, 0, {}]]]}, {"name": "concatenate_128", "class_name": "Concatenate", "config": {"name": "concatenate_128", "trainable": true, "dtype": "float32", "axis": -1}, "inbound_nodes": [[["concatenate_127", 0, 0, {}], ["dense_3_45_conv2D", 0, 0, {}]]]}, {"name": "dense_3_46_bn", "class_name": "BatchNormalization", "config": {"name": "dense_3_46_bn", "trainable": true, "dtype": "float32", "axis": -1, "momentum": 0.99, "epsilon": 1.1e-05, "center": true, "scale": true, "beta_initializer": {"class_name": "Zeros", "config": {}}, "gamma_initializer": {"class_name": "Ones", "config": {}}, "moving_mean_initializer": {"class_name": "Zeros", "config": {}}, "moving_variance_initializer": {"class_name": "Ones", "config": {}}, "beta_regularizer": null, "gamma_regularizer": null, "beta_constraint": null, "gamma_constraint": null}, "inbound_nodes": [[["concatenate_128", 0, 0, {}]]]}, {"name": "activation_261", "class_name": "Activation", "config": {"name": "activation_261", "trainable": true, "dtype": "float32", "activation": "relu"}, "inbound_nodes": [[["dense_3_46_bn", 0, 0, {}]]]}, {"name": "dense_3_46_bottleneck_conv2D", "class_name": "Conv2D", "config": {"name": "dense_3_46_bottleneck_conv2D", "trainable": true, "dtype": "float32", "filters": 128, "kernel_size": [1, 1], "strides": [1, 1], "padding": "same", "data_format": "channels_last", "dilation_rate": [1, 1], "activation": "linear", "use_bias": false, "kernel_initializer": {"class_name": "VarianceScaling", "config": {"scale": 2.0, "mode": "fan_in", "distribution": "normal", "seed": null}}, "bias_initializer": {"class_name": "Zeros", "config": {}}, "kernel_regularizer": {"class_name": "L1L2", "config": {"l1": 0.0, "l2": 9.999999747378752e-05}}, "bias_regularizer": null, "activity_regularizer": null, "kernel_constraint": null, "bias_constraint": null}, "inbound_nodes": [[["activation_261", 0, 0, {}]]]}, {"name": "dense_3_46_bottleneck_bn", "class_name": "BatchNormalization", "config": {"name": "dense_3_46_bottleneck_bn", "trainable": true, "dtype": "float32", "axis": -1, "momentum": 0.99, "epsilon": 1.1e-05, "center": true, "scale": true, "beta_initializer": {"class_name": "Zeros", "config": {}}, "gamma_initializer": {"class_name": "Ones", "config": {}}, "moving_mean_initializer": {"class_name": "Zeros", "config": {}}, "moving_variance_initializer": {"class_name": "Ones", "config": {}}, "beta_regularizer": null, "gamma_regularizer": null, "beta_constraint": null, "gamma_constraint": null}, "inbound_nodes": [[["dense_3_46_bottleneck_conv2D", 0, 0, {}]]]}, {"name": "activation_262", "class_name": "Activation", "config": {"name": "activation_262", "trainable": true, "dtype": "float32", "activation": "relu"}, "inbound_nodes": [[["dense_3_46_bottleneck_bn", 0, 0, {}]]]}, {"name": "dense_3_46_conv2D", "class_name": "Conv2D", "config": {"name": "dense_3_46_conv2D", "trainable": true, "dtype": "float32", "filters": 32, "kernel_size": [3, 3], "strides": [1, 1], "padding": "same", "data_format": "channels_last", "dilation_rate": [1, 1], "activation": "linear", "use_bias": false, "kernel_initializer": {"class_name": "VarianceScaling", "config": {"scale": 2.0, "mode": "fan_in", "distribution": "normal", "seed": null}}, "bias_initializer": {"class_name": "Zeros", "config": {}}, "kernel_regularizer": null, "bias_regularizer": null, "activity_regularizer": null, "kernel_constraint": null, "bias_constraint": null}, "inbound_nodes": [[["activation_262", 0, 0, {}]]]}, {"name": "concatenate_129", "class_name": "Concatenate", "config": {"name": "concatenate_129", "trainable": true, "dtype": "float32", "axis": -1}, "inbound_nodes": [[["concatenate_128", 0, 0, {}], ["dense_3_46_conv2D", 0, 0, {}]]]}, {"name": "dense_3_47_bn", "class_name": "BatchNormalization", "config": {"name": "dense_3_47_bn", "trainable": true, "dtype": "float32", "axis": -1, "momentum": 0.99, "epsilon": 1.1e-05, "center": true, "scale": true, "beta_initializer": {"class_name": "Zeros", "config": {}}, "gamma_initializer": {"class_name": "Ones", "config": {}}, "moving_mean_initializer": {"class_name": "Zeros", "config": {}}, "moving_variance_initializer": {"class_name": "Ones", "config": {}}, "beta_regularizer": null, "gamma_regularizer": null, "beta_constraint": null, "gamma_constraint": null}, "inbound_nodes": [[["concatenate_129", 0, 0, {}]]]}, {"name": "activation_263", "class_name": "Activation", "config": {"name": "activation_263", "trainable": true, "dtype": "float32", "activation": "relu"}, "inbound_nodes": [[["dense_3_47_bn", 0, 0, {}]]]}, {"name": "dense_3_47_bottleneck_conv2D", "class_name": "Conv2D", "config": {"name": "dense_3_47_bottleneck_conv2D", "trainable": true, "dtype": "float32", "filters": 128, "kernel_size": [1, 1], "strides": [1, 1], "padding": "same", "data_format": "channels_last", "dilation_rate": [1, 1], "activation": "linear", "use_bias": false, "kernel_initializer": {"class_name": "VarianceScaling", "config": {"scale": 2.0, "mode": "fan_in", "distribution": "normal", "seed": null}}, "bias_initializer": {"class_name": "Zeros", "config": {}}, "kernel_regularizer": {"class_name": "L1L2", "config": {"l1": 0.0, "l2": 9.999999747378752e-05}}, "bias_regularizer": null, "activity_regularizer": null, "kernel_constraint": null, "bias_constraint": null}, "inbound_nodes": [[["activation_263", 0, 0, {}]]]}, {"name": "dense_3_47_bottleneck_bn", "class_name": "BatchNormalization", "config": {"name": "dense_3_47_bottleneck_bn", "trainable": true, "dtype": "float32", "axis": -1, "momentum": 0.99, "epsilon": 1.1e-05, "center": true, "scale": true, "beta_initializer": {"class_name": "Zeros", "config": {}}, "gamma_initializer": {"class_name": "Ones", "config": {}}, "moving_mean_initializer": {"class_name": "Zeros", "config": {}}, "moving_variance_initializer": {"class_name": "Ones", "config": {}}, "beta_regularizer": null, "gamma_regularizer": null, "beta_constraint": null, "gamma_constraint": null}, "inbound_nodes": [[["dense_3_47_bottleneck_conv2D", 0, 0, {}]]]}, {"name": "activation_264", "class_name": "Activation", "config": {"name": "activation_264", "trainable": true, "dtype": "float32", "activation": "relu"}, "inbound_nodes": [[["dense_3_47_bottleneck_bn", 0, 0, {}]]]}, {"name": "dense_3_47_conv2D", "class_name": "Conv2D", "config": {"name": "dense_3_47_conv2D", "trainable": true, "dtype": "float32", "filters": 32, "kernel_size": [3, 3], "strides": [1, 1], "padding": "same", "data_format": "channels_last", "dilation_rate": [1, 1], "activation": "linear", "use_bias": false, "kernel_initializer": {"class_name": "VarianceScaling", "config": {"scale": 2.0, "mode": "fan_in", "distribution": "normal", "seed": null}}, "bias_initializer": {"class_name": "Zeros", "config": {}}, "kernel_regularizer": null, "bias_regularizer": null, "activity_regularizer": null, "kernel_constraint": null, "bias_constraint": null}, "inbound_nodes": [[["activation_264", 0, 0, {}]]]}, {"name": "concatenate_130", "class_name": "Concatenate", "config": {"name": "concatenate_130", "trainable": true, "dtype": "float32", "axis": -1}, "inbound_nodes": [[["concatenate_129", 0, 0, {}], ["dense_3_47_conv2D", 0, 0, {}]]]}, {"name": "final_bn", "class_name": "BatchNormalization", "config": {"name": "final_bn", "trainable": true, "dtype": "float32", "axis": -1, "momentum": 0.99, "epsilon": 1.1e-05, "center": true, "scale": true, "beta_initializer": {"class_name": "Zeros", "config": {}}, "gamma_initializer": {"class_name": "Ones", "config": {}}, "moving_mean_initializer": {"class_name": "Zeros", "config": {}}, "moving_variance_initializer": {"class_name": "Ones", "config": {}}, "beta_regularizer": null, "gamma_regularizer": null, "beta_constraint": null, "gamma_constraint": null}, "inbound_nodes": [[["concatenate_130", 0, 0, {}]]]}, {"name": "activation_265", "class_name": "Activation", "config": {"name": "activation_265", "trainable": true, "dtype": "float32", "activation": "relu"}, "inbound_nodes": [[["final_bn", 0, 0, {}]]]}, {"name": "dense_1", "class_name": "Dense", "config": {"name": "dense_1", "trainable": true, "dtype": "float32", "units": 1000, "activation": "softmax", "use_bias": true, "kernel_initializer": {"class_name": "VarianceScaling", "config": {"scale": 1.0, "mode": "fan_avg", "distribution": "uniform", "seed": null}}, "bias_initializer": {"class_name": "Zeros", "config": {}}, "kernel_regularizer": null, "bias_regularizer": null, "activity_regularizer": null, "kernel_constraint": null, "bias_constraint": null}, "inbound_nodes": [[["activation_265", 0, 0, {}]]]}], "input_layers": [["input_1", 0, 0]], "output_layers": [["dense_1", 0, 0]]}, "keras_version": "2.3.1", "backend": "tensorflow"}