{"class_name": "Model", "config": {"name": "densenet", "layers": [{"name": "input_1", "class_name": "InputLayer", "config": {"batch_input_shape": [null, 224, 224, 3], "dtype": "float32", "sparse": false, "name": "input_1"}, "inbound_nodes": []}, {"name": "initial_conv2D", "class_name": "Conv2D", "config": {"name": "initial_conv2D", "trainable": true, "dtype": "float32", "filters": 96, "kernel_size": [7, 7], "strides": [2, 2], "padding": "same", "data_format": "channels_last", "dilation_rate": [1, 1], "activation": "linear", "use_bias": false, "kernel_initializer": {"class_name": "VarianceScaling", "config": {"scale": 2.0, "mode": "fan_in", "distribution": "normal", "seed": null}}, "bias_initializer": {"class_name": "Zeros", "config": {}}, "kernel_regularizer": {"class_name": "L1L2", "config": {"l1": 0.0, "l2": 9.999999747378752e-05}}, "bias_regularizer": null, "activity_regularizer": null, "kernel_constraint": null, "bias_constraint": null}, "inbound_nodes": [[["input_1", 0, 0, {}]]]}, {"name": "initial_bn", "class_name": "BatchNormalization", "config": {"name": "initial_bn", "trainable": true, "dtype": "float32", "axis": -1, "momentum": 0.99, "epsilon": 1.1e-05, "center": true, "scale": true, "beta_initializer": {"class_name": "Zeros", "config": {}}, "gamma_initializer": {"class_name": "Ones", "config": {}}, "moving_mean_initializer": {"class_name": "Zeros", "config": {}}, "moving_variance_initializer": {"class_name": "Ones", "config": {}}, "beta_regularizer": null, "gamma_regularizer": null, "beta_constraint": null, "gamma_constraint": null}, "inbound_nodes": [[["initial_conv2D", 0, 0, {}]]]}, {"name": "activation_1", "class_name": "Activation", "config": {"name": "activation_1", "trainable": true, "dtype": "float32", "activation": "relu"}, "inbound_nodes": [[["initial_bn", 0, 0, {}]]]}, {"name": "max_pooling2d_1", "class_name": "MaxPooling2D", "config": {"name": "max_pooling2d_1", "trainable": true, "dtype": "float32", "pool_size": [3, 3], "padding": "same", "strides": [2, 2], "data_format": "channels_last"}, "inbound_nodes": [[["activation_1", 0, 0, {}]]]}, {"name": "dense_0_0_bn", "class_name": "BatchNormalization", "config": {"name": "dense_0_0_bn", "trainable": true, "dtype": "float32", "axis": -1, "momentum": 0.99, "epsilon": 1.1e-05, "center": true, "scale": true, "beta_initializer": {"class_name": "Zeros", "config": {}}, "gamma_initializer": {"class_name": "Ones", "config": {}}, "moving_mean_initializer": {"class_name": "Zeros", "config": {}}, "moving_variance_initializer": {"class_name": "Ones", "config": {}}, "beta_regularizer": null, "gamma_regularizer": null, "beta_constraint": null, "gamma_constraint": null}, "inbound_nodes": [[["max_pooling2d_1", 0, 0, {}]]]}, {"name": "activation_2", "class_name": "Activation", "config": {"name": "activation_2", "trainable": true, "dtype": "float32", "activation": "relu"}, "inbound_nodes": [[["dense_0_0_bn", 0, 0, {}]]]}, {"name": "dense_0_0_bottleneck_conv2D", "class_name": "Conv2D", "config": {"name": "dense_0_0_bottleneck_conv2D", "trainable": true, "dtype": "float32", "filters": 192, "kernel_size": [1, 1], "strides": [1, 1], "padding": "same", "data_format": "channels_last", "dilation_rate": [1, 1], "activation": "linear", "use_bias": false, "kernel_initializer": {"class_name": "VarianceScaling", "config": {"scale": 2.0, "mode": "fan_in", "distribution": "normal", "seed": null}}, "bias_initializer": {"class_name": "Zeros", "config": {}}, "kernel_regularizer": {"class_name": "L1L2", "config": {"l1": 0.0, "l2": 9.999999747378752e-05}}, "bias_regularizer": null, "activity_regularizer": null, "kernel_constraint": null, "bias_constraint": null}, "inbound_nodes": [[["activation_2", 0, 0, {}]]]}, {"name": "dense_0_0_bottleneck_bn", "class_name": "BatchNormalization", "config": {"name": "dense_0_0_bottleneck_bn", "trainable": true, "dtype": "float32", "axis": -1, "momentum": 0.99, "epsilon": 1.1e-05, "center": true, "scale": true, "beta_initializer": {"class_name": "Zeros", "config": {}}, "gamma_initializer": {"class_name": "Ones", "config": {}}, "moving_mean_initializer": {"class_name": "Zeros", "config": {}}, "moving_variance_initializer": {"class_name": "Ones", "config": {}}, "beta_regularizer": null, "gamma_regularizer": null, "beta_constraint": null, "gamma_constraint": null}, "inbound_nodes": [[["dense_0_0_bottleneck_conv2D", 0, 0, {}]]]}, {"name": "activation_3", "class_name": "Activation", "config": {"name": "activation_3", "trainable": true, "dtype": "float32", "activation": "relu"}, "inbound_nodes": [[["dense_0_0_bottleneck_bn", 0, 0, {}]]]}, {"name": "dense_0_0_conv2D", "class_name": "Conv2D", "config": {"name": "dense_0_0_conv2D", "trainable": true, "dtype": "float32", "filters": 48, "kernel_size": [3, 3], "strides": [1, 1], "padding": "same", "data_format": "channels_last", "dilation_rate": [1, 1], "activation": "linear", "use_bias": false, "kernel_initializer": {"class_name": "VarianceScaling", "config": {"scale": 2.0, "mode": "fan_in", "distribution": "normal", "seed": null}}, "bias_initializer": {"class_name": "Zeros", "config": {}}, "kernel_regularizer": null, "bias_regularizer": null, "activity_regularizer": null, "kernel_constraint": null, "bias_constraint": null}, "inbound_nodes": [[["activation_3", 0, 0, {}]]]}, {"name": "concatenate_1", "class_name": "Concatenate", "config": {"name": "concatenate_1", "trainable": true, "dtype": "float32", "axis": -1}, "inbound_nodes": [[["max_pooling2d_1", 0, 0, {}], ["dense_0_0_conv2D", 0, 0, {}]]]}, {"name": "dense_0_1_bn", "class_name": "BatchNormalization", "config": {"name": "dense_0_1_bn", "trainable": true, "dtype": "float32", "axis": -1, "momentum": 0.99, "epsilon": 1.1e-05, "center": true, "scale": true, "beta_initializer": {"class_name": "Zeros", "config": {}}, "gamma_initializer": {"class_name": "Ones", "config": {}}, "moving_mean_initializer": {"class_name": "Zeros", "config": {}}, "moving_variance_initializer": {"class_name": "Ones", "config": {}}, "beta_regularizer": null, "gamma_regularizer": null, "beta_constraint": null, "gamma_constraint": null}, "inbound_nodes": [[["concatenate_1", 0, 0, {}]]]}, {"name": "activation_4", "class_name": "Activation", "config": {"name": "activation_4", "trainable": true, "dtype": "float32", "activation": "relu"}, "inbound_nodes": [[["dense_0_1_bn", 0, 0, {}]]]}, {"name": "dense_0_1_bottleneck_conv2D", "class_name": "Conv2D", "config": {"name": "dense_0_1_bottleneck_conv2D", "trainable": true, "dtype": "float32", "filters": 192, "kernel_size": [1, 1], "strides": [1, 1], "padding": "same", "data_format": "channels_last", "dilation_rate": [1, 1], "activation": "linear", "use_bias": false, "kernel_initializer": {"class_name": "VarianceScaling", "config": {"scale": 2.0, "mode": "fan_in", "distribution": "normal", "seed": null}}, "bias_initializer": {"class_name": "Zeros", "config": {}}, "kernel_regularizer": {"class_name": "L1L2", "config": {"l1": 0.0, "l2": 9.999999747378752e-05}}, "bias_regularizer": null, "activity_regularizer": null, "kernel_constraint": null, "bias_constraint": null}, "inbound_nodes": [[["activation_4", 0, 0, {}]]]}, {"name": "dense_0_1_bottleneck_bn", "class_name": "BatchNormalization", "config": {"name": "dense_0_1_bottleneck_bn", "trainable": true, "dtype": "float32", "axis": -1, "momentum": 0.99, "epsilon": 1.1e-05, "center": true, "scale": true, "beta_initializer": {"class_name": "Zeros", "config": {}}, "gamma_initializer": {"class_name": "Ones", "config": {}}, "moving_mean_initializer": {"class_name": "Zeros", "config": {}}, "moving_variance_initializer": {"class_name": "Ones", "config": {}}, "beta_regularizer": null, "gamma_regularizer": null, "beta_constraint": null, "gamma_constraint": null}, "inbound_nodes": [[["dense_0_1_bottleneck_conv2D", 0, 0, {}]]]}, {"name": "activation_5", "class_name": "Activation", "config": {"name": "activation_5", "trainable": true, "dtype": "float32", "activation": "relu"}, "inbound_nodes": [[["dense_0_1_bottleneck_bn", 0, 0, {}]]]}, {"name": "dense_0_1_conv2D", "class_name": "Conv2D", "config": {"name": "dense_0_1_conv2D", "trainable": true, "dtype": "float32", "filters": 48, "kernel_size": [3, 3], "strides": [1, 1], "padding": "same", "data_format": "channels_last", "dilation_rate": [1, 1], "activation": "linear", "use_bias": false, "kernel_initializer": {"class_name": "VarianceScaling", "config": {"scale": 2.0, "mode": "fan_in", "distribution": "normal", "seed": null}}, "bias_initializer": {"class_name": "Zeros", "config": {}}, "kernel_regularizer": null, "bias_regularizer": null, "activity_regularizer": null, "kernel_constraint": null, "bias_constraint": null}, "inbound_nodes": [[["activation_5", 0, 0, {}]]]}, {"name": "concatenate_2", "class_name": "Concatenate", "config": {"name": "concatenate_2", "trainable": true, "dtype": "float32", "axis": -1}, "inbound_nodes": [[["concatenate_1", 0, 0, {}], ["dense_0_1_conv2D", 0, 0, {}]]]}, {"name": "dense_0_2_bn", "class_name": "BatchNormalization", "config": {"name": "dense_0_2_bn", "trainable": true, "dtype": "float32", "axis": -1, "momentum": 0.99, "epsilon": 1.1e-05, "center": true, "scale": true, "beta_initializer": {"class_name": "Zeros", "config": {}}, "gamma_initializer": {"class_name": "Ones", "config": {}}, "moving_mean_initializer": {"class_name": "Zeros", "config": {}}, "moving_variance_initializer": {"class_name": "Ones", "config": {}}, "beta_regularizer": null, "gamma_regularizer": null, "beta_constraint": null, "gamma_constraint": null}, "inbound_nodes": [[["concatenate_2", 0, 0, {}]]]}, {"name": "activation_6", "class_name": "Activation", "config": {"name": "activation_6", "trainable": true, "dtype": "float32", "activation": "relu"}, "inbound_nodes": [[["dense_0_2_bn", 0, 0, {}]]]}, {"name": "dense_0_2_bottleneck_conv2D", "class_name": "Conv2D", "config": {"name": "dense_0_2_bottleneck_conv2D", "trainable": true, "dtype": "float32", "filters": 192, "kernel_size": [1, 1], "strides": [1, 1], "padding": "same", "data_format": "channels_last", "dilation_rate": [1, 1], "activation": "linear", "use_bias": false, "kernel_initializer": {"class_name": "VarianceScaling", "config": {"scale": 2.0, "mode": "fan_in", "distribution": "normal", "seed": null}}, "bias_initializer": {"class_name": "Zeros", "config": {}}, "kernel_regularizer": {"class_name": "L1L2", "config": {"l1": 0.0, "l2": 9.999999747378752e-05}}, "bias_regularizer": null, "activity_regularizer": null, "kernel_constraint": null, "bias_constraint": null}, "inbound_nodes": [[["activation_6", 0, 0, {}]]]}, {"name": "dense_0_2_bottleneck_bn", "class_name": "BatchNormalization", "config": {"name": "dense_0_2_bottleneck_bn", "trainable": true, "dtype": "float32", "axis": -1, "momentum": 0.99, "epsilon": 1.1e-05, "center": true, "scale": true, "beta_initializer": {"class_name": "Zeros", "config": {}}, "gamma_initializer": {"class_name": "Ones", "config": {}}, "moving_mean_initializer": {"class_name": "Zeros", "config": {}}, "moving_variance_initializer": {"class_name": "Ones", "config": {}}, "beta_regularizer": null, "gamma_regularizer": null, "beta_constraint": null, "gamma_constraint": null}, "inbound_nodes": [[["dense_0_2_bottleneck_conv2D", 0, 0, {}]]]}, {"name": "activation_7", "class_name": "Activation", "config": {"name": "activation_7", "trainable": true, "dtype": "float32", "activation": "relu"}, "inbound_nodes": [[["dense_0_2_bottleneck_bn", 0, 0, {}]]]}, {"name": "dense_0_2_conv2D", "class_name": "Conv2D", "config": {"name": "dense_0_2_conv2D", "trainable": true, "dtype": "float32", "filters": 48, "kernel_size": [3, 3], "strides": [1, 1], "padding": "same", "data_format": "channels_last", "dilation_rate": [1, 1], "activation": "linear", "use_bias": false, "kernel_initializer": {"class_name": "VarianceScaling", "config": {"scale": 2.0, "mode": "fan_in", "distribution": "normal", "seed": null}}, "bias_initializer": {"class_name": "Zeros", "config": {}}, "kernel_regularizer": null, "bias_regularizer": null, "activity_regularizer": null, "kernel_constraint": null, "bias_constraint": null}, "inbound_nodes": [[["activation_7", 0, 0, {}]]]}, {"name": "concatenate_3", "class_name": "Concatenate", "config": {"name": "concatenate_3", "trainable": true, "dtype": "float32", "axis": -1}, "inbound_nodes": [[["concatenate_2", 0, 0, {}], ["dense_0_2_conv2D", 0, 0, {}]]]}, {"name": "dense_0_3_bn", "class_name": "BatchNormalization", "config": {"name": "dense_0_3_bn", "trainable": true, "dtype": "float32", "axis": -1, "momentum": 0.99, "epsilon": 1.1e-05, "center": true, "scale": true, "beta_initializer": {"class_name": "Zeros", "config": {}}, "gamma_initializer": {"class_name": "Ones", "config": {}}, "moving_mean_initializer": {"class_name": "Zeros", "config": {}}, "moving_variance_initializer": {"class_name": "Ones", "config": {}}, "beta_regularizer": null, "gamma_regularizer": null, "beta_constraint": null, "gamma_constraint": null}, "inbound_nodes": [[["concatenate_3", 0, 0, {}]]]}, {"name": "activation_8", "class_name": "Activation", "config": {"name": "activation_8", "trainable": true, "dtype": "float32", "activation": "relu"}, "inbound_nodes": [[["dense_0_3_bn", 0, 0, {}]]]}, {"name": "dense_0_3_bottleneck_conv2D", "class_name": "Conv2D", "config": {"name": "dense_0_3_bottleneck_conv2D", "trainable": true, "dtype": "float32", "filters": 192, "kernel_size": [1, 1], "strides": [1, 1], "padding": "same", "data_format": "channels_last", "dilation_rate": [1, 1], "activation": "linear", "use_bias": false, "kernel_initializer": {"class_name": "VarianceScaling", "config": {"scale": 2.0, "mode": "fan_in", "distribution": "normal", "seed": null}}, "bias_initializer": {"class_name": "Zeros", "config": {}}, "kernel_regularizer": {"class_name": "L1L2", "config": {"l1": 0.0, "l2": 9.999999747378752e-05}}, "bias_regularizer": null, "activity_regularizer": null, "kernel_constraint": null, "bias_constraint": null}, "inbound_nodes": [[["activation_8", 0, 0, {}]]]}, {"name": "dense_0_3_bottleneck_bn", "class_name": "BatchNormalization", "config": {"name": "dense_0_3_bottleneck_bn", "trainable": true, "dtype": "float32", "axis": -1, "momentum": 0.99, "epsilon": 1.1e-05, "center": true, "scale": true, "beta_initializer": {"class_name": "Zeros", "config": {}}, "gamma_initializer": {"class_name": "Ones", "config": {}}, "moving_mean_initializer": {"class_name": "Zeros", "config": {}}, "moving_variance_initializer": {"class_name": "Ones", "config": {}}, "beta_regularizer": null, "gamma_regularizer": null, "beta_constraint": null, "gamma_constraint": null}, "inbound_nodes": [[["dense_0_3_bottleneck_conv2D", 0, 0, {}]]]}, {"name": "activation_9", "class_name": "Activation", "config": {"name": "activation_9", "trainable": true, "dtype": "float32", "activation": "relu"}, "inbound_nodes": [[["dense_0_3_bottleneck_bn", 0, 0, {}]]]}, {"name": "dense_0_3_conv2D", "class_name": "Conv2D", "config": {"name": "dense_0_3_conv2D", "trainable": true, "dtype": "float32", "filters": 48, "kernel_size": [3, 3], "strides": [1, 1], "padding": "same", "data_format": "channels_last", "dilation_rate": [1, 1], "activation": "linear", "use_bias": false, "kernel_initializer": {"class_name": "VarianceScaling", "config": {"scale": 2.0, "mode": "fan_in", "distribution": "normal", "seed": null}}, "bias_initializer": {"class_name": "Zeros", "config": {}}, "kernel_regularizer": null, "bias_regularizer": null, "activity_regularizer": null, "kernel_constraint": null, "bias_constraint": null}, "inbound_nodes": [[["activation_9", 0, 0, {}]]]}, {"name": "concatenate_4", "class_name": "Concatenate", "config": {"name": "concatenate_4", "trainable": true, "dtype": "float32", "axis": -1}, "inbound_nodes": [[["concatenate_3", 0, 0, {}], ["dense_0_3_conv2D", 0, 0, {}]]]}, {"name": "dense_0_4_bn", "class_name": "BatchNormalization", "config": {"name": "dense_0_4_bn", "trainable": true, "dtype": "float32", "axis": -1, "momentum": 0.99, "epsilon": 1.1e-05, "center": true, "scale": true, "beta_initializer": {"class_name": "Zeros", "config": {}}, "gamma_initializer": {"class_name": "Ones", "config": {}}, "moving_mean_initializer": {"class_name": "Zeros", "config": {}}, "moving_variance_initializer": {"class_name": "Ones", "config": {}}, "beta_regularizer": null, "gamma_regularizer": null, "beta_constraint": null, "gamma_constraint": null}, "inbound_nodes": [[["concatenate_4", 0, 0, {}]]]}, {"name": "activation_10", "class_name": "Activation", "config": {"name": "activation_10", "trainable": true, "dtype": "float32", "activation": "relu"}, "inbound_nodes": [[["dense_0_4_bn", 0, 0, {}]]]}, {"name": "dense_0_4_bottleneck_conv2D", "class_name": "Conv2D", "config": {"name": "dense_0_4_bottleneck_conv2D", "trainable": true, "dtype": "float32", "filters": 192, "kernel_size": [1, 1], "strides": [1, 1], "padding": "same", "data_format": "channels_last", "dilation_rate": [1, 1], "activation": "linear", "use_bias": false, "kernel_initializer": {"class_name": "VarianceScaling", "config": {"scale": 2.0, "mode": "fan_in", "distribution": "normal", "seed": null}}, "bias_initializer": {"class_name": "Zeros", "config": {}}, "kernel_regularizer": {"class_name": "L1L2", "config": {"l1": 0.0, "l2": 9.999999747378752e-05}}, "bias_regularizer": null, "activity_regularizer": null, "kernel_constraint": null, "bias_constraint": null}, "inbound_nodes": [[["activation_10", 0, 0, {}]]]}, {"name": "dense_0_4_bottleneck_bn", "class_name": "BatchNormalization", "config": {"name": "dense_0_4_bottleneck_bn", "trainable": true, "dtype": "float32", "axis": -1, "momentum": 0.99, "epsilon": 1.1e-05, "center": true, "scale": true, "beta_initializer": {"class_name": "Zeros", "config": {}}, "gamma_initializer": {"class_name": "Ones", "config": {}}, "moving_mean_initializer": {"class_name": "Zeros", "config": {}}, "moving_variance_initializer": {"class_name": "Ones", "config": {}}, "beta_regularizer": null, "gamma_regularizer": null, "beta_constraint": null, "gamma_constraint": null}, "inbound_nodes": [[["dense_0_4_bottleneck_conv2D", 0, 0, {}]]]}, {"name": "activation_11", "class_name": "Activation", "config": {"name": "activation_11", "trainable": true, "dtype": "float32", "activation": "relu"}, "inbound_nodes": [[["dense_0_4_bottleneck_bn", 0, 0, {}]]]}, {"name": "dense_0_4_conv2D", "class_name": "Conv2D", "config": {"name": "dense_0_4_conv2D", "trainable": true, "dtype": "float32", "filters": 48, "kernel_size": [3, 3], "strides": [1, 1], "padding": "same", "data_format": "channels_last", "dilation_rate": [1, 1], "activation": "linear", "use_bias": false, "kernel_initializer": {"class_name": "VarianceScaling", "config": {"scale": 2.0, "mode": "fan_in", "distribution": "normal", "seed": null}}, "bias_initializer": {"class_name": "Zeros", "config": {}}, "kernel_regularizer": null, "bias_regularizer": null, "activity_regularizer": null, "kernel_constraint": null, "bias_constraint": null}, "inbound_nodes": [[["activation_11", 0, 0, {}]]]}, {"name": "concatenate_5", "class_name": "Concatenate", "config": {"name": "concatenate_5", "trainable": true, "dtype": "float32", "axis": -1}, "inbound_nodes": [[["concatenate_4", 0, 0, {}], ["dense_0_4_conv2D", 0, 0, {}]]]}, {"name": "dense_0_5_bn", "class_name": "BatchNormalization", "config": {"name": "dense_0_5_bn", "trainable": true, "dtype": "float32", "axis": -1, "momentum": 0.99, "epsilon": 1.1e-05, "center": true, "scale": true, "beta_initializer": {"class_name": "Zeros", "config": {}}, "gamma_initializer": {"class_name": "Ones", "config": {}}, "moving_mean_initializer": {"class_name": "Zeros", "config": {}}, "moving_variance_initializer": {"class_name": "Ones", "config": {}}, "beta_regularizer": null, "gamma_regularizer": null, "beta_constraint": null, "gamma_constraint": null}, "inbound_nodes": [[["concatenate_5", 0, 0, {}]]]}, {"name": "activation_12", "class_name": "Activation", "config": {"name": "activation_12", "trainable": true, "dtype": "float32", "activation": "relu"}, "inbound_nodes": [[["dense_0_5_bn", 0, 0, {}]]]}, {"name": "dense_0_5_bottleneck_conv2D", "class_name": "Conv2D", "config": {"name": "dense_0_5_bottleneck_conv2D", "trainable": true, "dtype": "float32", "filters": 192, "kernel_size": [1, 1], "strides": [1, 1], "padding": "same", "data_format": "channels_last", "dilation_rate": [1, 1], "activation": "linear", "use_bias": false, "kernel_initializer": {"class_name": "VarianceScaling", "config": {"scale": 2.0, "mode": "fan_in", "distribution": "normal", "seed": null}}, "bias_initializer": {"class_name": "Zeros", "config": {}}, "kernel_regularizer": {"class_name": "L1L2", "config": {"l1": 0.0, "l2": 9.999999747378752e-05}}, "bias_regularizer": null, "activity_regularizer": null, "kernel_constraint": null, "bias_constraint": null}, "inbound_nodes": [[["activation_12", 0, 0, {}]]]}, {"name": "dense_0_5_bottleneck_bn", "class_name": "BatchNormalization", "config": {"name": "dense_0_5_bottleneck_bn", "trainable": true, "dtype": "float32", "axis": -1, "momentum": 0.99, "epsilon": 1.1e-05, "center": true, "scale": true, "beta_initializer": {"class_name": "Zeros", "config": {}}, "gamma_initializer": {"class_name": "Ones", "config": {}}, "moving_mean_initializer": {"class_name": "Zeros", "config": {}}, "moving_variance_initializer": {"class_name": "Ones", "config": {}}, "beta_regularizer": null, "gamma_regularizer": null, "beta_constraint": null, "gamma_constraint": null}, "inbound_nodes": [[["dense_0_5_bottleneck_conv2D", 0, 0, {}]]]}, {"name": "activation_13", "class_name": "Activation", "config": {"name": "activation_13", "trainable": true, "dtype": "float32", "activation": "relu"}, "inbound_nodes": [[["dense_0_5_bottleneck_bn", 0, 0, {}]]]}, {"name": "dense_0_5_conv2D", "class_name": "Conv2D", "config": {"name": "dense_0_5_conv2D", "trainable": true, "dtype": "float32", "filters": 48, "kernel_size": [3, 3], "strides": [1, 1], "padding": "same", "data_format": "channels_last", "dilation_rate": [1, 1], "activation": "linear", "use_bias": false, "kernel_initializer": {"class_name": "VarianceScaling", "config": {"scale": 2.0, "mode": "fan_in", "distribution": "normal", "seed": null}}, "bias_initializer": {"class_name": "Zeros", "config": {}}, "kernel_regularizer": null, "bias_regularizer": null, "activity_regularizer": null, "kernel_constraint": null, "bias_constraint": null}, "inbound_nodes": [[["activation_13", 0, 0, {}]]]}, {"name": "concatenate_6", "class_name": "Concatenate", "config": {"name": "concatenate_6", "trainable": true, "dtype": "float32", "axis": -1}, "inbound_nodes": [[["concatenate_5", 0, 0, {}], ["dense_0_5_conv2D", 0, 0, {}]]]}, {"name": "tr_0_bn", "class_name": "BatchNormalization", "config": {"name": "tr_0_bn", "trainable": true, "dtype": "float32", "axis": -1, "momentum": 0.99, "epsilon": 1.1e-05, "center": true, "scale": true, "beta_initializer": {"class_name": "Zeros", "config": {}}, "gamma_initializer": {"class_name": "Ones", "config": {}}, "moving_mean_initializer": {"class_name": "Zeros", "config": {}}, "moving_variance_initializer": {"class_name": "Ones", "config": {}}, "beta_regularizer": null, "gamma_regularizer": null, "beta_constraint": null, "gamma_constraint": null}, "inbound_nodes": [[["concatenate_6", 0, 0, {}]]]}, {"name": "activation_14", "class_name": "Activation", "config": {"name": "activation_14", "trainable": true, "dtype": "float32", "activation": "relu"}, "inbound_nodes": [[["tr_0_bn", 0, 0, {}]]]}, {"name": "tr_0_conv2D", "class_name": "Conv2D", "config": {"name": "tr_0_conv2D", "trainable": true, "dtype": "float32", "filters": 192, "kernel_size": [1, 1], "strides": [1, 1], "padding": "same", "data_format": "channels_last", "dilation_rate": [1, 1], "activation": "linear", "use_bias": false, "kernel_initializer": {"class_name": "VarianceScaling", "config": {"scale": 2.0, "mode": "fan_in", "distribution": "normal", "seed": null}}, "bias_initializer": {"class_name": "Zeros", "config": {}}, "kernel_regularizer": {"class_name": "L1L2", "config": {"l1": 0.0, "l2": 9.999999747378752e-05}}, "bias_regularizer": null, "activity_regularizer": null, "kernel_constraint": null, "bias_constraint": null}, "inbound_nodes": [[["activation_14", 0, 0, {}]]]}, {"name": "average_pooling2d_1", "class_name": "AveragePooling2D", "config": {"name": "average_pooling2d_1", "trainable": true, "dtype": "float32", "pool_size": [2, 2], "padding": "valid", "strides": [2, 2], "data_format": "channels_last"}, "inbound_nodes": [[["tr_0_conv2D", 0, 0, {}]]]}, {"name": "dense_1_0_bn", "class_name": "BatchNormalization", "config": {"name": "dense_1_0_bn", "trainable": true, "dtype": "float32", "axis": -1, "momentum": 0.99, "epsilon": 1.1e-05, "center": true, "scale": true, "beta_initializer": {"class_name": "Zeros", "config": {}}, "gamma_initializer": {"class_name": "Ones", "config": {}}, "moving_mean_initializer": {"class_name": "Zeros", "config": {}}, "moving_variance_initializer": {"class_name": "Ones", "config": {}}, "beta_regularizer": null, "gamma_regularizer": null, "beta_constraint": null, "gamma_constraint": null}, "inbound_nodes": [[["average_pooling2d_1", 0, 0, {}]]]}, {"name": "activation_15", "class_name": "Activation", "config": {"name": "activation_15", "trainable": true, "dtype": "float32", "activation": "relu"}, "inbound_nodes": [[["dense_1_0_bn", 0, 0, {}]]]}, {"name": "dense_1_0_bottleneck_conv2D", "class_name": "Conv2D", "config": {"name": "dense_1_0_bottleneck_conv2D", "trainable": true, "dtype": "float32", "filters": 192, "kernel_size": [1, 1], "strides": [1, 1], "padding": "same", "data_format": "channels_last", "dilation_rate": [1, 1], "activation": "linear", "use_bias": false, "kernel_initializer": {"class_name": "VarianceScaling", "config": {"scale": 2.0, "mode": "fan_in", "distribution": "normal", "seed": null}}, "bias_initializer": {"class_name": "Zeros", "config": {}}, "kernel_regularizer": {"class_name": "L1L2", "config": {"l1": 0.0, "l2": 9.999999747378752e-05}}, "bias_regularizer": null, "activity_regularizer": null, "kernel_constraint": null, "bias_constraint": null}, "inbound_nodes": [[["activation_15", 0, 0, {}]]]}, {"name": "dense_1_0_bottleneck_bn", "class_name": "BatchNormalization", "config": {"name": "dense_1_0_bottleneck_bn", "trainable": true, "dtype": "float32", "axis": -1, "momentum": 0.99, "epsilon": 1.1e-05, "center": true, "scale": true, "beta_initializer": {"class_name": "Zeros", "config": {}}, "gamma_initializer": {"class_name": "Ones", "config": {}}, "moving_mean_initializer": {"class_name": "Zeros", "config": {}}, "moving_variance_initializer": {"class_name": "Ones", "config": {}}, "beta_regularizer": null, "gamma_regularizer": null, "beta_constraint": null, "gamma_constraint": null}, "inbound_nodes": [[["dense_1_0_bottleneck_conv2D", 0, 0, {}]]]}, {"name": "activation_16", "class_name": "Activation", "config": {"name": "activation_16", "trainable": true, "dtype": "float32", "activation": "relu"}, "inbound_nodes": [[["dense_1_0_bottleneck_bn", 0, 0, {}]]]}, {"name": "dense_1_0_conv2D", "class_name": "Conv2D", "config": {"name": "dense_1_0_conv2D", "trainable": true, "dtype": "float32", "filters": 48, "kernel_size": [3, 3], "strides": [1, 1], "padding": "same", "data_format": "channels_last", "dilation_rate": [1, 1], "activation": "linear", "use_bias": false, "kernel_initializer": {"class_name": "VarianceScaling", "config": {"scale": 2.0, "mode": "fan_in", "distribution": "normal", "seed": null}}, "bias_initializer": {"class_name": "Zeros", "config": {}}, "kernel_regularizer": null, "bias_regularizer": null, "activity_regularizer": null, "kernel_constraint": null, "bias_constraint": null}, "inbound_nodes": [[["activation_16", 0, 0, {}]]]}, {"name": "concatenate_7", "class_name": "Concatenate", "config": {"name": "concatenate_7", "trainable": true, "dtype": "float32", "axis": -1}, "inbound_nodes": [[["average_pooling2d_1", 0, 0, {}], ["dense_1_0_conv2D", 0, 0, {}]]]}, {"name": "dense_1_1_bn", "class_name": "BatchNormalization", "config": {"name": "dense_1_1_bn", "trainable": true, "dtype": "float32", "axis": -1, "momentum": 0.99, "epsilon": 1.1e-05, "center": true, "scale": true, "beta_initializer": {"class_name": "Zeros", "config": {}}, "gamma_initializer": {"class_name": "Ones", "config": {}}, "moving_mean_initializer": {"class_name": "Zeros", "config": {}}, "moving_variance_initializer": {"class_name": "Ones", "config": {}}, "beta_regularizer": null, "gamma_regularizer": null, "beta_constraint": null, "gamma_constraint": null}, "inbound_nodes": [[["concatenate_7", 0, 0, {}]]]}, {"name": "activation_17", "class_name": "Activation", "config": {"name": "activation_17", "trainable": true, "dtype": "float32", "activation": "relu"}, "inbound_nodes": [[["dense_1_1_bn", 0, 0, {}]]]}, {"name": "dense_1_1_bottleneck_conv2D", "class_name": "Conv2D", "config": {"name": "dense_1_1_bottleneck_conv2D", "trainable": true, "dtype": "float32", "filters": 192, "kernel_size": [1, 1], "strides": [1, 1], "padding": "same", "data_format": "channels_last", "dilation_rate": [1, 1], "activation": "linear", "use_bias": false, "kernel_initializer": {"class_name": "VarianceScaling", "config": {"scale": 2.0, "mode": "fan_in", "distribution": "normal", "seed": null}}, "bias_initializer": {"class_name": "Zeros", "config": {}}, "kernel_regularizer": {"class_name": "L1L2", "config": {"l1": 0.0, "l2": 9.999999747378752e-05}}, "bias_regularizer": null, "activity_regularizer": null, "kernel_constraint": null, "bias_constraint": null}, "inbound_nodes": [[["activation_17", 0, 0, {}]]]}, {"name": "dense_1_1_bottleneck_bn", "class_name": "BatchNormalization", "config": {"name": "dense_1_1_bottleneck_bn", "trainable": true, "dtype": "float32", "axis": -1, "momentum": 0.99, "epsilon": 1.1e-05, "center": true, "scale": true, "beta_initializer": {"class_name": "Zeros", "config": {}}, "gamma_initializer": {"class_name": "Ones", "config": {}}, "moving_mean_initializer": {"class_name": "Zeros", "config": {}}, "moving_variance_initializer": {"class_name": "Ones", "config": {}}, "beta_regularizer": null, "gamma_regularizer": null, "beta_constraint": null, "gamma_constraint": null}, "inbound_nodes": [[["dense_1_1_bottleneck_conv2D", 0, 0, {}]]]}, {"name": "activation_18", "class_name": "Activation", "config": {"name": "activation_18", "trainable": true, "dtype": "float32", "activation": "relu"}, "inbound_nodes": [[["dense_1_1_bottleneck_bn", 0, 0, {}]]]}, {"name": "dense_1_1_conv2D", "class_name": "Conv2D", "config": {"name": "dense_1_1_conv2D", "trainable": true, "dtype": "float32", "filters": 48, "kernel_size": [3, 3], "strides": [1, 1], "padding": "same", "data_format": "channels_last", "dilation_rate": [1, 1], "activation": "linear", "use_bias": false, "kernel_initializer": {"class_name": "VarianceScaling", "config": {"scale": 2.0, "mode": "fan_in", "distribution": "normal", "seed": null}}, "bias_initializer": {"class_name": "Zeros", "config": {}}, "kernel_regularizer": null, "bias_regularizer": null, "activity_regularizer": null, "kernel_constraint": null, "bias_constraint": null}, "inbound_nodes": [[["activation_18", 0, 0, {}]]]}, {"name": "concatenate_8", "class_name": "Concatenate", "config": {"name": "concatenate_8", "trainable": true, "dtype": "float32", "axis": -1}, "inbound_nodes": [[["concatenate_7", 0, 0, {}], ["dense_1_1_conv2D", 0, 0, {}]]]}, {"name": "dense_1_2_bn", "class_name": "BatchNormalization", "config": {"name": "dense_1_2_bn", "trainable": true, "dtype": "float32", "axis": -1, "momentum": 0.99, "epsilon": 1.1e-05, "center": true, "scale": true, "beta_initializer": {"class_name": "Zeros", "config": {}}, "gamma_initializer": {"class_name": "Ones", "config": {}}, "moving_mean_initializer": {"class_name": "Zeros", "config": {}}, "moving_variance_initializer": {"class_name": "Ones", "config": {}}, "beta_regularizer": null, "gamma_regularizer": null, "beta_constraint": null, "gamma_constraint": null}, "inbound_nodes": [[["concatenate_8", 0, 0, {}]]]}, {"name": "activation_19", "class_name": "Activation", "config": {"name": "activation_19", "trainable": true, "dtype": "float32", "activation": "relu"}, "inbound_nodes": [[["dense_1_2_bn", 0, 0, {}]]]}, {"name": "dense_1_2_bottleneck_conv2D", "class_name": "Conv2D", "config": {"name": "dense_1_2_bottleneck_conv2D", "trainable": true, "dtype": "float32", "filters": 192, "kernel_size": [1, 1], "strides": [1, 1], "padding": "same", "data_format": "channels_last", "dilation_rate": [1, 1], "activation": "linear", "use_bias": false, "kernel_initializer": {"class_name": "VarianceScaling", "config": {"scale": 2.0, "mode": "fan_in", "distribution": "normal", "seed": null}}, "bias_initializer": {"class_name": "Zeros", "config": {}}, "kernel_regularizer": {"class_name": "L1L2", "config": {"l1": 0.0, "l2": 9.999999747378752e-05}}, "bias_regularizer": null, "activity_regularizer": null, "kernel_constraint": null, "bias_constraint": null}, "inbound_nodes": [[["activation_19", 0, 0, {}]]]}, {"name": "dense_1_2_bottleneck_bn", "class_name": "BatchNormalization", "config": {"name": "dense_1_2_bottleneck_bn", "trainable": true, "dtype": "float32", "axis": -1, "momentum": 0.99, "epsilon": 1.1e-05, "center": true, "scale": true, "beta_initializer": {"class_name": "Zeros", "config": {}}, "gamma_initializer": {"class_name": "Ones", "config": {}}, "moving_mean_initializer": {"class_name": "Zeros", "config": {}}, "moving_variance_initializer": {"class_name": "Ones", "config": {}}, "beta_regularizer": null, "gamma_regularizer": null, "beta_constraint": null, "gamma_constraint": null}, "inbound_nodes": [[["dense_1_2_bottleneck_conv2D", 0, 0, {}]]]}, {"name": "activation_20", "class_name": "Activation", "config": {"name": "activation_20", "trainable": true, "dtype": "float32", "activation": "relu"}, "inbound_nodes": [[["dense_1_2_bottleneck_bn", 0, 0, {}]]]}, {"name": "dense_1_2_conv2D", "class_name": "Conv2D", "config": {"name": "dense_1_2_conv2D", "trainable": true, "dtype": "float32", "filters": 48, "kernel_size": [3, 3], "strides": [1, 1], "padding": "same", "data_format": "channels_last", "dilation_rate": [1, 1], "activation": "linear", "use_bias": false, "kernel_initializer": {"class_name": "VarianceScaling", "config": {"scale": 2.0, "mode": "fan_in", "distribution": "normal", "seed": null}}, "bias_initializer": {"class_name": "Zeros", "config": {}}, "kernel_regularizer": null, "bias_regularizer": null, "activity_regularizer": null, "kernel_constraint": null, "bias_constraint": null}, "inbound_nodes": [[["activation_20", 0, 0, {}]]]}, {"name": "concatenate_9", "class_name": "Concatenate", "config": {"name": "concatenate_9", "trainable": true, "dtype": "float32", "axis": -1}, "inbound_nodes": [[["concatenate_8", 0, 0, {}], ["dense_1_2_conv2D", 0, 0, {}]]]}, {"name": "dense_1_3_bn", "class_name": "BatchNormalization", "config": {"name": "dense_1_3_bn", "trainable": true, "dtype": "float32", "axis": -1, "momentum": 0.99, "epsilon": 1.1e-05, "center": true, "scale": true, "beta_initializer": {"class_name": "Zeros", "config": {}}, "gamma_initializer": {"class_name": "Ones", "config": {}}, "moving_mean_initializer": {"class_name": "Zeros", "config": {}}, "moving_variance_initializer": {"class_name": "Ones", "config": {}}, "beta_regularizer": null, "gamma_regularizer": null, "beta_constraint": null, "gamma_constraint": null}, "inbound_nodes": [[["concatenate_9", 0, 0, {}]]]}, {"name": "activation_21", "class_name": "Activation", "config": {"name": "activation_21", "trainable": true, "dtype": "float32", "activation": "relu"}, "inbound_nodes": [[["dense_1_3_bn", 0, 0, {}]]]}, {"name": "dense_1_3_bottleneck_conv2D", "class_name": "Conv2D", "config": {"name": "dense_1_3_bottleneck_conv2D", "trainable": true, "dtype": "float32", "filters": 192, "kernel_size": [1, 1], "strides": [1, 1], "padding": "same", "data_format": "channels_last", "dilation_rate": [1, 1], "activation": "linear", "use_bias": false, "kernel_initializer": {"class_name": "VarianceScaling", "config": {"scale": 2.0, "mode": "fan_in", "distribution": "normal", "seed": null}}, "bias_initializer": {"class_name": "Zeros", "config": {}}, "kernel_regularizer": {"class_name": "L1L2", "config": {"l1": 0.0, "l2": 9.999999747378752e-05}}, "bias_regularizer": null, "activity_regularizer": null, "kernel_constraint": null, "bias_constraint": null}, "inbound_nodes": [[["activation_21", 0, 0, {}]]]}, {"name": "dense_1_3_bottleneck_bn", "class_name": "BatchNormalization", "config": {"name": "dense_1_3_bottleneck_bn", "trainable": true, "dtype": "float32", "axis": -1, "momentum": 0.99, "epsilon": 1.1e-05, "center": true, "scale": true, "beta_initializer": {"class_name": "Zeros", "config": {}}, "gamma_initializer": {"class_name": "Ones", "config": {}}, "moving_mean_initializer": {"class_name": "Zeros", "config": {}}, "moving_variance_initializer": {"class_name": "Ones", "config": {}}, "beta_regularizer": null, "gamma_regularizer": null, "beta_constraint": null, "gamma_constraint": null}, "inbound_nodes": [[["dense_1_3_bottleneck_conv2D", 0, 0, {}]]]}, {"name": "activation_22", "class_name": "Activation", "config": {"name": "activation_22", "trainable": true, "dtype": "float32", "activation": "relu"}, "inbound_nodes": [[["dense_1_3_bottleneck_bn", 0, 0, {}]]]}, {"name": "dense_1_3_conv2D", "class_name": "Conv2D", "config": {"name": "dense_1_3_conv2D", "trainable": true, "dtype": "float32", "filters": 48, "kernel_size": [3, 3], "strides": [1, 1], "padding": "same", "data_format": "channels_last", "dilation_rate": [1, 1], "activation": "linear", "use_bias": false, "kernel_initializer": {"class_name": "VarianceScaling", "config": {"scale": 2.0, "mode": "fan_in", "distribution": "normal", "seed": null}}, "bias_initializer": {"class_name": "Zeros", "config": {}}, "kernel_regularizer": null, "bias_regularizer": null, "activity_regularizer": null, "kernel_constraint": null, "bias_constraint": null}, "inbound_nodes": [[["activation_22", 0, 0, {}]]]}, {"name": "concatenate_10", "class_name": "Concatenate", "config": {"name": "concatenate_10", "trainable": true, "dtype": "float32", "axis": -1}, "inbound_nodes": [[["concatenate_9", 0, 0, {}], ["dense_1_3_conv2D", 0, 0, {}]]]}, {"name": "dense_1_4_bn", "class_name": "BatchNormalization", "config": {"name": "dense_1_4_bn", "trainable": true, "dtype": "float32", "axis": -1, "momentum": 0.99, "epsilon": 1.1e-05, "center": true, "scale": true, "beta_initializer": {"class_name": "Zeros", "config": {}}, "gamma_initializer": {"class_name": "Ones", "config": {}}, "moving_mean_initializer": {"class_name": "Zeros", "config": {}}, "moving_variance_initializer": {"class_name": "Ones", "config": {}}, "beta_regularizer": null, "gamma_regularizer": null, "beta_constraint": null, "gamma_constraint": null}, "inbound_nodes": [[["concatenate_10", 0, 0, {}]]]}, {"name": "activation_23", "class_name": "Activation", "config": {"name": "activation_23", "trainable": true, "dtype": "float32", "activation": "relu"}, "inbound_nodes": [[["dense_1_4_bn", 0, 0, {}]]]}, {"name": "dense_1_4_bottleneck_conv2D", "class_name": "Conv2D", "config": {"name": "dense_1_4_bottleneck_conv2D", "trainable": true, "dtype": "float32", "filters": 192, "kernel_size": [1, 1], "strides": [1, 1], "padding": "same", "data_format": "channels_last", "dilation_rate": [1, 1], "activation": "linear", "use_bias": false, "kernel_initializer": {"class_name": "VarianceScaling", "config": {"scale": 2.0, "mode": "fan_in", "distribution": "normal", "seed": null}}, "bias_initializer": {"class_name": "Zeros", "config": {}}, "kernel_regularizer": {"class_name": "L1L2", "config": {"l1": 0.0, "l2": 9.999999747378752e-05}}, "bias_regularizer": null, "activity_regularizer": null, "kernel_constraint": null, "bias_constraint": null}, "inbound_nodes": [[["activation_23", 0, 0, {}]]]}, {"name": "dense_1_4_bottleneck_bn", "class_name": "BatchNormalization", "config": {"name": "dense_1_4_bottleneck_bn", "trainable": true, "dtype": "float32", "axis": -1, "momentum": 0.99, "epsilon": 1.1e-05, "center": true, "scale": true, "beta_initializer": {"class_name": "Zeros", "config": {}}, "gamma_initializer": {"class_name": "Ones", "config": {}}, "moving_mean_initializer": {"class_name": "Zeros", "config": {}}, "moving_variance_initializer": {"class_name": "Ones", "config": {}}, "beta_regularizer": null, "gamma_regularizer": null, "beta_constraint": null, "gamma_constraint": null}, "inbound_nodes": [[["dense_1_4_bottleneck_conv2D", 0, 0, {}]]]}, {"name": "activation_24", "class_name": "Activation", "config": {"name": "activation_24", "trainable": true, "dtype": "float32", "activation": "relu"}, "inbound_nodes": [[["dense_1_4_bottleneck_bn", 0, 0, {}]]]}, {"name": "dense_1_4_conv2D", "class_name": "Conv2D", "config": {"name": "dense_1_4_conv2D", "trainable": true, "dtype": "float32", "filters": 48, "kernel_size": [3, 3], "strides": [1, 1], "padding": "same", "data_format": "channels_last", "dilation_rate": [1, 1], "activation": "linear", "use_bias": false, "kernel_initializer": {"class_name": "VarianceScaling", "config": {"scale": 2.0, "mode": "fan_in", "distribution": "normal", "seed": null}}, "bias_initializer": {"class_name": "Zeros", "config": {}}, "kernel_regularizer": null, "bias_regularizer": null, "activity_regularizer": null, "kernel_constraint": null, "bias_constraint": null}, "inbound_nodes": [[["activation_24", 0, 0, {}]]]}, {"name": "concatenate_11", "class_name": "Concatenate", "config": {"name": "concatenate_11", "trainable": true, "dtype": "float32", "axis": -1}, "inbound_nodes": [[["concatenate_10", 0, 0, {}], ["dense_1_4_conv2D", 0, 0, {}]]]}, {"name": "dense_1_5_bn", "class_name": "BatchNormalization", "config": {"name": "dense_1_5_bn", "trainable": true, "dtype": "float32", "axis": -1, "momentum": 0.99, "epsilon": 1.1e-05, "center": true, "scale": true, "beta_initializer": {"class_name": "Zeros", "config": {}}, "gamma_initializer": {"class_name": "Ones", "config": {}}, "moving_mean_initializer": {"class_name": "Zeros", "config": {}}, "moving_variance_initializer": {"class_name": "Ones", "config": {}}, "beta_regularizer": null, "gamma_regularizer": null, "beta_constraint": null, "gamma_constraint": null}, "inbound_nodes": [[["concatenate_11", 0, 0, {}]]]}, {"name": "activation_25", "class_name": "Activation", "config": {"name": "activation_25", "trainable": true, "dtype": "float32", "activation": "relu"}, "inbound_nodes": [[["dense_1_5_bn", 0, 0, {}]]]}, {"name": "dense_1_5_bottleneck_conv2D", "class_name": "Conv2D", "config": {"name": "dense_1_5_bottleneck_conv2D", "trainable": true, "dtype": "float32", "filters": 192, "kernel_size": [1, 1], "strides": [1, 1], "padding": "same", "data_format": "channels_last", "dilation_rate": [1, 1], "activation": "linear", "use_bias": false, "kernel_initializer": {"class_name": "VarianceScaling", "config": {"scale": 2.0, "mode": "fan_in", "distribution": "normal", "seed": null}}, "bias_initializer": {"class_name": "Zeros", "config": {}}, "kernel_regularizer": {"class_name": "L1L2", "config": {"l1": 0.0, "l2": 9.999999747378752e-05}}, "bias_regularizer": null, "activity_regularizer": null, "kernel_constraint": null, "bias_constraint": null}, "inbound_nodes": [[["activation_25", 0, 0, {}]]]}, {"name": "dense_1_5_bottleneck_bn", "class_name": "BatchNormalization", "config": {"name": "dense_1_5_bottleneck_bn", "trainable": true, "dtype": "float32", "axis": -1, "momentum": 0.99, "epsilon": 1.1e-05, "center": true, "scale": true, "beta_initializer": {"class_name": "Zeros", "config": {}}, "gamma_initializer": {"class_name": "Ones", "config": {}}, "moving_mean_initializer": {"class_name": "Zeros", "config": {}}, "moving_variance_initializer": {"class_name": "Ones", "config": {}}, "beta_regularizer": null, "gamma_regularizer": null, "beta_constraint": null, "gamma_constraint": null}, "inbound_nodes": [[["dense_1_5_bottleneck_conv2D", 0, 0, {}]]]}, {"name": "activation_26", "class_name": "Activation", "config": {"name": "activation_26", "trainable": true, "dtype": "float32", "activation": "relu"}, "inbound_nodes": [[["dense_1_5_bottleneck_bn", 0, 0, {}]]]}, {"name": "dense_1_5_conv2D", "class_name": "Conv2D", "config": {"name": "dense_1_5_conv2D", "trainable": true, "dtype": "float32", "filters": 48, "kernel_size": [3, 3], "strides": [1, 1], "padding": "same", "data_format": "channels_last", "dilation_rate": [1, 1], "activation": "linear", "use_bias": false, "kernel_initializer": {"class_name": "VarianceScaling", "config": {"scale": 2.0, "mode": "fan_in", "distribution": "normal", "seed": null}}, "bias_initializer": {"class_name": "Zeros", "config": {}}, "kernel_regularizer": null, "bias_regularizer": null, "activity_regularizer": null, "kernel_constraint": null, "bias_constraint": null}, "inbound_nodes": [[["activation_26", 0, 0, {}]]]}, {"name": "concatenate_12", "class_name": "Concatenate", "config": {"name": "concatenate_12", "trainable": true, "dtype": "float32", "axis": -1}, "inbound_nodes": [[["concatenate_11", 0, 0, {}], ["dense_1_5_conv2D", 0, 0, {}]]]}, {"name": "dense_1_6_bn", "class_name": "BatchNormalization", "config": {"name": "dense_1_6_bn", "trainable": true, "dtype": "float32", "axis": -1, "momentum": 0.99, "epsilon": 1.1e-05, "center": true, "scale": true, "beta_initializer": {"class_name": "Zeros", "config": {}}, "gamma_initializer": {"class_name": "Ones", "config": {}}, "moving_mean_initializer": {"class_name": "Zeros", "config": {}}, "moving_variance_initializer": {"class_name": "Ones", "config": {}}, "beta_regularizer": null, "gamma_regularizer": null, "beta_constraint": null, "gamma_constraint": null}, "inbound_nodes": [[["concatenate_12", 0, 0, {}]]]}, {"name": "activation_27", "class_name": "Activation", "config": {"name": "activation_27", "trainable": true, "dtype": "float32", "activation": "relu"}, "inbound_nodes": [[["dense_1_6_bn", 0, 0, {}]]]}, {"name": "dense_1_6_bottleneck_conv2D", "class_name": "Conv2D", "config": {"name": "dense_1_6_bottleneck_conv2D", "trainable": true, "dtype": "float32", "filters": 192, "kernel_size": [1, 1], "strides": [1, 1], "padding": "same", "data_format": "channels_last", "dilation_rate": [1, 1], "activation": "linear", "use_bias": false, "kernel_initializer": {"class_name": "VarianceScaling", "config": {"scale": 2.0, "mode": "fan_in", "distribution": "normal", "seed": null}}, "bias_initializer": {"class_name": "Zeros", "config": {}}, "kernel_regularizer": {"class_name": "L1L2", "config": {"l1": 0.0, "l2": 9.999999747378752e-05}}, "bias_regularizer": null, "activity_regularizer": null, "kernel_constraint": null, "bias_constraint": null}, "inbound_nodes": [[["activation_27", 0, 0, {}]]]}, {"name": "dense_1_6_bottleneck_bn", "class_name": "BatchNormalization", "config": {"name": "dense_1_6_bottleneck_bn", "trainable": true, "dtype": "float32", "axis": -1, "momentum": 0.99, "epsilon": 1.1e-05, "center": true, "scale": true, "beta_initializer": {"class_name": "Zeros", "config": {}}, "gamma_initializer": {"class_name": "Ones", "config": {}}, "moving_mean_initializer": {"class_name": "Zeros", "config": {}}, "moving_variance_initializer": {"class_name": "Ones", "config": {}}, "beta_regularizer": null, "gamma_regularizer": null, "beta_constraint": null, "gamma_constraint": null}, "inbound_nodes": [[["dense_1_6_bottleneck_conv2D", 0, 0, {}]]]}, {"name": "activation_28", "class_name": "Activation", "config": {"name": "activation_28", "trainable": true, "dtype": "float32", "activation": "relu"}, "inbound_nodes": [[["dense_1_6_bottleneck_bn", 0, 0, {}]]]}, {"name": "dense_1_6_conv2D", "class_name": "Conv2D", "config": {"name": "dense_1_6_conv2D", "trainable": true, "dtype": "float32", "filters": 48, "kernel_size": [3, 3], "strides": [1, 1], "padding": "same", "data_format": "channels_last", "dilation_rate": [1, 1], "activation": "linear", "use_bias": false, "kernel_initializer": {"class_name": "VarianceScaling", "config": {"scale": 2.0, "mode": "fan_in", "distribution": "normal", "seed": null}}, "bias_initializer": {"class_name": "Zeros", "config": {}}, "kernel_regularizer": null, "bias_regularizer": null, "activity_regularizer": null, "kernel_constraint": null, "bias_constraint": null}, "inbound_nodes": [[["activation_28", 0, 0, {}]]]}, {"name": "concatenate_13", "class_name": "Concatenate", "config": {"name": "concatenate_13", "trainable": true, "dtype": "float32", "axis": -1}, "inbound_nodes": [[["concatenate_12", 0, 0, {}], ["dense_1_6_conv2D", 0, 0, {}]]]}, {"name": "dense_1_7_bn", "class_name": "BatchNormalization", "config": {"name": "dense_1_7_bn", "trainable": true, "dtype": "float32", "axis": -1, "momentum": 0.99, "epsilon": 1.1e-05, "center": true, "scale": true, "beta_initializer": {"class_name": "Zeros", "config": {}}, "gamma_initializer": {"class_name": "Ones", "config": {}}, "moving_mean_initializer": {"class_name": "Zeros", "config": {}}, "moving_variance_initializer": {"class_name": "Ones", "config": {}}, "beta_regularizer": null, "gamma_regularizer": null, "beta_constraint": null, "gamma_constraint": null}, "inbound_nodes": [[["concatenate_13", 0, 0, {}]]]}, {"name": "activation_29", "class_name": "Activation", "config": {"name": "activation_29", "trainable": true, "dtype": "float32", "activation": "relu"}, "inbound_nodes": [[["dense_1_7_bn", 0, 0, {}]]]}, {"name": "dense_1_7_bottleneck_conv2D", "class_name": "Conv2D", "config": {"name": "dense_1_7_bottleneck_conv2D", "trainable": true, "dtype": "float32", "filters": 192, "kernel_size": [1, 1], "strides": [1, 1], "padding": "same", "data_format": "channels_last", "dilation_rate": [1, 1], "activation": "linear", "use_bias": false, "kernel_initializer": {"class_name": "VarianceScaling", "config": {"scale": 2.0, "mode": "fan_in", "distribution": "normal", "seed": null}}, "bias_initializer": {"class_name": "Zeros", "config": {}}, "kernel_regularizer": {"class_name": "L1L2", "config": {"l1": 0.0, "l2": 9.999999747378752e-05}}, "bias_regularizer": null, "activity_regularizer": null, "kernel_constraint": null, "bias_constraint": null}, "inbound_nodes": [[["activation_29", 0, 0, {}]]]}, {"name": "dense_1_7_bottleneck_bn", "class_name": "BatchNormalization", "config": {"name": "dense_1_7_bottleneck_bn", "trainable": true, "dtype": "float32", "axis": -1, "momentum": 0.99, "epsilon": 1.1e-05, "center": true, "scale": true, "beta_initializer": {"class_name": "Zeros", "config": {}}, "gamma_initializer": {"class_name": "Ones", "config": {}}, "moving_mean_initializer": {"class_name": "Zeros", "config": {}}, "moving_variance_initializer": {"class_name": "Ones", "config": {}}, "beta_regularizer": null, "gamma_regularizer": null, "beta_constraint": null, "gamma_constraint": null}, "inbound_nodes": [[["dense_1_7_bottleneck_conv2D", 0, 0, {}]]]}, {"name": "activation_30", "class_name": "Activation", "config": {"name": "activation_30", "trainable": true, "dtype": "float32", "activation": "relu"}, "inbound_nodes": [[["dense_1_7_bottleneck_bn", 0, 0, {}]]]}, {"name": "dense_1_7_conv2D", "class_name": "Conv2D", "config": {"name": "dense_1_7_conv2D", "trainable": true, "dtype": "float32", "filters": 48, "kernel_size": [3, 3], "strides": [1, 1], "padding": "same", "data_format": "channels_last", "dilation_rate": [1, 1], "activation": "linear", "use_bias": false, "kernel_initializer": {"class_name": "VarianceScaling", "config": {"scale": 2.0, "mode": "fan_in", "distribution": "normal", "seed": null}}, "bias_initializer": {"class_name": "Zeros", "config": {}}, "kernel_regularizer": null, "bias_regularizer": null, "activity_regularizer": null, "kernel_constraint": null, "bias_constraint": null}, "inbound_nodes": [[["activation_30", 0, 0, {}]]]}, {"name": "concatenate_14", "class_name": "Concatenate", "config": {"name": "concatenate_14", "trainable": true, "dtype": "float32", "axis": -1}, "inbound_nodes": [[["concatenate_13", 0, 0, {}], ["dense_1_7_conv2D", 0, 0, {}]]]}, {"name": "dense_1_8_bn", "class_name": "BatchNormalization", "config": {"name": "dense_1_8_bn", "trainable": true, "dtype": "float32", "axis": -1, "momentum": 0.99, "epsilon": 1.1e-05, "center": true, "scale": true, "beta_initializer": {"class_name": "Zeros", "config": {}}, "gamma_initializer": {"class_name": "Ones", "config": {}}, "moving_mean_initializer": {"class_name": "Zeros", "config": {}}, "moving_variance_initializer": {"class_name": "Ones", "config": {}}, "beta_regularizer": null, "gamma_regularizer": null, "beta_constraint": null, "gamma_constraint": null}, "inbound_nodes": [[["concatenate_14", 0, 0, {}]]]}, {"name": "activation_31", "class_name": "Activation", "config": {"name": "activation_31", "trainable": true, "dtype": "float32", "activation": "relu"}, "inbound_nodes": [[["dense_1_8_bn", 0, 0, {}]]]}, {"name": "dense_1_8_bottleneck_conv2D", "class_name": "Conv2D", "config": {"name": "dense_1_8_bottleneck_conv2D", "trainable": true, "dtype": "float32", "filters": 192, "kernel_size": [1, 1], "strides": [1, 1], "padding": "same", "data_format": "channels_last", "dilation_rate": [1, 1], "activation": "linear", "use_bias": false, "kernel_initializer": {"class_name": "VarianceScaling", "config": {"scale": 2.0, "mode": "fan_in", "distribution": "normal", "seed": null}}, "bias_initializer": {"class_name": "Zeros", "config": {}}, "kernel_regularizer": {"class_name": "L1L2", "config": {"l1": 0.0, "l2": 9.999999747378752e-05}}, "bias_regularizer": null, "activity_regularizer": null, "kernel_constraint": null, "bias_constraint": null}, "inbound_nodes": [[["activation_31", 0, 0, {}]]]}, {"name": "dense_1_8_bottleneck_bn", "class_name": "BatchNormalization", "config": {"name": "dense_1_8_bottleneck_bn", "trainable": true, "dtype": "float32", "axis": -1, "momentum": 0.99, "epsilon": 1.1e-05, "center": true, "scale": true, "beta_initializer": {"class_name": "Zeros", "config": {}}, "gamma_initializer": {"class_name": "Ones", "config": {}}, "moving_mean_initializer": {"class_name": "Zeros", "config": {}}, "moving_variance_initializer": {"class_name": "Ones", "config": {}}, "beta_regularizer": null, "gamma_regularizer": null, "beta_constraint": null, "gamma_constraint": null}, "inbound_nodes": [[["dense_1_8_bottleneck_conv2D", 0, 0, {}]]]}, {"name": "activation_32", "class_name": "Activation", "config": {"name": "activation_32", "trainable": true, "dtype": "float32", "activation": "relu"}, "inbound_nodes": [[["dense_1_8_bottleneck_bn", 0, 0, {}]]]}, {"name": "dense_1_8_conv2D", "class_name": "Conv2D", "config": {"name": "dense_1_8_conv2D", "trainable": true, "dtype": "float32", "filters": 48, "kernel_size": [3, 3], "strides": [1, 1], "padding": "same", "data_format": "channels_last", "dilation_rate": [1, 1], "activation": "linear", "use_bias": false, "kernel_initializer": {"class_name": "VarianceScaling", "config": {"scale": 2.0, "mode": "fan_in", "distribution": "normal", "seed": null}}, "bias_initializer": {"class_name": "Zeros", "config": {}}, "kernel_regularizer": null, "bias_regularizer": null, "activity_regularizer": null, "kernel_constraint": null, "bias_constraint": null}, "inbound_nodes": [[["activation_32", 0, 0, {}]]]}, {"name": "concatenate_15", "class_name": "Concatenate", "config": {"name": "concatenate_15", "trainable": true, "dtype": "float32", "axis": -1}, "inbound_nodes": [[["concatenate_14", 0, 0, {}], ["dense_1_8_conv2D", 0, 0, {}]]]}, {"name": "dense_1_9_bn", "class_name": "BatchNormalization", "config": {"name": "dense_1_9_bn", "trainable": true, "dtype": "float32", "axis": -1, "momentum": 0.99, "epsilon": 1.1e-05, "center": true, "scale": true, "beta_initializer": {"class_name": "Zeros", "config": {}}, "gamma_initializer": {"class_name": "Ones", "config": {}}, "moving_mean_initializer": {"class_name": "Zeros", "config": {}}, "moving_variance_initializer": {"class_name": "Ones", "config": {}}, "beta_regularizer": null, "gamma_regularizer": null, "beta_constraint": null, "gamma_constraint": null}, "inbound_nodes": [[["concatenate_15", 0, 0, {}]]]}, {"name": "activation_33", "class_name": "Activation", "config": {"name": "activation_33", "trainable": true, "dtype": "float32", "activation": "relu"}, "inbound_nodes": [[["dense_1_9_bn", 0, 0, {}]]]}, {"name": "dense_1_9_bottleneck_conv2D", "class_name": "Conv2D", "config": {"name": "dense_1_9_bottleneck_conv2D", "trainable": true, "dtype": "float32", "filters": 192, "kernel_size": [1, 1], "strides": [1, 1], "padding": "same", "data_format": "channels_last", "dilation_rate": [1, 1], "activation": "linear", "use_bias": false, "kernel_initializer": {"class_name": "VarianceScaling", "config": {"scale": 2.0, "mode": "fan_in", "distribution": "normal", "seed": null}}, "bias_initializer": {"class_name": "Zeros", "config": {}}, "kernel_regularizer": {"class_name": "L1L2", "config": {"l1": 0.0, "l2": 9.999999747378752e-05}}, "bias_regularizer": null, "activity_regularizer": null, "kernel_constraint": null, "bias_constraint": null}, "inbound_nodes": [[["activation_33", 0, 0, {}]]]}, {"name": "dense_1_9_bottleneck_bn", "class_name": "BatchNormalization", "config": {"name": "dense_1_9_bottleneck_bn", "trainable": true, "dtype": "float32", "axis": -1, "momentum": 0.99, "epsilon": 1.1e-05, "center": true, "scale": true, "beta_initializer": {"class_name": "Zeros", "config": {}}, "gamma_initializer": {"class_name": "Ones", "config": {}}, "moving_mean_initializer": {"class_name": "Zeros", "config": {}}, "moving_variance_initializer": {"class_name": "Ones", "config": {}}, "beta_regularizer": null, "gamma_regularizer": null, "beta_constraint": null, "gamma_constraint": null}, "inbound_nodes": [[["dense_1_9_bottleneck_conv2D", 0, 0, {}]]]}, {"name": "activation_34", "class_name": "Activation", "config": {"name": "activation_34", "trainable": true, "dtype": "float32", "activation": "relu"}, "inbound_nodes": [[["dense_1_9_bottleneck_bn", 0, 0, {}]]]}, {"name": "dense_1_9_conv2D", "class_name": "Conv2D", "config": {"name": "dense_1_9_conv2D", "trainable": true, "dtype": "float32", "filters": 48, "kernel_size": [3, 3], "strides": [1, 1], "padding": "same", "data_format": "channels_last", "dilation_rate": [1, 1], "activation": "linear", "use_bias": false, "kernel_initializer": {"class_name": "VarianceScaling", "config": {"scale": 2.0, "mode": "fan_in", "distribution": "normal", "seed": null}}, "bias_initializer": {"class_name": "Zeros", "config": {}}, "kernel_regularizer": null, "bias_regularizer": null, "activity_regularizer": null, "kernel_constraint": null, "bias_constraint": null}, "inbound_nodes": [[["activation_34", 0, 0, {}]]]}, {"name": "concatenate_16", "class_name": "Concatenate", "config": {"name": "concatenate_16", "trainable": true, "dtype": "float32", "axis": -1}, "inbound_nodes": [[["concatenate_15", 0, 0, {}], ["dense_1_9_conv2D", 0, 0, {}]]]}, {"name": "dense_1_10_bn", "class_name": "BatchNormalization", "config": {"name": "dense_1_10_bn", "trainable": true, "dtype": "float32", "axis": -1, "momentum": 0.99, "epsilon": 1.1e-05, "center": true, "scale": true, "beta_initializer": {"class_name": "Zeros", "config": {}}, "gamma_initializer": {"class_name": "Ones", "config": {}}, "moving_mean_initializer": {"class_name": "Zeros", "config": {}}, "moving_variance_initializer": {"class_name": "Ones", "config": {}}, "beta_regularizer": null, "gamma_regularizer": null, "beta_constraint": null, "gamma_constraint": null}, "inbound_nodes": [[["concatenate_16", 0, 0, {}]]]}, {"name": "activation_35", "class_name": "Activation", "config": {"name": "activation_35", "trainable": true, "dtype": "float32", "activation": "relu"}, "inbound_nodes": [[["dense_1_10_bn", 0, 0, {}]]]}, {"name": "dense_1_10_bottleneck_conv2D", "class_name": "Conv2D", "config": {"name": "dense_1_10_bottleneck_conv2D", "trainable": true, "dtype": "float32", "filters": 192, "kernel_size": [1, 1], "strides": [1, 1], "padding": "same", "data_format": "channels_last", "dilation_rate": [1, 1], "activation": "linear", "use_bias": false, "kernel_initializer": {"class_name": "VarianceScaling", "config": {"scale": 2.0, "mode": "fan_in", "distribution": "normal", "seed": null}}, "bias_initializer": {"class_name": "Zeros", "config": {}}, "kernel_regularizer": {"class_name": "L1L2", "config": {"l1": 0.0, "l2": 9.999999747378752e-05}}, "bias_regularizer": null, "activity_regularizer": null, "kernel_constraint": null, "bias_constraint": null}, "inbound_nodes": [[["activation_35", 0, 0, {}]]]}, {"name": "dense_1_10_bottleneck_bn", "class_name": "BatchNormalization", "config": {"name": "dense_1_10_bottleneck_bn", "trainable": true, "dtype": "float32", "axis": -1, "momentum": 0.99, "epsilon": 1.1e-05, "center": true, "scale": true, "beta_initializer": {"class_name": "Zeros", "config": {}}, "gamma_initializer": {"class_name": "Ones", "config": {}}, "moving_mean_initializer": {"class_name": "Zeros", "config": {}}, "moving_variance_initializer": {"class_name": "Ones", "config": {}}, "beta_regularizer": null, "gamma_regularizer": null, "beta_constraint": null, "gamma_constraint": null}, "inbound_nodes": [[["dense_1_10_bottleneck_conv2D", 0, 0, {}]]]}, {"name": "activation_36", "class_name": "Activation", "config": {"name": "activation_36", "trainable": true, "dtype": "float32", "activation": "relu"}, "inbound_nodes": [[["dense_1_10_bottleneck_bn", 0, 0, {}]]]}, {"name": "dense_1_10_conv2D", "class_name": "Conv2D", "config": {"name": "dense_1_10_conv2D", "trainable": true, "dtype": "float32", "filters": 48, "kernel_size": [3, 3], "strides": [1, 1], "padding": "same", "data_format": "channels_last", "dilation_rate": [1, 1], "activation": "linear", "use_bias": false, "kernel_initializer": {"class_name": "VarianceScaling", "config": {"scale": 2.0, "mode": "fan_in", "distribution": "normal", "seed": null}}, "bias_initializer": {"class_name": "Zeros", "config": {}}, "kernel_regularizer": null, "bias_regularizer": null, "activity_regularizer": null, "kernel_constraint": null, "bias_constraint": null}, "inbound_nodes": [[["activation_36", 0, 0, {}]]]}, {"name": "concatenate_17", "class_name": "Concatenate", "config": {"name": "concatenate_17", "trainable": true, "dtype": "float32", "axis": -1}, "inbound_nodes": [[["concatenate_16", 0, 0, {}], ["dense_1_10_conv2D", 0, 0, {}]]]}, {"name": "dense_1_11_bn", "class_name": "BatchNormalization", "config": {"name": "dense_1_11_bn", "trainable": true, "dtype": "float32", "axis": -1, "momentum": 0.99, "epsilon": 1.1e-05, "center": true, "scale": true, "beta_initializer": {"class_name": "Zeros", "config": {}}, "gamma_initializer": {"class_name": "Ones", "config": {}}, "moving_mean_initializer": {"class_name": "Zeros", "config": {}}, "moving_variance_initializer": {"class_name": "Ones", "config": {}}, "beta_regularizer": null, "gamma_regularizer": null, "beta_constraint": null, "gamma_constraint": null}, "inbound_nodes": [[["concatenate_17", 0, 0, {}]]]}, {"name": "activation_37", "class_name": "Activation", "config": {"name": "activation_37", "trainable": true, "dtype": "float32", "activation": "relu"}, "inbound_nodes": [[["dense_1_11_bn", 0, 0, {}]]]}, {"name": "dense_1_11_bottleneck_conv2D", "class_name": "Conv2D", "config": {"name": "dense_1_11_bottleneck_conv2D", "trainable": true, "dtype": "float32", "filters": 192, "kernel_size": [1, 1], "strides": [1, 1], "padding": "same", "data_format": "channels_last", "dilation_rate": [1, 1], "activation": "linear", "use_bias": false, "kernel_initializer": {"class_name": "VarianceScaling", "config": {"scale": 2.0, "mode": "fan_in", "distribution": "normal", "seed": null}}, "bias_initializer": {"class_name": "Zeros", "config": {}}, "kernel_regularizer": {"class_name": "L1L2", "config": {"l1": 0.0, "l2": 9.999999747378752e-05}}, "bias_regularizer": null, "activity_regularizer": null, "kernel_constraint": null, "bias_constraint": null}, "inbound_nodes": [[["activation_37", 0, 0, {}]]]}, {"name": "dense_1_11_bottleneck_bn", "class_name": "BatchNormalization", "config": {"name": "dense_1_11_bottleneck_bn", "trainable": true, "dtype": "float32", "axis": -1, "momentum": 0.99, "epsilon": 1.1e-05, "center": true, "scale": true, "beta_initializer": {"class_name": "Zeros", "config": {}}, "gamma_initializer": {"class_name": "Ones", "config": {}}, "moving_mean_initializer": {"class_name": "Zeros", "config": {}}, "moving_variance_initializer": {"class_name": "Ones", "config": {}}, "beta_regularizer": null, "gamma_regularizer": null, "beta_constraint": null, "gamma_constraint": null}, "inbound_nodes": [[["dense_1_11_bottleneck_conv2D", 0, 0, {}]]]}, {"name": "activation_38", "class_name": "Activation", "config": {"name": "activation_38", "trainable": true, "dtype": "float32", "activation": "relu"}, "inbound_nodes": [[["dense_1_11_bottleneck_bn", 0, 0, {}]]]}, {"name": "dense_1_11_conv2D", "class_name": "Conv2D", "config": {"name": "dense_1_11_conv2D", "trainable": true, "dtype": "float32", "filters": 48, "kernel_size": [3, 3], "strides": [1, 1], "padding": "same", "data_format": "channels_last", "dilation_rate": [1, 1], "activation": "linear", "use_bias": false, "kernel_initializer": {"class_name": "VarianceScaling", "config": {"scale": 2.0, "mode": "fan_in", "distribution": "normal", "seed": null}}, "bias_initializer": {"class_name": "Zeros", "config": {}}, "kernel_regularizer": null, "bias_regularizer": null, "activity_regularizer": null, "kernel_constraint": null, "bias_constraint": null}, "inbound_nodes": [[["activation_38", 0, 0, {}]]]}, {"name": "concatenate_18", "class_name": "Concatenate", "config": {"name": "concatenate_18", "trainable": true, "dtype": "float32", "axis": -1}, "inbound_nodes": [[["concatenate_17", 0, 0, {}], ["dense_1_11_conv2D", 0, 0, {}]]]}, {"name": "tr_1_bn", "class_name": "BatchNormalization", "config": {"name": "tr_1_bn", "trainable": true, "dtype": "float32", "axis": -1, "momentum": 0.99, "epsilon": 1.1e-05, "center": true, "scale": true, "beta_initializer": {"class_name": "Zeros", "config": {}}, "gamma_initializer": {"class_name": "Ones", "config": {}}, "moving_mean_initializer": {"class_name": "Zeros", "config": {}}, "moving_variance_initializer": {"class_name": "Ones", "config": {}}, "beta_regularizer": null, "gamma_regularizer": null, "beta_constraint": null, "gamma_constraint": null}, "inbound_nodes": [[["concatenate_18", 0, 0, {}]]]}, {"name": "activation_39", "class_name": "Activation", "config": {"name": "activation_39", "trainable": true, "dtype": "float32", "activation": "relu"}, "inbound_nodes": [[["tr_1_bn", 0, 0, {}]]]}, {"name": "tr_1_conv2D", "class_name": "Conv2D", "config": {"name": "tr_1_conv2D", "trainable": true, "dtype": "float32", "filters": 384, "kernel_size": [1, 1], "strides": [1, 1], "padding": "same", "data_format": "channels_last", "dilation_rate": [1, 1], "activation": "linear", "use_bias": false, "kernel_initializer": {"class_name": "VarianceScaling", "config": {"scale": 2.0, "mode": "fan_in", "distribution": "normal", "seed": null}}, "bias_initializer": {"class_name": "Zeros", "config": {}}, "kernel_regularizer": {"class_name": "L1L2", "config": {"l1": 0.0, "l2": 9.999999747378752e-05}}, "bias_regularizer": null, "activity_regularizer": null, "kernel_constraint": null, "bias_constraint": null}, "inbound_nodes": [[["activation_39", 0, 0, {}]]]}, {"name": "average_pooling2d_2", "class_name": "AveragePooling2D", "config": {"name": "average_pooling2d_2", "trainable": true, "dtype": "float32", "pool_size": [2, 2], "padding": "valid", "strides": [2, 2], "data_format": "channels_last"}, "inbound_nodes": [[["tr_1_conv2D", 0, 0, {}]]]}, {"name": "dense_2_0_bn", "class_name": "BatchNormalization", "config": {"name": "dense_2_0_bn", "trainable": true, "dtype": "float32", "axis": -1, "momentum": 0.99, "epsilon": 1.1e-05, "center": true, "scale": true, "beta_initializer": {"class_name": "Zeros", "config": {}}, "gamma_initializer": {"class_name": "Ones", "config": {}}, "moving_mean_initializer": {"class_name": "Zeros", "config": {}}, "moving_variance_initializer": {"class_name": "Ones", "config": {}}, "beta_regularizer": null, "gamma_regularizer": null, "beta_constraint": null, "gamma_constraint": null}, "inbound_nodes": [[["average_pooling2d_2", 0, 0, {}]]]}, {"name": "activation_40", "class_name": "Activation", "config": {"name": "activation_40", "trainable": true, "dtype": "float32", "activation": "relu"}, "inbound_nodes": [[["dense_2_0_bn", 0, 0, {}]]]}, {"name": "dense_2_0_bottleneck_conv2D", "class_name": "Conv2D", "config": {"name": "dense_2_0_bottleneck_conv2D", "trainable": true, "dtype": "float32", "filters": 192, "kernel_size": [1, 1], "strides": [1, 1], "padding": "same", "data_format": "channels_last", "dilation_rate": [1, 1], "activation": "linear", "use_bias": false, "kernel_initializer": {"class_name": "VarianceScaling", "config": {"scale": 2.0, "mode": "fan_in", "distribution": "normal", "seed": null}}, "bias_initializer": {"class_name": "Zeros", "config": {}}, "kernel_regularizer": {"class_name": "L1L2", "config": {"l1": 0.0, "l2": 9.999999747378752e-05}}, "bias_regularizer": null, "activity_regularizer": null, "kernel_constraint": null, "bias_constraint": null}, "inbound_nodes": [[["activation_40", 0, 0, {}]]]}, {"name": "dense_2_0_bottleneck_bn", "class_name": "BatchNormalization", "config": {"name": "dense_2_0_bottleneck_bn", "trainable": true, "dtype": "float32", "axis": -1, "momentum": 0.99, "epsilon": 1.1e-05, "center": true, "scale": true, "beta_initializer": {"class_name": "Zeros", "config": {}}, "gamma_initializer": {"class_name": "Ones", "config": {}}, "moving_mean_initializer": {"class_name": "Zeros", "config": {}}, "moving_variance_initializer": {"class_name": "Ones", "config": {}}, "beta_regularizer": null, "gamma_regularizer": null, "beta_constraint": null, "gamma_constraint": null}, "inbound_nodes": [[["dense_2_0_bottleneck_conv2D", 0, 0, {}]]]}, {"name": "activation_41", "class_name": "Activation", "config": {"name": "activation_41", "trainable": true, "dtype": "float32", "activation": "relu"}, "inbound_nodes": [[["dense_2_0_bottleneck_bn", 0, 0, {}]]]}, {"name": "dense_2_0_conv2D", "class_name": "Conv2D", "config": {"name": "dense_2_0_conv2D", "trainable": true, "dtype": "float32", "filters": 48, "kernel_size": [3, 3], "strides": [1, 1], "padding": "same", "data_format": "channels_last", "dilation_rate": [1, 1], "activation": "linear", "use_bias": false, "kernel_initializer": {"class_name": "VarianceScaling", "config": {"scale": 2.0, "mode": "fan_in", "distribution": "normal", "seed": null}}, "bias_initializer": {"class_name": "Zeros", "config": {}}, "kernel_regularizer": null, "bias_regularizer": null, "activity_regularizer": null, "kernel_constraint": null, "bias_constraint": null}, "inbound_nodes": [[["activation_41", 0, 0, {}]]]}, {"name": "concatenate_19", "class_name": "Concatenate", "config": {"name": "concatenate_19", "trainable": true, "dtype": "float32", "axis": -1}, "inbound_nodes": [[["average_pooling2d_2", 0, 0, {}], ["dense_2_0_conv2D", 0, 0, {}]]]}, {"name": "dense_2_1_bn", "class_name": "BatchNormalization", "config": {"name": "dense_2_1_bn", "trainable": true, "dtype": "float32", "axis": -1, "momentum": 0.99, "epsilon": 1.1e-05, "center": true, "scale": true, "beta_initializer": {"class_name": "Zeros", "config": {}}, "gamma_initializer": {"class_name": "Ones", "config": {}}, "moving_mean_initializer": {"class_name": "Zeros", "config": {}}, "moving_variance_initializer": {"class_name": "Ones", "config": {}}, "beta_regularizer": null, "gamma_regularizer": null, "beta_constraint": null, "gamma_constraint": null}, "inbound_nodes": [[["concatenate_19", 0, 0, {}]]]}, {"name": "activation_42", "class_name": "Activation", "config": {"name": "activation_42", "trainable": true, "dtype": "float32", "activation": "relu"}, "inbound_nodes": [[["dense_2_1_bn", 0, 0, {}]]]}, {"name": "dense_2_1_bottleneck_conv2D", "class_name": "Conv2D", "config": {"name": "dense_2_1_bottleneck_conv2D", "trainable": true, "dtype": "float32", "filters": 192, "kernel_size": [1, 1], "strides": [1, 1], "padding": "same", "data_format": "channels_last", "dilation_rate": [1, 1], "activation": "linear", "use_bias": false, "kernel_initializer": {"class_name": "VarianceScaling", "config": {"scale": 2.0, "mode": "fan_in", "distribution": "normal", "seed": null}}, "bias_initializer": {"class_name": "Zeros", "config": {}}, "kernel_regularizer": {"class_name": "L1L2", "config": {"l1": 0.0, "l2": 9.999999747378752e-05}}, "bias_regularizer": null, "activity_regularizer": null, "kernel_constraint": null, "bias_constraint": null}, "inbound_nodes": [[["activation_42", 0, 0, {}]]]}, {"name": "dense_2_1_bottleneck_bn", "class_name": "BatchNormalization", "config": {"name": "dense_2_1_bottleneck_bn", "trainable": true, "dtype": "float32", "axis": -1, "momentum": 0.99, "epsilon": 1.1e-05, "center": true, "scale": true, "beta_initializer": {"class_name": "Zeros", "config": {}}, "gamma_initializer": {"class_name": "Ones", "config": {}}, "moving_mean_initializer": {"class_name": "Zeros", "config": {}}, "moving_variance_initializer": {"class_name": "Ones", "config": {}}, "beta_regularizer": null, "gamma_regularizer": null, "beta_constraint": null, "gamma_constraint": null}, "inbound_nodes": [[["dense_2_1_bottleneck_conv2D", 0, 0, {}]]]}, {"name": "activation_43", "class_name": "Activation", "config": {"name": "activation_43", "trainable": true, "dtype": "float32", "activation": "relu"}, "inbound_nodes": [[["dense_2_1_bottleneck_bn", 0, 0, {}]]]}, {"name": "dense_2_1_conv2D", "class_name": "Conv2D", "config": {"name": "dense_2_1_conv2D", "trainable": true, "dtype": "float32", "filters": 48, "kernel_size": [3, 3], "strides": [1, 1], "padding": "same", "data_format": "channels_last", "dilation_rate": [1, 1], "activation": "linear", "use_bias": false, "kernel_initializer": {"class_name": "VarianceScaling", "config": {"scale": 2.0, "mode": "fan_in", "distribution": "normal", "seed": null}}, "bias_initializer": {"class_name": "Zeros", "config": {}}, "kernel_regularizer": null, "bias_regularizer": null, "activity_regularizer": null, "kernel_constraint": null, "bias_constraint": null}, "inbound_nodes": [[["activation_43", 0, 0, {}]]]}, {"name": "concatenate_20", "class_name": "Concatenate", "config": {"name": "concatenate_20", "trainable": true, "dtype": "float32", "axis": -1}, "inbound_nodes": [[["concatenate_19", 0, 0, {}], ["dense_2_1_conv2D", 0, 0, {}]]]}, {"name": "dense_2_2_bn", "class_name": "BatchNormalization", "config": {"name": "dense_2_2_bn", "trainable": true, "dtype": "float32", "axis": -1, "momentum": 0.99, "epsilon": 1.1e-05, "center": true, "scale": true, "beta_initializer": {"class_name": "Zeros", "config": {}}, "gamma_initializer": {"class_name": "Ones", "config": {}}, "moving_mean_initializer": {"class_name": "Zeros", "config": {}}, "moving_variance_initializer": {"class_name": "Ones", "config": {}}, "beta_regularizer": null, "gamma_regularizer": null, "beta_constraint": null, "gamma_constraint": null}, "inbound_nodes": [[["concatenate_20", 0, 0, {}]]]}, {"name": "activation_44", "class_name": "Activation", "config": {"name": "activation_44", "trainable": true, "dtype": "float32", "activation": "relu"}, "inbound_nodes": [[["dense_2_2_bn", 0, 0, {}]]]}, {"name": "dense_2_2_bottleneck_conv2D", "class_name": "Conv2D", "config": {"name": "dense_2_2_bottleneck_conv2D", "trainable": true, "dtype": "float32", "filters": 192, "kernel_size": [1, 1], "strides": [1, 1], "padding": "same", "data_format": "channels_last", "dilation_rate": [1, 1], "activation": "linear", "use_bias": false, "kernel_initializer": {"class_name": "VarianceScaling", "config": {"scale": 2.0, "mode": "fan_in", "distribution": "normal", "seed": null}}, "bias_initializer": {"class_name": "Zeros", "config": {}}, "kernel_regularizer": {"class_name": "L1L2", "config": {"l1": 0.0, "l2": 9.999999747378752e-05}}, "bias_regularizer": null, "activity_regularizer": null, "kernel_constraint": null, "bias_constraint": null}, "inbound_nodes": [[["activation_44", 0, 0, {}]]]}, {"name": "dense_2_2_bottleneck_bn", "class_name": "BatchNormalization", "config": {"name": "dense_2_2_bottleneck_bn", "trainable": true, "dtype": "float32", "axis": -1, "momentum": 0.99, "epsilon": 1.1e-05, "center": true, "scale": true, "beta_initializer": {"class_name": "Zeros", "config": {}}, "gamma_initializer": {"class_name": "Ones", "config": {}}, "moving_mean_initializer": {"class_name": "Zeros", "config": {}}, "moving_variance_initializer": {"class_name": "Ones", "config": {}}, "beta_regularizer": null, "gamma_regularizer": null, "beta_constraint": null, "gamma_constraint": null}, "inbound_nodes": [[["dense_2_2_bottleneck_conv2D", 0, 0, {}]]]}, {"name": "activation_45", "class_name": "Activation", "config": {"name": "activation_45", "trainable": true, "dtype": "float32", "activation": "relu"}, "inbound_nodes": [[["dense_2_2_bottleneck_bn", 0, 0, {}]]]}, {"name": "dense_2_2_conv2D", "class_name": "Conv2D", "config": {"name": "dense_2_2_conv2D", "trainable": true, "dtype": "float32", "filters": 48, "kernel_size": [3, 3], "strides": [1, 1], "padding": "same", "data_format": "channels_last", "dilation_rate": [1, 1], "activation": "linear", "use_bias": false, "kernel_initializer": {"class_name": "VarianceScaling", "config": {"scale": 2.0, "mode": "fan_in", "distribution": "normal", "seed": null}}, "bias_initializer": {"class_name": "Zeros", "config": {}}, "kernel_regularizer": null, "bias_regularizer": null, "activity_regularizer": null, "kernel_constraint": null, "bias_constraint": null}, "inbound_nodes": [[["activation_45", 0, 0, {}]]]}, {"name": "concatenate_21", "class_name": "Concatenate", "config": {"name": "concatenate_21", "trainable": true, "dtype": "float32", "axis": -1}, "inbound_nodes": [[["concatenate_20", 0, 0, {}], ["dense_2_2_conv2D", 0, 0, {}]]]}, {"name": "dense_2_3_bn", "class_name": "BatchNormalization", "config": {"name": "dense_2_3_bn", "trainable": true, "dtype": "float32", "axis": -1, "momentum": 0.99, "epsilon": 1.1e-05, "center": true, "scale": true, "beta_initializer": {"class_name": "Zeros", "config": {}}, "gamma_initializer": {"class_name": "Ones", "config": {}}, "moving_mean_initializer": {"class_name": "Zeros", "config": {}}, "moving_variance_initializer": {"class_name": "Ones", "config": {}}, "beta_regularizer": null, "gamma_regularizer": null, "beta_constraint": null, "gamma_constraint": null}, "inbound_nodes": [[["concatenate_21", 0, 0, {}]]]}, {"name": "activation_46", "class_name": "Activation", "config": {"name": "activation_46", "trainable": true, "dtype": "float32", "activation": "relu"}, "inbound_nodes": [[["dense_2_3_bn", 0, 0, {}]]]}, {"name": "dense_2_3_bottleneck_conv2D", "class_name": "Conv2D", "config": {"name": "dense_2_3_bottleneck_conv2D", "trainable": true, "dtype": "float32", "filters": 192, "kernel_size": [1, 1], "strides": [1, 1], "padding": "same", "data_format": "channels_last", "dilation_rate": [1, 1], "activation": "linear", "use_bias": false, "kernel_initializer": {"class_name": "VarianceScaling", "config": {"scale": 2.0, "mode": "fan_in", "distribution": "normal", "seed": null}}, "bias_initializer": {"class_name": "Zeros", "config": {}}, "kernel_regularizer": {"class_name": "L1L2", "config": {"l1": 0.0, "l2": 9.999999747378752e-05}}, "bias_regularizer": null, "activity_regularizer": null, "kernel_constraint": null, "bias_constraint": null}, "inbound_nodes": [[["activation_46", 0, 0, {}]]]}, {"name": "dense_2_3_bottleneck_bn", "class_name": "BatchNormalization", "config": {"name": "dense_2_3_bottleneck_bn", "trainable": true, "dtype": "float32", "axis": -1, "momentum": 0.99, "epsilon": 1.1e-05, "center": true, "scale": true, "beta_initializer": {"class_name": "Zeros", "config": {}}, "gamma_initializer": {"class_name": "Ones", "config": {}}, "moving_mean_initializer": {"class_name": "Zeros", "config": {}}, "moving_variance_initializer": {"class_name": "Ones", "config": {}}, "beta_regularizer": null, "gamma_regularizer": null, "beta_constraint": null, "gamma_constraint": null}, "inbound_nodes": [[["dense_2_3_bottleneck_conv2D", 0, 0, {}]]]}, {"name": "activation_47", "class_name": "Activation", "config": {"name": "activation_47", "trainable": true, "dtype": "float32", "activation": "relu"}, "inbound_nodes": [[["dense_2_3_bottleneck_bn", 0, 0, {}]]]}, {"name": "dense_2_3_conv2D", "class_name": "Conv2D", "config": {"name": "dense_2_3_conv2D", "trainable": true, "dtype": "float32", "filters": 48, "kernel_size": [3, 3], "strides": [1, 1], "padding": "same", "data_format": "channels_last", "dilation_rate": [1, 1], "activation": "linear", "use_bias": false, "kernel_initializer": {"class_name": "VarianceScaling", "config": {"scale": 2.0, "mode": "fan_in", "distribution": "normal", "seed": null}}, "bias_initializer": {"class_name": "Zeros", "config": {}}, "kernel_regularizer": null, "bias_regularizer": null, "activity_regularizer": null, "kernel_constraint": null, "bias_constraint": null}, "inbound_nodes": [[["activation_47", 0, 0, {}]]]}, {"name": "concatenate_22", "class_name": "Concatenate", "config": {"name": "concatenate_22", "trainable": true, "dtype": "float32", "axis": -1}, "inbound_nodes": [[["concatenate_21", 0, 0, {}], ["dense_2_3_conv2D", 0, 0, {}]]]}, {"name": "dense_2_4_bn", "class_name": "BatchNormalization", "config": {"name": "dense_2_4_bn", "trainable": true, "dtype": "float32", "axis": -1, "momentum": 0.99, "epsilon": 1.1e-05, "center": true, "scale": true, "beta_initializer": {"class_name": "Zeros", "config": {}}, "gamma_initializer": {"class_name": "Ones", "config": {}}, "moving_mean_initializer": {"class_name": "Zeros", "config": {}}, "moving_variance_initializer": {"class_name": "Ones", "config": {}}, "beta_regularizer": null, "gamma_regularizer": null, "beta_constraint": null, "gamma_constraint": null}, "inbound_nodes": [[["concatenate_22", 0, 0, {}]]]}, {"name": "activation_48", "class_name": "Activation", "config": {"name": "activation_48", "trainable": true, "dtype": "float32", "activation": "relu"}, "inbound_nodes": [[["dense_2_4_bn", 0, 0, {}]]]}, {"name": "dense_2_4_bottleneck_conv2D", "class_name": "Conv2D", "config": {"name": "dense_2_4_bottleneck_conv2D", "trainable": true, "dtype": "float32", "filters": 192, "kernel_size": [1, 1], "strides": [1, 1], "padding": "same", "data_format": "channels_last", "dilation_rate": [1, 1], "activation": "linear", "use_bias": false, "kernel_initializer": {"class_name": "VarianceScaling", "config": {"scale": 2.0, "mode": "fan_in", "distribution": "normal", "seed": null}}, "bias_initializer": {"class_name": "Zeros", "config": {}}, "kernel_regularizer": {"class_name": "L1L2", "config": {"l1": 0.0, "l2": 9.999999747378752e-05}}, "bias_regularizer": null, "activity_regularizer": null, "kernel_constraint": null, "bias_constraint": null}, "inbound_nodes": [[["activation_48", 0, 0, {}]]]}, {"name": "dense_2_4_bottleneck_bn", "class_name": "BatchNormalization", "config": {"name": "dense_2_4_bottleneck_bn", "trainable": true, "dtype": "float32", "axis": -1, "momentum": 0.99, "epsilon": 1.1e-05, "center": true, "scale": true, "beta_initializer": {"class_name": "Zeros", "config": {}}, "gamma_initializer": {"class_name": "Ones", "config": {}}, "moving_mean_initializer": {"class_name": "Zeros", "config": {}}, "moving_variance_initializer": {"class_name": "Ones", "config": {}}, "beta_regularizer": null, "gamma_regularizer": null, "beta_constraint": null, "gamma_constraint": null}, "inbound_nodes": [[["dense_2_4_bottleneck_conv2D", 0, 0, {}]]]}, {"name": "activation_49", "class_name": "Activation", "config": {"name": "activation_49", "trainable": true, "dtype": "float32", "activation": "relu"}, "inbound_nodes": [[["dense_2_4_bottleneck_bn", 0, 0, {}]]]}, {"name": "dense_2_4_conv2D", "class_name": "Conv2D", "config": {"name": "dense_2_4_conv2D", "trainable": true, "dtype": "float32", "filters": 48, "kernel_size": [3, 3], "strides": [1, 1], "padding": "same", "data_format": "channels_last", "dilation_rate": [1, 1], "activation": "linear", "use_bias": false, "kernel_initializer": {"class_name": "VarianceScaling", "config": {"scale": 2.0, "mode": "fan_in", "distribution": "normal", "seed": null}}, "bias_initializer": {"class_name": "Zeros", "config": {}}, "kernel_regularizer": null, "bias_regularizer": null, "activity_regularizer": null, "kernel_constraint": null, "bias_constraint": null}, "inbound_nodes": [[["activation_49", 0, 0, {}]]]}, {"name": "concatenate_23", "class_name": "Concatenate", "config": {"name": "concatenate_23", "trainable": true, "dtype": "float32", "axis": -1}, "inbound_nodes": [[["concatenate_22", 0, 0, {}], ["dense_2_4_conv2D", 0, 0, {}]]]}, {"name": "dense_2_5_bn", "class_name": "BatchNormalization", "config": {"name": "dense_2_5_bn", "trainable": true, "dtype": "float32", "axis": -1, "momentum": 0.99, "epsilon": 1.1e-05, "center": true, "scale": true, "beta_initializer": {"class_name": "Zeros", "config": {}}, "gamma_initializer": {"class_name": "Ones", "config": {}}, "moving_mean_initializer": {"class_name": "Zeros", "config": {}}, "moving_variance_initializer": {"class_name": "Ones", "config": {}}, "beta_regularizer": null, "gamma_regularizer": null, "beta_constraint": null, "gamma_constraint": null}, "inbound_nodes": [[["concatenate_23", 0, 0, {}]]]}, {"name": "activation_50", "class_name": "Activation", "config": {"name": "activation_50", "trainable": true, "dtype": "float32", "activation": "relu"}, "inbound_nodes": [[["dense_2_5_bn", 0, 0, {}]]]}, {"name": "dense_2_5_bottleneck_conv2D", "class_name": "Conv2D", "config": {"name": "dense_2_5_bottleneck_conv2D", "trainable": true, "dtype": "float32", "filters": 192, "kernel_size": [1, 1], "strides": [1, 1], "padding": "same", "data_format": "channels_last", "dilation_rate": [1, 1], "activation": "linear", "use_bias": false, "kernel_initializer": {"class_name": "VarianceScaling", "config": {"scale": 2.0, "mode": "fan_in", "distribution": "normal", "seed": null}}, "bias_initializer": {"class_name": "Zeros", "config": {}}, "kernel_regularizer": {"class_name": "L1L2", "config": {"l1": 0.0, "l2": 9.999999747378752e-05}}, "bias_regularizer": null, "activity_regularizer": null, "kernel_constraint": null, "bias_constraint": null}, "inbound_nodes": [[["activation_50", 0, 0, {}]]]}, {"name": "dense_2_5_bottleneck_bn", "class_name": "BatchNormalization", "config": {"name": "dense_2_5_bottleneck_bn", "trainable": true, "dtype": "float32", "axis": -1, "momentum": 0.99, "epsilon": 1.1e-05, "center": true, "scale": true, "beta_initializer": {"class_name": "Zeros", "config": {}}, "gamma_initializer": {"class_name": "Ones", "config": {}}, "moving_mean_initializer": {"class_name": "Zeros", "config": {}}, "moving_variance_initializer": {"class_name": "Ones", "config": {}}, "beta_regularizer": null, "gamma_regularizer": null, "beta_constraint": null, "gamma_constraint": null}, "inbound_nodes": [[["dense_2_5_bottleneck_conv2D", 0, 0, {}]]]}, {"name": "activation_51", "class_name": "Activation", "config": {"name": "activation_51", "trainable": true, "dtype": "float32", "activation": "relu"}, "inbound_nodes": [[["dense_2_5_bottleneck_bn", 0, 0, {}]]]}, {"name": "dense_2_5_conv2D", "class_name": "Conv2D", "config": {"name": "dense_2_5_conv2D", "trainable": true, "dtype": "float32", "filters": 48, "kernel_size": [3, 3], "strides": [1, 1], "padding": "same", "data_format": "channels_last", "dilation_rate": [1, 1], "activation": "linear", "use_bias": false, "kernel_initializer": {"class_name": "VarianceScaling", "config": {"scale": 2.0, "mode": "fan_in", "distribution": "normal", "seed": null}}, "bias_initializer": {"class_name": "Zeros", "config": {}}, "kernel_regularizer": null, "bias_regularizer": null, "activity_regularizer": null, "kernel_constraint": null, "bias_constraint": null}, "inbound_nodes": [[["activation_51", 0, 0, {}]]]}, {"name": "concatenate_24", "class_name": "Concatenate", "config": {"name": "concatenate_24", "trainable": true, "dtype": "float32", "axis": -1}, "inbound_nodes": [[["concatenate_23", 0, 0, {}], ["dense_2_5_conv2D", 0, 0, {}]]]}, {"name": "dense_2_6_bn", "class_name": "BatchNormalization", "config": {"name": "dense_2_6_bn", "trainable": true, "dtype": "float32", "axis": -1, "momentum": 0.99, "epsilon": 1.1e-05, "center": true, "scale": true, "beta_initializer": {"class_name": "Zeros", "config": {}}, "gamma_initializer": {"class_name": "Ones", "config": {}}, "moving_mean_initializer": {"class_name": "Zeros", "config": {}}, "moving_variance_initializer": {"class_name": "Ones", "config": {}}, "beta_regularizer": null, "gamma_regularizer": null, "beta_constraint": null, "gamma_constraint": null}, "inbound_nodes": [[["concatenate_24", 0, 0, {}]]]}, {"name": "activation_52", "class_name": "Activation", "config": {"name": "activation_52", "trainable": true, "dtype": "float32", "activation": "relu"}, "inbound_nodes": [[["dense_2_6_bn", 0, 0, {}]]]}, {"name": "dense_2_6_bottleneck_conv2D", "class_name": "Conv2D", "config": {"name": "dense_2_6_bottleneck_conv2D", "trainable": true, "dtype": "float32", "filters": 192, "kernel_size": [1, 1], "strides": [1, 1], "padding": "same", "data_format": "channels_last", "dilation_rate": [1, 1], "activation": "linear", "use_bias": false, "kernel_initializer": {"class_name": "VarianceScaling", "config": {"scale": 2.0, "mode": "fan_in", "distribution": "normal", "seed": null}}, "bias_initializer": {"class_name": "Zeros", "config": {}}, "kernel_regularizer": {"class_name": "L1L2", "config": {"l1": 0.0, "l2": 9.999999747378752e-05}}, "bias_regularizer": null, "activity_regularizer": null, "kernel_constraint": null, "bias_constraint": null}, "inbound_nodes": [[["activation_52", 0, 0, {}]]]}, {"name": "dense_2_6_bottleneck_bn", "class_name": "BatchNormalization", "config": {"name": "dense_2_6_bottleneck_bn", "trainable": true, "dtype": "float32", "axis": -1, "momentum": 0.99, "epsilon": 1.1e-05, "center": true, "scale": true, "beta_initializer": {"class_name": "Zeros", "config": {}}, "gamma_initializer": {"class_name": "Ones", "config": {}}, "moving_mean_initializer": {"class_name": "Zeros", "config": {}}, "moving_variance_initializer": {"class_name": "Ones", "config": {}}, "beta_regularizer": null, "gamma_regularizer": null, "beta_constraint": null, "gamma_constraint": null}, "inbound_nodes": [[["dense_2_6_bottleneck_conv2D", 0, 0, {}]]]}, {"name": "activation_53", "class_name": "Activation", "config": {"name": "activation_53", "trainable": true, "dtype": "float32", "activation": "relu"}, "inbound_nodes": [[["dense_2_6_bottleneck_bn", 0, 0, {}]]]}, {"name": "dense_2_6_conv2D", "class_name": "Conv2D", "config": {"name": "dense_2_6_conv2D", "trainable": true, "dtype": "float32", "filters": 48, "kernel_size": [3, 3], "strides": [1, 1], "padding": "same", "data_format": "channels_last", "dilation_rate": [1, 1], "activation": "linear", "use_bias": false, "kernel_initializer": {"class_name": "VarianceScaling", "config": {"scale": 2.0, "mode": "fan_in", "distribution": "normal", "seed": null}}, "bias_initializer": {"class_name": "Zeros", "config": {}}, "kernel_regularizer": null, "bias_regularizer": null, "activity_regularizer": null, "kernel_constraint": null, "bias_constraint": null}, "inbound_nodes": [[["activation_53", 0, 0, {}]]]}, {"name": "concatenate_25", "class_name": "Concatenate", "config": {"name": "concatenate_25", "trainable": true, "dtype": "float32", "axis": -1}, "inbound_nodes": [[["concatenate_24", 0, 0, {}], ["dense_2_6_conv2D", 0, 0, {}]]]}, {"name": "dense_2_7_bn", "class_name": "BatchNormalization", "config": {"name": "dense_2_7_bn", "trainable": true, "dtype": "float32", "axis": -1, "momentum": 0.99, "epsilon": 1.1e-05, "center": true, "scale": true, "beta_initializer": {"class_name": "Zeros", "config": {}}, "gamma_initializer": {"class_name": "Ones", "config": {}}, "moving_mean_initializer": {"class_name": "Zeros", "config": {}}, "moving_variance_initializer": {"class_name": "Ones", "config": {}}, "beta_regularizer": null, "gamma_regularizer": null, "beta_constraint": null, "gamma_constraint": null}, "inbound_nodes": [[["concatenate_25", 0, 0, {}]]]}, {"name": "activation_54", "class_name": "Activation", "config": {"name": "activation_54", "trainable": true, "dtype": "float32", "activation": "relu"}, "inbound_nodes": [[["dense_2_7_bn", 0, 0, {}]]]}, {"name": "dense_2_7_bottleneck_conv2D", "class_name": "Conv2D", "config": {"name": "dense_2_7_bottleneck_conv2D", "trainable": true, "dtype": "float32", "filters": 192, "kernel_size": [1, 1], "strides": [1, 1], "padding": "same", "data_format": "channels_last", "dilation_rate": [1, 1], "activation": "linear", "use_bias": false, "kernel_initializer": {"class_name": "VarianceScaling", "config": {"scale": 2.0, "mode": "fan_in", "distribution": "normal", "seed": null}}, "bias_initializer": {"class_name": "Zeros", "config": {}}, "kernel_regularizer": {"class_name": "L1L2", "config": {"l1": 0.0, "l2": 9.999999747378752e-05}}, "bias_regularizer": null, "activity_regularizer": null, "kernel_constraint": null, "bias_constraint": null}, "inbound_nodes": [[["activation_54", 0, 0, {}]]]}, {"name": "dense_2_7_bottleneck_bn", "class_name": "BatchNormalization", "config": {"name": "dense_2_7_bottleneck_bn", "trainable": true, "dtype": "float32", "axis": -1, "momentum": 0.99, "epsilon": 1.1e-05, "center": true, "scale": true, "beta_initializer": {"class_name": "Zeros", "config": {}}, "gamma_initializer": {"class_name": "Ones", "config": {}}, "moving_mean_initializer": {"class_name": "Zeros", "config": {}}, "moving_variance_initializer": {"class_name": "Ones", "config": {}}, "beta_regularizer": null, "gamma_regularizer": null, "beta_constraint": null, "gamma_constraint": null}, "inbound_nodes": [[["dense_2_7_bottleneck_conv2D", 0, 0, {}]]]}, {"name": "activation_55", "class_name": "Activation", "config": {"name": "activation_55", "trainable": true, "dtype": "float32", "activation": "relu"}, "inbound_nodes": [[["dense_2_7_bottleneck_bn", 0, 0, {}]]]}, {"name": "dense_2_7_conv2D", "class_name": "Conv2D", "config": {"name": "dense_2_7_conv2D", "trainable": true, "dtype": "float32", "filters": 48, "kernel_size": [3, 3], "strides": [1, 1], "padding": "same", "data_format": "channels_last", "dilation_rate": [1, 1], "activation": "linear", "use_bias": false, "kernel_initializer": {"class_name": "VarianceScaling", "config": {"scale": 2.0, "mode": "fan_in", "distribution": "normal", "seed": null}}, "bias_initializer": {"class_name": "Zeros", "config": {}}, "kernel_regularizer": null, "bias_regularizer": null, "activity_regularizer": null, "kernel_constraint": null, "bias_constraint": null}, "inbound_nodes": [[["activation_55", 0, 0, {}]]]}, {"name": "concatenate_26", "class_name": "Concatenate", "config": {"name": "concatenate_26", "trainable": true, "dtype": "float32", "axis": -1}, "inbound_nodes": [[["concatenate_25", 0, 0, {}], ["dense_2_7_conv2D", 0, 0, {}]]]}, {"name": "dense_2_8_bn", "class_name": "BatchNormalization", "config": {"name": "dense_2_8_bn", "trainable": true, "dtype": "float32", "axis": -1, "momentum": 0.99, "epsilon": 1.1e-05, "center": true, "scale": true, "beta_initializer": {"class_name": "Zeros", "config": {}}, "gamma_initializer": {"class_name": "Ones", "config": {}}, "moving_mean_initializer": {"class_name": "Zeros", "config": {}}, "moving_variance_initializer": {"class_name": "Ones", "config": {}}, "beta_regularizer": null, "gamma_regularizer": null, "beta_constraint": null, "gamma_constraint": null}, "inbound_nodes": [[["concatenate_26", 0, 0, {}]]]}, {"name": "activation_56", "class_name": "Activation", "config": {"name": "activation_56", "trainable": true, "dtype": "float32", "activation": "relu"}, "inbound_nodes": [[["dense_2_8_bn", 0, 0, {}]]]}, {"name": "dense_2_8_bottleneck_conv2D", "class_name": "Conv2D", "config": {"name": "dense_2_8_bottleneck_conv2D", "trainable": true, "dtype": "float32", "filters": 192, "kernel_size": [1, 1], "strides": [1, 1], "padding": "same", "data_format": "channels_last", "dilation_rate": [1, 1], "activation": "linear", "use_bias": false, "kernel_initializer": {"class_name": "VarianceScaling", "config": {"scale": 2.0, "mode": "fan_in", "distribution": "normal", "seed": null}}, "bias_initializer": {"class_name": "Zeros", "config": {}}, "kernel_regularizer": {"class_name": "L1L2", "config": {"l1": 0.0, "l2": 9.999999747378752e-05}}, "bias_regularizer": null, "activity_regularizer": null, "kernel_constraint": null, "bias_constraint": null}, "inbound_nodes": [[["activation_56", 0, 0, {}]]]}, {"name": "dense_2_8_bottleneck_bn", "class_name": "BatchNormalization", "config": {"name": "dense_2_8_bottleneck_bn", "trainable": true, "dtype": "float32", "axis": -1, "momentum": 0.99, "epsilon": 1.1e-05, "center": true, "scale": true, "beta_initializer": {"class_name": "Zeros", "config": {}}, "gamma_initializer": {"class_name": "Ones", "config": {}}, "moving_mean_initializer": {"class_name": "Zeros", "config": {}}, "moving_variance_initializer": {"class_name": "Ones", "config": {}}, "beta_regularizer": null, "gamma_regularizer": null, "beta_constraint": null, "gamma_constraint": null}, "inbound_nodes": [[["dense_2_8_bottleneck_conv2D", 0, 0, {}]]]}, {"name": "activation_57", "class_name": "Activation", "config": {"name": "activation_57", "trainable": true, "dtype": "float32", "activation": "relu"}, "inbound_nodes": [[["dense_2_8_bottleneck_bn", 0, 0, {}]]]}, {"name": "dense_2_8_conv2D", "class_name": "Conv2D", "config": {"name": "dense_2_8_conv2D", "trainable": true, "dtype": "float32", "filters": 48, "kernel_size": [3, 3], "strides": [1, 1], "padding": "same", "data_format": "channels_last", "dilation_rate": [1, 1], "activation": "linear", "use_bias": false, "kernel_initializer": {"class_name": "VarianceScaling", "config": {"scale": 2.0, "mode": "fan_in", "distribution": "normal", "seed": null}}, "bias_initializer": {"class_name": "Zeros", "config": {}}, "kernel_regularizer": null, "bias_regularizer": null, "activity_regularizer": null, "kernel_constraint": null, "bias_constraint": null}, "inbound_nodes": [[["activation_57", 0, 0, {}]]]}, {"name": "concatenate_27", "class_name": "Concatenate", "config": {"name": "concatenate_27", "trainable": true, "dtype": "float32", "axis": -1}, "inbound_nodes": [[["concatenate_26", 0, 0, {}], ["dense_2_8_conv2D", 0, 0, {}]]]}, {"name": "dense_2_9_bn", "class_name": "BatchNormalization", "config": {"name": "dense_2_9_bn", "trainable": true, "dtype": "float32", "axis": -1, "momentum": 0.99, "epsilon": 1.1e-05, "center": true, "scale": true, "beta_initializer": {"class_name": "Zeros", "config": {}}, "gamma_initializer": {"class_name": "Ones", "config": {}}, "moving_mean_initializer": {"class_name": "Zeros", "config": {}}, "moving_variance_initializer": {"class_name": "Ones", "config": {}}, "beta_regularizer": null, "gamma_regularizer": null, "beta_constraint": null, "gamma_constraint": null}, "inbound_nodes": [[["concatenate_27", 0, 0, {}]]]}, {"name": "activation_58", "class_name": "Activation", "config": {"name": "activation_58", "trainable": true, "dtype": "float32", "activation": "relu"}, "inbound_nodes": [[["dense_2_9_bn", 0, 0, {}]]]}, {"name": "dense_2_9_bottleneck_conv2D", "class_name": "Conv2D", "config": {"name": "dense_2_9_bottleneck_conv2D", "trainable": true, "dtype": "float32", "filters": 192, "kernel_size": [1, 1], "strides": [1, 1], "padding": "same", "data_format": "channels_last", "dilation_rate": [1, 1], "activation": "linear", "use_bias": false, "kernel_initializer": {"class_name": "VarianceScaling", "config": {"scale": 2.0, "mode": "fan_in", "distribution": "normal", "seed": null}}, "bias_initializer": {"class_name": "Zeros", "config": {}}, "kernel_regularizer": {"class_name": "L1L2", "config": {"l1": 0.0, "l2": 9.999999747378752e-05}}, "bias_regularizer": null, "activity_regularizer": null, "kernel_constraint": null, "bias_constraint": null}, "inbound_nodes": [[["activation_58", 0, 0, {}]]]}, {"name": "dense_2_9_bottleneck_bn", "class_name": "BatchNormalization", "config": {"name": "dense_2_9_bottleneck_bn", "trainable": true, "dtype": "float32", "axis": -1, "momentum": 0.99, "epsilon": 1.1e-05, "center": true, "scale": true, "beta_initializer": {"class_name": "Zeros", "config": {}}, "gamma_initializer": {"class_name": "Ones", "config": {}}, "moving_mean_initializer": {"class_name": "Zeros", "config": {}}, "moving_variance_initializer": {"class_name": "Ones", "config": {}}, "beta_regularizer": null, "gamma_regularizer": null, "beta_constraint": null, "gamma_constraint": null}, "inbound_nodes": [[["dense_2_9_bottleneck_conv2D", 0, 0, {}]]]}, {"name": "activation_59", "class_name": "Activation", "config": {"name": "activation_59", "trainable": true, "dtype": "float32", "activation": "relu"}, "inbound_nodes": [[["dense_2_9_bottleneck_bn", 0, 0, {}]]]}, {"name": "dense_2_9_conv2D", "class_name": "Conv2D", "config": {"name": "dense_2_9_conv2D", "trainable": true, "dtype": "float32", "filters": 48, "kernel_size": [3, 3], "strides": [1, 1], "padding": "same", "data_format": "channels_last", "dilation_rate": [1, 1], "activation": "linear", "use_bias": false, "kernel_initializer": {"class_name": "VarianceScaling", "config": {"scale": 2.0, "mode": "fan_in", "distribution": "normal", "seed": null}}, "bias_initializer": {"class_name": "Zeros", "config": {}}, "kernel_regularizer": null, "bias_regularizer": null, "activity_regularizer": null, "kernel_constraint": null, "bias_constraint": null}, "inbound_nodes": [[["activation_59", 0, 0, {}]]]}, {"name": "concatenate_28", "class_name": "Concatenate", "config": {"name": "concatenate_28", "trainable": true, "dtype": "float32", "axis": -1}, "inbound_nodes": [[["concatenate_27", 0, 0, {}], ["dense_2_9_conv2D", 0, 0, {}]]]}, {"name": "dense_2_10_bn", "class_name": "BatchNormalization", "config": {"name": "dense_2_10_bn", "trainable": true, "dtype": "float32", "axis": -1, "momentum": 0.99, "epsilon": 1.1e-05, "center": true, "scale": true, "beta_initializer": {"class_name": "Zeros", "config": {}}, "gamma_initializer": {"class_name": "Ones", "config": {}}, "moving_mean_initializer": {"class_name": "Zeros", "config": {}}, "moving_variance_initializer": {"class_name": "Ones", "config": {}}, "beta_regularizer": null, "gamma_regularizer": null, "beta_constraint": null, "gamma_constraint": null}, "inbound_nodes": [[["concatenate_28", 0, 0, {}]]]}, {"name": "activation_60", "class_name": "Activation", "config": {"name": "activation_60", "trainable": true, "dtype": "float32", "activation": "relu"}, "inbound_nodes": [[["dense_2_10_bn", 0, 0, {}]]]}, {"name": "dense_2_10_bottleneck_conv2D", "class_name": "Conv2D", "config": {"name": "dense_2_10_bottleneck_conv2D", "trainable": true, "dtype": "float32", "filters": 192, "kernel_size": [1, 1], "strides": [1, 1], "padding": "same", "data_format": "channels_last", "dilation_rate": [1, 1], "activation": "linear", "use_bias": false, "kernel_initializer": {"class_name": "VarianceScaling", "config": {"scale": 2.0, "mode": "fan_in", "distribution": "normal", "seed": null}}, "bias_initializer": {"class_name": "Zeros", "config": {}}, "kernel_regularizer": {"class_name": "L1L2", "config": {"l1": 0.0, "l2": 9.999999747378752e-05}}, "bias_regularizer": null, "activity_regularizer": null, "kernel_constraint": null, "bias_constraint": null}, "inbound_nodes": [[["activation_60", 0, 0, {}]]]}, {"name": "dense_2_10_bottleneck_bn", "class_name": "BatchNormalization", "config": {"name": "dense_2_10_bottleneck_bn", "trainable": true, "dtype": "float32", "axis": -1, "momentum": 0.99, "epsilon": 1.1e-05, "center": true, "scale": true, "beta_initializer": {"class_name": "Zeros", "config": {}}, "gamma_initializer": {"class_name": "Ones", "config": {}}, "moving_mean_initializer": {"class_name": "Zeros", "config": {}}, "moving_variance_initializer": {"class_name": "Ones", "config": {}}, "beta_regularizer": null, "gamma_regularizer": null, "beta_constraint": null, "gamma_constraint": null}, "inbound_nodes": [[["dense_2_10_bottleneck_conv2D", 0, 0, {}]]]}, {"name": "activation_61", "class_name": "Activation", "config": {"name": "activation_61", "trainable": true, "dtype": "float32", "activation": "relu"}, "inbound_nodes": [[["dense_2_10_bottleneck_bn", 0, 0, {}]]]}, {"name": "dense_2_10_conv2D", "class_name": "Conv2D", "config": {"name": "dense_2_10_conv2D", "trainable": true, "dtype": "float32", "filters": 48, "kernel_size": [3, 3], "strides": [1, 1], "padding": "same", "data_format": "channels_last", "dilation_rate": [1, 1], "activation": "linear", "use_bias": false, "kernel_initializer": {"class_name": "VarianceScaling", "config": {"scale": 2.0, "mode": "fan_in", "distribution": "normal", "seed": null}}, "bias_initializer": {"class_name": "Zeros", "config": {}}, "kernel_regularizer": null, "bias_regularizer": null, "activity_regularizer": null, "kernel_constraint": null, "bias_constraint": null}, "inbound_nodes": [[["activation_61", 0, 0, {}]]]}, {"name": "concatenate_29", "class_name": "Concatenate", "config": {"name": "concatenate_29", "trainable": true, "dtype": "float32", "axis": -1}, "inbound_nodes": [[["concatenate_28", 0, 0, {}], ["dense_2_10_conv2D", 0, 0, {}]]]}, {"name": "dense_2_11_bn", "class_name": "BatchNormalization", "config": {"name": "dense_2_11_bn", "trainable": true, "dtype": "float32", "axis": -1, "momentum": 0.99, "epsilon": 1.1e-05, "center": true, "scale": true, "beta_initializer": {"class_name": "Zeros", "config": {}}, "gamma_initializer": {"class_name": "Ones", "config": {}}, "moving_mean_initializer": {"class_name": "Zeros", "config": {}}, "moving_variance_initializer": {"class_name": "Ones", "config": {}}, "beta_regularizer": null, "gamma_regularizer": null, "beta_constraint": null, "gamma_constraint": null}, "inbound_nodes": [[["concatenate_29", 0, 0, {}]]]}, {"name": "activation_62", "class_name": "Activation", "config": {"name": "activation_62", "trainable": true, "dtype": "float32", "activation": "relu"}, "inbound_nodes": [[["dense_2_11_bn", 0, 0, {}]]]}, {"name": "dense_2_11_bottleneck_conv2D", "class_name": "Conv2D", "config": {"name": "dense_2_11_bottleneck_conv2D", "trainable": true, "dtype": "float32", "filters": 192, "kernel_size": [1, 1], "strides": [1, 1], "padding": "same", "data_format": "channels_last", "dilation_rate": [1, 1], "activation": "linear", "use_bias": false, "kernel_initializer": {"class_name": "VarianceScaling", "config": {"scale": 2.0, "mode": "fan_in", "distribution": "normal", "seed": null}}, "bias_initializer": {"class_name": "Zeros", "config": {}}, "kernel_regularizer": {"class_name": "L1L2", "config": {"l1": 0.0, "l2": 9.999999747378752e-05}}, "bias_regularizer": null, "activity_regularizer": null, "kernel_constraint": null, "bias_constraint": null}, "inbound_nodes": [[["activation_62", 0, 0, {}]]]}, {"name": "dense_2_11_bottleneck_bn", "class_name": "BatchNormalization", "config": {"name": "dense_2_11_bottleneck_bn", "trainable": true, "dtype": "float32", "axis": -1, "momentum": 0.99, "epsilon": 1.1e-05, "center": true, "scale": true, "beta_initializer": {"class_name": "Zeros", "config": {}}, "gamma_initializer": {"class_name": "Ones", "config": {}}, "moving_mean_initializer": {"class_name": "Zeros", "config": {}}, "moving_variance_initializer": {"class_name": "Ones", "config": {}}, "beta_regularizer": null, "gamma_regularizer": null, "beta_constraint": null, "gamma_constraint": null}, "inbound_nodes": [[["dense_2_11_bottleneck_conv2D", 0, 0, {}]]]}, {"name": "activation_63", "class_name": "Activation", "config": {"name": "activation_63", "trainable": true, "dtype": "float32", "activation": "relu"}, "inbound_nodes": [[["dense_2_11_bottleneck_bn", 0, 0, {}]]]}, {"name": "dense_2_11_conv2D", "class_name": "Conv2D", "config": {"name": "dense_2_11_conv2D", "trainable": true, "dtype": "float32", "filters": 48, "kernel_size": [3, 3], "strides": [1, 1], "padding": "same", "data_format": "channels_last", "dilation_rate": [1, 1], "activation": "linear", "use_bias": false, "kernel_initializer": {"class_name": "VarianceScaling", "config": {"scale": 2.0, "mode": "fan_in", "distribution": "normal", "seed": null}}, "bias_initializer": {"class_name": "Zeros", "config": {}}, "kernel_regularizer": null, "bias_regularizer": null, "activity_regularizer": null, "kernel_constraint": null, "bias_constraint": null}, "inbound_nodes": [[["activation_63", 0, 0, {}]]]}, {"name": "concatenate_30", "class_name": "Concatenate", "config": {"name": "concatenate_30", "trainable": true, "dtype": "float32", "axis": -1}, "inbound_nodes": [[["concatenate_29", 0, 0, {}], ["dense_2_11_conv2D", 0, 0, {}]]]}, {"name": "dense_2_12_bn", "class_name": "BatchNormalization", "config": {"name": "dense_2_12_bn", "trainable": true, "dtype": "float32", "axis": -1, "momentum": 0.99, "epsilon": 1.1e-05, "center": true, "scale": true, "beta_initializer": {"class_name": "Zeros", "config": {}}, "gamma_initializer": {"class_name": "Ones", "config": {}}, "moving_mean_initializer": {"class_name": "Zeros", "config": {}}, "moving_variance_initializer": {"class_name": "Ones", "config": {}}, "beta_regularizer": null, "gamma_regularizer": null, "beta_constraint": null, "gamma_constraint": null}, "inbound_nodes": [[["concatenate_30", 0, 0, {}]]]}, {"name": "activation_64", "class_name": "Activation", "config": {"name": "activation_64", "trainable": true, "dtype": "float32", "activation": "relu"}, "inbound_nodes": [[["dense_2_12_bn", 0, 0, {}]]]}, {"name": "dense_2_12_bottleneck_conv2D", "class_name": "Conv2D", "config": {"name": "dense_2_12_bottleneck_conv2D", "trainable": true, "dtype": "float32", "filters": 192, "kernel_size": [1, 1], "strides": [1, 1], "padding": "same", "data_format": "channels_last", "dilation_rate": [1, 1], "activation": "linear", "use_bias": false, "kernel_initializer": {"class_name": "VarianceScaling", "config": {"scale": 2.0, "mode": "fan_in", "distribution": "normal", "seed": null}}, "bias_initializer": {"class_name": "Zeros", "config": {}}, "kernel_regularizer": {"class_name": "L1L2", "config": {"l1": 0.0, "l2": 9.999999747378752e-05}}, "bias_regularizer": null, "activity_regularizer": null, "kernel_constraint": null, "bias_constraint": null}, "inbound_nodes": [[["activation_64", 0, 0, {}]]]}, {"name": "dense_2_12_bottleneck_bn", "class_name": "BatchNormalization", "config": {"name": "dense_2_12_bottleneck_bn", "trainable": true, "dtype": "float32", "axis": -1, "momentum": 0.99, "epsilon": 1.1e-05, "center": true, "scale": true, "beta_initializer": {"class_name": "Zeros", "config": {}}, "gamma_initializer": {"class_name": "Ones", "config": {}}, "moving_mean_initializer": {"class_name": "Zeros", "config": {}}, "moving_variance_initializer": {"class_name": "Ones", "config": {}}, "beta_regularizer": null, "gamma_regularizer": null, "beta_constraint": null, "gamma_constraint": null}, "inbound_nodes": [[["dense_2_12_bottleneck_conv2D", 0, 0, {}]]]}, {"name": "activation_65", "class_name": "Activation", "config": {"name": "activation_65", "trainable": true, "dtype": "float32", "activation": "relu"}, "inbound_nodes": [[["dense_2_12_bottleneck_bn", 0, 0, {}]]]}, {"name": "dense_2_12_conv2D", "class_name": "Conv2D", "config": {"name": "dense_2_12_conv2D", "trainable": true, "dtype": "float32", "filters": 48, "kernel_size": [3, 3], "strides": [1, 1], "padding": "same", "data_format": "channels_last", "dilation_rate": [1, 1], "activation": "linear", "use_bias": false, "kernel_initializer": {"class_name": "VarianceScaling", "config": {"scale": 2.0, "mode": "fan_in", "distribution": "normal", "seed": null}}, "bias_initializer": {"class_name": "Zeros", "config": {}}, "kernel_regularizer": null, "bias_regularizer": null, "activity_regularizer": null, "kernel_constraint": null, "bias_constraint": null}, "inbound_nodes": [[["activation_65", 0, 0, {}]]]}, {"name": "concatenate_31", "class_name": "Concatenate", "config": {"name": "concatenate_31", "trainable": true, "dtype": "float32", "axis": -1}, "inbound_nodes": [[["concatenate_30", 0, 0, {}], ["dense_2_12_conv2D", 0, 0, {}]]]}, {"name": "dense_2_13_bn", "class_name": "BatchNormalization", "config": {"name": "dense_2_13_bn", "trainable": true, "dtype": "float32", "axis": -1, "momentum": 0.99, "epsilon": 1.1e-05, "center": true, "scale": true, "beta_initializer": {"class_name": "Zeros", "config": {}}, "gamma_initializer": {"class_name": "Ones", "config": {}}, "moving_mean_initializer": {"class_name": "Zeros", "config": {}}, "moving_variance_initializer": {"class_name": "Ones", "config": {}}, "beta_regularizer": null, "gamma_regularizer": null, "beta_constraint": null, "gamma_constraint": null}, "inbound_nodes": [[["concatenate_31", 0, 0, {}]]]}, {"name": "activation_66", "class_name": "Activation", "config": {"name": "activation_66", "trainable": true, "dtype": "float32", "activation": "relu"}, "inbound_nodes": [[["dense_2_13_bn", 0, 0, {}]]]}, {"name": "dense_2_13_bottleneck_conv2D", "class_name": "Conv2D", "config": {"name": "dense_2_13_bottleneck_conv2D", "trainable": true, "dtype": "float32", "filters": 192, "kernel_size": [1, 1], "strides": [1, 1], "padding": "same", "data_format": "channels_last", "dilation_rate": [1, 1], "activation": "linear", "use_bias": false, "kernel_initializer": {"class_name": "VarianceScaling", "config": {"scale": 2.0, "mode": "fan_in", "distribution": "normal", "seed": null}}, "bias_initializer": {"class_name": "Zeros", "config": {}}, "kernel_regularizer": {"class_name": "L1L2", "config": {"l1": 0.0, "l2": 9.999999747378752e-05}}, "bias_regularizer": null, "activity_regularizer": null, "kernel_constraint": null, "bias_constraint": null}, "inbound_nodes": [[["activation_66", 0, 0, {}]]]}, {"name": "dense_2_13_bottleneck_bn", "class_name": "BatchNormalization", "config": {"name": "dense_2_13_bottleneck_bn", "trainable": true, "dtype": "float32", "axis": -1, "momentum": 0.99, "epsilon": 1.1e-05, "center": true, "scale": true, "beta_initializer": {"class_name": "Zeros", "config": {}}, "gamma_initializer": {"class_name": "Ones", "config": {}}, "moving_mean_initializer": {"class_name": "Zeros", "config": {}}, "moving_variance_initializer": {"class_name": "Ones", "config": {}}, "beta_regularizer": null, "gamma_regularizer": null, "beta_constraint": null, "gamma_constraint": null}, "inbound_nodes": [[["dense_2_13_bottleneck_conv2D", 0, 0, {}]]]}, {"name": "activation_67", "class_name": "Activation", "config": {"name": "activation_67", "trainable": true, "dtype": "float32", "activation": "relu"}, "inbound_nodes": [[["dense_2_13_bottleneck_bn", 0, 0, {}]]]}, {"name": "dense_2_13_conv2D", "class_name": "Conv2D", "config": {"name": "dense_2_13_conv2D", "trainable": true, "dtype": "float32", "filters": 48, "kernel_size": [3, 3], "strides": [1, 1], "padding": "same", "data_format": "channels_last", "dilation_rate": [1, 1], "activation": "linear", "use_bias": false, "kernel_initializer": {"class_name": "VarianceScaling", "config": {"scale": 2.0, "mode": "fan_in", "distribution": "normal", "seed": null}}, "bias_initializer": {"class_name": "Zeros", "config": {}}, "kernel_regularizer": null, "bias_regularizer": null, "activity_regularizer": null, "kernel_constraint": null, "bias_constraint": null}, "inbound_nodes": [[["activation_67", 0, 0, {}]]]}, {"name": "concatenate_32", "class_name": "Concatenate", "config": {"name": "concatenate_32", "trainable": true, "dtype": "float32", "axis": -1}, "inbound_nodes": [[["concatenate_31", 0, 0, {}], ["dense_2_13_conv2D", 0, 0, {}]]]}, {"name": "dense_2_14_bn", "class_name": "BatchNormalization", "config": {"name": "dense_2_14_bn", "trainable": true, "dtype": "float32", "axis": -1, "momentum": 0.99, "epsilon": 1.1e-05, "center": true, "scale": true, "beta_initializer": {"class_name": "Zeros", "config": {}}, "gamma_initializer": {"class_name": "Ones", "config": {}}, "moving_mean_initializer": {"class_name": "Zeros", "config": {}}, "moving_variance_initializer": {"class_name": "Ones", "config": {}}, "beta_regularizer": null, "gamma_regularizer": null, "beta_constraint": null, "gamma_constraint": null}, "inbound_nodes": [[["concatenate_32", 0, 0, {}]]]}, {"name": "activation_68", "class_name": "Activation", "config": {"name": "activation_68", "trainable": true, "dtype": "float32", "activation": "relu"}, "inbound_nodes": [[["dense_2_14_bn", 0, 0, {}]]]}, {"name": "dense_2_14_bottleneck_conv2D", "class_name": "Conv2D", "config": {"name": "dense_2_14_bottleneck_conv2D", "trainable": true, "dtype": "float32", "filters": 192, "kernel_size": [1, 1], "strides": [1, 1], "padding": "same", "data_format": "channels_last", "dilation_rate": [1, 1], "activation": "linear", "use_bias": false, "kernel_initializer": {"class_name": "VarianceScaling", "config": {"scale": 2.0, "mode": "fan_in", "distribution": "normal", "seed": null}}, "bias_initializer": {"class_name": "Zeros", "config": {}}, "kernel_regularizer": {"class_name": "L1L2", "config": {"l1": 0.0, "l2": 9.999999747378752e-05}}, "bias_regularizer": null, "activity_regularizer": null, "kernel_constraint": null, "bias_constraint": null}, "inbound_nodes": [[["activation_68", 0, 0, {}]]]}, {"name": "dense_2_14_bottleneck_bn", "class_name": "BatchNormalization", "config": {"name": "dense_2_14_bottleneck_bn", "trainable": true, "dtype": "float32", "axis": -1, "momentum": 0.99, "epsilon": 1.1e-05, "center": true, "scale": true, "beta_initializer": {"class_name": "Zeros", "config": {}}, "gamma_initializer": {"class_name": "Ones", "config": {}}, "moving_mean_initializer": {"class_name": "Zeros", "config": {}}, "moving_variance_initializer": {"class_name": "Ones", "config": {}}, "beta_regularizer": null, "gamma_regularizer": null, "beta_constraint": null, "gamma_constraint": null}, "inbound_nodes": [[["dense_2_14_bottleneck_conv2D", 0, 0, {}]]]}, {"name": "activation_69", "class_name": "Activation", "config": {"name": "activation_69", "trainable": true, "dtype": "float32", "activation": "relu"}, "inbound_nodes": [[["dense_2_14_bottleneck_bn", 0, 0, {}]]]}, {"name": "dense_2_14_conv2D", "class_name": "Conv2D", "config": {"name": "dense_2_14_conv2D", "trainable": true, "dtype": "float32", "filters": 48, "kernel_size": [3, 3], "strides": [1, 1], "padding": "same", "data_format": "channels_last", "dilation_rate": [1, 1], "activation": "linear", "use_bias": false, "kernel_initializer": {"class_name": "VarianceScaling", "config": {"scale": 2.0, "mode": "fan_in", "distribution": "normal", "seed": null}}, "bias_initializer": {"class_name": "Zeros", "config": {}}, "kernel_regularizer": null, "bias_regularizer": null, "activity_regularizer": null, "kernel_constraint": null, "bias_constraint": null}, "inbound_nodes": [[["activation_69", 0, 0, {}]]]}, {"name": "concatenate_33", "class_name": "Concatenate", "config": {"name": "concatenate_33", "trainable": true, "dtype": "float32", "axis": -1}, "inbound_nodes": [[["concatenate_32", 0, 0, {}], ["dense_2_14_conv2D", 0, 0, {}]]]}, {"name": "dense_2_15_bn", "class_name": "BatchNormalization", "config": {"name": "dense_2_15_bn", "trainable": true, "dtype": "float32", "axis": -1, "momentum": 0.99, "epsilon": 1.1e-05, "center": true, "scale": true, "beta_initializer": {"class_name": "Zeros", "config": {}}, "gamma_initializer": {"class_name": "Ones", "config": {}}, "moving_mean_initializer": {"class_name": "Zeros", "config": {}}, "moving_variance_initializer": {"class_name": "Ones", "config": {}}, "beta_regularizer": null, "gamma_regularizer": null, "beta_constraint": null, "gamma_constraint": null}, "inbound_nodes": [[["concatenate_33", 0, 0, {}]]]}, {"name": "activation_70", "class_name": "Activation", "config": {"name": "activation_70", "trainable": true, "dtype": "float32", "activation": "relu"}, "inbound_nodes": [[["dense_2_15_bn", 0, 0, {}]]]}, {"name": "dense_2_15_bottleneck_conv2D", "class_name": "Conv2D", "config": {"name": "dense_2_15_bottleneck_conv2D", "trainable": true, "dtype": "float32", "filters": 192, "kernel_size": [1, 1], "strides": [1, 1], "padding": "same", "data_format": "channels_last", "dilation_rate": [1, 1], "activation": "linear", "use_bias": false, "kernel_initializer": {"class_name": "VarianceScaling", "config": {"scale": 2.0, "mode": "fan_in", "distribution": "normal", "seed": null}}, "bias_initializer": {"class_name": "Zeros", "config": {}}, "kernel_regularizer": {"class_name": "L1L2", "config": {"l1": 0.0, "l2": 9.999999747378752e-05}}, "bias_regularizer": null, "activity_regularizer": null, "kernel_constraint": null, "bias_constraint": null}, "inbound_nodes": [[["activation_70", 0, 0, {}]]]}, {"name": "dense_2_15_bottleneck_bn", "class_name": "BatchNormalization", "config": {"name": "dense_2_15_bottleneck_bn", "trainable": true, "dtype": "float32", "axis": -1, "momentum": 0.99, "epsilon": 1.1e-05, "center": true, "scale": true, "beta_initializer": {"class_name": "Zeros", "config": {}}, "gamma_initializer": {"class_name": "Ones", "config": {}}, "moving_mean_initializer": {"class_name": "Zeros", "config": {}}, "moving_variance_initializer": {"class_name": "Ones", "config": {}}, "beta_regularizer": null, "gamma_regularizer": null, "beta_constraint": null, "gamma_constraint": null}, "inbound_nodes": [[["dense_2_15_bottleneck_conv2D", 0, 0, {}]]]}, {"name": "activation_71", "class_name": "Activation", "config": {"name": "activation_71", "trainable": true, "dtype": "float32", "activation": "relu"}, "inbound_nodes": [[["dense_2_15_bottleneck_bn", 0, 0, {}]]]}, {"name": "dense_2_15_conv2D", "class_name": "Conv2D", "config": {"name": "dense_2_15_conv2D", "trainable": true, "dtype": "float32", "filters": 48, "kernel_size": [3, 3], "strides": [1, 1], "padding": "same", "data_format": "channels_last", "dilation_rate": [1, 1], "activation": "linear", "use_bias": false, "kernel_initializer": {"class_name": "VarianceScaling", "config": {"scale": 2.0, "mode": "fan_in", "distribution": "normal", "seed": null}}, "bias_initializer": {"class_name": "Zeros", "config": {}}, "kernel_regularizer": null, "bias_regularizer": null, "activity_regularizer": null, "kernel_constraint": null, "bias_constraint": null}, "inbound_nodes": [[["activation_71", 0, 0, {}]]]}, {"name": "concatenate_34", "class_name": "Concatenate", "config": {"name": "concatenate_34", "trainable": true, "dtype": "float32", "axis": -1}, "inbound_nodes": [[["concatenate_33", 0, 0, {}], ["dense_2_15_conv2D", 0, 0, {}]]]}, {"name": "dense_2_16_bn", "class_name": "BatchNormalization", "config": {"name": "dense_2_16_bn", "trainable": true, "dtype": "float32", "axis": -1, "momentum": 0.99, "epsilon": 1.1e-05, "center": true, "scale": true, "beta_initializer": {"class_name": "Zeros", "config": {}}, "gamma_initializer": {"class_name": "Ones", "config": {}}, "moving_mean_initializer": {"class_name": "Zeros", "config": {}}, "moving_variance_initializer": {"class_name": "Ones", "config": {}}, "beta_regularizer": null, "gamma_regularizer": null, "beta_constraint": null, "gamma_constraint": null}, "inbound_nodes": [[["concatenate_34", 0, 0, {}]]]}, {"name": "activation_72", "class_name": "Activation", "config": {"name": "activation_72", "trainable": true, "dtype": "float32", "activation": "relu"}, "inbound_nodes": [[["dense_2_16_bn", 0, 0, {}]]]}, {"name": "dense_2_16_bottleneck_conv2D", "class_name": "Conv2D", "config": {"name": "dense_2_16_bottleneck_conv2D", "trainable": true, "dtype": "float32", "filters": 192, "kernel_size": [1, 1], "strides": [1, 1], "padding": "same", "data_format": "channels_last", "dilation_rate": [1, 1], "activation": "linear", "use_bias": false, "kernel_initializer": {"class_name": "VarianceScaling", "config": {"scale": 2.0, "mode": "fan_in", "distribution": "normal", "seed": null}}, "bias_initializer": {"class_name": "Zeros", "config": {}}, "kernel_regularizer": {"class_name": "L1L2", "config": {"l1": 0.0, "l2": 9.999999747378752e-05}}, "bias_regularizer": null, "activity_regularizer": null, "kernel_constraint": null, "bias_constraint": null}, "inbound_nodes": [[["activation_72", 0, 0, {}]]]}, {"name": "dense_2_16_bottleneck_bn", "class_name": "BatchNormalization", "config": {"name": "dense_2_16_bottleneck_bn", "trainable": true, "dtype": "float32", "axis": -1, "momentum": 0.99, "epsilon": 1.1e-05, "center": true, "scale": true, "beta_initializer": {"class_name": "Zeros", "config": {}}, "gamma_initializer": {"class_name": "Ones", "config": {}}, "moving_mean_initializer": {"class_name": "Zeros", "config": {}}, "moving_variance_initializer": {"class_name": "Ones", "config": {}}, "beta_regularizer": null, "gamma_regularizer": null, "beta_constraint": null, "gamma_constraint": null}, "inbound_nodes": [[["dense_2_16_bottleneck_conv2D", 0, 0, {}]]]}, {"name": "activation_73", "class_name": "Activation", "config": {"name": "activation_73", "trainable": true, "dtype": "float32", "activation": "relu"}, "inbound_nodes": [[["dense_2_16_bottleneck_bn", 0, 0, {}]]]}, {"name": "dense_2_16_conv2D", "class_name": "Conv2D", "config": {"name": "dense_2_16_conv2D", "trainable": true, "dtype": "float32", "filters": 48, "kernel_size": [3, 3], "strides": [1, 1], "padding": "same", "data_format": "channels_last", "dilation_rate": [1, 1], "activation": "linear", "use_bias": false, "kernel_initializer": {"class_name": "VarianceScaling", "config": {"scale": 2.0, "mode": "fan_in", "distribution": "normal", "seed": null}}, "bias_initializer": {"class_name": "Zeros", "config": {}}, "kernel_regularizer": null, "bias_regularizer": null, "activity_regularizer": null, "kernel_constraint": null, "bias_constraint": null}, "inbound_nodes": [[["activation_73", 0, 0, {}]]]}, {"name": "concatenate_35", "class_name": "Concatenate", "config": {"name": "concatenate_35", "trainable": true, "dtype": "float32", "axis": -1}, "inbound_nodes": [[["concatenate_34", 0, 0, {}], ["dense_2_16_conv2D", 0, 0, {}]]]}, {"name": "dense_2_17_bn", "class_name": "BatchNormalization", "config": {"name": "dense_2_17_bn", "trainable": true, "dtype": "float32", "axis": -1, "momentum": 0.99, "epsilon": 1.1e-05, "center": true, "scale": true, "beta_initializer": {"class_name": "Zeros", "config": {}}, "gamma_initializer": {"class_name": "Ones", "config": {}}, "moving_mean_initializer": {"class_name": "Zeros", "config": {}}, "moving_variance_initializer": {"class_name": "Ones", "config": {}}, "beta_regularizer": null, "gamma_regularizer": null, "beta_constraint": null, "gamma_constraint": null}, "inbound_nodes": [[["concatenate_35", 0, 0, {}]]]}, {"name": "activation_74", "class_name": "Activation", "config": {"name": "activation_74", "trainable": true, "dtype": "float32", "activation": "relu"}, "inbound_nodes": [[["dense_2_17_bn", 0, 0, {}]]]}, {"name": "dense_2_17_bottleneck_conv2D", "class_name": "Conv2D", "config": {"name": "dense_2_17_bottleneck_conv2D", "trainable": true, "dtype": "float32", "filters": 192, "kernel_size": [1, 1], "strides": [1, 1], "padding": "same", "data_format": "channels_last", "dilation_rate": [1, 1], "activation": "linear", "use_bias": false, "kernel_initializer": {"class_name": "VarianceScaling", "config": {"scale": 2.0, "mode": "fan_in", "distribution": "normal", "seed": null}}, "bias_initializer": {"class_name": "Zeros", "config": {}}, "kernel_regularizer": {"class_name": "L1L2", "config": {"l1": 0.0, "l2": 9.999999747378752e-05}}, "bias_regularizer": null, "activity_regularizer": null, "kernel_constraint": null, "bias_constraint": null}, "inbound_nodes": [[["activation_74", 0, 0, {}]]]}, {"name": "dense_2_17_bottleneck_bn", "class_name": "BatchNormalization", "config": {"name": "dense_2_17_bottleneck_bn", "trainable": true, "dtype": "float32", "axis": -1, "momentum": 0.99, "epsilon": 1.1e-05, "center": true, "scale": true, "beta_initializer": {"class_name": "Zeros", "config": {}}, "gamma_initializer": {"class_name": "Ones", "config": {}}, "moving_mean_initializer": {"class_name": "Zeros", "config": {}}, "moving_variance_initializer": {"class_name": "Ones", "config": {}}, "beta_regularizer": null, "gamma_regularizer": null, "beta_constraint": null, "gamma_constraint": null}, "inbound_nodes": [[["dense_2_17_bottleneck_conv2D", 0, 0, {}]]]}, {"name": "activation_75", "class_name": "Activation", "config": {"name": "activation_75", "trainable": true, "dtype": "float32", "activation": "relu"}, "inbound_nodes": [[["dense_2_17_bottleneck_bn", 0, 0, {}]]]}, {"name": "dense_2_17_conv2D", "class_name": "Conv2D", "config": {"name": "dense_2_17_conv2D", "trainable": true, "dtype": "float32", "filters": 48, "kernel_size": [3, 3], "strides": [1, 1], "padding": "same", "data_format": "channels_last", "dilation_rate": [1, 1], "activation": "linear", "use_bias": false, "kernel_initializer": {"class_name": "VarianceScaling", "config": {"scale": 2.0, "mode": "fan_in", "distribution": "normal", "seed": null}}, "bias_initializer": {"class_name": "Zeros", "config": {}}, "kernel_regularizer": null, "bias_regularizer": null, "activity_regularizer": null, "kernel_constraint": null, "bias_constraint": null}, "inbound_nodes": [[["activation_75", 0, 0, {}]]]}, {"name": "concatenate_36", "class_name": "Concatenate", "config": {"name": "concatenate_36", "trainable": true, "dtype": "float32", "axis": -1}, "inbound_nodes": [[["concatenate_35", 0, 0, {}], ["dense_2_17_conv2D", 0, 0, {}]]]}, {"name": "dense_2_18_bn", "class_name": "BatchNormalization", "config": {"name": "dense_2_18_bn", "trainable": true, "dtype": "float32", "axis": -1, "momentum": 0.99, "epsilon": 1.1e-05, "center": true, "scale": true, "beta_initializer": {"class_name": "Zeros", "config": {}}, "gamma_initializer": {"class_name": "Ones", "config": {}}, "moving_mean_initializer": {"class_name": "Zeros", "config": {}}, "moving_variance_initializer": {"class_name": "Ones", "config": {}}, "beta_regularizer": null, "gamma_regularizer": null, "beta_constraint": null, "gamma_constraint": null}, "inbound_nodes": [[["concatenate_36", 0, 0, {}]]]}, {"name": "activation_76", "class_name": "Activation", "config": {"name": "activation_76", "trainable": true, "dtype": "float32", "activation": "relu"}, "inbound_nodes": [[["dense_2_18_bn", 0, 0, {}]]]}, {"name": "dense_2_18_bottleneck_conv2D", "class_name": "Conv2D", "config": {"name": "dense_2_18_bottleneck_conv2D", "trainable": true, "dtype": "float32", "filters": 192, "kernel_size": [1, 1], "strides": [1, 1], "padding": "same", "data_format": "channels_last", "dilation_rate": [1, 1], "activation": "linear", "use_bias": false, "kernel_initializer": {"class_name": "VarianceScaling", "config": {"scale": 2.0, "mode": "fan_in", "distribution": "normal", "seed": null}}, "bias_initializer": {"class_name": "Zeros", "config": {}}, "kernel_regularizer": {"class_name": "L1L2", "config": {"l1": 0.0, "l2": 9.999999747378752e-05}}, "bias_regularizer": null, "activity_regularizer": null, "kernel_constraint": null, "bias_constraint": null}, "inbound_nodes": [[["activation_76", 0, 0, {}]]]}, {"name": "dense_2_18_bottleneck_bn", "class_name": "BatchNormalization", "config": {"name": "dense_2_18_bottleneck_bn", "trainable": true, "dtype": "float32", "axis": -1, "momentum": 0.99, "epsilon": 1.1e-05, "center": true, "scale": true, "beta_initializer": {"class_name": "Zeros", "config": {}}, "gamma_initializer": {"class_name": "Ones", "config": {}}, "moving_mean_initializer": {"class_name": "Zeros", "config": {}}, "moving_variance_initializer": {"class_name": "Ones", "config": {}}, "beta_regularizer": null, "gamma_regularizer": null, "beta_constraint": null, "gamma_constraint": null}, "inbound_nodes": [[["dense_2_18_bottleneck_conv2D", 0, 0, {}]]]}, {"name": "activation_77", "class_name": "Activation", "config": {"name": "activation_77", "trainable": true, "dtype": "float32", "activation": "relu"}, "inbound_nodes": [[["dense_2_18_bottleneck_bn", 0, 0, {}]]]}, {"name": "dense_2_18_conv2D", "class_name": "Conv2D", "config": {"name": "dense_2_18_conv2D", "trainable": true, "dtype": "float32", "filters": 48, "kernel_size": [3, 3], "strides": [1, 1], "padding": "same", "data_format": "channels_last", "dilation_rate": [1, 1], "activation": "linear", "use_bias": false, "kernel_initializer": {"class_name": "VarianceScaling", "config": {"scale": 2.0, "mode": "fan_in", "distribution": "normal", "seed": null}}, "bias_initializer": {"class_name": "Zeros", "config": {}}, "kernel_regularizer": null, "bias_regularizer": null, "activity_regularizer": null, "kernel_constraint": null, "bias_constraint": null}, "inbound_nodes": [[["activation_77", 0, 0, {}]]]}, {"name": "concatenate_37", "class_name": "Concatenate", "config": {"name": "concatenate_37", "trainable": true, "dtype": "float32", "axis": -1}, "inbound_nodes": [[["concatenate_36", 0, 0, {}], ["dense_2_18_conv2D", 0, 0, {}]]]}, {"name": "dense_2_19_bn", "class_name": "BatchNormalization", "config": {"name": "dense_2_19_bn", "trainable": true, "dtype": "float32", "axis": -1, "momentum": 0.99, "epsilon": 1.1e-05, "center": true, "scale": true, "beta_initializer": {"class_name": "Zeros", "config": {}}, "gamma_initializer": {"class_name": "Ones", "config": {}}, "moving_mean_initializer": {"class_name": "Zeros", "config": {}}, "moving_variance_initializer": {"class_name": "Ones", "config": {}}, "beta_regularizer": null, "gamma_regularizer": null, "beta_constraint": null, "gamma_constraint": null}, "inbound_nodes": [[["concatenate_37", 0, 0, {}]]]}, {"name": "activation_78", "class_name": "Activation", "config": {"name": "activation_78", "trainable": true, "dtype": "float32", "activation": "relu"}, "inbound_nodes": [[["dense_2_19_bn", 0, 0, {}]]]}, {"name": "dense_2_19_bottleneck_conv2D", "class_name": "Conv2D", "config": {"name": "dense_2_19_bottleneck_conv2D", "trainable": true, "dtype": "float32", "filters": 192, "kernel_size": [1, 1], "strides": [1, 1], "padding": "same", "data_format": "channels_last", "dilation_rate": [1, 1], "activation": "linear", "use_bias": false, "kernel_initializer": {"class_name": "VarianceScaling", "config": {"scale": 2.0, "mode": "fan_in", "distribution": "normal", "seed": null}}, "bias_initializer": {"class_name": "Zeros", "config": {}}, "kernel_regularizer": {"class_name": "L1L2", "config": {"l1": 0.0, "l2": 9.999999747378752e-05}}, "bias_regularizer": null, "activity_regularizer": null, "kernel_constraint": null, "bias_constraint": null}, "inbound_nodes": [[["activation_78", 0, 0, {}]]]}, {"name": "dense_2_19_bottleneck_bn", "class_name": "BatchNormalization", "config": {"name": "dense_2_19_bottleneck_bn", "trainable": true, "dtype": "float32", "axis": -1, "momentum": 0.99, "epsilon": 1.1e-05, "center": true, "scale": true, "beta_initializer": {"class_name": "Zeros", "config": {}}, "gamma_initializer": {"class_name": "Ones", "config": {}}, "moving_mean_initializer": {"class_name": "Zeros", "config": {}}, "moving_variance_initializer": {"class_name": "Ones", "config": {}}, "beta_regularizer": null, "gamma_regularizer": null, "beta_constraint": null, "gamma_constraint": null}, "inbound_nodes": [[["dense_2_19_bottleneck_conv2D", 0, 0, {}]]]}, {"name": "activation_79", "class_name": "Activation", "config": {"name": "activation_79", "trainable": true, "dtype": "float32", "activation": "relu"}, "inbound_nodes": [[["dense_2_19_bottleneck_bn", 0, 0, {}]]]}, {"name": "dense_2_19_conv2D", "class_name": "Conv2D", "config": {"name": "dense_2_19_conv2D", "trainable": true, "dtype": "float32", "filters": 48, "kernel_size": [3, 3], "strides": [1, 1], "padding": "same", "data_format": "channels_last", "dilation_rate": [1, 1], "activation": "linear", "use_bias": false, "kernel_initializer": {"class_name": "VarianceScaling", "config": {"scale": 2.0, "mode": "fan_in", "distribution": "normal", "seed": null}}, "bias_initializer": {"class_name": "Zeros", "config": {}}, "kernel_regularizer": null, "bias_regularizer": null, "activity_regularizer": null, "kernel_constraint": null, "bias_constraint": null}, "inbound_nodes": [[["activation_79", 0, 0, {}]]]}, {"name": "concatenate_38", "class_name": "Concatenate", "config": {"name": "concatenate_38", "trainable": true, "dtype": "float32", "axis": -1}, "inbound_nodes": [[["concatenate_37", 0, 0, {}], ["dense_2_19_conv2D", 0, 0, {}]]]}, {"name": "dense_2_20_bn", "class_name": "BatchNormalization", "config": {"name": "dense_2_20_bn", "trainable": true, "dtype": "float32", "axis": -1, "momentum": 0.99, "epsilon": 1.1e-05, "center": true, "scale": true, "beta_initializer": {"class_name": "Zeros", "config": {}}, "gamma_initializer": {"class_name": "Ones", "config": {}}, "moving_mean_initializer": {"class_name": "Zeros", "config": {}}, "moving_variance_initializer": {"class_name": "Ones", "config": {}}, "beta_regularizer": null, "gamma_regularizer": null, "beta_constraint": null, "gamma_constraint": null}, "inbound_nodes": [[["concatenate_38", 0, 0, {}]]]}, {"name": "activation_80", "class_name": "Activation", "config": {"name": "activation_80", "trainable": true, "dtype": "float32", "activation": "relu"}, "inbound_nodes": [[["dense_2_20_bn", 0, 0, {}]]]}, {"name": "dense_2_20_bottleneck_conv2D", "class_name": "Conv2D", "config": {"name": "dense_2_20_bottleneck_conv2D", "trainable": true, "dtype": "float32", "filters": 192, "kernel_size": [1, 1], "strides": [1, 1], "padding": "same", "data_format": "channels_last", "dilation_rate": [1, 1], "activation": "linear", "use_bias": false, "kernel_initializer": {"class_name": "VarianceScaling", "config": {"scale": 2.0, "mode": "fan_in", "distribution": "normal", "seed": null}}, "bias_initializer": {"class_name": "Zeros", "config": {}}, "kernel_regularizer": {"class_name": "L1L2", "config": {"l1": 0.0, "l2": 9.999999747378752e-05}}, "bias_regularizer": null, "activity_regularizer": null, "kernel_constraint": null, "bias_constraint": null}, "inbound_nodes": [[["activation_80", 0, 0, {}]]]}, {"name": "dense_2_20_bottleneck_bn", "class_name": "BatchNormalization", "config": {"name": "dense_2_20_bottleneck_bn", "trainable": true, "dtype": "float32", "axis": -1, "momentum": 0.99, "epsilon": 1.1e-05, "center": true, "scale": true, "beta_initializer": {"class_name": "Zeros", "config": {}}, "gamma_initializer": {"class_name": "Ones", "config": {}}, "moving_mean_initializer": {"class_name": "Zeros", "config": {}}, "moving_variance_initializer": {"class_name": "Ones", "config": {}}, "beta_regularizer": null, "gamma_regularizer": null, "beta_constraint": null, "gamma_constraint": null}, "inbound_nodes": [[["dense_2_20_bottleneck_conv2D", 0, 0, {}]]]}, {"name": "activation_81", "class_name": "Activation", "config": {"name": "activation_81", "trainable": true, "dtype": "float32", "activation": "relu"}, "inbound_nodes": [[["dense_2_20_bottleneck_bn", 0, 0, {}]]]}, {"name": "dense_2_20_conv2D", "class_name": "Conv2D", "config": {"name": "dense_2_20_conv2D", "trainable": true, "dtype": "float32", "filters": 48, "kernel_size": [3, 3], "strides": [1, 1], "padding": "same", "data_format": "channels_last", "dilation_rate": [1, 1], "activation": "linear", "use_bias": false, "kernel_initializer": {"class_name": "VarianceScaling", "config": {"scale": 2.0, "mode": "fan_in", "distribution": "normal", "seed": null}}, "bias_initializer": {"class_name": "Zeros", "config": {}}, "kernel_regularizer": null, "bias_regularizer": null, "activity_regularizer": null, "kernel_constraint": null, "bias_constraint": null}, "inbound_nodes": [[["activation_81", 0, 0, {}]]]}, {"name": "concatenate_39", "class_name": "Concatenate", "config": {"name": "concatenate_39", "trainable": true, "dtype": "float32", "axis": -1}, "inbound_nodes": [[["concatenate_38", 0, 0, {}], ["dense_2_20_conv2D", 0, 0, {}]]]}, {"name": "dense_2_21_bn", "class_name": "BatchNormalization", "config": {"name": "dense_2_21_bn", "trainable": true, "dtype": "float32", "axis": -1, "momentum": 0.99, "epsilon": 1.1e-05, "center": true, "scale": true, "beta_initializer": {"class_name": "Zeros", "config": {}}, "gamma_initializer": {"class_name": "Ones", "config": {}}, "moving_mean_initializer": {"class_name": "Zeros", "config": {}}, "moving_variance_initializer": {"class_name": "Ones", "config": {}}, "beta_regularizer": null, "gamma_regularizer": null, "beta_constraint": null, "gamma_constraint": null}, "inbound_nodes": [[["concatenate_39", 0, 0, {}]]]}, {"name": "activation_82", "class_name": "Activation", "config": {"name": "activation_82", "trainable": true, "dtype": "float32", "activation": "relu"}, "inbound_nodes": [[["dense_2_21_bn", 0, 0, {}]]]}, {"name": "dense_2_21_bottleneck_conv2D", "class_name": "Conv2D", "config": {"name": "dense_2_21_bottleneck_conv2D", "trainable": true, "dtype": "float32", "filters": 192, "kernel_size": [1, 1], "strides": [1, 1], "padding": "same", "data_format": "channels_last", "dilation_rate": [1, 1], "activation": "linear", "use_bias": false, "kernel_initializer": {"class_name": "VarianceScaling", "config": {"scale": 2.0, "mode": "fan_in", "distribution": "normal", "seed": null}}, "bias_initializer": {"class_name": "Zeros", "config": {}}, "kernel_regularizer": {"class_name": "L1L2", "config": {"l1": 0.0, "l2": 9.999999747378752e-05}}, "bias_regularizer": null, "activity_regularizer": null, "kernel_constraint": null, "bias_constraint": null}, "inbound_nodes": [[["activation_82", 0, 0, {}]]]}, {"name": "dense_2_21_bottleneck_bn", "class_name": "BatchNormalization", "config": {"name": "dense_2_21_bottleneck_bn", "trainable": true, "dtype": "float32", "axis": -1, "momentum": 0.99, "epsilon": 1.1e-05, "center": true, "scale": true, "beta_initializer": {"class_name": "Zeros", "config": {}}, "gamma_initializer": {"class_name": "Ones", "config": {}}, "moving_mean_initializer": {"class_name": "Zeros", "config": {}}, "moving_variance_initializer": {"class_name": "Ones", "config": {}}, "beta_regularizer": null, "gamma_regularizer": null, "beta_constraint": null, "gamma_constraint": null}, "inbound_nodes": [[["dense_2_21_bottleneck_conv2D", 0, 0, {}]]]}, {"name": "activation_83", "class_name": "Activation", "config": {"name": "activation_83", "trainable": true, "dtype": "float32", "activation": "relu"}, "inbound_nodes": [[["dense_2_21_bottleneck_bn", 0, 0, {}]]]}, {"name": "dense_2_21_conv2D", "class_name": "Conv2D", "config": {"name": "dense_2_21_conv2D", "trainable": true, "dtype": "float32", "filters": 48, "kernel_size": [3, 3], "strides": [1, 1], "padding": "same", "data_format": "channels_last", "dilation_rate": [1, 1], "activation": "linear", "use_bias": false, "kernel_initializer": {"class_name": "VarianceScaling", "config": {"scale": 2.0, "mode": "fan_in", "distribution": "normal", "seed": null}}, "bias_initializer": {"class_name": "Zeros", "config": {}}, "kernel_regularizer": null, "bias_regularizer": null, "activity_regularizer": null, "kernel_constraint": null, "bias_constraint": null}, "inbound_nodes": [[["activation_83", 0, 0, {}]]]}, {"name": "concatenate_40", "class_name": "Concatenate", "config": {"name": "concatenate_40", "trainable": true, "dtype": "float32", "axis": -1}, "inbound_nodes": [[["concatenate_39", 0, 0, {}], ["dense_2_21_conv2D", 0, 0, {}]]]}, {"name": "dense_2_22_bn", "class_name": "BatchNormalization", "config": {"name": "dense_2_22_bn", "trainable": true, "dtype": "float32", "axis": -1, "momentum": 0.99, "epsilon": 1.1e-05, "center": true, "scale": true, "beta_initializer": {"class_name": "Zeros", "config": {}}, "gamma_initializer": {"class_name": "Ones", "config": {}}, "moving_mean_initializer": {"class_name": "Zeros", "config": {}}, "moving_variance_initializer": {"class_name": "Ones", "config": {}}, "beta_regularizer": null, "gamma_regularizer": null, "beta_constraint": null, "gamma_constraint": null}, "inbound_nodes": [[["concatenate_40", 0, 0, {}]]]}, {"name": "activation_84", "class_name": "Activation", "config": {"name": "activation_84", "trainable": true, "dtype": "float32", "activation": "relu"}, "inbound_nodes": [[["dense_2_22_bn", 0, 0, {}]]]}, {"name": "dense_2_22_bottleneck_conv2D", "class_name": "Conv2D", "config": {"name": "dense_2_22_bottleneck_conv2D", "trainable": true, "dtype": "float32", "filters": 192, "kernel_size": [1, 1], "strides": [1, 1], "padding": "same", "data_format": "channels_last", "dilation_rate": [1, 1], "activation": "linear", "use_bias": false, "kernel_initializer": {"class_name": "VarianceScaling", "config": {"scale": 2.0, "mode": "fan_in", "distribution": "normal", "seed": null}}, "bias_initializer": {"class_name": "Zeros", "config": {}}, "kernel_regularizer": {"class_name": "L1L2", "config": {"l1": 0.0, "l2": 9.999999747378752e-05}}, "bias_regularizer": null, "activity_regularizer": null, "kernel_constraint": null, "bias_constraint": null}, "inbound_nodes": [[["activation_84", 0, 0, {}]]]}, {"name": "dense_2_22_bottleneck_bn", "class_name": "BatchNormalization", "config": {"name": "dense_2_22_bottleneck_bn", "trainable": true, "dtype": "float32", "axis": -1, "momentum": 0.99, "epsilon": 1.1e-05, "center": true, "scale": true, "beta_initializer": {"class_name": "Zeros", "config": {}}, "gamma_initializer": {"class_name": "Ones", "config": {}}, "moving_mean_initializer": {"class_name": "Zeros", "config": {}}, "moving_variance_initializer": {"class_name": "Ones", "config": {}}, "beta_regularizer": null, "gamma_regularizer": null, "beta_constraint": null, "gamma_constraint": null}, "inbound_nodes": [[["dense_2_22_bottleneck_conv2D", 0, 0, {}]]]}, {"name": "activation_85", "class_name": "Activation", "config": {"name": "activation_85", "trainable": true, "dtype": "float32", "activation": "relu"}, "inbound_nodes": [[["dense_2_22_bottleneck_bn", 0, 0, {}]]]}, {"name": "dense_2_22_conv2D", "class_name": "Conv2D", "config": {"name": "dense_2_22_conv2D", "trainable": true, "dtype": "float32", "filters": 48, "kernel_size": [3, 3], "strides": [1, 1], "padding": "same", "data_format": "channels_last", "dilation_rate": [1, 1], "activation": "linear", "use_bias": false, "kernel_initializer": {"class_name": "VarianceScaling", "config": {"scale": 2.0, "mode": "fan_in", "distribution": "normal", "seed": null}}, "bias_initializer": {"class_name": "Zeros", "config": {}}, "kernel_regularizer": null, "bias_regularizer": null, "activity_regularizer": null, "kernel_constraint": null, "bias_constraint": null}, "inbound_nodes": [[["activation_85", 0, 0, {}]]]}, {"name": "concatenate_41", "class_name": "Concatenate", "config": {"name": "concatenate_41", "trainable": true, "dtype": "float32", "axis": -1}, "inbound_nodes": [[["concatenate_40", 0, 0, {}], ["dense_2_22_conv2D", 0, 0, {}]]]}, {"name": "dense_2_23_bn", "class_name": "BatchNormalization", "config": {"name": "dense_2_23_bn", "trainable": true, "dtype": "float32", "axis": -1, "momentum": 0.99, "epsilon": 1.1e-05, "center": true, "scale": true, "beta_initializer": {"class_name": "Zeros", "config": {}}, "gamma_initializer": {"class_name": "Ones", "config": {}}, "moving_mean_initializer": {"class_name": "Zeros", "config": {}}, "moving_variance_initializer": {"class_name": "Ones", "config": {}}, "beta_regularizer": null, "gamma_regularizer": null, "beta_constraint": null, "gamma_constraint": null}, "inbound_nodes": [[["concatenate_41", 0, 0, {}]]]}, {"name": "activation_86", "class_name": "Activation", "config": {"name": "activation_86", "trainable": true, "dtype": "float32", "activation": "relu"}, "inbound_nodes": [[["dense_2_23_bn", 0, 0, {}]]]}, {"name": "dense_2_23_bottleneck_conv2D", "class_name": "Conv2D", "config": {"name": "dense_2_23_bottleneck_conv2D", "trainable": true, "dtype": "float32", "filters": 192, "kernel_size": [1, 1], "strides": [1, 1], "padding": "same", "data_format": "channels_last", "dilation_rate": [1, 1], "activation": "linear", "use_bias": false, "kernel_initializer": {"class_name": "VarianceScaling", "config": {"scale": 2.0, "mode": "fan_in", "distribution": "normal", "seed": null}}, "bias_initializer": {"class_name": "Zeros", "config": {}}, "kernel_regularizer": {"class_name": "L1L2", "config": {"l1": 0.0, "l2": 9.999999747378752e-05}}, "bias_regularizer": null, "activity_regularizer": null, "kernel_constraint": null, "bias_constraint": null}, "inbound_nodes": [[["activation_86", 0, 0, {}]]]}, {"name": "dense_2_23_bottleneck_bn", "class_name": "BatchNormalization", "config": {"name": "dense_2_23_bottleneck_bn", "trainable": true, "dtype": "float32", "axis": -1, "momentum": 0.99, "epsilon": 1.1e-05, "center": true, "scale": true, "beta_initializer": {"class_name": "Zeros", "config": {}}, "gamma_initializer": {"class_name": "Ones", "config": {}}, "moving_mean_initializer": {"class_name": "Zeros", "config": {}}, "moving_variance_initializer": {"class_name": "Ones", "config": {}}, "beta_regularizer": null, "gamma_regularizer": null, "beta_constraint": null, "gamma_constraint": null}, "inbound_nodes": [[["dense_2_23_bottleneck_conv2D", 0, 0, {}]]]}, {"name": "activation_87", "class_name": "Activation", "config": {"name": "activation_87", "trainable": true, "dtype": "float32", "activation": "relu"}, "inbound_nodes": [[["dense_2_23_bottleneck_bn", 0, 0, {}]]]}, {"name": "dense_2_23_conv2D", "class_name": "Conv2D", "config": {"name": "dense_2_23_conv2D", "trainable": true, "dtype": "float32", "filters": 48, "kernel_size": [3, 3], "strides": [1, 1], "padding": "same", "data_format": "channels_last", "dilation_rate": [1, 1], "activation": "linear", "use_bias": false, "kernel_initializer": {"class_name": "VarianceScaling", "config": {"scale": 2.0, "mode": "fan_in", "distribution": "normal", "seed": null}}, "bias_initializer": {"class_name": "Zeros", "config": {}}, "kernel_regularizer": null, "bias_regularizer": null, "activity_regularizer": null, "kernel_constraint": null, "bias_constraint": null}, "inbound_nodes": [[["activation_87", 0, 0, {}]]]}, {"name": "concatenate_42", "class_name": "Concatenate", "config": {"name": "concatenate_42", "trainable": true, "dtype": "float32", "axis": -1}, "inbound_nodes": [[["concatenate_41", 0, 0, {}], ["dense_2_23_conv2D", 0, 0, {}]]]}, {"name": "dense_2_24_bn", "class_name": "BatchNormalization", "config": {"name": "dense_2_24_bn", "trainable": true, "dtype": "float32", "axis": -1, "momentum": 0.99, "epsilon": 1.1e-05, "center": true, "scale": true, "beta_initializer": {"class_name": "Zeros", "config": {}}, "gamma_initializer": {"class_name": "Ones", "config": {}}, "moving_mean_initializer": {"class_name": "Zeros", "config": {}}, "moving_variance_initializer": {"class_name": "Ones", "config": {}}, "beta_regularizer": null, "gamma_regularizer": null, "beta_constraint": null, "gamma_constraint": null}, "inbound_nodes": [[["concatenate_42", 0, 0, {}]]]}, {"name": "activ…
e": "Zeros", "config": {}}, "kernel_regularizer": null, "bias_regularizer": null, "activity_regularizer": null, "kernel_constraint": null, "bias_constraint": null}, "inbound_nodes": [[["activation_132", 0, 0, {}]]]}, {"name": "concatenate_64", "class_name": "Concatenate", "config": {"name": "concatenate_64", "trainable": true, "dtype": "float32", "axis": -1}, "inbound_nodes": [[["concatenate_63", 0, 0, {}], ["dense_3_9_conv2D", 0, 0, {}]]]}, {"name": "dense_3_10_bn", "class_name": "BatchNormalization", "config": {"name": "dense_3_10_bn", "trainable": true, "dtype": "float32", "axis": -1, "momentum": 0.99, "epsilon": 1.1e-05, "center": true, "scale": true, "beta_initializer": {"class_name": "Zeros", "config": {}}, "gamma_initializer": {"class_name": "Ones", "config": {}}, "moving_mean_initializer": {"class_name": "Zeros", "config": {}}, "moving_variance_initializer": {"class_name": "Ones", "config": {}}, "beta_regularizer": null, "gamma_regularizer": null, "beta_constraint": null, "gamma_constraint": null}, "inbound_nodes": [[["concatenate_64", 0, 0, {}]]]}, {"name": "activation_133", "class_name": "Activation", "config": {"name": "activation_133", "trainable": true, "dtype": "float32", "activation": "relu"}, "inbound_nodes": [[["dense_3_10_bn", 0, 0, {}]]]}, {"name": "dense_3_10_bottleneck_conv2D", "class_name": "Conv2D", "config": {"name": "dense_3_10_bottleneck_conv2D", "trainable": true, "dtype": "float32", "filters": 192, "kernel_size": [1, 1], "strides": [1, 1], "padding": "same", "data_format": "channels_last", "dilation_rate": [1, 1], "activation": "linear", "use_bias": false, "kernel_initializer": {"class_name": "VarianceScaling", "config": {"scale": 2.0, "mode": "fan_in", "distribution": "normal", "seed": null}}, "bias_initializer": {"class_name": "Zeros", "config": {}}, "kernel_regularizer": {"class_name": "L1L2", "config": {"l1": 0.0, "l2": 9.999999747378752e-05}}, "bias_regularizer": null, "activity_regularizer": null, "kernel_constraint": null, "bias_constraint": null}, "inbound_nodes": [[["activation_133", 0, 0, {}]]]}, {"name": "dense_3_10_bottleneck_bn", "class_name": "BatchNormalization", "config": {"name": "dense_3_10_bottleneck_bn", "trainable": true, "dtype": "float32", "axis": -1, "momentum": 0.99, "epsilon": 1.1e-05, "center": true, "scale": true, "beta_initializer": {"class_name": "Zeros", "config": {}}, "gamma_initializer": {"class_name": "Ones", "config": {}}, "moving_mean_initializer": {"class_name": "Zeros", "config": {}}, "moving_variance_initializer": {"class_name": "Ones", "config": {}}, "beta_regularizer": null, "gamma_regularizer": null, "beta_constraint": null, "gamma_constraint": null}, "inbound_nodes": [[["dense_3_10_bottleneck_conv2D", 0, 0, {}]]]}, {"name": "activation_134", "class_name": "Activation", "config": {"name": "activation_134", "trainable": true, "dtype": "float32", "activation": "relu"}, "inbound_nodes": [[["dense_3_10_bottleneck_bn", 0, 0, {}]]]}, {"name": "dense_3_10_conv2D", "class_name": "Conv2D", "config": {"name": "dense_3_10_conv2D", "trainable": true, "dtype": "float32", "filters": 48, "kernel_size": [3, 3], "strides": [1, 1], "padding": "same", "data_format": "channels_last", "dilation_rate": [1, 1], "activation": "linear", "use_bias": false, "kernel_initializer": {"class_name": "VarianceScaling", "config": {"scale": 2.0, "mode": "fan_in", "distribution": "normal", "seed": null}}, "bias_initializer": {"class_name": "Zeros", "config": {}}, "kernel_regularizer": null, "bias_regularizer": null, "activity_regularizer": null, "kernel_constraint": null, "bias_constraint": null}, "inbound_nodes": [[["activation_134", 0, 0, {}]]]}, {"name": "concatenate_65", "class_name": "Concatenate", "config": {"name": "concatenate_65", "trainable": true, "dtype": "float32", "axis": -1}, "inbound_nodes": [[["concatenate_64", 0, 0, {}], ["dense_3_10_conv2D", 0, 0, {}]]]}, {"name": "dense_3_11_bn", "class_name": "BatchNormalization", "config": {"name": "dense_3_11_bn", "trainable": true, "dtype": "float32", "axis": -1, "momentum": 0.99, "epsilon": 1.1e-05, "center": true, "scale": true, "beta_initializer": {"class_name": "Zeros", "config": {}}, "gamma_initializer": {"class_name": "Ones", "config": {}}, "moving_mean_initializer": {"class_name": "Zeros", "config": {}}, "moving_variance_initializer": {"class_name": "Ones", "config": {}}, "beta_regularizer": null, "gamma_regularizer": null, "beta_constraint": null, "gamma_constraint": null}, "inbound_nodes": [[["concatenate_65", 0, 0, {}]]]}, {"name": "activation_135", "class_name": "Activation", "config": {"name": "activation_135", "trainable": true, "dtype": "float32", "activation": "relu"}, "inbound_nodes": [[["dense_3_11_bn", 0, 0, {}]]]}, {"name": "dense_3_11_bottleneck_conv2D", "class_name": "Conv2D", "config": {"name": "dense_3_11_bottleneck_conv2D", "trainable": true, "dtype": "float32", "filters": 192, "kernel_size": [1, 1], "strides": [1, 1], "padding": "same", "data_format": "channels_last", "dilation_rate": [1, 1], "activation": "linear", "use_bias": false, "kernel_initializer": {"class_name": "VarianceScaling", "config": {"scale": 2.0, "mode": "fan_in", "distribution": "normal", "seed": null}}, "bias_initializer": {"class_name": "Zeros", "config": {}}, "kernel_regularizer": {"class_name": "L1L2", "config": {"l1": 0.0, "l2": 9.999999747378752e-05}}, "bias_regularizer": null, "activity_regularizer": null, "kernel_constraint": null, "bias_constraint": null}, "inbound_nodes": [[["activation_135", 0, 0, {}]]]}, {"name": "dense_3_11_bottleneck_bn", "class_name": "BatchNormalization", "config": {"name": "dense_3_11_bottleneck_bn", "trainable": true, "dtype": "float32", "axis": -1, "momentum": 0.99, "epsilon": 1.1e-05, "center": true, "scale": true, "beta_initializer": {"class_name": "Zeros", "config": {}}, "gamma_initializer": {"class_name": "Ones", "config": {}}, "moving_mean_initializer": {"class_name": "Zeros", "config": {}}, "moving_variance_initializer": {"class_name": "Ones", "config": {}}, "beta_regularizer": null, "gamma_regularizer": null, "beta_constraint": null, "gamma_constraint": null}, "inbound_nodes": [[["dense_3_11_bottleneck_conv2D", 0, 0, {}]]]}, {"name": "activation_136", "class_name": "Activation", "config": {"name": "activation_136", "trainable": true, "dtype": "float32", "activation": "relu"}, "inbound_nodes": [[["dense_3_11_bottleneck_bn", 0, 0, {}]]]}, {"name": "dense_3_11_conv2D", "class_name": "Conv2D", "config": {"name": "dense_3_11_conv2D", "trainable": true, "dtype": "float32", "filters": 48, "kernel_size": [3, 3], "strides": [1, 1], "padding": "same", "data_format": "channels_last", "dilation_rate": [1, 1], "activation": "linear", "use_bias": false, "kernel_initializer": {"class_name": "VarianceScaling", "config": {"scale": 2.0, "mode": "fan_in", "distribution": "normal", "seed": null}}, "bias_initializer": {"class_name": "Zeros", "config": {}}, "kernel_regularizer": null, "bias_regularizer": null, "activity_regularizer": null, "kernel_constraint": null, "bias_constraint": null}, "inbound_nodes": [[["activation_136", 0, 0, {}]]]}, {"name": "concatenate_66", "class_name": "Concatenate", "config": {"name": "concatenate_66", "trainable": true, "dtype": "float32", "axis": -1}, "inbound_nodes": [[["concatenate_65", 0, 0, {}], ["dense_3_11_conv2D", 0, 0, {}]]]}, {"name": "dense_3_12_bn", "class_name": "BatchNormalization", "config": {"name": "dense_3_12_bn", "trainable": true, "dtype": "float32", "axis": -1, "momentum": 0.99, "epsilon": 1.1e-05, "center": true, "scale": true, "beta_initializer": {"class_name": "Zeros", "config": {}}, "gamma_initializer": {"class_name": "Ones", "config": {}}, "moving_mean_initializer": {"class_name": "Zeros", "config": {}}, "moving_variance_initializer": {"class_name": "Ones", "config": {}}, "beta_regularizer": null, "gamma_regularizer": null, "beta_constraint": null, "gamma_constraint": null}, "inbound_nodes": [[["concatenate_66", 0, 0, {}]]]}, {"name": "activation_137", "class_name": "Activation", "config": {"name": "activation_137", "trainable": true, "dtype": "float32", "activation": "relu"}, "inbound_nodes": [[["dense_3_12_bn", 0, 0, {}]]]}, {"name": "dense_3_12_bottleneck_conv2D", "class_name": "Conv2D", "config": {"name": "dense_3_12_bottleneck_conv2D", "trainable": true, "dtype": "float32", "filters": 192, "kernel_size": [1, 1], "strides": [1, 1], "padding": "same", "data_format": "channels_last", "dilation_rate": [1, 1], "activation": "linear", "use_bias": false, "kernel_initializer": {"class_name": "VarianceScaling", "config": {"scale": 2.0, "mode": "fan_in", "distribution": "normal", "seed": null}}, "bias_initializer": {"class_name": "Zeros", "config": {}}, "kernel_regularizer": {"class_name": "L1L2", "config": {"l1": 0.0, "l2": 9.999999747378752e-05}}, "bias_regularizer": null, "activity_regularizer": null, "kernel_constraint": null, "bias_constraint": null}, "inbound_nodes": [[["activation_137", 0, 0, {}]]]}, {"name": "dense_3_12_bottleneck_bn", "class_name": "BatchNormalization", "config": {"name": "dense_3_12_bottleneck_bn", "trainable": true, "dtype": "float32", "axis": -1, "momentum": 0.99, "epsilon": 1.1e-05, "center": true, "scale": true, "beta_initializer": {"class_name": "Zeros", "config": {}}, "gamma_initializer": {"class_name": "Ones", "config": {}}, "moving_mean_initializer": {"class_name": "Zeros", "config": {}}, "moving_variance_initializer": {"class_name": "Ones", "config": {}}, "beta_regularizer": null, "gamma_regularizer": null, "beta_constraint": null, "gamma_constraint": null}, "inbound_nodes": [[["dense_3_12_bottleneck_conv2D", 0, 0, {}]]]}, {"name": "activation_138", "class_name": "Activation", "config": {"name": "activation_138", "trainable": true, "dtype": "float32", "activation": "relu"}, "inbound_nodes": [[["dense_3_12_bottleneck_bn", 0, 0, {}]]]}, {"name": "dense_3_12_conv2D", "class_name": "Conv2D", "config": {"name": "dense_3_12_conv2D", "trainable": true, "dtype": "float32", "filters": 48, "kernel_size": [3, 3], "strides": [1, 1], "padding": "same", "data_format": "channels_last", "dilation_rate": [1, 1], "activation": "linear", "use_bias": false, "kernel_initializer": {"class_name": "VarianceScaling", "config": {"scale": 2.0, "mode": "fan_in", "distribution": "normal", "seed": null}}, "bias_initializer": {"class_name": "Zeros", "config": {}}, "kernel_regularizer": null, "bias_regularizer": null, "activity_regularizer": null, "kernel_constraint": null, "bias_constraint": null}, "inbound_nodes": [[["activation_138", 0, 0, {}]]]}, {"name": "concatenate_67", "class_name": "Concatenate", "config": {"name": "concatenate_67", "trainable": true, "dtype": "float32", "axis": -1}, "inbound_nodes": [[["concatenate_66", 0, 0, {}], ["dense_3_12_conv2D", 0, 0, {}]]]}, {"name": "dense_3_13_bn", "class_name": "BatchNormalization", "config": {"name": "dense_3_13_bn", "trainable": true, "dtype": "float32", "axis": -1, "momentum": 0.99, "epsilon": 1.1e-05, "center": true, "scale": true, "beta_initializer": {"class_name": "Zeros", "config": {}}, "gamma_initializer": {"class_name": "Ones", "config": {}}, "moving_mean_initializer": {"class_name": "Zeros", "config": {}}, "moving_variance_initializer": {"class_name": "Ones", "config": {}}, "beta_regularizer": null, "gamma_regularizer": null, "beta_constraint": null, "gamma_constraint": null}, "inbound_nodes": [[["concatenate_67", 0, 0, {}]]]}, {"name": "activation_139", "class_name": "Activation", "config": {"name": "activation_139", "trainable": true, "dtype": "float32", "activation": "relu"}, "inbound_nodes": [[["dense_3_13_bn", 0, 0, {}]]]}, {"name": "dense_3_13_bottleneck_conv2D", "class_name": "Conv2D", "config": {"name": "dense_3_13_bottleneck_conv2D", "trainable": true, "dtype": "float32", "filters": 192, "kernel_size": [1, 1], "strides": [1, 1], "padding": "same", "data_format": "channels_last", "dilation_rate": [1, 1], "activation": "linear", "use_bias": false, "kernel_initializer": {"class_name": "VarianceScaling", "config": {"scale": 2.0, "mode": "fan_in", "distribution": "normal", "seed": null}}, "bias_initializer": {"class_name": "Zeros", "config": {}}, "kernel_regularizer": {"class_name": "L1L2", "config": {"l1": 0.0, "l2": 9.999999747378752e-05}}, "bias_regularizer": null, "activity_regularizer": null, "kernel_constraint": null, "bias_constraint": null}, "inbound_nodes": [[["activation_139", 0, 0, {}]]]}, {"name": "dense_3_13_bottleneck_bn", "class_name": "BatchNormalization", "config": {"name": "dense_3_13_bottleneck_bn", "trainable": true, "dtype": "float32", "axis": -1, "momentum": 0.99, "epsilon": 1.1e-05, "center": true, "scale": true, "beta_initializer": {"class_name": "Zeros", "config": {}}, "gamma_initializer": {"class_name": "Ones", "config": {}}, "moving_mean_initializer": {"class_name": "Zeros", "config": {}}, "moving_variance_initializer": {"class_name": "Ones", "config": {}}, "beta_regularizer": null, "gamma_regularizer": null, "beta_constraint": null, "gamma_constraint": null}, "inbound_nodes": [[["dense_3_13_bottleneck_conv2D", 0, 0, {}]]]}, {"name": "activation_140", "class_name": "Activation", "config": {"name": "activation_140", "trainable": true, "dtype": "float32", "activation": "relu"}, "inbound_nodes": [[["dense_3_13_bottleneck_bn", 0, 0, {}]]]}, {"name": "dense_3_13_conv2D", "class_name": "Conv2D", "config": {"name": "dense_3_13_conv2D", "trainable": true, "dtype": "float32", "filters": 48, "kernel_size": [3, 3], "strides": [1, 1], "padding": "same", "data_format": "channels_last", "dilation_rate": [1, 1], "activation": "linear", "use_bias": false, "kernel_initializer": {"class_name": "VarianceScaling", "config": {"scale": 2.0, "mode": "fan_in", "distribution": "normal", "seed": null}}, "bias_initializer": {"class_name": "Zeros", "config": {}}, "kernel_regularizer": null, "bias_regularizer": null, "activity_regularizer": null, "kernel_constraint": null, "bias_constraint": null}, "inbound_nodes": [[["activation_140", 0, 0, {}]]]}, {"name": "concatenate_68", "class_name": "Concatenate", "config": {"name": "concatenate_68", "trainable": true, "dtype": "float32", "axis": -1}, "inbound_nodes": [[["concatenate_67", 0, 0, {}], ["dense_3_13_conv2D", 0, 0, {}]]]}, {"name": "dense_3_14_bn", "class_name": "BatchNormalization", "config": {"name": "dense_3_14_bn", "trainable": true, "dtype": "float32", "axis": -1, "momentum": 0.99, "epsilon": 1.1e-05, "center": true, "scale": true, "beta_initializer": {"class_name": "Zeros", "config": {}}, "gamma_initializer": {"class_name": "Ones", "config": {}}, "moving_mean_initializer": {"class_name": "Zeros", "config": {}}, "moving_variance_initializer": {"class_name": "Ones", "config": {}}, "beta_regularizer": null, "gamma_regularizer": null, "beta_constraint": null, "gamma_constraint": null}, "inbound_nodes": [[["concatenate_68", 0, 0, {}]]]}, {"name": "activation_141", "class_name": "Activation", "config": {"name": "activation_141", "trainable": true, "dtype": "float32", "activation": "relu"}, "inbound_nodes": [[["dense_3_14_bn", 0, 0, {}]]]}, {"name": "dense_3_14_bottleneck_conv2D", "class_name": "Conv2D", "config": {"name": "dense_3_14_bottleneck_conv2D", "trainable": true, "dtype": "float32", "filters": 192, "kernel_size": [1, 1], "strides": [1, 1], "padding": "same", "data_format": "channels_last", "dilation_rate": [1, 1], "activation": "linear", "use_bias": false, "kernel_initializer": {"class_name": "VarianceScaling", "config": {"scale": 2.0, "mode": "fan_in", "distribution": "normal", "seed": null}}, "bias_initializer": {"class_name": "Zeros", "config": {}}, "kernel_regularizer": {"class_name": "L1L2", "config": {"l1": 0.0, "l2": 9.999999747378752e-05}}, "bias_regularizer": null, "activity_regularizer": null, "kernel_constraint": null, "bias_constraint": null}, "inbound_nodes": [[["activation_141", 0, 0, {}]]]}, {"name": "dense_3_14_bottleneck_bn", "class_name": "BatchNormalization", "config": {"name": "dense_3_14_bottleneck_bn", "trainable": true, "dtype": "float32", "axis": -1, "momentum": 0.99, "epsilon": 1.1e-05, "center": true, "scale": true, "beta_initializer": {"class_name": "Zeros", "config": {}}, "gamma_initializer": {"class_name": "Ones", "config": {}}, "moving_mean_initializer": {"class_name": "Zeros", "config": {}}, "moving_variance_initializer": {"class_name": "Ones", "config": {}}, "beta_regularizer": null, "gamma_regularizer": null, "beta_constraint": null, "gamma_constraint": null}, "inbound_nodes": [[["dense_3_14_bottleneck_conv2D", 0, 0, {}]]]}, {"name": "activation_142", "class_name": "Activation", "config": {"name": "activation_142", "trainable": true, "dtype": "float32", "activation": "relu"}, "inbound_nodes": [[["dense_3_14_bottleneck_bn", 0, 0, {}]]]}, {"name": "dense_3_14_conv2D", "class_name": "Conv2D", "config": {"name": "dense_3_14_conv2D", "trainable": true, "dtype": "float32", "filters": 48, "kernel_size": [3, 3], "strides": [1, 1], "padding": "same", "data_format": "channels_last", "dilation_rate": [1, 1], "activation": "linear", "use_bias": false, "kernel_initializer": {"class_name": "VarianceScaling", "config": {"scale": 2.0, "mode": "fan_in", "distribution": "normal", "seed": null}}, "bias_initializer": {"class_name": "Zeros", "config": {}}, "kernel_regularizer": null, "bias_regularizer": null, "activity_regularizer": null, "kernel_constraint": null, "bias_constraint": null}, "inbound_nodes": [[["activation_142", 0, 0, {}]]]}, {"name": "concatenate_69", "class_name": "Concatenate", "config": {"name": "concatenate_69", "trainable": true, "dtype": "float32", "axis": -1}, "inbound_nodes": [[["concatenate_68", 0, 0, {}], ["dense_3_14_conv2D", 0, 0, {}]]]}, {"name": "dense_3_15_bn", "class_name": "BatchNormalization", "config": {"name": "dense_3_15_bn", "trainable": true, "dtype": "float32", "axis": -1, "momentum": 0.99, "epsilon": 1.1e-05, "center": true, "scale": true, "beta_initializer": {"class_name": "Zeros", "config": {}}, "gamma_initializer": {"class_name": "Ones", "config": {}}, "moving_mean_initializer": {"class_name": "Zeros", "config": {}}, "moving_variance_initializer": {"class_name": "Ones", "config": {}}, "beta_regularizer": null, "gamma_regularizer": null, "beta_constraint": null, "gamma_constraint": null}, "inbound_nodes": [[["concatenate_69", 0, 0, {}]]]}, {"name": "activation_143", "class_name": "Activation", "config": {"name": "activation_143", "trainable": true, "dtype": "float32", "activation": "relu"}, "inbound_nodes": [[["dense_3_15_bn", 0, 0, {}]]]}, {"name": "dense_3_15_bottleneck_conv2D", "class_name": "Conv2D", "config": {"name": "dense_3_15_bottleneck_conv2D", "trainable": true, "dtype": "float32", "filters": 192, "kernel_size": [1, 1], "strides": [1, 1], "padding": "same", "data_format": "channels_last", "dilation_rate": [1, 1], "activation": "linear", "use_bias": false, "kernel_initializer": {"class_name": "VarianceScaling", "config": {"scale": 2.0, "mode": "fan_in", "distribution": "normal", "seed": null}}, "bias_initializer": {"class_name": "Zeros", "config": {}}, "kernel_regularizer": {"class_name": "L1L2", "config": {"l1": 0.0, "l2": 9.999999747378752e-05}}, "bias_regularizer": null, "activity_regularizer": null, "kernel_constraint": null, "bias_constraint": null}, "inbound_nodes": [[["activation_143", 0, 0, {}]]]}, {"name": "dense_3_15_bottleneck_bn", "class_name": "BatchNormalization", "config": {"name": "dense_3_15_bottleneck_bn", "trainable": true, "dtype": "float32", "axis": -1, "momentum": 0.99, "epsilon": 1.1e-05, "center": true, "scale": true, "beta_initializer": {"class_name": "Zeros", "config": {}}, "gamma_initializer": {"class_name": "Ones", "config": {}}, "moving_mean_initializer": {"class_name": "Zeros", "config": {}}, "moving_variance_initializer": {"class_name": "Ones", "config": {}}, "beta_regularizer": null, "gamma_regularizer": null, "beta_constraint": null, "gamma_constraint": null}, "inbound_nodes": [[["dense_3_15_bottleneck_conv2D", 0, 0, {}]]]}, {"name": "activation_144", "class_name": "Activation", "config": {"name": "activation_144", "trainable": true, "dtype": "float32", "activation": "relu"}, "inbound_nodes": [[["dense_3_15_bottleneck_bn", 0, 0, {}]]]}, {"name": "dense_3_15_conv2D", "class_name": "Conv2D", "config": {"name": "dense_3_15_conv2D", "trainable": true, "dtype": "float32", "filters": 48, "kernel_size": [3, 3], "strides": [1, 1], "padding": "same", "data_format": "channels_last", "dilation_rate": [1, 1], "activation": "linear", "use_bias": false, "kernel_initializer": {"class_name": "VarianceScaling", "config": {"scale": 2.0, "mode": "fan_in", "distribution": "normal", "seed": null}}, "bias_initializer": {"class_name": "Zeros", "config": {}}, "kernel_regularizer": null, "bias_regularizer": null, "activity_regularizer": null, "kernel_constraint": null, "bias_constraint": null}, "inbound_nodes": [[["activation_144", 0, 0, {}]]]}, {"name": "concatenate_70", "class_name": "Concatenate", "config": {"name": "concatenate_70", "trainable": true, "dtype": "float32", "axis": -1}, "inbound_nodes": [[["concatenate_69", 0, 0, {}], ["dense_3_15_conv2D", 0, 0, {}]]]}, {"name": "dense_3_16_bn", "class_name": "BatchNormalization", "config": {"name": "dense_3_16_bn", "trainable": true, "dtype": "float32", "axis": -1, "momentum": 0.99, "epsilon": 1.1e-05, "center": true, "scale": true, "beta_initializer": {"class_name": "Zeros", "config": {}}, "gamma_initializer": {"class_name": "Ones", "config": {}}, "moving_mean_initializer": {"class_name": "Zeros", "config": {}}, "moving_variance_initializer": {"class_name": "Ones", "config": {}}, "beta_regularizer": null, "gamma_regularizer": null, "beta_constraint": null, "gamma_constraint": null}, "inbound_nodes": [[["concatenate_70", 0, 0, {}]]]}, {"name": "activation_145", "class_name": "Activation", "config": {"name": "activation_145", "trainable": true, "dtype": "float32", "activation": "relu"}, "inbound_nodes": [[["dense_3_16_bn", 0, 0, {}]]]}, {"name": "dense_3_16_bottleneck_conv2D", "class_name": "Conv2D", "config": {"name": "dense_3_16_bottleneck_conv2D", "trainable": true, "dtype": "float32", "filters": 192, "kernel_size": [1, 1], "strides": [1, 1], "padding": "same", "data_format": "channels_last", "dilation_rate": [1, 1], "activation": "linear", "use_bias": false, "kernel_initializer": {"class_name": "VarianceScaling", "config": {"scale": 2.0, "mode": "fan_in", "distribution": "normal", "seed": null}}, "bias_initializer": {"class_name": "Zeros", "config": {}}, "kernel_regularizer": {"class_name": "L1L2", "config": {"l1": 0.0, "l2": 9.999999747378752e-05}}, "bias_regularizer": null, "activity_regularizer": null, "kernel_constraint": null, "bias_constraint": null}, "inbound_nodes": [[["activation_145", 0, 0, {}]]]}, {"name": "dense_3_16_bottleneck_bn", "class_name": "BatchNormalization", "config": {"name": "dense_3_16_bottleneck_bn", "trainable": true, "dtype": "float32", "axis": -1, "momentum": 0.99, "epsilon": 1.1e-05, "center": true, "scale": true, "beta_initializer": {"class_name": "Zeros", "config": {}}, "gamma_initializer": {"class_name": "Ones", "config": {}}, "moving_mean_initializer": {"class_name": "Zeros", "config": {}}, "moving_variance_initializer": {"class_name": "Ones", "config": {}}, "beta_regularizer": null, "gamma_regularizer": null, "beta_constraint": null, "gamma_constraint": null}, "inbound_nodes": [[["dense_3_16_bottleneck_conv2D", 0, 0, {}]]]}, {"name": "activation_146", "class_name": "Activation", "config": {"name": "activation_146", "trainable": true, "dtype": "float32", "activation": "relu"}, "inbound_nodes": [[["dense_3_16_bottleneck_bn", 0, 0, {}]]]}, {"name": "dense_3_16_conv2D", "class_name": "Conv2D", "config": {"name": "dense_3_16_conv2D", "trainable": true, "dtype": "float32", "filters": 48, "kernel_size": [3, 3], "strides": [1, 1], "padding": "same", "data_format": "channels_last", "dilation_rate": [1, 1], "activation": "linear", "use_bias": false, "kernel_initializer": {"class_name": "VarianceScaling", "config": {"scale": 2.0, "mode": "fan_in", "distribution": "normal", "seed": null}}, "bias_initializer": {"class_name": "Zeros", "config": {}}, "kernel_regularizer": null, "bias_regularizer": null, "activity_regularizer": null, "kernel_constraint": null, "bias_constraint": null}, "inbound_nodes": [[["activation_146", 0, 0, {}]]]}, {"name": "concatenate_71", "class_name": "Concatenate", "config": {"name": "concatenate_71", "trainable": true, "dtype": "float32", "axis": -1}, "inbound_nodes": [[["concatenate_70", 0, 0, {}], ["dense_3_16_conv2D", 0, 0, {}]]]}, {"name": "dense_3_17_bn", "class_name": "BatchNormalization", "config": {"name": "dense_3_17_bn", "trainable": true, "dtype": "float32", "axis": -1, "momentum": 0.99, "epsilon": 1.1e-05, "center": true, "scale": true, "beta_initializer": {"class_name": "Zeros", "config": {}}, "gamma_initializer": {"class_name": "Ones", "config": {}}, "moving_mean_initializer": {"class_name": "Zeros", "config": {}}, "moving_variance_initializer": {"class_name": "Ones", "config": {}}, "beta_regularizer": null, "gamma_regularizer": null, "beta_constraint": null, "gamma_constraint": null}, "inbound_nodes": [[["concatenate_71", 0, 0, {}]]]}, {"name": "activation_147", "class_name": "Activation", "config": {"name": "activation_147", "trainable": true, "dtype": "float32", "activation": "relu"}, "inbound_nodes": [[["dense_3_17_bn", 0, 0, {}]]]}, {"name": "dense_3_17_bottleneck_conv2D", "class_name": "Conv2D", "config": {"name": "dense_3_17_bottleneck_conv2D", "trainable": true, "dtype": "float32", "filters": 192, "kernel_size": [1, 1], "strides": [1, 1], "padding": "same", "data_format": "channels_last", "dilation_rate": [1, 1], "activation": "linear", "use_bias": false, "kernel_initializer": {"class_name": "VarianceScaling", "config": {"scale": 2.0, "mode": "fan_in", "distribution": "normal", "seed": null}}, "bias_initializer": {"class_name": "Zeros", "config": {}}, "kernel_regularizer": {"class_name": "L1L2", "config": {"l1": 0.0, "l2": 9.999999747378752e-05}}, "bias_regularizer": null, "activity_regularizer": null, "kernel_constraint": null, "bias_constraint": null}, "inbound_nodes": [[["activation_147", 0, 0, {}]]]}, {"name": "dense_3_17_bottleneck_bn", "class_name": "BatchNormalization", "config": {"name": "dense_3_17_bottleneck_bn", "trainable": true, "dtype": "float32", "axis": -1, "momentum": 0.99, "epsilon": 1.1e-05, "center": true, "scale": true, "beta_initializer": {"class_name": "Zeros", "config": {}}, "gamma_initializer": {"class_name": "Ones", "config": {}}, "moving_mean_initializer": {"class_name": "Zeros", "config": {}}, "moving_variance_initializer": {"class_name": "Ones", "config": {}}, "beta_regularizer": null, "gamma_regularizer": null, "beta_constraint": null, "gamma_constraint": null}, "inbound_nodes": [[["dense_3_17_bottleneck_conv2D", 0, 0, {}]]]}, {"name": "activation_148", "class_name": "Activation", "config": {"name": "activation_148", "trainable": true, "dtype": "float32", "activation": "relu"}, "inbound_nodes": [[["dense_3_17_bottleneck_bn", 0, 0, {}]]]}, {"name": "dense_3_17_conv2D", "class_name": "Conv2D", "config": {"name": "dense_3_17_conv2D", "trainable": true, "dtype": "float32", "filters": 48, "kernel_size": [3, 3], "strides": [1, 1], "padding": "same", "data_format": "channels_last", "dilation_rate": [1, 1], "activation": "linear", "use_bias": false, "kernel_initializer": {"class_name": "VarianceScaling", "config": {"scale": 2.0, "mode": "fan_in", "distribution": "normal", "seed": null}}, "bias_initializer": {"class_name": "Zeros", "config": {}}, "kernel_regularizer": null, "bias_regularizer": null, "activity_regularizer": null, "kernel_constraint": null, "bias_constraint": null}, "inbound_nodes": [[["activation_148", 0, 0, {}]]]}, {"name": "concatenate_72", "class_name": "Concatenate", "config": {"name": "concatenate_72", "trainable": true, "dtype": "float32", "axis": -1}, "inbound_nodes": [[["concatenate_71", 0, 0, {}], ["dense_3_17_conv2D", 0, 0, {}]]]}, {"name": "dense_3_18_bn", "class_name": "BatchNormalization", "config": {"name": "dense_3_18_bn", "trainable": true, "dtype": "float32", "axis": -1, "momentum": 0.99, "epsilon": 1.1e-05, "center": true, "scale": true, "beta_initializer": {"class_name": "Zeros", "config": {}}, "gamma_initializer": {"class_name": "Ones", "config": {}}, "moving_mean_initializer": {"class_name": "Zeros", "config": {}}, "moving_variance_initializer": {"class_name": "Ones", "config": {}}, "beta_regularizer": null, "gamma_regularizer": null, "beta_constraint": null, "gamma_constraint": null}, "inbound_nodes": [[["concatenate_72", 0, 0, {}]]]}, {"name": "activation_149", "class_name": "Activation", "config": {"name": "activation_149", "trainable": true, "dtype": "float32", "activation": "relu"}, "inbound_nodes": [[["dense_3_18_bn", 0, 0, {}]]]}, {"name": "dense_3_18_bottleneck_conv2D", "class_name": "Conv2D", "config": {"name": "dense_3_18_bottleneck_conv2D", "trainable": true, "dtype": "float32", "filters": 192, "kernel_size": [1, 1], "strides": [1, 1], "padding": "same", "data_format": "channels_last", "dilation_rate": [1, 1], "activation": "linear", "use_bias": false, "kernel_initializer": {"class_name": "VarianceScaling", "config": {"scale": 2.0, "mode": "fan_in", "distribution": "normal", "seed": null}}, "bias_initializer": {"class_name": "Zeros", "config": {}}, "kernel_regularizer": {"class_name": "L1L2", "config": {"l1": 0.0, "l2": 9.999999747378752e-05}}, "bias_regularizer": null, "activity_regularizer": null, "kernel_constraint": null, "bias_constraint": null}, "inbound_nodes": [[["activation_149", 0, 0, {}]]]}, {"name": "dense_3_18_bottleneck_bn", "class_name": "BatchNormalization", "config": {"name": "dense_3_18_bottleneck_bn", "trainable": true, "dtype": "float32", "axis": -1, "momentum": 0.99, "epsilon": 1.1e-05, "center": true, "scale": true, "beta_initializer": {"class_name": "Zeros", "config": {}}, "gamma_initializer": {"class_name": "Ones", "config": {}}, "moving_mean_initializer": {"class_name": "Zeros", "config": {}}, "moving_variance_initializer": {"class_name": "Ones", "config": {}}, "beta_regularizer": null, "gamma_regularizer": null, "beta_constraint": null, "gamma_constraint": null}, "inbound_nodes": [[["dense_3_18_bottleneck_conv2D", 0, 0, {}]]]}, {"name": "activation_150", "class_name": "Activation", "config": {"name": "activation_150", "trainable": true, "dtype": "float32", "activation": "relu"}, "inbound_nodes": [[["dense_3_18_bottleneck_bn", 0, 0, {}]]]}, {"name": "dense_3_18_conv2D", "class_name": "Conv2D", "config": {"name": "dense_3_18_conv2D", "trainable": true, "dtype": "float32", "filters": 48, "kernel_size": [3, 3], "strides": [1, 1], "padding": "same", "data_format": "channels_last", "dilation_rate": [1, 1], "activation": "linear", "use_bias": false, "kernel_initializer": {"class_name": "VarianceScaling", "config": {"scale": 2.0, "mode": "fan_in", "distribution": "normal", "seed": null}}, "bias_initializer": {"class_name": "Zeros", "config": {}}, "kernel_regularizer": null, "bias_regularizer": null, "activity_regularizer": null, "kernel_constraint": null, "bias_constraint": null}, "inbound_nodes": [[["activation_150", 0, 0, {}]]]}, {"name": "concatenate_73", "class_name": "Concatenate", "config": {"name": "concatenate_73", "trainable": true, "dtype": "float32", "axis": -1}, "inbound_nodes": [[["concatenate_72", 0, 0, {}], ["dense_3_18_conv2D", 0, 0, {}]]]}, {"name": "dense_3_19_bn", "class_name": "BatchNormalization", "config": {"name": "dense_3_19_bn", "trainable": true, "dtype": "float32", "axis": -1, "momentum": 0.99, "epsilon": 1.1e-05, "center": true, "scale": true, "beta_initializer": {"class_name": "Zeros", "config": {}}, "gamma_initializer": {"class_name": "Ones", "config": {}}, "moving_mean_initializer": {"class_name": "Zeros", "config": {}}, "moving_variance_initializer": {"class_name": "Ones", "config": {}}, "beta_regularizer": null, "gamma_regularizer": null, "beta_constraint": null, "gamma_constraint": null}, "inbound_nodes": [[["concatenate_73", 0, 0, {}]]]}, {"name": "activation_151", "class_name": "Activation", "config": {"name": "activation_151", "trainable": true, "dtype": "float32", "activation": "relu"}, "inbound_nodes": [[["dense_3_19_bn", 0, 0, {}]]]}, {"name": "dense_3_19_bottleneck_conv2D", "class_name": "Conv2D", "config": {"name": "dense_3_19_bottleneck_conv2D", "trainable": true, "dtype": "float32", "filters": 192, "kernel_size": [1, 1], "strides": [1, 1], "padding": "same", "data_format": "channels_last", "dilation_rate": [1, 1], "activation": "linear", "use_bias": false, "kernel_initializer": {"class_name": "VarianceScaling", "config": {"scale": 2.0, "mode": "fan_in", "distribution": "normal", "seed": null}}, "bias_initializer": {"class_name": "Zeros", "config": {}}, "kernel_regularizer": {"class_name": "L1L2", "config": {"l1": 0.0, "l2": 9.999999747378752e-05}}, "bias_regularizer": null, "activity_regularizer": null, "kernel_constraint": null, "bias_constraint": null}, "inbound_nodes": [[["activation_151", 0, 0, {}]]]}, {"name": "dense_3_19_bottleneck_bn", "class_name": "BatchNormalization", "config": {"name": "dense_3_19_bottleneck_bn", "trainable": true, "dtype": "float32", "axis": -1, "momentum": 0.99, "epsilon": 1.1e-05, "center": true, "scale": true, "beta_initializer": {"class_name": "Zeros", "config": {}}, "gamma_initializer": {"class_name": "Ones", "config": {}}, "moving_mean_initializer": {"class_name": "Zeros", "config": {}}, "moving_variance_initializer": {"class_name": "Ones", "config": {}}, "beta_regularizer": null, "gamma_regularizer": null, "beta_constraint": null, "gamma_constraint": null}, "inbound_nodes": [[["dense_3_19_bottleneck_conv2D", 0, 0, {}]]]}, {"name": "activation_152", "class_name": "Activation", "config": {"name": "activation_152", "trainable": true, "dtype": "float32", "activation": "relu"}, "inbound_nodes": [[["dense_3_19_bottleneck_bn", 0, 0, {}]]]}, {"name": "dense_3_19_conv2D", "class_name": "Conv2D", "config": {"name": "dense_3_19_conv2D", "trainable": true, "dtype": "float32", "filters": 48, "kernel_size": [3, 3], "strides": [1, 1], "padding": "same", "data_format": "channels_last", "dilation_rate": [1, 1], "activation": "linear", "use_bias": false, "kernel_initializer": {"class_name": "VarianceScaling", "config": {"scale": 2.0, "mode": "fan_in", "distribution": "normal", "seed": null}}, "bias_initializer": {"class_name": "Zeros", "config": {}}, "kernel_regularizer": null, "bias_regularizer": null, "activity_regularizer": null, "kernel_constraint": null, "bias_constraint": null}, "inbound_nodes": [[["activation_152", 0, 0, {}]]]}, {"name": "concatenate_74", "class_name": "Concatenate", "config": {"name": "concatenate_74", "trainable": true, "dtype": "float32", "axis": -1}, "inbound_nodes": [[["concatenate_73", 0, 0, {}], ["dense_3_19_conv2D", 0, 0, {}]]]}, {"name": "dense_3_20_bn", "class_name": "BatchNormalization", "config": {"name": "dense_3_20_bn", "trainable": true, "dtype": "float32", "axis": -1, "momentum": 0.99, "epsilon": 1.1e-05, "center": true, "scale": true, "beta_initializer": {"class_name": "Zeros", "config": {}}, "gamma_initializer": {"class_name": "Ones", "config": {}}, "moving_mean_initializer": {"class_name": "Zeros", "config": {}}, "moving_variance_initializer": {"class_name": "Ones", "config": {}}, "beta_regularizer": null, "gamma_regularizer": null, "beta_constraint": null, "gamma_constraint": null}, "inbound_nodes": [[["concatenate_74", 0, 0, {}]]]}, {"name": "activation_153", "class_name": "Activation", "config": {"name": "activation_153", "trainable": true, "dtype": "float32", "activation": "relu"}, "inbound_nodes": [[["dense_3_20_bn", 0, 0, {}]]]}, {"name": "dense_3_20_bottleneck_conv2D", "class_name": "Conv2D", "config": {"name": "dense_3_20_bottleneck_conv2D", "trainable": true, "dtype": "float32", "filters": 192, "kernel_size": [1, 1], "strides": [1, 1], "padding": "same", "data_format": "channels_last", "dilation_rate": [1, 1], "activation": "linear", "use_bias": false, "kernel_initializer": {"class_name": "VarianceScaling", "config": {"scale": 2.0, "mode": "fan_in", "distribution": "normal", "seed": null}}, "bias_initializer": {"class_name": "Zeros", "config": {}}, "kernel_regularizer": {"class_name": "L1L2", "config": {"l1": 0.0, "l2": 9.999999747378752e-05}}, "bias_regularizer": null, "activity_regularizer": null, "kernel_constraint": null, "bias_constraint": null}, "inbound_nodes": [[["activation_153", 0, 0, {}]]]}, {"name": "dense_3_20_bottleneck_bn", "class_name": "BatchNormalization", "config": {"name": "dense_3_20_bottleneck_bn", "trainable": true, "dtype": "float32", "axis": -1, "momentum": 0.99, "epsilon": 1.1e-05, "center": true, "scale": true, "beta_initializer": {"class_name": "Zeros", "config": {}}, "gamma_initializer": {"class_name": "Ones", "config": {}}, "moving_mean_initializer": {"class_name": "Zeros", "config": {}}, "moving_variance_initializer": {"class_name": "Ones", "config": {}}, "beta_regularizer": null, "gamma_regularizer": null, "beta_constraint": null, "gamma_constraint": null}, "inbound_nodes": [[["dense_3_20_bottleneck_conv2D", 0, 0, {}]]]}, {"name": "activation_154", "class_name": "Activation", "config": {"name": "activation_154", "trainable": true, "dtype": "float32", "activation": "relu"}, "inbound_nodes": [[["dense_3_20_bottleneck_bn", 0, 0, {}]]]}, {"name": "dense_3_20_conv2D", "class_name": "Conv2D", "config": {"name": "dense_3_20_conv2D", "trainable": true, "dtype": "float32", "filters": 48, "kernel_size": [3, 3], "strides": [1, 1], "padding": "same", "data_format": "channels_last", "dilation_rate": [1, 1], "activation": "linear", "use_bias": false, "kernel_initializer": {"class_name": "VarianceScaling", "config": {"scale": 2.0, "mode": "fan_in", "distribution": "normal", "seed": null}}, "bias_initializer": {"class_name": "Zeros", "config": {}}, "kernel_regularizer": null, "bias_regularizer": null, "activity_regularizer": null, "kernel_constraint": null, "bias_constraint": null}, "inbound_nodes": [[["activation_154", 0, 0, {}]]]}, {"name": "concatenate_75", "class_name": "Concatenate", "config": {"name": "concatenate_75", "trainable": true, "dtype": "float32", "axis": -1}, "inbound_nodes": [[["concatenate_74", 0, 0, {}], ["dense_3_20_conv2D", 0, 0, {}]]]}, {"name": "dense_3_21_bn", "class_name": "BatchNormalization", "config": {"name": "dense_3_21_bn", "trainable": true, "dtype": "float32", "axis": -1, "momentum": 0.99, "epsilon": 1.1e-05, "center": true, "scale": true, "beta_initializer": {"class_name": "Zeros", "config": {}}, "gamma_initializer": {"class_name": "Ones", "config": {}}, "moving_mean_initializer": {"class_name": "Zeros", "config": {}}, "moving_variance_initializer": {"class_name": "Ones", "config": {}}, "beta_regularizer": null, "gamma_regularizer": null, "beta_constraint": null, "gamma_constraint": null}, "inbound_nodes": [[["concatenate_75", 0, 0, {}]]]}, {"name": "activation_155", "class_name": "Activation", "config": {"name": "activation_155", "trainable": true, "dtype": "float32", "activation": "relu"}, "inbound_nodes": [[["dense_3_21_bn", 0, 0, {}]]]}, {"name": "dense_3_21_bottleneck_conv2D", "class_name": "Conv2D", "config": {"name": "dense_3_21_bottleneck_conv2D", "trainable": true, "dtype": "float32", "filters": 192, "kernel_size": [1, 1], "strides": [1, 1], "padding": "same", "data_format": "channels_last", "dilation_rate": [1, 1], "activation": "linear", "use_bias": false, "kernel_initializer": {"class_name": "VarianceScaling", "config": {"scale": 2.0, "mode": "fan_in", "distribution": "normal", "seed": null}}, "bias_initializer": {"class_name": "Zeros", "config": {}}, "kernel_regularizer": {"class_name": "L1L2", "config": {"l1": 0.0, "l2": 9.999999747378752e-05}}, "bias_regularizer": null, "activity_regularizer": null, "kernel_constraint": null, "bias_constraint": null}, "inbound_nodes": [[["activation_155", 0, 0, {}]]]}, {"name": "dense_3_21_bottleneck_bn", "class_name": "BatchNormalization", "config": {"name": "dense_3_21_bottleneck_bn", "trainable": true, "dtype": "float32", "axis": -1, "momentum": 0.99, "epsilon": 1.1e-05, "center": true, "scale": true, "beta_initializer": {"class_name": "Zeros", "config": {}}, "gamma_initializer": {"class_name": "Ones", "config": {}}, "moving_mean_initializer": {"class_name": "Zeros", "config": {}}, "moving_variance_initializer": {"class_name": "Ones", "config": {}}, "beta_regularizer": null, "gamma_regularizer": null, "beta_constraint": null, "gamma_constraint": null}, "inbound_nodes": [[["dense_3_21_bottleneck_conv2D", 0, 0, {}]]]}, {"name": "activation_156", "class_name": "Activation", "config": {"name": "activation_156", "trainable": true, "dtype": "float32", "activation": "relu"}, "inbound_nodes": [[["dense_3_21_bottleneck_bn", 0, 0, {}]]]}, {"name": "dense_3_21_conv2D", "class_name": "Conv2D", "config": {"name": "dense_3_21_conv2D", "trainable": true, "dtype": "float32", "filters": 48, "kernel_size": [3, 3], "strides": [1, 1], "padding": "same", "data_format": "channels_last", "dilation_rate": [1, 1], "activation": "linear", "use_bias": false, "kernel_initializer": {"class_name": "VarianceScaling", "config": {"scale": 2.0, "mode": "fan_in", "distribution": "normal", "seed": null}}, "bias_initializer": {"class_name": "Zeros", "config": {}}, "kernel_regularizer": null, "bias_regularizer": null, "activity_regularizer": null, "kernel_constraint": null, "bias_constraint": null}, "inbound_nodes": [[["activation_156", 0, 0, {}]]]}, {"name": "concatenate_76", "class_name": "Concatenate", "config": {"name": "concatenate_76", "trainable": true, "dtype": "float32", "axis": -1}, "inbound_nodes": [[["concatenate_75", 0, 0, {}], ["dense_3_21_conv2D", 0, 0, {}]]]}, {"name": "dense_3_22_bn", "class_name": "BatchNormalization", "config": {"name": "dense_3_22_bn", "trainable": true, "dtype": "float32", "axis": -1, "momentum": 0.99, "epsilon": 1.1e-05, "center": true, "scale": true, "beta_initializer": {"class_name": "Zeros", "config": {}}, "gamma_initializer": {"class_name": "Ones", "config": {}}, "moving_mean_initializer": {"class_name": "Zeros", "config": {}}, "moving_variance_initializer": {"class_name": "Ones", "config": {}}, "beta_regularizer": null, "gamma_regularizer": null, "beta_constraint": null, "gamma_constraint": null}, "inbound_nodes": [[["concatenate_76", 0, 0, {}]]]}, {"name": "activation_157", "class_name": "Activation", "config": {"name": "activation_157", "trainable": true, "dtype": "float32", "activation": "relu"}, "inbound_nodes": [[["dense_3_22_bn", 0, 0, {}]]]}, {"name": "dense_3_22_bottleneck_conv2D", "class_name": "Conv2D", "config": {"name": "dense_3_22_bottleneck_conv2D", "trainable": true, "dtype": "float32", "filters": 192, "kernel_size": [1, 1], "strides": [1, 1], "padding": "same", "data_format": "channels_last", "dilation_rate": [1, 1], "activation": "linear", "use_bias": false, "kernel_initializer": {"class_name": "VarianceScaling", "config": {"scale": 2.0, "mode": "fan_in", "distribution": "normal", "seed": null}}, "bias_initializer": {"class_name": "Zeros", "config": {}}, "kernel_regularizer": {"class_name": "L1L2", "config": {"l1": 0.0, "l2": 9.999999747378752e-05}}, "bias_regularizer": null, "activity_regularizer": null, "kernel_constraint": null, "bias_constraint": null}, "inbound_nodes": [[["activation_157", 0, 0, {}]]]}, {"name": "dense_3_22_bottleneck_bn", "class_name": "BatchNormalization", "config": {"name": "dense_3_22_bottleneck_bn", "trainable": true, "dtype": "float32", "axis": -1, "momentum": 0.99, "epsilon": 1.1e-05, "center": true, "scale": true, "beta_initializer": {"class_name": "Zeros", "config": {}}, "gamma_initializer": {"class_name": "Ones", "config": {}}, "moving_mean_initializer": {"class_name": "Zeros", "config": {}}, "moving_variance_initializer": {"class_name": "Ones", "config": {}}, "beta_regularizer": null, "gamma_regularizer": null, "beta_constraint": null, "gamma_constraint": null}, "inbound_nodes": [[["dense_3_22_bottleneck_conv2D", 0, 0, {}]]]}, {"name": "activation_158", "class_name": "Activation", "config": {"name": "activation_158", "trainable": true, "dtype": "float32", "activation": "relu"}, "inbound_nodes": [[["dense_3_22_bottleneck_bn", 0, 0, {}]]]}, {"name": "dense_3_22_conv2D", "class_name": "Conv2D", "config": {"name": "dense_3_22_conv2D", "trainable": true, "dtype": "float32", "filters": 48, "kernel_size": [3, 3], "strides": [1, 1], "padding": "same", "data_format": "channels_last", "dilation_rate": [1, 1], "activation": "linear", "use_bias": false, "kernel_initializer": {"class_name": "VarianceScaling", "config": {"scale": 2.0, "mode": "fan_in", "distribution": "normal", "seed": null}}, "bias_initializer": {"class_name": "Zeros", "config": {}}, "kernel_regularizer": null, "bias_regularizer": null, "activity_regularizer": null, "kernel_constraint": null, "bias_constraint": null}, "inbound_nodes": [[["activation_158", 0, 0, {}]]]}, {"name": "concatenate_77", "class_name": "Concatenate", "config": {"name": "concatenate_77", "trainable": true, "dtype": "float32", "axis": -1}, "inbound_nodes": [[["concatenate_76", 0, 0, {}], ["dense_3_22_conv2D", 0, 0, {}]]]}, {"name": "dense_3_23_bn", "class_name": "BatchNormalization", "config": {"name": "dense_3_23_bn", "trainable": true, "dtype": "float32", "axis": -1, "momentum": 0.99, "epsilon": 1.1e-05, "center": true, "scale": true, "beta_initializer": {"class_name": "Zeros", "config": {}}, "gamma_initializer": {"class_name": "Ones", "config": {}}, "moving_mean_initializer": {"class_name": "Zeros", "config": {}}, "moving_variance_initializer": {"class_name": "Ones", "config": {}}, "beta_regularizer": null, "gamma_regularizer": null, "beta_constraint": null, "gamma_constraint": null}, "inbound_nodes": [[["concatenate_77", 0, 0, {}]]]}, {"name": "activation_159", "class_name": "Activation", "config": {"name": "activation_159", "trainable": true, "dtype": "float32", "activation": "relu"}, "inbound_nodes": [[["dense_3_23_bn", 0, 0, {}]]]}, {"name": "dense_3_23_bottleneck_conv2D", "class_name": "Conv2D", "config": {"name": "dense_3_23_bottleneck_conv2D", "trainable": true, "dtype": "float32", "filters": 192, "kernel_size": [1, 1], "strides": [1, 1], "padding": "same", "data_format": "channels_last", "dilation_rate": [1, 1], "activation": "linear", "use_bias": false, "kernel_initializer": {"class_name": "VarianceScaling", "config": {"scale": 2.0, "mode": "fan_in", "distribution": "normal", "seed": null}}, "bias_initializer": {"class_name": "Zeros", "config": {}}, "kernel_regularizer": {"class_name": "L1L2", "config": {"l1": 0.0, "l2": 9.999999747378752e-05}}, "bias_regularizer": null, "activity_regularizer": null, "kernel_constraint": null, "bias_constraint": null}, "inbound_nodes": [[["activation_159", 0, 0, {}]]]}, {"name": "dense_3_23_bottleneck_bn", "class_name": "BatchNormalization", "config": {"name": "dense_3_23_bottleneck_bn", "trainable": true, "dtype": "float32", "axis": -1, "momentum": 0.99, "epsilon": 1.1e-05, "center": true, "scale": true, "beta_initializer": {"class_name": "Zeros", "config": {}}, "gamma_initializer": {"class_name": "Ones", "config": {}}, "moving_mean_initializer": {"class_name": "Zeros", "config": {}}, "moving_variance_initializer": {"class_name": "Ones", "config": {}}, "beta_regularizer": null, "gamma_regularizer": null, "beta_constraint": null, "gamma_constraint": null}, "inbound_nodes": [[["dense_3_23_bottleneck_conv2D", 0, 0, {}]]]}, {"name": "activation_160", "class_name": "Activation", "config": {"name": "activation_160", "trainable": true, "dtype": "float32", "activation": "relu"}, "inbound_nodes": [[["dense_3_23_bottleneck_bn", 0, 0, {}]]]}, {"name": "dense_3_23_conv2D", "class_name": "Conv2D", "config": {"name": "dense_3_23_conv2D", "trainable": true, "dtype": "float32", "filters": 48, "kernel_size": [3, 3], "strides": [1, 1], "padding": "same", "data_format": "channels_last", "dilation_rate": [1, 1], "activation": "linear", "use_bias": false, "kernel_initializer": {"class_name": "VarianceScaling", "config": {"scale": 2.0, "mode": "fan_in", "distribution": "normal", "seed": null}}, "bias_initializer": {"class_name": "Zeros", "config": {}}, "kernel_regularizer": null, "bias_regularizer": null, "activity_regularizer": null, "kernel_constraint": null, "bias_constraint": null}, "inbound_nodes": [[["activation_160", 0, 0, {}]]]}, {"name": "concatenate_78", "class_name": "Concatenate", "config": {"name": "concatenate_78", "trainable": true, "dtype": "float32", "axis": -1}, "inbound_nodes": [[["concatenate_77", 0, 0, {}], ["dense_3_23_conv2D", 0, 0, {}]]]}, {"name": "final_bn", "class_name": "BatchNormalization", "config": {"name": "final_bn", "trainable": true, "dtype": "float32", "axis": -1, "momentum": 0.99, "epsilon": 1.1e-05, "center": true, "scale": true, "beta_initializer": {"class_name": "Zeros", "config": {}}, "gamma_initializer": {"class_name": "Ones", "config": {}}, "moving_mean_initializer": {"class_name": "Zeros", "config": {}}, "moving_variance_initializer": {"class_name": "Ones", "config": {}}, "beta_regularizer": null, "gamma_regularizer": null, "beta_constraint": null, "gamma_constraint": null}, "inbound_nodes": [[["concatenate_78", 0, 0, {}]]]}, {"name": "activation_161", "class_name": "Activation", "config": {"name": "activation_161", "trainable": true, "dtype": "float32", "activation": "relu"}, "inbound_nodes": [[["final_bn", 0, 0, {}]]]}, {"name": "dense_1", "class_name": "Dense", "config": {"name": "dense_1", "trainable": true, "dtype": "float32", "units": 1000, "activation": "softmax", "use_bias": true, "kernel_initializer": {"class_name": "VarianceScaling", "config": {"scale": 1.0, "mode": "fan_avg", "distribution": "uniform", "seed": null}}, "bias_initializer": {"class_name": "Zeros", "config": {}}, "kernel_regularizer": null, "bias_regularizer": null, "activity_regularizer": null, "kernel_constraint": null, "bias_constraint": null}, "inbound_nodes": [[["activation_161", 0, 0, {}]]]}], "input_layers": [["input_1", 0, 0]], "output_layers": [["dense_1", 0, 0]]}, "keras_version": "2.3.1", "backend": "tensorflow"}